model/Artificial_Data_30000_epoch_100_attention_net_u_artificial_Q_9_K_6_F_5_REG_L2_ACT_sigmoid_WD_000001_CV.model (torch_old, 52157 bytes, 6 tensors)

key_matrix f4 [9, 6]
00000000: ea33 0f40 9ef0 e53f 305b 633f 4c49 78bf
00000010: e869 21bf de4f 34bf 33fd aabf 0907 ca3e
00000020: ae98 8b3f c5c9 4ebf 62ad ee3f 3079 11bf
00000030: 12ef b53f fc23 253d b9b1 e13f c9fb a2bf
00000040: c754 5ebe 0853 dfbe cf0d e0be 769a 4040
00000050: 3400 0d3f 1689 203f b658 61bf 5c8b 80bd
00000060: 0b5f 903f d98e 913f 2c8f d33d 978b 2d3f
00000070: c165 5f3e 5888 af3f 4c01 e0bf 377e 0d3f
00000080: 9685 7d3f 43b1 a7bf f4d2 8fbe c767 a6be
00000090: 6e32 03bf b586 a53e 5255 f03e a541 ccbf
000000a0: 3203 353f 57b6 613f 45ba 433f ab5a 33bf
000000b0: 051d 7140 6766 903f 62e2 d43e 908b 6b3e
000000c0: 3055 f23e f7a2 ebbe 41b6 a03f 80ae 7d3f
000000d0: c6a2 babe 5dd3 86be
2.2375436 1.7964056 0.88811016 -0.9698684 -0.63052225 -0.7043437 -1.335852 0.39458492
1.0905969 -0.80776626 1.8646662 -0.5682554 1.4213583 0.04031752 1.7632362 -1.2733089
-0.21712027 -0.43618035 -0.43760535 3.0094275 0.55078435 0.62709177 -0.8802599 -0.06276581
1.1279005 1.1371719 0.10330042 0.6779112 0.2181616 1.3713484 -1.7500396 0.55270714
0.9903196 -1.3100971 -0.28090632 -0.3250105 -0.51248825 0.32329336 0.46940094 -1.5957533
0.70708 0.88168854 0.764561 -0.70060223 3.7673962 1.1281251 0.41578966 0.23002458
0.47330618 -0.4602277 1.255562 0.9909439 -0.3645231 -0.26333132

value_matrix f4 [6, 5]
00000000: 4236 253f 4e38 d43d 5b57 58be c524 f23e
00000010: e361 0a40 3f2a dcbf 8d43 6b40 7545 d0bf
00000020: 7e9e 0a3e 06a9 8140 be4a bf40 ce34 8c40
00000030: 3e5e c9c0 2b21 97c0 9bc4 393f 7ebd 40be
00000040: 6c9a 6fbf dd81 953f 3eb3 e33f 2d40 12bf
00000050: c525 f33d 7e0d 8fbf c56b e73e bca6 32bf
00000060: 7f47 813e 39f0 183e e48e f13e 385e 703e
00000070: e1b6 ab3e 7a5d f8be
0.64535916 0.10362302 -0.21127073 0.47293678 2.1622245 -1.7200392 3.675998 -1.6271197
0.13537022 4.0518827 5.977874 4.381446 -6.292754 -4.722799 0.7256562 -0.18822286
-0.93595004 1.1680256 1.7789075 -0.57129174 0.11872438 -1.1175992 0.4519941 -0.69785666
0.2524986 0.14935388 0.4717933 0.23473442 0.33537963 -0.48508817

linear_layer1.weight f4 [9, 64]
00000000: 0e7f 28bb 249a e7bd 330f 8a3d c26b eb3c
00000010: e6e1 a7bd 748b 83bd f82c 4cbe f619 2a3e
00000020: aefa ea3d 5b1a 89bd 4aea e7bd 1d60 ebbd
00000030: 81b9 e9bd cf82 3a3e 070b 04bd ebe3 663e
00000040: 8605 f73d d51a 583e 241e 15be 8ec3 b9bd
00000050: 26cf 093e 94f5 ecbd eda3 5d3e 56fa a03d
00000060: 1f14 e03d ba99 bfbd 93f9 9dbd 147a 1d3e
00000070: 846f 813e 2a6d a0bd c82e 503e 501a b8bd
00000080: 2ffc 393e a189 273d d4cb 0ebe 3244 703d
00000090: ae18 9bbd ef24 0f3e 4476 d0bd 5b57 293e
000000a0: a40e c6bd 0555 043e 569d d93d bd21 ce3d
000000b0: da33 923e 6783 84bd f30b b33c 0586 193e
000000c0: ffbd 273e 5dcb 2a3e d173 ba3c 3fc2 b1bd
000000d0: 1c1e 68ba ae6d 6b3e df08 5d3e eb20 533e
000000e0: d76e 1f3d d61f 91bc 7b51 ea3c 2027 953d
000000f0: daed 32bd 75d8 e63d 8364 483e 1b8a 2e3e
00000100: 0fb6 bebc e2e6 f33d b1fc 0d3e 3e3d 503e
00000110: bbdd 6cbe 234a 5c3d c54d fd3d e37e f53d
00000120: 2596 2cbe f7fa f23d 57e9 83be a013 9b3d
00000130: 89f7 083e d5ca 62be 2e7d 5abe 61f0 16be
00000140: 6d43 10be b63f 4ebe 6421 3abe 55f5 d4bd
00000150: 78d1 323e 959f 88be 3411 fc3c 6ff4 d43d
00000160: 33ef 173b e6d1 81be 8d36 a13d 469f 273e
00000170: ba81 ef3d a17c 78be 5e89 27be 81c1 e83d
00000180: 5c1c 833d fc24 6e3c 6c75 423d 4c97 183e
00000190: 201f 303e 1c96 003d f85d 2d3e 9ad8 b1bd
000001a0: 6ce2 3f3e 20f4 aabd a3ae 8f3e 36a9 57bd
000001b0: 9b2c 59bd 773f 3cbe 8a18 88bc a092 c1bd
000001c0: f23b f73d 3bea 04be a486 f2bd eb3c 7dbb
000001d0: 5ed1 20be af5a 88bd 15fe 59be 95bd 453e
000001e0: 6bed cc3d 40f9 aabc 47e6 3f3d 6604 0dbe
000001f0: 9ce6 0bbd f21b 163e 4f33 483e ce2c febd
00000200: e21e e9bc 09e3 443e a387 30bd 7a8c a03a
00000210: 5365 213e a7c4 c7bc 7ea1 003e a6a4 5e3e
00000220: a004 153e 38f5 5a3e 578b 053e 0d2f 233e
00000230: b586 293e 6cd1 ea3d a845 ac3d 2721 e23d
00000240: 2e97 483e 918c c13d 993c af3d 8fb4 1d3e
00000250: 18d1 c33d 0d9e 1cbe 3d4d ad3d 76a7 87bc
00000260: da90 333e a35d 8dbc 3936 5b3e 9fd8 483e
00000270: c6a1 863e d785 be3d 4ae5 5d3e 1bba 57bc
00000280: 5b8a b7bd d846 5dbe 9172 8abd c93b 69bd
00000290: ecaa 57be a5f8 b8bd 1da2 8bbd 74d1 19bd
000002a0: dd9f 5abe ce74 153d dfa4 1fbe a4a4 8738
000002b0: 8924 57be 5b5c 70bd ae87 46be 0542 16bd
000002c0: 7d7d e43d 14c9 da3c 00a7 cabd fc04 12bd
000002d0: 4c48 b7bc 51da 71be 2cc8 c9bd 7b73 adbd
000002e0: b963 01bd c8c6 38be 7575 4bbd f676 90bd
000002f0: 5a8b 8bbe 3b29 84be 1783 74bd ba04 e3bd
00000300: 33d6 aa3d 73ec 303e 0598 383e 10bb 8c3e
00000310: dd1b 353e c96e 2d3e dc39 843e decd 8c3e
00000320: 779a f53d 7381 6e3e 26e2 253e a3ea 9d3e
00000330: 96e6 553e 9b2c 9f3d 3228 e03d b341 423e
00000340: 3540 993e da91 a03e e198 8b3e 60f5 133e
00000350: 5f8f 133e f81e 923e 5283 943e 4b68 2b3e
00000360: a00c 723e c95a 6d3e c8d5 093e a0f0 b63d
00000370: 7bda 803e f393 933e 70f8 273e 7b5d 9d3e
00000380: 179f fcbd d388 72be 0d96 233d c36d 11be
00000390: 06a4 2f3d fe15 b9bd c64f 0f3e 07a1 42be
000003a0: 769e 8bbd d2d0 91bd 0368 373b 0090 b0bc
000003b0: d6be 10be c3a4 953c 978e 1dbe a7ce 17bc
000003c0: 72bb 95ba bc7d 10bd 6d7b 99bd d82c aebb
000003d0: 5cfa 23bd 7e4a 2cbd 12bd d0bd 3de6 9fbd
000003e0: 527d 3ebe 8b0f d2bd 0eee d6bd 75b6 693d
000003f0: d864 3bbe d9cd e1bd b0b1 2dbe 4e85 1cbe
-0.0025710496 -0.11308697 0.0674118 0.028737906 -0.081973836 -0.06423083 -0.19939029 0.16611466
0.114735946 -0.0669448 -0.11323984 -0.114929415 -0.11412335 0.18213962 -0.03223708 0.22547881
0.120616004 0.21103986 -0.14562279 -0.09070502 0.13457927 -0.11570278 0.21644564 0.07860248
0.10941338 -0.09355493 -0.07713618 0.153786 0.25280392 -0.078333214 0.20330346 -0.08989394
0.18162607 0.040902738 -0.13944942 0.058658786 -0.07573067 0.13978933 -0.101788074 0.1653723
-0.09670761 0.12923057 0.106257126 0.10065029 0.28555185 -0.064703755 0.021856284 0.1499253
0.16381072 0.1667914 0.022760304 -0.086796276 -0.00088545843 0.22991058 0.21585415 0.20618026
0.038924064 -0.017715376 0.028603306 0.07282853 -0.043683864 0.11271755 0.19569592 0.1704487
-0.023280172 0.11909272 0.13865925 0.20335862 -0.23131458 0.05378164 0.12368349 0.11987092
-0.1685415 0.11864274 -0.25763962 0.075721025 0.13375677 -0.22147687 -0.21336815 -0.14740135
-0.14088221 -0.20141491 -0.181768 -0.10398356 0.17462718 -0.2668425 0.030769922 0.103981845
0.0023183345 -0.25355452 0.07871733 0.16369352 0.11694665 -0.24266292 -0.16360995 0.11365033
0.064018935 0.014535185 0.047475263 0.14901465 0.17199373 0.031393155 0.16930377 -0.086838916
0.18738717 -0.083473444 0.28062925 -0.052651607 -0.053021055 -0.18383585 -0.016613264 -0.094517946
0.120719805 -0.12979977 -0.11842087 -0.0038641046 -0.15704867 -0.066579215 -0.21288331 0.19310601
0.100062214 -0.020870805 0.04685047 -0.13771209 -0.034155473 0.14659098 0.19550823 -0.124108896
-0.028457109 0.19227232 -0.043098103 0.0012248897 0.15761308 -0.024385763 0.12561604 0.21742496
0.14552546 0.21382606 0.13041435 0.15935917 0.16555293 0.11465725 0.084117234 0.110414796
0.1958892 0.09450639 0.0855648 0.15400909 0.09561366 -0.15294667 0.08461998 -0.016559344
0.17535725 -0.017256564 0.21407403 0.19613884 0.26295298 0.09302872 0.21669498 -0.01316693
-0.08961936 -0.21609056 -0.06760133 -0.05694178 -0.21061295 -0.090318 -0.0681803 -0.037553266
-0.21350046 0.036488347 -0.15590237 6.467968e-05 -0.21010031 -0.058681827 -0.19387695 -0.036684055
0.111567475 0.02670721 -0.09895134 -0.035649285 -0.022373341 -0.23618437 -0.09852633 -0.08469292
-0.031589244 -0.18044579 -0.049672563 -0.0705394 -0.27254754 -0.25812706 -0.05969533 -0.11084886
0.083416365 0.17277698 0.18026741 0.27486467 0.1768641 0.16936792 0.25825393 0.27500814
0.119923525 0.23291568 0.1619955 0.30843076 0.20888743 0.0777218 0.10945167 0.18970375
0.299318 0.31361276 0.27265075 0.14449072 0.1441016 0.28539252 0.2900644 0.16739003
0.23637629 0.23179163 0.13460457 0.08932614 0.25166687 0.28823814 0.16403365 0.30735382
-0.123350315 -0.23685007 0.03993802 -0.14202027 0.042881034 -0.09037398 0.13995275 -0.1900674
-0.068173334 -0.071199074 0.002798558 -0.02155304 -0.14135298 0.018267041 -0.15386425 -0.009265578
-0.0011423661 -0.03527616 -0.07494245 -0.0053154044 -0.040033683 -0.04206323 -0.10192312 -0.07807586
-0.18602493 -0.10256871 -0.10494624 0.05705877 -0.18300188 -0.110255904 -0.16962314 -0.15285227

linear_layer1.bias f4 [9]
00000000: 3691 c73e a71e 24bd 640c 83bf 7bb8 743f
00000010: 1aa6 4d3e 2c5d 8a3f 7cb6 f5bf 6545 bbbf
00000020: 19b6 343e
0.38977975 -0.040068295 -1.0238156 0.95593995 0.20082894 1.0809684 -1.9196315 -1.4630553
0.1764759

linear_layer2.weight f4 [2016, 5]
00000000: 9292 31be b80f 98bd 7687 3b3e b498 003e
00000010: 3e44 4f3c d6f3 2dbe b69e dcbd d94a 163e
00000020: c7a8 eb3d b477 40bd 4675 e53d 5ec4 acbe
00000030: e9e1 263e d5af df3c fce7 b7be e441 4abe
00000040: 2096 7f3d 9e54 823d 19a8 dc3d 39a5 6b3e
00000050: a9af f13d 4767 adbe 283f 143e 8dba 0ebd
00000060: 3b21 c6be c1a5 58be 43eb 53bc a936 9e3d
00000070: ae97 163e edb6 cf3d d1af 1fbe 5618 d23c
00000080: 464b 513d 97c1 d73d fac6 173e 2cbf 14bc
00000090: bc4d 87be 2002 173e 8f0f c33d 0d9e 7cbe
000000a0: 6775 14bd 1300 73be 29dd 1c3e 6d4a ad3d
000000b0: 38bd 68be 8318 8fbd b80e 0bbe c544 563e
000000c0: 7022 e83d ef82 12be d3ce 45be e889 153e
000000d0: 6dbc 7c3d 1252 be3d e999 983e 0d03 133e
000000e0: b56e 4ebe 614d 123e c770 86bd 10b8 81be
000000f0: 0790 d33d c441 f4be ed70 4a3e 411d 283c
00000100: ba0e f9be 4f47 2cbd 79aa 2abe c9b4 113e
00000110: c39b cc3d 7d4a aabd c2d1 04be 5cf1 53bd
00000120: 99f3 133e 5ea5 a23d ab90 383d ad20 17be
00000130: b1e3 3abe ae85 523e 5f30 2a3e 263c c5bd
00000140: 34a8 c03d d418 c7bd f1d6 ec3d 4f5d 173b
00000150: 9e0b 00be 9a8a b9be 7771 243c 441d 583e
00000160: b554 5c3e a638 4d3e 2feb 3dbe 60f6 48bd
00000170: 2054 393e 2d98 343e 783d 453d c7b7 82be
00000180: ddbb dc3c daa2 063e a2f4 403e d54f 3c3e
00000190: 4aa1 d0bc 2a8f 76be 2873 573e e2de 953d
000001a0: 1afd 1cbe a182 3cbe 9f71 913d 8fd3 1d3d
000001b0: a45f c53d 5494 0c3e b264 8dbe 4754 6abe
000001c0: 9a33 a73e 6d88 253e 70ff 05be 3a44 5dbe
000001d0: 357b ac3d 8755 c93d 8bcc 493e ae76 783e
000001e0: 3f40 01be d529 82bd 7efe 0a3e da51 2e3e
000001f0: 47e7 a1bb a942 9cbd 3668 a1bd 264b bd3d
00000200: a324 be3d 5828 3abd f112 80be 60d6 77bd
00000210: 14bd 263e ebb9 143e 26bf b73d 0780 45be
00000220: 5174 d33d d103 9db9 d136 d63d 74c9 333e
00000230: f329 abbe bb75 45be 08e7 803e 52c6 4e3e
00000240: d78f 9e3c 8c82 4abe 9c5f 16be 4668 6f3e
00000250: 8eb3 ce3d 5bff 1dbd 1135 01be 44fa babd
00000260: a43c e03d 0289 043e 8557 a03c 502a b6bd
00000270: 2d75 17bd b139 023e 4456 203d 0bd0 f8bc
00000280: 7d29 6c3d b495 553d 111c 60bd cdfb 013d
00000290: c361 68bc 2297 85be d5f3 87be e965 9f3e
000002a0: e180 3f3e d071 4dbd e11e 35bd c9e4 38bc
000002b0: 595c 6fbc 1bc1 89bc a446 1bbd 4fe2 6cbc
000002c0: faa6 fcbc 2e46 553d 0c8e 8e3c fe3e bb3c
000002d0: 79ea eb3b 6d9e b43c 0ec5 8abd e79a 78bd
000002e0: 40e4 0bbb 37ff 56bd a7b6 62bc 2db3 073d
000002f0: ef82 4e3d 2953 14bd 4eb9 2fbc 3d04 4d3b
00000300: 48d2 1dbd 32a8 08bd ae73 83bb ea97 01bd
00000310: ad23 8abd 0130 053e 92e3 943d 686a dfbc
00000320: 8b15 25be c810 05be 5436 3f3e b3b6 063e
00000330: fe26 6dbc 33ad 8ebc 9f43 523d 3009 d8bc
00000340: 9073 13bd 508a 1b3d 4543 27bd 9e8b 93bc
00000350: 4213 963d 76e9 1e3d e9ad 8b3c 8f55 2bbd
00000360: 1a60 02bd c3d7 b53d 7faf 85b9 a22f 6dbd
00000370: b38e 69bd 1746 cebd 55b4 ab3d 4069 523c
00000380: c67f 933c 4b9c 16be fa13 0abe a3d8 443e
00000390: 1b35 7d3d 761f a4bd 51ff 4b3d 5368 4b3d
000003a0: ce57 b8bc 973a b5bc 93e6 443d e972 363e
000003b0: d80c 193e 38de 32be 511f 37be 15a4 663d
000003c0: ac2b 0f3e 5a78 0a3e cc85 6dbe 883a cebd
000003d0: 640b 973d 56b7 5ebd efb2 56bd 9503 613d
000003e0: df49 273d 237b 70bd 7481 4b3d 002e e43d
000003f0: 902e 9bbd 15c2 91bd 6b5d 223d a4d0 7f3d
-0.17341068 -0.07424873 0.18313393 0.12558252 0.012650548 -0.16987547 -0.10772459 0.1467699
0.11506801 -0.046989158 0.11204009 -0.33743566 0.16297115 0.027305523 -0.35919178 -0.19751698
0.06239903 0.06363796 0.107742496 0.23012246 0.11801083 -0.33867857 0.14477217 -0.034845877
-0.38697228 -0.2115698 -0.012934509 0.07725269 0.14706299 0.10142312 -0.15594412 0.02564637
0.051097177 0.10534971 0.14821997 -0.009078782 -0.26426494 0.14746904 0.09524452 -0.24669667
-0.036244776 -0.23730497 0.15318741 0.08461461 -0.22728431 -0.06987097 -0.13579834 0.20924671
0.113346934 -0.1430776 -0.19317178 0.14603388 0.061703134 0.092929974 0.29804924 0.14356633
-0.20159419 0.1428733 -0.06564479 -0.2533574 0.103302054 -0.47706425 0.1976964 0.010260881
-0.48644048 -0.042060193 -0.16666593 0.1422912 0.09990647 -0.08314989 -0.12970641 -0.05174385
0.14448394 0.079416975 0.04505984 -0.14758559 -0.1825092 0.20558807 0.16620015 -0.09630613
0.09407082 -0.097215325 0.11564434 0.0023096388 -0.12504432 -0.36238557 0.010036818 0.21104914
0.21516688 0.20041141 -0.18546747 -0.049063087 0.18098497 0.17636175 0.048154324 -0.25530836
0.026945049 0.1314806 0.1884332 0.18389829 -0.025467534 -0.2407805 0.21040022 0.07317902
-0.15330926 -0.18409206 0.0710175 0.038531836 0.096373826 0.13728458 -0.27615887 -0.22883712
0.32656556 0.16165324 -0.13085723 -0.21608058 0.084219374 0.09830766 0.19706933 0.24264023
-0.12622164 -0.06355635 0.13573644 0.17023411 -0.0049409005 -0.07629902 -0.07881205 0.09242849
0.09284332 -0.04544863 -0.2501445 -0.06050718 0.16283065 0.14524047 0.089720055 -0.1928712
0.1032492 -0.00029948217 0.10459674 0.17557317 -0.33430442 -0.19283192 0.25176263 0.2019284
0.019355698 -0.19776362 -0.1468491 0.23379621 0.10092841 -0.038573604 -0.126179 -0.09129766
0.10949066 0.1294289 0.019572983 -0.08894789 -0.036976982 0.1271732 0.03914477 -0.03037264
0.057656754 0.05214472 -0.054714266 0.031734277 -0.014183464 -0.26091868 -0.26553217 0.3113244
0.18701507 -0.05015737 -0.0442189 -0.011285015 -0.01460942 -0.016815713 -0.037909165 -0.014458253
-0.03084134 0.05206888 0.017401718 0.022857185 0.007199582 0.0220482 -0.067758664 -0.0606946
-0.0021345764 -0.052489486 -0.013837493 0.03312986 0.050417837 -0.03621212 -0.010725332 0.0031283044
-0.038530618 -0.03336353 -0.004011593 -0.031639017 -0.06745086 0.13006593 0.07269968 -0.027272418
-0.16121499 -0.12994683 0.18673068 0.13155632 -0.0144746285 -0.017416572 0.05133402 -0.026371568
-0.03599888 0.037973702 -0.040835638 -0.01801091 0.07327892 0.038796864 0.0170507 -0.041829642
-0.03182993 0.08879044 -0.00025498492 -0.057906754 -0.057020854 -0.10071962 0.08384005 0.012842476
0.018005263 -0.14708059 -0.13484183 0.19223265 0.061818223 -0.08013813 0.049804036 0.04966004
-0.022502806 -0.022122664 0.048071455 0.17817272 0.14946306 -0.17467582 -0.1788304 0.056308825
0.13981503 0.13522473 -0.2319557 -0.10069758 0.073752195 -0.05437406 -0.052416738 0.054935057
0.040841933 -0.058711182 0.049684003 0.11141586 -0.075772405 -0.07117096 0.03963987 0.062454835

linear_layer2.bias f4 [2016]
00000000: 24ae 853f 1797 ea3e e1d2 3b3e a593 0ebf
00000010: 5be6 82bd 4183 8a3e a02f 79bf 8280 8d3f
00000020: d113 873e 4851 cabe 477e 95bf 7d35 f2bf
00000030: 4f78 293e ecbc e5be c261 ecbe 4368 a73f
00000040: d75f 7abf 7bbe 393e 568e 2c3f d5af c0be
00000050: f564 853d ce7e 24bf e310 bf3e 58e8 e6be
00000060: 5e3a 123f 7176 fcbd b98e 233f 8e7e 8ebf
00000070: 1188 0040 bfae 543f 749d 983e 2190 053f
00000080: 3012 08bf f39b 3540 2f47 88be a973 823d
00000090: 2259 4cbf 9fe2 323e 8216 2ebe 460c 513f
000000a0: 28ef c83f 00e1 0fbf cda3 d63e 891c 923e
000000b0: 6b1e 023f a6e7 9c3f 64fb 2dbf f53d 07c0
000000c0: 36d2 f4bf 2450 013f 69f6 9abf c8a2 63bf
000000d0: db95 3a3f 1af5 1f3e 7720 60be a5b7 95bc
000000e0: ec70 22bf cee4 133f f8ff 793e ea14 113f
000000f0: ffcf 0bbe 4a42 673f 972e 01c0 f216 8cbf
00000100: 3540 9cbe 1555 bcbf 3583 08be bd4a 01bf
00000110: 5b90 d53f 06d2 083f 6542 0d3f 5d8f a2bf
00000120: f5e1 823f 85dc ddbd 7003 813d 8976 8e3e
00000130: 7d36 d83e 2317 ae3d 86ec dc3c 35d5 d63e
00000140: f90f a3bf bed4 98be abbe 2b3f a30f 56bf
00000150: 8688 9bbf d835 6fbf 2843 b4bd c8e5 803f
00000160: 3bf7 e1bf 77e2 2a3f a541 323f 2ac7 793f
00000170: 9dcf 9bbd 99c8 e03f bc3a 6fbf 1552 25c0
00000180: 8558 623f 5561 8cbe 0c2d 0140 7035 d1bc
00000190: bfa0 9f3f b0b1 a73f 7ecd 9bbf af12 6e3f
000001a0: 1bac 903f a13f 473f 2e33 2d3f 8f83 673e
000001b0: 0fb1 f7bf 33bb 20bf 577a db3f 1f00 68bf
000001c0: 18fe 223e dc1a 86bf 0900 a6bd 0ebd e03e
000001d0: e92e a93f 7346 7a3f 9df8 5b3d 09e5 303f
000001e0: a6f9 4f3f 3849 2b3e 478a c0be 6760 6fbf
000001f0: 7e0e 7ebf 4c2f 03bf 9a58 6abe f4ce 28be
00000200: bf9f 463e 24c3 7abf 3c97 6ebe c086 fcbe
00000210: d6c2 10be 96c0 92be 4bcd 8fbf cffd afbd
00000220: dcd0 48bf 3e8e 69bf 9c8e ab3e bb21 d73d
00000230: f951 87be 980c 2cbe d04b 6abe 6282 3fbf
00000240: c9fa 9fbf 20d3 ee3d b66b 1f3f 4f40 a23f
00000250: 0c5b 0cbf 286f 07bf 0ac4 afbf 9a1f 743f
00000260: c4de 63bf e0e7 143e b3e8 3fbf 339d 5a3f
00000270: a933 dabe cf57 213f 49db c83d 5999 903e
00000280: e7f7 8c3f dcaa e13e a9e4 a8bf cd7c 27bf
00000290: 4dc4 a03f ee09 f5be 5ee7 ac3f 77b1 7d3f
000002a0: 863c 93bf 0a23 07be cffe a43f 1e8a 5dbf
000002b0: fc64 28bf 8ec2 db3e 9e90 2fbe 7d2d 0abf
000002c0: 2d30 97bf 13a3 f83f f41a c5bf 42d9 223f
000002d0: 9b0a 483f 608d 633e 6bb4 e03f f1d0 babf
000002e0: 2cba d23e 2b54 203f 55d2 293e 8f48 ff3d
000002f0: f786 9ebe 2681 9ebe 4c99 dc3e 7770 b0bf
00000300: 1cd3 4c3f e0c3 d0be 13b6 41bf 4a88 f6bf
00000310: ed4c 8cbf 5a66 f9bd 211d 13be fefa 4ebf
00000320: 7238 0e3f 083a 4cbe a611 9fbf cb92 6dbd
00000330: 57d6 ac3d e847 c5bf 4582 ae3c 0cc5 cf3d
00000340: 467a a93e c2be 02be bf09 1fbf e5aa afbf
00000350: e31c 993f 88dc 9c3e 2121 3bbf bdff 0840
00000360: c80f 21c0 8467 04bf 21d8 073e 0f38 0abf
00000370: 71a9 05bf 9120 333f c3d5 363e 5dfd 153f
00000380: b3a4 b93f 3011 b13f 12de a83e 5eca d9be
00000390: 60bf 4bbf 2a9b 3c3f 42de 3540 6872 573e
000003a0: 728f 61be 097d 233f f0c9 f83d ac4d cc3e
000003b0: 9d3e a8bf cc81 e53e 5a02 9abf a445 9d3f
000003c0: 89eb 4fbf b79d 453f 49f2 f53f 9abc 423e
000003d0: b45f efbf 7d2d 43bf b0a9 71bf 6247 583f
000003e0: 33f2 033b 0c34 a63f 46f3 363f 2aea 233f
000003f0: a4ee 03c0 d787 923e 01f5 463f ba40 573f
1.0443769 0.45818397 0.18342163 -0.5569404 -0.06391593 0.27053264 -0.97338295 1.1054842
0.26382306 -0.39515138 -1.1679162 -1.8922573 0.165498 -0.44870698 -0.46168333 1.3078693
-0.9780249 0.18139069 0.6740469 -0.3763415 0.06513397 -0.6425599 0.3731757 -0.4509914
0.5712031 -0.123272784 0.6388965 -1.1132371 2.0083048 0.8307914 0.29807627 0.5217305
-0.5315275 2.8376434 -0.2661681 0.06369717 -0.79823506 0.17469262 -0.17000774 0.8165935
1.5697985 -0.562027 0.41921845 0.28537396 0.50827664 1.2258193 -0.67961717 -2.1131566
-1.9126651 0.5051291 -1.2106448 -0.8892026 0.7288491 0.15620843 -0.21887384 -0.018276045
-0.63453555 0.57771003 0.2441405 0.5667254 -0.13653563 0.90335524 -2.0184686 -1.0944502
-0.30517736 -1.4713465 -0.13331302 -0.50504667 1.6684679 0.5344547 0.55179435 -1.2700001
1.0225207 -0.108330764 0.06299484 0.2782481 0.4222907 0.08500507 0.026968252 0.4195954
-1.273925 -0.2984981 0.6708781 -0.8361761 -1.2151039 -0.93441534 -0.088018715 1.0070124
-1.7653574 0.6675181 0.69631416 0.97569525 -0.076079585 1.7561218 -0.93448997 -2.583135
0.8841632 -0.27418008 2.0183744 -0.025538176 1.2470931 1.3101101 -1.2172086 0.9299726
1.1302522 0.77831465 0.6765622 0.2260878 -1.9350909 -0.62785643 1.714671 -0.90625185
0.15917242 -1.0476947 -0.081054755 0.43894237 1.3217441 0.97763747 0.053703893 0.6909948
0.8124031 0.1672715 -0.37605497 -0.93506473 -0.99240863 -0.51244044 -0.22885361 -0.16485196
0.19396876 -0.9795401 -0.23299879 -0.49321556 -0.14136824 -0.28662556 -1.1234525 -0.08593332
-0.78443694 -0.9123267 0.3350724 0.105044805 -0.26429728 -0.16801679 -0.22880483 -0.74808323
-1.2498409 0.11661363 0.6227373 1.2675875 -0.54826427 -0.52903986 -1.3731701 0.9536072
-0.8901179 0.14541578 -0.74964446 0.85396117 -0.4261754 0.6302461 0.0980745 0.28241995
1.1013154 0.44075668 -1.3194782 -0.65424806 1.2559906 -0.47859138 1.3508108 0.99098915
-1.1502845 -0.1319696 1.2890261 -0.86538875 -0.6577909 0.4292187 -0.17145011 -0.5397566
-1.1811577 1.9424766 -1.539885 0.6361276 0.7814118 0.22221899 1.7555059 -1.4595014
0.41157663 0.6262843 0.16584142 0.12465011 -0.30962345 -0.30957907 0.43085706 -1.3784322
0.8000963 -0.4077444 -0.7566845 -1.9260342 -1.0960976 -0.12177725 -0.1436658 -0.80851734
0.5555488 -0.19944012 -1.2427261 -0.05800132 0.084393196 -1.5412569 0.021302352 0.101450056
0.331011 -0.12768081 -0.62124246 -1.3724028 1.196194 0.30637002 -0.73097426 2.140609
-2.5165882 -0.5172045 0.1326604 -0.5399179 -0.5221167 0.6997157 0.17854981 0.58589727
1.4503387 1.383337 0.32981926 -0.42537206 -0.7958889 0.7367426 2.8416905 0.21039736
-0.22027376 0.63862664 0.121478915 0.3990301 -1.3144108 0.4482559 -1.2031968 1.2286878
-0.81218773 0.7719378 1.9214565 0.19017258 -1.8701081 -0.76241285 -0.9439955 0.8448392
0.0020133376 1.2984633 0.71464956 0.6402918 -2.0614405 0.28619263 0.77717596 0.8408314
