model/Artificial_Data_600_epoch_100_attention_net_u_artificial_Q_9_K_6_F_5_REG_L0_ACT_sigmoid_WD_00005_CV.model (torch_old, 52157 bytes, 6 tensors)

key_matrix f4 [9, 6]
-0.986776 -0.7883766 -0.3468282 0.6872792 0.53442955 2.657208 0.29919133 0.80924416
0.5664975 0.5009419 1.4671334 -1.6793042 -0.41045716 -0.8603826 -0.8883027 0.6587087
2.382982 0.7016804 -2.5552225 2.1310978 -0.57048595 0.019139664 1.2652763 -1.792187
0.53624415 -2.4703937 0.3345653 -1.1004218 -0.5712091 0.006953397 -0.6543857 -0.25417233
1.051871 0.031717848 0.7064066 -0.32308146 -1.7764931 -0.13416699 0.2477483 -1.2207077
0.5214168 -1.115501 0.0881361 -0.6059147 -0.039596327 -1.7208734 1.8130994 -1.7869985
1.2572707 0.89316875 0.33987203 2.1712906 0.59854704 -1.4319918
00000000: 5a9d 7cbf 0dd3 49bf 7793 b1be 88f1 2f3f
00000010: 60d0 083f b20f 2a40 9b2f 993e a02a 4f3f
00000020: fb05 113f ba3d 003f 07cb bb3f 71f3 d6bf
00000030: 7127 d2be 0942 5cbf ce67 63bf 22a1 283f
00000040: c782 1840 54a1 333f c488 23c0 e863 0840
00000050: 5e0b 12bf c9ca 9c3c 93f4 a13f 6266 e5bf
00000060: 4c47 093f ee1a 1ec0 254c ab3e 9fda 8cbf
00000070: c23a 12bf 52d9 e33b d285 27bf e022 82be
00000080: b5a3 863f 93ea 013d 10d7 343f ef6a a5be
00000090: 2064 e3bf 1263 09be bbb1 7d3e 2640 9cbf
000000a0: 927b 053f bdc8 8ebf b380 b43d 3a1d 1bbf
000000b0: c22f 22bd 9445 dcbf a413 e83f 5ebc e4bf
000000c0: 3fee a03f b5a6 643f b503 ae3e 6df6 0a40
000000d0: 613a 193f 824b b7bf

value_matrix f4 [6, 5]
0.74236536 -0.16419387 0.8829769 1.7765237 -0.5891631 -0.20212746 -2.366153 -0.7674324
-0.15853263 -0.05144595 -0.19458622 -1.1610706 0.80783486 -1.0233997 0.858153 -1.3815688
-1.0960283 -0.6659691 -0.34210697 -0.60646325 -2.7470057 1.1250482 3.199074 -6.9988427
-2.822369 -0.065917 -2.228245 1.6217299 -0.12640554 1.4020264
00000000: a80b 3e3f 7022 28be c60a 623f 2165 e33f
00000010: 65d3 16bf 80fa 4ebe 0d6f 17c0 7376 44bf
00000020: 6156 22be fdb8 52bd 9c41 47be f69d 94bf
00000030: 44ce 4e3f c3fe 82bf eaaf 5b3f 3fd7 b0bf
00000040: a84a 8cbf f37c 2abf a528 afbe 2d41 1bbf
00000050: f1ce 2fc0 9401 903f a1bd 4c40 85f6 dfc0
00000060: b2a1 34c0 7eff 86bd 919b 0ec0 d894 cf3f
00000070: 7470 01be 9a75 b33f

linear_layer1.weight f4 [9, 64]
-0.17810223 0.18747517 -0.09014441 -0.040012926 -0.26499602 -0.04020758 -0.21836619 0.2090305
0.16149293 -0.034733977 0.26732513 0.2709383 0.16865496 0.19641507 0.2598473 0.13284734
0.17406599 0.121518195 -0.05730816 0.29658574 -0.10029303 0.036054894 0.19569935 0.23802288
0.16031778 -0.2251857 0.110176034 -0.17392755 -0.12027564 0.20325936 -0.09694341 -0.22112112
-0.21186852 -0.0643124 -0.11449311 0.28177187 0.09747071 0.02497676 0.03266007 -0.0770516
-0.043071076 0.016903518 0.083486885 0.2809249 -0.18718338 -0.09622063 -0.048938397 -0.004749505
0.008859642 -0.061396074 -0.005014715 0.03988967 -0.21185598 -0.07096467 0.22583526 0.06184241
0.048163675 -0.24794942 -0.14191161 0.08794342 0.06415976 0.047798693 -0.12547727 0.14285378
0.15651976 -0.06687723 0.21269284 0.24195379 0.020757107 -0.012231977 0.25430974 -0.03687744
0.08601813 0.067494124 0.092226 -0.16120614 -0.029152194 0.27709332 -0.034594327 0.25760412
0.0076396614 0.14655106 -0.016801434 0.20831025 -0.13873069 0.12945303 -0.09918994 -0.23098654
0.27571535 0.10360641 0.036995422 0.048623078 -0.043186683 0.2326682 0.09275343 0.023693787
-0.24843563 0.14212587 0.0057299975 0.18558992 0.279593 0.23754469 0.052173108 0.14347062
0.0030451396 -0.012206449 0.22715096 0.22802524 -0.15738237 0.13955894 0.19260664 0.073842764
-0.09837697 -0.2204818 0.11141866 0.18494058 0.24566317 0.033000447 0.18394509 -0.034605015
-0.03940132 -0.06388001 0.26016933 0.018874336 -0.1686343 -0.027701264 0.13400261 0.24329506
-0.20653716 0.013937584 -0.13203177 -0.16170359 -0.20531528 0.16274162 0.16343072 -0.10521313
0.23447528 0.021444479 -0.1023431 0.2477289 0.065261684 -0.013900575 0.06291941 -0.2093045
0.29038835 0.16189899 0.011668341 -0.07171028 -0.15405218 0.022186998 0.21814848 -0.060149163
0.05345661 -0.1595316 0.2929808 0.14549625 -0.1967318 0.1301518 -0.08813649 0.3051044
0.028984206 0.13905036 0.097774416 -0.17452928 0.0077360533 0.053295836 -0.11777231 -0.0021365795
0.22567864 0.06373654 -0.2389191 -0.22119665 -0.19400577 -0.21729378 -0.03174286 -0.053055085
0.14289203 -0.13784389 0.22058189 0.1512863 -0.036859054 -0.19141558 0.13377005 -0.24693623
0.05138231 0.27652845 -0.05119285 -0.16373609 0.21923666 -0.08207538 -0.22568887 0.011251551
0.23984438 -0.106353685 0.20970766 0.2919864 0.21337539 -0.20857699 -0.14383383 0.036599074
0.18035948 0.22481446 0.3021669 0.13643976 0.28319287 -0.054029237 -0.067166805 0.11879596
0.19242221 0.28545356 0.107053824 0.26560026 0.16176087 -0.0993832 0.18623844 -0.10729203
0.12399612 -0.20598094 0.032280397 0.115277514 0.041035026 -0.006207842 0.23915705 0.070648104
0.015668515 -0.19265458 -0.20719674 0.27196112 -0.2581531 0.0076721446 -0.26669434 0.20656605
-0.124929816 -0.08560961 0.27928728 0.23330778 0.2242613 -0.054567263 0.26302207 0.27639154
0.26221952 0.12983063 0.28199568 -0.048742745 -0.22063944 -0.10962898 0.13252881 -0.20577264
0.262425 0.17540282 -0.087357335 0.050428703 0.057675395 -0.25340083 -0.2540576 -0.022775033
00000000: 6e60 36be 7ef9 3f3e a29d b8bd 98e4 23bd
00000010: 8fad 87be b4b0 24bd 639b 5fbe 170c 563e
00000020: 675e 253e 3745 0ebd d7de 883e 6db8 8a3e
00000030: e3b3 2c3e 0821 493e b50a 853e 2209 083e
00000040: 5b3e 323e 88de f83d f6bb 6abd 16da 973e
00000050: 6f66 cdbd 4cae 133d 6965 483e 45bc 733e
00000060: 582a 243e 1597 66be f9a3 e13d 101a 32be
00000070: 1353 f6bd 3923 503e 448a c6bd 936d 62be
00000080: 10f4 58be 38b6 83bd 5d7b eabd 6744 903e
00000090: b99e c73d 109c cc3c 91c6 053d 3bcd 9dbd
000000a0: 4c6b 30bd 3f79 8a3c 2cfb aa3d 63d5 8f3e
000000b0: 00ad 3fbe 520f c5bd a173 48bd bca1 9bbb
000000c0: 0828 113c 737a 7bbd 7a52 a4bb 5a63 233d
000000d0: c6f0 58be ed55 91bd 5c41 673e 784e 7d3d
000000e0: 4647 453d 74e6 7dbe 4751 11be ae1b b43d
000000f0: 3166 833d 90c8 433d 1d7d 00be 4348 123e
00000100: b746 203e eef6 88bd 27cc 593e bcc2 773e
00000110: cf0a aa3c a168 48bc e334 823e cc0c 17bd
00000120: 462a b03d 5c3a 8a3d fce0 bc3d 3913 25be
00000130: 95d0 eebc 2ddf 8d3e c8b2 0dbd b0e4 833e
00000140: 2056 fa3b 7b11 163e 29a3 89bc 484f 553e
00000150: 6b0f 0ebe 568f 043e 1824 cbbd bc87 6cbe
00000160: 902a 8d3e 992f d43d 8388 173d fe28 473d
00000170: 85e4 30bd 9340 6e3e 83f5 bd3d 7919 c23c
00000180: e965 7ebe 7289 113e b4c2 bb3b 490b 3e3e
00000190: d026 8f3e ea3e 733e 78b3 553d f6e9 123e
000001a0: f790 473b 8ffd 47bc 439a 683e 737f 693e
000001b0: d828 21be 8ae8 0e3e ad3a 453e e03a 973d
000001c0: dd79 c9bd fbc5 61be 772f e43d 1061 3d3e
000001d0: 208f 7b3e 7a2b 073d 1a5c 3c3e fdbd 0dbd
000001e0: 4763 21bd 86d3 82bd ea34 853e 5a9e 9a3c
000001f0: 78ae 2cbe c3ed e2bc fb37 093e 5722 793e
00000200: 7a7e 53be 775a 643c 5633 07be a095 25be
00000210: 2b3e 52be bda5 263e 625a 273e fb79 d7bd
00000220: 4a1a 703e 55ac af3c 4299 d1bd a5ac 7d3e
00000230: eba7 853d 3dbf 63bc e4db 803d eb53 56be
00000240: c8ad 943e d9c8 253e 922c 3f3c d7dc 92bd
00000250: dbbf 1dbe 82c1 b53c 5162 5f3e f85e 76bd
00000260: 51f5 5a3d 405c 23be 9401 963e f8fc 143e
00000270: 1074 49be 8346 053e e780 b4bd a536 9c3e
00000280: 4970 ed3c 3863 0e3e f43d c83d ceb7 32be
00000290: b87e fd3b bc4c 5a3d 9c32 f1bd db05 0cbb
000002a0: 4d18 673e 4e88 823d 35a7 74be 6081 62be
000002b0: 73a9 46be 4382 5ebe cd04 02bd 4a50 59bd
000002c0: 4a52 123e f326 0dbe 38e0 613e ccea 1a3e
000002d0: 85f9 16bd 7202 44be 04fb 083e dadc 7cbe
000002e0: 4276 523d 2395 8d3e 98af 51bd 6faa 27be
000002f0: 937f 603e 2317 a8bd fc1a 67be 6d58 383c
00000300: c499 753e f6cf d9bd 9bbd 563e 3e7f 953e
00000310: 147f 5a3e 3595 55be 2d49 13be e9e8 153d
00000320: 28b0 383e c335 663e 9fb5 9a3e ddb6 0b3e
00000330: a8fe 903e c34d 5dbd c08e 89bd 4c4b f33d
00000340: 540a 453e f826 923e 093f db3d c2fc 873e
00000350: a4a4 253e 6b89 cbbd 4ab5 3e3e ecbb dbbd
00000360: aef1 fd3d abec 52be 7338 043d 9e16 ec3d
00000370: 5814 283d 276b cbbb 96e5 743e f4af 903d
00000380: 425b 803c 3e47 45be 622b 54be 7d3e 8b3e
00000390: a52c 84be 9d66 fb3b 298c 88be 0d86 533e
000003a0: 34db ffbd 1754 afbd befe 8e3e 3ce8 6e3e
000003b0: c1a4 653e ec81 5fbd d4aa 863e 3183 8d3e
000003c0: a341 863e 52f2 043e bd61 903e 79a6 47bd
000003d0: 4eef 61be 2985 e0bd a2b5 073e 10b6 52be
000003e0: 925c 863e cc9c 333e 67e8 b2bd 548e 4e3d
000003f0: 093d 6c3d c1bd 81be d613 82be b592 babc

linear_layer1.bias f4 [9]
-0.6097084 -1.2612549 1.6446195 0.019778118 -0.2770235 -1.0411463 -0.29473406 1.3557427
0.17312863
00000000: da15 1cbf cd70 a1bf e482 d23f b805 a23c
00000010: 06d6 8dbe 4844 85bf 62e7 96be fa88 ad3f
00000020: a248 313e

linear_layer2.weight f4 [2016, 5]
0.07568358 -0.032128114 -0.09771586 0.16313584 0.077616274 0.07378859 -0.013709384 -0.09884282
0.119777344 0.08726106 0.09177622 -0.038371768 -0.11117924 0.13397588 0.11058715 0.07144266
-0.015419829 -0.06907175 0.11844809 0.036595006 0.107146114 -0.051598404 -0.10208363 0.26876885
0.083707236 0.10639087 -0.045955412 -0.1565362 0.3285544 0.14205988 0.0914601 -0.04989696
-0.11621237 0.19924214 0.12350844 0.115449384 0.015921699 -0.09195345 0.2661752 0.072803475
0.014769355 -0.007966548 -0.00027068603 0.14192802 0.052727398 0.024251334 0.016076194 -0.056264777
0.09561127 0.0728726 0.13326475 -0.037793614 -0.15273364 0.20492023 0.061369844 0.0860476
0.0021138254 -0.117092356 0.21523558 0.07617948 0.10889041 -0.0045029763 -0.05892304 0.22300698
0.040790547 0.12562123 -0.0042166975 -0.10868714 0.34370485 0.17117755 0.13661684 -0.07364405
-0.09337358 0.32951802 0.14474642 0.07305291 -0.004272983 -0.0036608123 0.13547054 0.08914252
0.11034979 -0.06878374 -0.13807566 0.3558946 0.07839453 0.1159343 -0.03344985 -0.092572525
0.17740397 0.12762237 0.10601373 -0.06936462 -0.16685194 0.40185183 0.115085244 -0.03752659
0.00860924 -0.023992527 0.072122656 0.06586906 0.1141501 -0.07463414 -0.1533284 0.2052111
0.10590075 0.10528766 -0.013255852 -0.019774089 0.11502226 0.10134243 0.08285107 0.018578123
-0.04014423 0.12386311 0.10262309 0.01600907 -0.021082405 -0.0846001 0.11179932 0.095198914
0.0698414 -0.004527242 -0.12839456 0.24754015 0.0723228 0.11487827 -0.07728914 -0.13962099
0.27779725 0.103102736 0.14507782 -0.055213712 -0.14556885 0.27544692 0.066947415 0.0998766
-0.059409834 -0.045564994 0.1489878 0.0035824997 0.04616669 -0.03309622 -0.04188374 0.092654414
0.016659118 0.0874763 -0.04487782 -0.033325024 0.1655616 0.07646337 0.06890423 -0.0015778574
-0.13000442 0.33744577 0.16063364 0.039078273 -0.032011002 0.032741524 -0.020876318 -0.038594708
0.031103784 -0.016008794 -0.07308017 0.08093913 0.026206192 -0.0071150856 0.017252602 -0.015579689
-0.004732725 -0.017625475 -0.041502714 -0.0019443138 0.030292692 0.024186274 -0.05285832 0.025120052
0.027037488 -0.028875738 -0.03751202 0.002693684 0.061004784 0.0184534 -0.113090485 0.19779718
0.067821555 0.024199823 -0.04343679 -0.0038509949 0.09272206 -0.01468118 0.01110895 -0.003675444
0.020146647 -0.007000564 -0.044811346 -0.011067481 0.033576902 -0.038589388 0.020992924 -0.023880286
0.0055934414 -0.05870056 -0.06620587 0.0016960588 0.019372862 -0.020931564 -0.046742305 -0.05285143
0.05324966 0.033525053 0.07641623 -0.05011413 -0.050776593 0.052771036 -0.011916292 0.0729043
-0.016916232 -0.11693727 0.16457652 0.08352914 -0.009076226 -0.045028243 -0.0024971662 -0.03164646
0.055175126 -0.016445573 -0.01739645 -0.07664576 0.06520312 0.0092950715 -0.058200117 -0.029841825
-0.0019007842 -0.0719754 0.020840177 -0.021423988 0.0018163465 0.013047905 0.052762985 0.015860489
-0.0019528812 0.000991683 0.06657181 -0.016624993 -0.06589969 -0.0008307857 0.03169059 -0.02527194
0.053718578 0.052796673 -0.052640367 0.042890612 0.032310367 0.0056073423 -0.026286902 -0.015839795
00000000: feff 9a3d c598 03bd 411f c8bd 150d 273e
00000010: 48f5 9e3d 791e 973d 539d 60bc 1b6e cabd
00000020: d34d f53d edb5 b23d 2cf5 bb3d b72b 1dbd
00000030: f1b1 e3bd f930 093e 847b e23d 8850 923d
00000040: 73a3 7cbc 7d75 8dbd ea94 f23d a5e4 153d
00000050: 6c6f db3d d958 53bd 3911 d1bd 129c 893e
00000060: b36e ab3d 75e3 d93d be3b 3cbd 074b 20be
00000070: 4838 a83e 2578 113e 6f4f bb3d c160 4cbd
00000080: c000 eebd 2206 4c3e fef1 fc3d ba70 ec3d
00000090: 396e 823c 1752 bcbd 1e48 883e fd19 953d
000000a0: 2afb 713c 2086 02bc ddea 8db9 9455 113e
000000b0: aff8 573d bcaa c63c 39b2 833c e575 66bd
000000c0: d7cf c33d 3b3e 953d 8e76 083e 7acd 1abd
000000d0: 3566 1cbe 9cd6 513e f25e 7b3d b939 b03d
000000e0: 1b88 0a3b 1ece efbd b766 5c3e fd03 9c3d
000000f0: ef01 df3d b48d 93bb 4959 71bd f15b 643e
00000100: fd13 273d daa2 003e 392c 8abb 5d97 debd
00000110: 15fa af3e 2b49 2f3e 49e5 0b3e b1d2 96bd
00000120: a63a bfbd 96b6 a83e 6838 143e c49c 953d
00000130: 6104 8cbb 3dea 6fbb cab8 0a3e 5b90 b63d
00000140: 12ff e13d 7dde 8cbd b563 0dbe d137 b63e
00000150: 508d a03d f66e ed3d b602 09bd aa96 bdbd
00000160: 63a9 353e 70af 023e ba1d d93d 0a0f 8ebd
00000170: 3cdb 2abe 86bf cd3e d0b1 eb3d 7bb5 19bd
00000180: c50d 0d3c fa8b c4bc 0bb5 933d 5ce6 863d
00000190: 87c7 e93d c9d9 98bd 1f02 1dbe dc22 523e
000001a0: 7ee2 d83d 0fa1 d73d 132f 59bc 45fd a1bc
000001b0: ca90 eb3d 9f8c cf3d d2ad a93d 2631 983c
000001c0: 476e 24bd f1ab fd3d 0e2c d23d 7425 833c
000001d0: 02b5 acbc d142 adbd 0bf7 e43d a6f7 c23d
000001e0: 0209 8f3d 4259 94bb dd79 03be 2a7b 7d3e
000001f0: fa1d 943d 4c45 eb3d c549 9ebd cef8 0ebe
00000200: 713b 8e3e 8727 d33d 488f 143e c627 62bd
00000210: 0010 15be 6107 8d3e ba1b 893d 1a8c cc3d
00000220: ba57 73bd 5ca2 3abd 4290 183e 5fc8 6a3b
00000230: 4819 3d3d e78f 07bd 498e 2bbd 99c1 bd3d
00000240: b478 883c c626 b33d ced1 37bd d27f 08bd
00000250: fb88 293e d498 9c3d a91d 8d3d 1cd0 ceba
00000260: e11f 05be b1c5 ac3e 257d 243e 8a10 203d
00000270: f81d 03bd fa1b 063d d004 abbc 7c15 1ebd
00000280: 5dcd fe3c e024 83bc 0eab 95bd 6ac3 a53d
00000290: 5eae d63c aa25 e9bb 5455 8d3c f441 7fbc
000002a0: fa14 9bbb 4d63 90bc c0fe 29bd 58d8 feba
000002b0: 6128 f83c 4b22 c63c f781 58bd 91c8 cd3c
000002c0: b97d dd3c d08c ecbc 34a6 19bd 8588 303b
000002d0: 27e0 793d 962b 973c fc9b e7bd 588b 4a3e
000002e0: 07e6 8a3d b53e c63c c7ea 31bd f960 7cbb
000002f0: 10e5 bd3d 5589 70bc 5002 363c b8df 70bb
00000300: 950a a53c fd64 e5bb 1a8c 37bd 6154 35bc
00000310: ef87 093d e80f 1ebd 5af9 ab3c 97a0 c3bc
00000320: 3049 b73b 0070 70bd f196 87bd 4a4e de3a
00000330: d6b3 9e3c ac78 abbc dc74 3fbd be7a 58bd
00000340: 511c 5a3d 9151 093d 1d80 9c3d 7944 4dbd
00000350: 1efb 4fbd 7126 583d 8d3c 43bc da4e 953d
00000360: e993 8abc cf7c efbd bf86 283e 5311 ab3d
00000370: 73b4 14bc 896f 38bd 7fa7 23bb b89f 01bd
00000380: 50ff 613d deb8 86bc 0083 8ebc 74f8 9cbd
00000390: 3789 853d 5b4a 183c 3f63 6ebd d876 f4bc
000003a0: bc23 f9ba d767 93bd 05b9 aa3c 5c81 afbc
000003b0: 7a12 ee3a e1c6 553c 001e 583d dbed 813c
000003c0: d2f7 ffba 5cfb 813a cd56 883d 2331 88bc
000003d0: 6bf6 86bd 16c9 59ba fecd 013d 1907 cfbc
000003e0: 0308 5c3d 5341 583d 6d9d 57bd 11ae 2f3d
000003f0: e057 043d ccbd b73b a157 d7bc 75c2 81bc

linear_layer2.bias f4 [2016]
0.1589692 -0.24611273 -0.020959204 -0.43621153 0.28851616 1.6231551 0.25832105 0.8105731
-1.1756504 -0.6823322 0.9503179 0.5600297 -1.9323953 -0.41563797 0.99496603 -0.7221642
1.8526608 -0.99013424 0.8851608 -1.9377315 -0.37103495 -0.3668234 -0.13471967 -1.1072654
0.8407341 0.872938 0.7409763 -0.65528387 -1.3782645 -0.76753587 0.07884921 -0.60981303
1.2797579 -0.39031547 -0.1598376 -0.23679976 2.2367113 0.48322412 -0.4056261 0.16474634
0.5588967 0.27545068 0.68833333 2.1049314 -0.41310745 0.724928 -0.7828543 0.13075203
-0.77285916 0.54614276 -0.61943954 0.3543396 -0.20762518 -0.17803547 -1.507242 -0.47406167
1.2284266 0.665106 0.7101293 0.46053517 -0.52577823 1.4626564 0.043205258 -1.8425596
-0.19838087 0.24201134 0.5602486 -0.25126725 -1.2046164 1.5474243 1.8516239 0.98037255
-1.8268405 -0.6781663 0.19610839 -0.36681822 -1.4269122 -0.05702542 0.50946283 0.0758739
0.5923094 1.569881 0.06665316 1.0129681 -0.18420398 0.72739214 0.8783922 0.90058035
0.84442526 0.14774449 0.2682172 0.79520005 -1.4574609 -0.017858509 -0.9269824 -1.2812947
0.64620626 1.0859903 -0.9423511 -1.218335 -0.17010114 0.50100815 1.4220997 -0.1566476
-0.81487304 1.2415762 -1.5963587 -1.1536283 -1.6101464 0.9107249 -0.12691936 -0.8020882
0.018137457 0.26625943 1.3451395 -0.32534766 0.19337621 0.6425541 -0.59406346 0.3582846
-1.7589482 0.9753037 0.13634 0.64327866 -1.1539297 0.3624881 0.85495216 -0.43257412
1.1683927 -0.3844108 -1.8841003 -0.0072893216 -0.08289757 -1.4322463 0.30514657 0.9799404
-0.0475481 1.4135168 0.811013 1.7931064 -1.698116 -0.392539 1.3054179 -0.29387107
0.24318105 -0.18003304 1.5137349 -0.47071895 0.6574572 -0.7698594 -0.14046586 -0.98801225
-1.5733482 1.4537886 1.1095997 -1.4154433 -1.1327022 -1.5297927 -0.121177524 0.7486627
0.517429 0.056697324 1.4967268 -0.96486115 1.1273786 -0.2602899 -0.35245925 0.55664957
2.1737335 0.3385147 -0.54807645 -1.4193916 0.08244601 0.8314811 -0.9106459 0.16179554
-0.31325802 -1.9700737 0.36669862 0.45705184 -1.3167254 -0.7912673 2.8706598 0.51794887
0.41589788 -0.41526222 0.22351524 -0.85176915 0.6013038 1.5454191 -1.2011532 0.9305881
0.46106732 0.45411056 0.8376865 -0.44113958 -0.001056722 0.24070248 -0.46227345 -0.105402105
0.11677869 0.4898456 -0.27098733 0.54962224 -0.6485865 0.18861578 -0.6669651 2.26028
0.3363866 0.5718476 1.2529497 0.9457637 1.4838793 0.119693376 0.24271525 1.7938989
-0.17732367 0.47048938 -0.394824 1.076068 1.1220058 -3.2264502 -0.680255 -0.5223493
1.281183 1.2794924 0.45155886 0.7189719 0.06321805 -2.5888011 0.21330619 -0.20731485
-0.16877803 1.1362057 0.72575295 0.482864 1.4048738 0.040516816 0.08901905 -0.85427725
0.88137275 -0.82495797 -0.32787916 1.7221677 -0.6169888 -0.0034322778 0.415143 1.3042837
0.7230255 -0.73085 -0.6725897 -0.2111399 -0.0957055 -1.4180447 -0.4276138 1.1320118
00000000: d2c8 223e fa04 7cbe a3b2 abbc 1e57 dfbe
00000010: 64b8 933e 8cc3 cf3f a842 843e b881 4f3f
00000020: b67b 96bf 53ad 2ebf 0948 733f 1b5e 0f3f
00000030: bb58 f7bf 80ce d4be 18b6 7e3f c1df 38bf
00000040: fd23 ed3f 7079 7dbf e699 623f 9607 f8bf
00000050: 4bf8 bdbe 47d0 bbbe f4f3 09be dfba 8dbf
00000060: 5a3a 573f dd78 5f3f 9fb0 3d3f afc0 27bf
00000070: f96a b0bf 3b7d 44bf b27b a13d b51c 1cbf
00000080: 1bcf a33f 6ed7 c7be 78ac 23be a37b 72be
00000090: 4726 0f40 2769 f73e 39ae cfbe 44b3 283e
000000a0: db13 0f3f df07 8d3e 9d36 303f 32b7 0640
000000b0: d282 d3be e294 393f 2469 48bf dce3 053e
000000c0: 19da 45bf 03d0 0b3f 9793 1ebf 006c b53e
000000d0: b29b 54be ee4e 36be 4eed c0bf 36b8 f2be
000000e0: 153d 9d3f 6344 2a3f 09cb 353f 44cb eb3e
000000f0: 6799 06bf 5338 bb3f fff7 303d fed8 ebbf
00000100: 5b24 4bbe d2d1 773e 746c 0f3f 1aa6 80be
00000110: df30 9abf 0012 c63f 0302 ed3f b2f9 7a3f
00000120: e9d5 e9bf 4e9c 2dbf a3d0 483e 99cf bbbe
00000130: 0fa5 b6bf 7d93 69bd 286c 023f c663 9b3d
00000140: 97a1 173f dcf1 c83f 7481 883d f0a8 813f
00000150: f89f 3cbe 5f36 3a3f 50de 603f 6f8c 663f
00000160: 412c 583f 554a 173e c453 893e 3b92 4b3f
00000170: 148e babf 024c 92bc b84e 6dbf 7701 a4bf
00000180: c66d 253f bb01 8b3f ec3d 71bf 67f2 9bbf
00000190: fe2e 2ebe 1242 003f 5d07 b63f 3a68 20be
000001a0: 859b 50bf f8eb 9e3f 7b55 ccbf 18aa 93bf
000001b0: 4719 cebf 4425 693f 26f7 01be a755 4dbf
000001c0: 0195 943c 2853 883e 882d ac3f f893 a6be
000001d0: 6a04 463e 6d7e 243f 8b14 18bf 1471 b73e
000001e0: 3725 e1bf 81ad 793f b79c 0b3e e9ad 243f
000001f0: f8b3 93bf 0a98 b93e 25de 5a3f 5b7a ddbe
00000200: e48d 953f 7ed1 c4be 332a f1bf 43db eebb
00000210: 34c6 a9bd d953 b7bf 2c3c 9c3e 60dd 7a3f
00000220: ccc1 42bd 1eee b43f 8c9e 4f3f 8384 e53f
00000230: dd5b d9bf dffa c8be ef17 a73f 4576 96be
00000240: 7404 793e 955a 38be 11c2 c13f 1302 f1be
00000250: 1d4f 283f 8115 45bf 48d6 0fbe 5fee 7cbf
00000260: 7963 c9bf bf15 ba3f 5d07 8e3f 3f2d b5bf
00000270: 63fc 90bf 3fd0 c3bf ec2b f8bd 5ca8 3f3f
00000280: 3a76 043f 743b 683d be94 bf3f 2401 77bf
00000290: f14d 903f b844 85be 8a75 b4be 9680 0e3f
000002a0: 731e 0b40 cc51 ad3e bd4e 0cbf a0ae b5bf
000002b0: 74d9 a83d f2db 543f 1720 69bf bbad 253e
000002c0: 5b63 a0be 602b fcbf ecbf bb3e b302 ea3e
000002d0: 758a a8bf 7e90 4abf e4b8 3740 4c98 043f
000002e0: 91f0 d43e 409d d4be 2ee1 643e 8b0d 5abf
000002f0: 0cef 193f 4bd0 c53f 63bf 99bf 063b 6e3f
00000300: 0411 ec3e 2e81 e83e 9f72 563f 0cdd e1be
00000310: b581 8aba b67a 763e 1baf ecbe 0fdd d7bd
00000320: aa29 ef3d 0bcd fa3e dabe 8abe 0bb4 0c3f
00000330: c409 26bf 7f24 413e 3abe 2abf 6da8 1040
00000340: dd3a ac3e 9b64 123f a860 a03f 921d 723f
00000350: c2ef bd3f cd21 f53d 598a 783e 7b9e e53f
00000360: 5694 35be fce3 f03e 5f26 cabe 99bc 893f
00000370: e39d 8f3f 297e 4ec0 3125 2ebf afb8 05bf
00000380: cefd a33f 68c6 a33f b932 e73e 8b0e 383f
00000390: 7778 813d ebae 25c0 f06c 5a3e 584a 54be
000003a0: 26d4 2cbe 306f 913f f2ca 393f f339 f73e
000003b0: e8d2 b33f f6f4 253d 9f4f b63d eab1 5abf
000003c0: a5a1 613f 7230 53bf c7df a7be fe6f dc3f
000003d0: faf2 1dbf 11f0 60bb a08d d43e c5f2 a63f
000003e0: 3318 393f fc18 3bbf d72e 2cbf 0f35 58be
000003f0: 3f01 c4bd 7d82 b5bf 32f0 dabe c3e5 903f
