model/Artificial_Data_6000_epoch_100_attention_net_u_artificial_Q_9_K_6_F_5_REG_L0_ACT_sigmoid_WD_00002_CV.model (torch_old, 52157 bytes, 6 tensors)

key_matrix f4 [9, 6]
000000 12 ad 2c 3f 39 8c 99 3f 9b 52 61 bf f2 b7 59 be
       0.67451584 1.1995918 -0.8801667 -0.21261576
000010 50 c7 4a 3f 54 db 13 3c a6 d1 ce 3f 7e bb ab 3f
       0.79210377 0.00902446 1.615773 1.3416593
000020 ad 0c 52 bf eb 89 88 3e 10 ff b2 3f 3d 80 72 be
       -0.8205059 0.26667723 1.3984089 -0.23681732
000030 32 8a cb bf eb 8b 2f 40 85 ef e7 3e 2d c1 0f c0
       -1.5901549 2.742915 0.45299926 -2.2461655
000040 42 52 2d 3f de 9f c3 3e f0 97 a3 3f 5b b9 bf 3f
       0.6770364 0.38207906 1.2780743 1.4978441
000050 01 2a bb be 12 2d cd 3f 99 42 b1 3e 60 cd 57 3f
       -0.36555484 1.6029379 0.34621122 0.8429775
000060 26 f6 b4 3e 81 01 7d 3f 14 de f7 3f 6f f7 43 3d
       0.35344046 0.9883042 1.9364648 0.047843393
000070 58 38 ee be c2 f8 99 3e ba 80 09 3f 1e 8d 00 40
       -0.46527362 0.300726 0.53712046 2.008613
000080 65 bb 55 bf 6b bd d1 3f 20 d8 2d bf f3 66 16 3f
       -0.83489066 1.6385931 -0.67907906 0.5875084
000090 62 47 d9 3f 65 f9 df 3d 42 2b 07 bf 13 cb 0f 3f
       1.6974909 0.1093624 -0.5280038 0.5616924
0000a0 67 d6 d0 be e2 d8 50 bf f5 0e 8f 3f c0 76 4d 3f
       -0.40788576 -0.81580937 1.117644 0.80259323
0000b0 ab 62 80 3e 18 bd 48 be 1c f4 1c 40 ff 9c 1d bf
       0.25075278 -0.19603384 2.4523993 -0.6156768
0000c0 c2 62 34 40 fb 1c 76 3f 35 91 a7 bd 7a 51 38 bf
       2.8185277 0.9613797 -0.08181993 -0.71999323
0000d0 da 19 53 bf df cd 66 bf
       -0.8246132 -0.90157884

value_matrix f4 [6, 5]
000000 f7 a8 a8 bf 38 5c a0 bf f4 7f 29 bf f5 6d 3f 40
       -1.3176564 -1.2528143 -0.66210866 2.9910862
000010 6e c8 70 c0 d5 76 29 c0 94 33 38 c0 cb dd 64 c0
       -3.7622333 -2.647878 -2.878148 -3.5760372
000020 36 d3 d0 c0 c4 f3 e1 c0 0e 8a 3b 3e 7f 6c 02 c0
       -6.5257826 -7.0610065 0.18314382 -2.037872
000030 ee f9 63 3f a7 36 60 3f 96 cc 59 bf cb 66 a8 bf
       0.8905324 0.8758339 -0.850778 -1.315637
000040 c8 df 86 3f 26 6b 11 40 9f 28 93 bf d7 35 85 bf
       1.0537043 2.2721648 -1.1496772 -1.0407056
000050 a2 4b 31 be d5 3a 04 40 8f 0d a1 bf 35 4b 91 3d
       -0.17314008 2.0660908 -1.2582263 0.07094423
000060 9c 02 8a 3d 74 ba ff 3e 70 d9 7d 3f 05 ca 31 bf
       0.06738779 0.4994694 0.9915991 -0.6944888
000070 68 bd ac 3f 90 44 8b 3d
       1.3495302 0.06800187

linear_layer1.weight f4 [9, 64]
000000 91 0b 3a be 8c 66 87 3e f7 6b 18 be 49 84 50 3c
       -0.18168475 0.26445425 -0.14884935 0.012726852
000010 8c 0e 8f 3d e6 1c 9f 3c 93 58 06 be 94 ed 93 3d
       0.069851965 0.01942296 -0.13119726 0.07223049
000020 c5 68 3b 3e 24 6f 5e be db 74 91 be 9d c0 4f be
       0.18301685 -0.21722084 -0.28409466 -0.2028832
000030 0c ae a6 bd c6 53 c6 bd d6 b5 04 3e 72 28 08 bd
       -0.081386656 -0.09683947 0.1295999 -0.033241697
000040 ec f3 4a 3e 6e 96 4b bd 9b 3b 8b 3d 36 40 b1 3e
       0.19819611 -0.049704008 0.06798478 0.34619302
000050 01 62 58 3e 1e e0 f4 3c d6 2f 0c 3d 07 b5 ed bd
       0.21131136 0.029892024 0.034225307 -0.11606794
000060 b9 61 d1 bd 13 1f fb bd e1 63 3e 3e 2e 89 4f be
       -0.10223717 -0.12261786 0.18592788 -0.20267174
000070 01 0c d3 bd 07 cc 6c 3e ca ab 98 3d b3 4a 10 3e
       -0.10305024 0.23124705 0.07454641 0.14090995
000080 36 b6 96 bc 24 01 91 be 3f c2 91 3c e4 c5 26 3e
       -0.018397432 -0.28321183 0.017792819 0.16286427
000090 83 13 08 bc d3 51 78 be 10 9d cc 3c 2e 0f 96 be
       -0.008305433 -0.24249963 0.024977237 -0.29308456
0000a0 70 84 44 bd 41 ef f7 bd 83 b7 9d bd e2 02 3c be
       -0.047977865 -0.12106181 -0.07701018 -0.18360475
0000b0 cd cd 60 be 6d 7f 19 3b d2 b6 94 be 4a 1c 91 be
       -0.21953507 0.00234219 -0.2904573 -0.28341895
0000c0 a7 55 aa be 0b 32 c5 be dc bf 86 bd e2 9c be bd
       -0.33268473 -0.38514742 -0.06579563 -0.09307267
0000d0 48 1a 86 be 89 1c c1 be ea 79 99 bd d5 52 ad bd
       -0.26191926 -0.37717083 -0.074939564 -0.084630646
0000e0 bf 01 fc 3c 0b 13 45 3d 3f 2a 95 bd e3 1c 80 be
       0.030762551 0.048113864 -0.072834484 -0.2502204
0000f0 89 7a e9 bd 83 82 23 be 86 0e 9c be bd fe 83 3e
       -0.11400325 -0.15967755 -0.3047983 0.25780287
000100 09 e3 3f be 86 aa 7f be 1b 67 83 be bc d0 35 bd
       -0.18738951 -0.24967393 -0.256646 -0.044388518
000110 c5 ad 6f be c0 d5 af bc 52 cb 8c 3e 09 eb 7e 3c
       -0.23406132 -0.021464229 0.2749887 0.015558966
000120 d8 ce 22 bd 08 3e 40 3e 34 c9 33 3e a9 f4 44 be
       -0.039748043 0.18773663 0.17557222 -0.19233955
000130 27 66 0f 3e ed 3b 20 be f2 77 95 bb 35 60 0d be
       0.14003812 -0.1564786 -0.0045614177 -0.13806231
000140 22 db 97 3e bc e2 6a be a6 45 09 be e8 f0 8b 3e
       0.29659373 -0.22938055 -0.13405475 0.27332234
000150 95 f9 7c 3e 08 7f 87 3e 15 a7 4c 3e d8 cc ef 3d
       0.24704583 0.26464105 0.19985612 0.11708993
000160 6b dd 89 3e a2 fe 0a be 73 26 11 3e d1 09 26 3d
       0.2692674 -0.13573697 0.14174823 0.040536705
000170 00 8b 7c be ba 32 65 3e ae d6 74 bd 0b 64 82 be
       -0.246624 0.22382632 -0.059775047 -0.25466952
000180 8d 7e 7d 3e 88 ce 8e 3e c0 e2 c0 bd 35 b3 8d 3d
       0.24755307 0.27891946 -0.09418249 0.06918947
000190 ad c9 39 be f4 47 2f 3e a4 f1 a8 3c 0b 51 5c 3e
       -0.1814334 0.17117292 0.020623036 0.2151529
0001a0 fc 13 ee 3d bb 99 13 be 16 80 7c 3c 70 46 8c be
       0.116249055 -0.14414112 0.015411397 -0.2739749
0001b0 db be 56 3e ba 3e aa 3c 7f 03 01 be ae 02 c1 bd
       0.20971243 0.020781863 -0.1259899 -0.09424339
0001c0 d0 4d 1a 3e ca cd 7e 3e 37 d2 00 3e a1 89 52 3c
       0.15068746 0.2488319 0.1258019 0.012850196
0001d0 53 26 59 be 12 90 b8 3d 05 84 91 3d f7 3c 7c be
       -0.21206026 0.09011854 0.07105259 -0.24632631
0001e0 f0 66 36 3e 03 b3 33 bd 57 4a 7b 3e 5b 42 7f be
       0.17812705 -0.04387189 0.24540077 -0.24927656
0001f0 d4 db 7d be fa df e8 3d a9 72 94 3d 32 c9 bf bd
       -0.24790889 0.11370845 0.07248432 -0.09364547
000200 32 2c 55 3e a0 9d a4 3e 56 46 c2 3e 2b 5c 7a 3e
       0.2081764 0.32151508 0.37944287 0.24449222
000210 0e a3 6e 3e 12 ff 9c 3e 19 9d d0 3e 6c 46 7b 3e
       0.23304388 0.30663353 0.40744856 0.24538583
000220 54 79 a5 3e 70 d9 2e 3e 14 5a 77 3e f8 24 d6 3e
       0.3231913 0.17075133 0.24155456 0.4182508
000230 b6 fa 90 3e a6 f8 a8 3e 59 1f 9f 3e 7d 11 b0 3e
       0.28316277 0.33002204 0.31078604 0.34388342
000240 61 f7 c4 3e 41 c8 30 3e b6 1f 7f 3e 31 05 80 3e
       0.38469985 0.17263891 0.2491444 0.2500396
000250 fd bb 79 3e f3 44 1f 3e 23 79 dc 3e 97 43 a9 3e
       0.24388118 0.15553646 0.4306117 0.3305938
000260 f9 2c ba 3e 26 9c 92 3e 0d 59 9e 3e 32 78 85 3e
       0.36362436 0.28634757 0.30927315 0.26068264
000270 17 68 c0 3e 65 00 0b 3e 33 d5 a4 3e d2 10 d7 3e
       0.37579414 0.13574369 0.32193908 0.4200502
000280 c4 b8 34 bf 6a fe e1 be 89 3b fc be 52 85 3b bf
       -0.7059443 -0.44139415 -0.49264172 -0.73250306
000290 1b 7d 16 bf ac a4 27 bf fe bf 14 bf 34 df 19 bf
       -0.58784646 -0.65485644 -0.58105457 -0.60106206
0002a0 ea a3 31 bf a2 95 06 bf e1 35 1d bf 35 12 1d bf
       -0.6939074 -0.5257207 -0.6141034 -0.61355907
0002b0 34 06 1b bf fa 2e 18 bf 65 48 11 bf 30 13 3f bf
       -0.6055634 -0.5944668 -0.5675109 -0.7463865
0002c0 29 f3 0a bf 7b f9 25 bf 34 3f eb be ab c5 c5 be
       -0.5427728 -0.648338 -0.45946658 -0.3862737
0002d0 02 ea 11 bf c9 ff 08 bf 16 ba ee be 97 d8 04 bf
       -0.5699769 -0.535153 -0.46626347 -0.5189299
0002e0 b3 75 ff be 9a 64 12 bf 33 62 f2 be e1 01 44 bf
       -0.49894485 -0.57184756 -0.47340545 -0.76565367
0002f0 94 9f 20 bf 43 b2 23 bf 9e 77 09 bf dd 4f aa be
       -0.62743497 -0.6394388 -0.53698146 -0.33264056
000300 09 2f 09 3e 86 98 7b 3e 31 44 34 be 0d 0e 2a 3e
       0.13396849 0.24569902 -0.17604138 0.16606922
000310 7a 7b 1a be 8f 46 0e be 9b ca ce 3d fe 07 88 be
       -0.15086165 -0.13894103 0.10097238 -0.26568598
000320 fc ad e6 3d 58 d5 86 3d 30 18 39 3e ef c0 84 bd
       0.11263654 0.06583661 0.18075633 -0.06482112
000330 0a 59 32 be 5d 69 48 be 87 5b 77 3e 20 1d e0 3d
       -0.17416778 -0.19571443 0.24156009 0.10943055
000340 2b e2 82 3d 17 f8 f6 bd c0 ec 64 be 35 27 db 3d
       0.06390794 -0.12059038 -0.22355938 0.107008375
000350 39 91 a1 be 18 70 fc bd a5 c6 e6 bc d7 cf 90 3d
       -0.3155611 -0.12326068 -0.028170893 0.07070892
000360 e2 ef 62 3e 30 51 3a bd e1 1c 6f be b0 cb e8 3d
       0.2216182 -0.045487583 -0.2335086 0.11366975
000370 47 1e 74 3e 85 44 a0 3d 96 04 b7 3d 2f a2 82 be
       0.23839675 0.07825569 0.089364216 -0.2551436
000380 f5 aa 8e 3e 02 d7 32 bd 71 e5 af bd 1f 87 32 be
       0.27864805 -0.04366208 -0.08588684 -0.17434357
000390 5a c2 5d 3e ef dd 36 bd 91 b1 60 be eb f1 a3 3e
       0.2165617 -0.044645246 -0.21942736 0.32020506
0003a0 36 df 11 be b7 3b d2 3b fc 47 e8 3c 86 10 6b bb
       -0.14245304 0.00641581 0.028354637 -0.0035868003
0003b0 7d 82 5e 3e b0 3e 6c 3e 5e 9a 50 bd ca 2b 05 be
       0.21729465 0.23070788 -0.050928466 -0.13004985
0003c0 88 02 06 be 4c 02 3c 3e 4d 2b 52 be 69 69 d0 3c
       -0.13086903 0.18360251 -0.2052433 0.025440888
0003d0 2e 90 80 be 29 b9 c9 3d e5 2c 90 be f4 be ba 3d
       -0.2511 0.098497696 -0.28159252 0.09118453
0003e0 7f 9b 3c be 41 31 55 3e 00 2c 24 be 65 17 a2 bd
       -0.18418692 0.2081957 -0.1603241 -0.079146184
0003f0 be 20 44 be 70 f8 60 3e e4 e9 74 3e 55 d2 0f bd
       -0.19153115 0.21969771 0.23917347 -0.035112698

linear_layer1.bias f4 [9]
000000 8f 6d 65 bf 2e 5b 21 3f 01 9b ab bf 38 09 2c 3f
       -0.896203 0.63029754 -1.3406678 0.67201567
000010 eb eb a4 bf 7b 69 34 3f 44 70 c6 bf 01 e9 2d bf
       -1.2884496 0.7047345 -1.5503011 -0.6793366
000020 29 62 ad 3f
       1.3545581

linear_layer2.weight f4 [2016, 5]
000000 54 49 8c 3d 94 ee 8e 3d ee 84 0f 3d 5d 88 bf 3d
       0.06849924 0.06979099 0.03503888 0.09352181
000010 5e 46 59 3e f6 90 9b bc b0 e0 0a 3d 3f 73 de 3c
       0.21218249 -0.018990021 0.033905685 0.027154563
000020 4d e7 33 3e 99 6a e9 bb 97 f2 87 3c c9 b4 a3 bc
       0.17568703 -0.007123303 0.016595168 -0.019983666
000030 14 9e 34 3d c0 9f ec 3d 01 ca cb 3d 2b 15 5e 3d
       0.044096068 0.115539074 0.099506386 0.054219406
000040 99 4f 1b 3d 23 67 c2 3b 1d 05 de 3d 1a 7a ed 3d
       0.037917707 0.005932705 0.10840819 0.11595555
000050 06 c3 4e 3d ca 23 db 3d b7 e5 de 3d a6 e0 1e 3e
       0.050478958 0.107001856 0.108836584 0.15515384
000060 70 d3 85 3e dc 85 4c 3d b7 74 db 3d 79 5e b9 3d
       0.26137877 0.049932346 0.10715621 0.09051222
000070 90 47 21 3d 81 87 3b 3e 83 5b 9b 3d d0 ac c4 3d
       0.039374888 0.1831341 0.07585814 0.09603274
000080 d6 32 39 3d c1 03 0e bd 0e b6 37 3e 2b 90 41 3d
       0.045214497 -0.03467155 0.17940542 0.04725663
000090 7a 1d be 3d 64 0f 12 3e 16 44 de 3d de 5f 41 3e
       0.09282966 0.14263684 0.1085283 0.18884227
0000a0 d4 93 87 3d 51 69 3f 3d 4c 47 e2 3d ca a0 79 3d
       0.06619993 0.046731297 0.11048755 0.060944356
0000b0 5a a9 79 3e a2 6e 0f 3e 55 a2 9e 3d 82 4c 93 3d
       0.24381009 0.14007047 0.07745806 0.07192327
0000c0 13 fc 2c be a2 6b 90 3e e5 bf 87 3d 95 66 1a 3d
       -0.16893034 0.28207117 0.06628398 0.037695486
0000d0 73 cf 8b 3d 11 98 82 3e e0 32 ed 3d 9c 10 d2 bd
       0.06826677 0.25506642 0.11581969 -0.10257074
0000e0 e2 e1 86 bd 01 b7 98 3d 61 6e a3 3e e4 25 11 be
       -0.065860525 0.0745678 0.3192015 -0.1417461
0000f0 4d b4 11 3e 21 42 b4 3d dd b6 ba 3d a3 90 9a bd
       0.14228936 0.088016756 0.0911691 -0.075471185
000100 ed 3f aa 3e 0e ef 52 3e a1 e1 35 3e 3d 76 d3 3d
       0.33251897 0.20599005 0.17761852 0.103252865
000110 bf a7 65 bc 69 82 e1 3e 91 02 e9 bb 6d 02 be bc
       -0.014017045 0.44044808 -0.0071109016 -0.023194516
000120 67 17 9a 3d 7f 9a aa 3e 77 60 df bd 32 e6 24 3d
       0.07523995 0.33320996 -0.10907071 0.040258594
000130 cd 98 dd 3c 2d 9c 16 bb 62 a6 2a 3d 58 73 09 3e
       0.0270504 -0.0022981272 0.04166258 0.13422906
000140 1a 7b a0 3d a3 23 2f 3d 7c dd 00 3e 61 4b 0d 3e
       0.0783598 0.042758595 0.1258449 0.13798286
000150 fc 07 60 3e cd ed 66 3d 7f 11 01 3e b9 09 16 3e
       0.21878046 0.05637913 0.1260433 0.14652146
000160 da 70 b7 3e bd 30 88 3e c4 c8 bf 3a 49 7f 80 bb
       0.35828286 0.26599684 0.0014631976 -0.0039214236
000170 f9 1c 61 3d 7b 8f 97 3d 09 21 fe 3d c2 20 b0 bb
       0.05495927 0.074004136 0.12408645 -0.005374999
000180 6c a3 bc 3c 2c e4 d1 3c 9a 3e 1b 3e 90 5c 19 3e
       0.023027144 0.025621496 0.151606 0.14976716
000190 83 14 49 bd c6 e5 7e 3d f8 14 36 3d 8e 8d a1 3e
       -0.049091827 0.062230848 0.04445359 0.3155331
0001a0 ee 0d c2 bb fb 48 6c 3d c5 b6 04 3e 98 ee 1d 3e
       -0.0059220707 0.057686787 0.12960346 0.15423048
0001b0 bf ec b5 3e a9 db dc 3d 27 43 cf 3d 1d 68 1a 3d
       0.35532185 0.10784084 0.1012023 0.037696946
0001c0 86 7f c9 3c 41 fb c8 bc 21 bd 7e 3e 49 b1 13 3e
       0.02459694 -0.02453387 0.24876834 0.14423098
0001d0 05 e9 ca 3d b8 9a 92 3d aa 27 34 3e 03 4a 99 3e
       0.09907726 0.071584165 0.17593256 0.2993928
0001e0 05 40 cb 3c 12 8e 9a 3d f5 c5 32 3c ba 7f 4f 3e
       0.0248108 0.07546629 0.010911454 0.20263568
0001f0 f8 20 6f bc f0 e5 a5 3d be 6a 21 3c a1 97 99 3d
       -0.014595263 0.08100498 0.0098521095 0.07499624
000200 97 73 3a bd 62 f7 f7 3d c6 b7 51 3d 82 4f 83 3d
       -0.04552039 0.121077314 0.05120065 0.06411649
000210 a6 97 10 3d 22 6d 38 3d 43 a2 f0 3d de 8e 98 3d
       0.035300873 0.045025952 0.11749699 0.07449125
000220 2c ed bc 3d 4a b6 76 3d b3 28 4b 3e e2 0d 6f 3e
       0.092249244 0.06023244 0.19839744 0.2334514
000230 05 88 ef 3d e5 02 f0 3d b2 02 13 3e 3c ab 3b 3d
       0.116958655 0.11719302 0.14356497 0.0458176
000240 d5 91 79 3e 16 c8 ce 3d fb fd c6 3d b9 aa da 3d
       0.24372037 0.10096757 0.09716412 0.10677094
000250 a8 70 65 3e f6 55 dd 3d f3 1a 90 3c f9 4d 58 3d
       0.22406256 0.108074114 0.017590975 0.052808736
000260 f3 38 91 3c b3 a8 5b 3e 91 69 95 bc 8d 46 c6 bd
       0.01772735 0.21451072 -0.018238815 -0.09681425
000270 38 d2 cb bc 91 f6 94 bc 44 85 04 be 8a 05 e7 bd
       -0.024880514 -0.018183978 -0.12941462 -0.11280353
000280 f2 10 58 bd 5a fa 98 bd f7 76 97 bd cc 48 2d be
       -0.052750535 -0.07469626 -0.073957376 -0.16922301
000290 7c da 32 be 19 66 86 bb 3f 95 4f bd 65 5c 2f 3c
       -0.17466158 -0.0041015265 -0.05067944 0.010703181
0002a0 ff 78 56 3d 40 86 d9 3c 03 25 a2 3d 70 7a 93 3d
       0.052361485 0.026553273 0.07917216 0.072010875
0002b0 81 10 16 3c fd 53 df 3d c5 b6 1e 3e a2 de e6 bd
       0.009159208 0.10904691 0.15499409 -0.112729326
0002c0 72 1f 85 bd 2f 50 02 be cf 6d 84 be c6 21 a3 be
       -0.06500138 -0.127259 -0.25865027 -0.31861705
0002d0 f1 06 9f bd 44 23 2b 3c 8c ee 33 bd 7f 90 dd bc
       -0.07764996 0.01044542 -0.043928668 -0.02704644
0002e0 4a d9 b4 bd fd c5 86 bd c0 4a 5e bd 31 e6 97 bd
       -0.08830507 -0.06580732 -0.054270506 -0.074169524
0002f0 32 60 b6 bd 2b 4e 88 bd 35 4b 9d bd 44 51 80 bd
       -0.089050665 -0.06655534 -0.0768036 -0.062655
000300 d8 6e fa bd fc 12 38 be 82 11 8d be 88 88 00 bd
       -0.12228173 -0.17975992 -0.2755242 -0.031380206
000310 b3 47 1b bd b3 f0 65 bd 5f 39 39 be fb 35 18 be
       -0.037910175 -0.05613775 -0.18088292 -0.14864342
000320 36 8d 0d bd 53 44 9c bd 62 d0 9f bd aa 2c 0c be
       -0.034558497 -0.07630219 -0.07803418 -0.13688913
000330 f9 63 23 be 96 32 0f 3d 3d 0f 3a bd 26 46 ec bc
       -0.15956105 0.034960352 -0.04542469 -0.028842043
000340 79 cc 30 bd d8 c9 dd bc 84 5c 90 bc b5 47 8f bd
       -0.04316375 -0.027073786 -0.01762224 -0.06996099
000350 e9 ec 33 bd 07 16 b6 bd e6 ab e7 bd b5 08 d4 3d
       -0.043927107 -0.0889092 -0.11312084 0.10353223
000360 02 7d c8 3d ca 5b 28 3d e3 c1 fe 3d e3 72 c2 3d
       0.09789468 0.041103162 0.12439325 0.09494569
000370 3f 58 41 3c a7 b2 e7 3d eb 13 cb 3d 29 db a5 3d
       0.011800825 0.11313372 0.099159084 0.08098442
000380 d9 6b 3f 3e ca 3d 9f bc d0 e7 d3 bd 34 04 34 bc
       0.18693484 -0.019438643 -0.10346949 -0.01098733
000390 5e a6 9e bd 53 ae 3c be e4 b7 82 bd 25 09 18 3d
       -0.07746576 -0.18425874 -0.063827306 0.037118096
0003a0 81 27 ee bc dc 7f e7 3b b1 fb b0 bd 9a 20 b2 3d
       -0.029071571 0.0070648026 -0.08641756 0.086976245
0003b0 16 ea 02 3d c3 22 68 3d ab a8 bb 3d 73 11 e6 3d
       0.031961523 0.056673776 0.0916303 0.11233797
0003c0 28 78 85 bd 84 c5 1f bc eb 31 f3 bc 16 de a6 bd
       -0.065170586 -0.009751681 -0.029686889 -0.08147828
0003d0 66 54 ea bc 45 a0 b5 3c 60 dd cf 3d 98 02 02 3e
       -0.028604697 0.022171149 0.10149646 0.12696302
0003e0 ca a7 02 3e 4b 20 49 3e fe 40 58 3d ac c8 35 3d
       0.12759319 0.19641225 0.052796356 0.04438083
0003f0 66 80 47 3d 97 62 2f 3d b1 a5 92 3d b5 39 c2 3d
       0.048706435 0.042818632 0.071605094 0.09483663

linear_layer2.bias f4 [2016]
000000 8f 42 37 3f 23 82 24 bf 6f d0 7a bf 99 f7 14 bf
       0.71585935 -0.6426107 -0.97974294 -0.58190304
000010 12 b6 1a 3f c9 a3 01 3e e2 50 ba bd 28 00 54 3f
       0.6043407 0.12660135 -0.090974584 0.8281274
000020 03 74 36 be 09 08 ed bc 3e a6 ed 3e c2 37 fb bf
       -0.17817692 -0.028934496 0.46415895 -1.9626391
000030 4f 90 ba 3d cb a9 67 bf a0 a3 84 bf 14 6c 7e bf
       0.09109556 -0.9049346 -1.0362434 -0.99383664
000040 13 d9 a0 3f b7 58 e8 3d 17 e3 23 bf 90 d7 cd 3d
       1.2566246 0.11345046 -0.64018387 0.10050881
000050 3e 63 55 bf 16 10 5a 3f bc 8b 9c 3e 2c ba 02 40
       -0.83354557 0.85180795 0.3057536 2.042613
000060 c7 fb cd be 20 b7 2f bf c5 37 b6 be 69 fc 49 3f
       -0.40231153 -0.686388 -0.35589424 0.7890077
000070 94 bb 47 3f 5f 6d 17 3e 15 60 5c bf 43 f3 71 bf
       0.78020597 0.14787816 -0.8608411 -0.9451181
000080 d3 2f ca bf 63 d9 2a be ff bb 90 3f 1d 0e 21 c0
       -1.5795845 -0.16684489 1.1307372 -2.5164864
000090 9f a6 33 bf ca 5b 80 bf a0 d3 f2 bf bf d4 80 bf
       -0.7017612 -1.0028012 -1.8970833 -1.0064925
0000a0 88 61 a7 bf 0b 35 da be b3 5b 47 bf bc cf 53 3f
       -1.3076639 -0.42618594 -0.77874297 0.8273885
0000b0 3e d6 bf 3f 58 01 ad bf c6 4e f7 be 72 d1 35 3f
       1.4987257 -1.3516035 -0.48302287 0.71022713
0000c0 3b 87 d9 be d2 79 97 3f 9b 5b d3 3e b4 34 42 3f
       -0.42485985 1.1834052 0.41280827 0.7586167
0000d0 34 09 55 bf 9d c1 ac 3d 9c 97 87 bf ad d0 a2 be
       -0.8321717 0.08435366 -1.0593143 -0.31799832
0000e0 d8 f5 22 bf 38 63 34 bf a9 df 39 3f 3c a8 cb 3f
       -0.6365638 -0.70463896 0.72606903 1.5910716
0000f0 d7 74 10 3f 8f 82 e8 bf f9 e2 3d 3f bf 66 af 3f
       0.56428283 -1.8164843 0.7417446 1.3703231
000100 cf eb a3 bf 04 ad 81 3f eb a2 7d 3e 2e 2e 8c bf
       -1.2806338 1.0130925 0.2476918 -1.0951593
000110 94 08 83 bf 09 fd 4c bf f6 a9 f3 bf a5 b6 b4 bf
       -1.0236993 -0.800736 -1.9036243 -1.4118239
000120 65 50 88 3f 9e 1f 72 3f 67 e3 55 3f 85 a5 1e 40
       1.0649534 0.94579494 0.83550113 2.4788525
000130 46 32 6b 3e 94 93 58 be 7d a5 09 40 90 bf 2d 3e
       0.22968397 -0.21150047 2.1507256 0.16967607
000140 34 bb 88 bf 43 1e 91 bf c8 71 bc 3f 24 1b 11 bf
       -1.068213 -1.133736 1.4722223 -0.5668204
000150 69 7b c3 3f 30 23 4c be 85 b7 b7 be 0d df 26 3e
       1.5272037 -0.19935298 -0.35882202 0.16296025
000160 00 4d 26 3e f5 13 41 3e d0 05 b1 3e 1f 12 fd be
       0.1624031 0.18855269 0.34574747 -0.49427888
000170 77 e7 d9 be 7b 16 fa 3c d4 80 d5 3e 96 a3 36 bf
       -0.42559406 0.030528298 0.4169985 -0.7134336
000180 d9 ba 40 3f fa 3e 5f 3e 5a 1e a1 bf d0 58 81 bf
       0.75285107 0.21801367 -1.2587388 -1.0105228
000190 3b b8 14 bf fd 70 c5 bc e3 48 04 c0 43 5b 17 bf
       -0.58093613 -0.024101729 -2.0669487 -0.5912363
0001a0 cf 9a 1e 3f 69 6c 8e bf 78 ca eb 3f d3 52 36 3e
       0.6195497 -1.1126834 1.8421164 0.17805032
0001b0 76 84 c5 3e 85 4f 0c bf 36 dd ef 3f 52 3d 24 bf
       0.38577622 -0.5480884 1.8739383 -0.6415607
0001c0 7e 84 b3 bd 64 c3 c9 be 1f ce ed 3e 23 8b 3a 40
       -0.08765505 -0.39406884 0.4644632 2.9147422
0001d0 16 36 b1 bf ac 6a 33 3f be bb ff be bb 55 60 3e
       -1.3844631 0.70084643 -0.49947923 0.21907704
0001e0 7f 21 cb bd a8 06 a0 bf 39 91 be 3f 81 62 5d bf
       -0.09918498 -1.2502031 1.4888068 -0.8647843
0001f0 cb c5 1f 3f 31 d1 58 3f 64 a4 81 bf de 3f b0 bb
       0.62411183 0.846942 -1.0128293 -0.0053787073
000200 fe 76 d1 bd 0d ed 1a 3f 5c 80 c0 3f 03 85 90 3f
       -0.10227774 0.6051796 1.5039172 1.1290592
000210 83 8f da bf 54 a0 75 bf 21 a5 fe 3e bc ad 11 3e
       -1.7075046 -0.95947766 0.49735358 0.1422643
000220 3a f8 02 3f cc 6b 23 bf 23 e1 13 3c 9a bb 99 3e
       0.51160014 -0.6383636 0.009025845 0.3002594
000230 61 df 07 3f 06 6b a2 3f 85 4e 90 3e ba ed 11 40
       0.53075224 1.2688911 0.28184906 2.2801347
000240 8a ea 58 bf b7 d4 7d 3e 2a 0c 23 3f e3 05 8d 3f
       -0.8473288 0.24788176 0.63690436 1.1017421
000250 ec 38 9d 3e 52 55 99 be ab 18 f1 bf 76 f5 39 3f
       0.3070749 -0.29947907 -1.8835653 0.7264017
000260 f9 1b 7b 3f e5 a5 61 bc ba 30 35 bf 76 c3 4f 3e
       0.9808956 -0.0137724625 -0.70777476 0.20289406
000270 15 9f 0e 3f 79 a2 0d bf a1 9c b8 bf 56 db e0 3e
       0.5571149 -0.5532604 -1.4422799 0.4391734
000280 c6 8c 88 bf 81 3b 7c 3f bc fb eb 3f ff 98 aa 3e
       -1.0667961 0.98528296 1.8436198 0.33319852
000290 ef 06 b2 3d e9 9a 33 be 46 89 a0 3f fc 80 6b bf
       0.08692729 -0.17539562 1.2541893 -0.9199369
0002a0 40 f1 bb 3f 8b 3d 54 3e 93 f2 f3 bf d2 a2 13 be
       1.4682999 0.20726602 -1.9058403 -0.1441758
0002b0 f3 22 9f bf 1d eb e5 3f 01 55 73 3f e9 b4 99 3f
       -1.2432541 1.7962376 0.9505158 1.2008334
0002c0 20 75 ea bd 10 6e 20 bf 56 26 c2 3d af 45 38 bf
       -0.11448121 -0.6266794 0.09479968 -0.7198133
0002d0 14 23 91 3e 0b 33 67 3f 5f b0 df 3f b9 57 df bf
       0.28347075 0.9031226 1.7475699 -1.7448646
0002e0 db be ed 3f 2a b9 0f 3f 42 98 6e bf f1 9a a8 bf
       1.857387 0.5614191 -0.93201077 -1.3172284
0002f0 e6 08 1d 3f b6 cd 4f bf 5d 1b 1f bf 06 05 25 be
       0.613417 -0.81173265 -0.6215113 -0.16115198
000300 3c f1 5b 3f f2 2e 95 3f fc 71 0f bf c7 8a 90 3c
       0.8591497 1.1654952 -0.560333 0.0176443
000310 1a 5e 8d bf 94 8f 86 bf 4e 11 16 c0 30 07 63 3e
       -1.1044343 -1.0512567 -2.3448062 0.2217071
000320 ba 89 fa 3e d6 8b c4 3f bd 4c a7 bf fd 4e 95 3f
       0.48933202 1.5355175 -1.3070294 1.166473
000330 f4 36 63 be 3b 20 05 3e 2e 0d 96 3e 5a 6d 7b 3f
       -0.22188932 0.13000576 0.2930693 0.9821373
000340 e8 ef c5 bd fd 75 a3 3f 85 49 f7 bf cd 8f 08 bf
       -0.09664899 1.2770382 -1.9319311 -0.5334442
000350 15 9b e0 be f2 e2 1d 3f 96 5f 9b 3e 66 7f 0b 40
       -0.43868318 0.61674416 0.30346364 2.1796508
000360 a2 96 94 3f a9 45 54 bf 86 37 d4 bf 0b 36 46 3f
       1.160847 -0.8291879 -1.6579444 0.77426213
000370 f7 cb 9e bf 07 b5 a1 bf 0f ba d4 3e cb 77 79 3f
       -1.2405995 -1.263337 0.415482 0.97448415
000380 1d 77 12 be b9 9b 97 3e e1 7b 9a bd c0 18 05 c0
       -0.1430325 0.29610994 -0.07543159 -2.0796356
000390 a3 91 c8 3f 5d 0d 15 40 28 22 c2 bc ac 59 d4 bf
       1.5669445 2.3289406 -0.023697928 -1.6589866
0003a0 6a c8 13 3f fa eb 21 bf 54 e8 20 be cf 9c 29 bf
       0.5772768 -0.63250697 -0.15713626 -0.66254896
0003b0 66 f4 89 bf 3c da 9b bf e5 fe db bf 1d ba 3e 3e
       -1.077771 -1.2175975 -1.7187163 0.18625684
0003c0 72 b5 ac be 28 14 25 3f e4 4d 8d 3f da 7b 4b 3e
       -0.33732182 0.6448388 1.1039395 0.19871464
0003d0 e1 da c5 bf 51 1a b5 bf a7 21 1d 3f ef b2 88 3f
       -1.5457422 -1.4148656 0.61379474 1.0679606
0003e0 99 ae fe bb 69 12 09 3f 68 50 84 3e d6 e9 1e 3f
       -0.0077722785 0.53543717 0.25842595 0.62075555
0003f0 b4 3e 4a 3f f4 af 2f 3f 47 89 26 bf db 1c 8e bd
       0.7900193 0.6862786 -0.6505322 -0.069390975
