model/Artificial_Data_600_epoch_100_attention_net_u_artificial_Q_9_K_6_F_5_REG_L0_ACT_sigmoid_WD_00002_CV.model (torch_old, 52157 bytes, 6 tensors)

key_matrix f4 [9, 6]
000000 9a 9a a1 bf 92 1b 3b 3f 7e 31 38 bf cf b9 a0 bf
       -1.2625306 0.73088944 -0.7195052 -1.2556704
000010 fe 70 b4 bf e0 e2 14 bf 0b f1 58 3e 8e 2b a2 bf
       -1.4096982 -0.58158684 0.211857 -1.2669542
000020 27 f2 57 3d 8b cf d5 3f d0 01 3c be cf 69 1f 40
       0.05272117 1.6703962 -0.18360066 2.490833
000030 a0 fb fc be 14 d8 28 3f 0a 86 22 40 ea 41 ea bf
       -0.49410725 0.6595471 2.539431 -1.8301365
000040 e1 ab eb 3e 53 8e 71 3f 8f ef 4d 3c 0d a1 50 3f
       0.4602957 0.94357795 0.012569322 0.81495744
000050 85 00 9f be 12 6b 2e bd bd fe cb 3e 5d 50 ab 3f
       -0.31055084 -0.04258258 0.39842787 1.33839
000060 72 3e 17 3f d6 3c 33 bf 5b 35 c4 3f 01 1b 47 bf
       0.5907966 -0.70014703 1.5328783 -0.7777558
000070 0a 59 ea be d2 ce 58 3f 86 52 b8 3e 6e a9 65 bf
       -0.45771056 0.8469058 0.3600046 -0.89711654
000080 03 88 c7 be 4d 77 28 3b 58 bf 80 3f 0a a4 29 3f
       -0.38970956 0.0025705874 1.0058393 0.6626593
000090 01 c7 24 bf b4 db 76 3e 9a 34 91 bf 06 b1 57 bf
       -0.64366156 0.24107248 -1.1344178 -0.8425449
0000a0 e9 76 1c bf 77 c7 c6 3f db 2b 3c bd bd c7 5a bf
       -0.6111894 1.5529622 -0.04594026 -0.85461026
0000b0 70 e7 13 3f ec 9e f3 be 3e a9 e8 3e ed be a9 3f
       0.5777502 -0.47582185 0.45441622 1.3261391
0000c0 3b ab 3c 3f 93 16 22 3f cd 32 13 3e 82 c9 6d bd
       0.73698777 0.63315696 0.14374848 -0.0580535
0000d0 fe 13 c9 3e 12 cc 04 40
       0.39273065 2.0749555

value_matrix f4 [6, 5]
000000 8b 75 58 3e 64 d4 3a bf f7 93 62 3e de 6d f0 be
       0.21138589 -0.7298033 0.22126757 -0.46958822
000010 2d 8f 3a bf bc 54 38 3f 0c e4 be 3f a5 c3 c4 bf
       -0.7287472 0.72004294 1.4913344 -1.5372206
000020 ca ce 11 bf 5f 67 5b 3c c8 4d 8d be eb b6 d3 3d
       -0.5695616 0.013391345 -0.27598405 0.10337623
000030 20 ca a2 bf 3f 1b 66 bf cb 46 d5 3f 89 e9 f1 3f
       -1.2717934 -0.89885324 1.6662229 1.8899394
000040 b6 3b d4 be a2 90 1e 40 68 7b 55 3f d7 18 06 c0
       -0.41451806 2.4775777 0.8339143 -2.095266
000050 85 38 a1 bd 8d bb bd 3e 16 64 d2 3e af 73 7c bf
       -0.07872108 0.37057152 0.41091985 -0.9861402
000060 17 b0 bb 3f 48 12 8c c0 68 bb 1a c0 b3 e5 9d c0
       1.4663113 -4.3772316 -2.4176884 -4.9342895
000070 eb 3c a2 bf fe 6e a0 40
       -1.2674841 5.013549

linear_layer1.weight f4 [9, 64]
000000 50 f4 6f 3e 12 b3 f7 bd d2 47 90 bd 21 83 7f 3e
       0.23433042 -0.12094702 -0.07044949 0.24952365
000010 de 7c 98 bc 15 dd d5 bc 84 9f 4c 3e 54 8d 87 be
       -0.018614229 -0.026106397 0.19982725 -0.26475012
000020 5a 9f 8a bd e3 45 7c be bc 39 e4 3d 6a e7 06 3d
       -0.06768675 -0.24636035 0.111438245 0.032935537
000030 0a 0e 9c 3d 49 fa 21 3d 1f e8 06 be df 47 86 3e
       0.07619865 0.03954533 -0.13174485 0.26226708
000040 b1 76 3b 3e 92 b7 60 3e 8c a0 c0 bd 9c 1e 01 bd
       0.18306996 0.21945027 -0.09405622 -0.031523332
000050 86 87 49 be a7 50 8b 3e dc 31 87 be de 7d 4b be
       -0.19680604 0.2720997 -0.26405227 -0.19872233
000060 a9 3a 0e be 06 21 49 be 58 79 8d be 1b 13 27 be
       -0.13889565 -0.19641504 -0.2763164 -0.16315882
000070 ee 97 41 3e 09 50 f9 3d 1f 22 8a be 82 fc 79 3e
       0.18905613 0.121734686 -0.26979157 0.2441273
000080 84 32 7d 3e 09 f4 b3 3b 66 94 45 3e 4e 21 9b 3d
       0.24726301 0.0054917377 0.19294891 0.07574712
000090 20 15 8d bc d6 d5 2c 3e 6f a4 ec bc cd c4 4e be
       -0.017221987 0.16878447 -0.028887002 -0.20192261
0000a0 b9 9c 8c 3d 6e 27 26 3e b2 03 45 be 0c bd 93 be
       0.0686583 0.16225979 -0.19239691 -0.2885517
0000b0 e1 fd 3b 3e fc d0 47 3e 32 b3 f1 bd fc 92 f1 bd
       0.18358566 0.19513315 -0.11801757 -0.11795613
0000c0 53 a0 d9 3d 98 21 90 bb 3c e4 eb 3c c6 f0 6f 3d
       0.106262825 -0.004398536 0.028795354 0.05857923
0000d0 0a c7 42 3d 4c a1 03 be 56 38 6a 3e a5 f2 45 be
       0.0475531 -0.12854499 0.22873053 -0.19330843
0000e0 e6 08 3e 3e d9 ba 00 3c 0d 17 45 3e a5 ce fa 3c
       0.18558082 0.007857048 0.19247074 0.030616114
0000f0 bb 5e 25 bd 94 82 85 3e 7e 27 8d 3e 26 46 2b 3e
       -0.040373545 0.26076186 0.27569193 0.16725978
000100 ca 07 31 3e 4e 45 34 3d 29 32 86 3d 01 38 05 3e
       0.17288128 0.044011407 0.06552536 0.13009645
000110 76 f7 e3 bd 72 df 06 bd ba d4 b7 bb 4f 00 8f 3e
       -0.11131184 -0.032927938 -0.005610076 0.27929923
000120 96 f5 61 bd f3 c8 e9 3c fb 67 be 3e 0d d5 c1 3d
       -0.05516585 0.028538203 0.37188706 0.09464464
000130 55 2a a2 3e 81 f8 e4 bd c9 0f 93 3e 46 ca e0 bd
       0.31672922 -0.11180211 0.2872298 -0.109760806
000140 8c 93 6b 3e d8 31 1d 3e 2b c7 8c 3b 97 4b 31 bd
       0.23005503 0.15351045 0.0042962036 -0.04328498
000150 89 51 8d 3d ef 46 23 3d 40 0d 64 3e 87 bd 20 3e
       0.06900317 0.03986257 0.2227068 0.15697299
000160 7c 66 e3 bd 80 a3 31 3d d2 27 92 3e 3a 94 0a 3e
       -0.11103532 0.043368816 0.28546005 0.13533106
000170 ca 23 7b 3e ba b2 c2 3e fc eb b8 3e 52 0a f8 3c
       0.24525371 0.38026983 0.36117542 0.030278359
000180 dd 9c 01 3e 1c 62 af bd 96 65 9e 3e c7 d8 c0 bd
       0.12657495 -0.08563635 0.3093688 -0.09416347
000190 c2 a3 e6 bd 13 1f 02 be 88 f3 8f bc 3f 76 5e be
       -0.11261703 -0.12707166 -0.01757218 -0.21724795
0001a0 14 d3 7a be a7 5b 9c 3e 6b 11 3e 3c 1a 78 ab 3e
       -0.24494582 0.30538675 0.011600832 0.33490068
0001b0 1b 7f 1c 3d 06 c2 38 3e 0d 1c a0 3d 97 3c 4d 3e
       0.038207155 0.18042764 0.0781785 0.20042644
0001c0 2e 7b a0 bd 30 55 09 be fc c0 9c 3d 53 d6 8d bd
       -0.07835995 -0.13411403 0.07653996 -0.06925645
0001d0 56 d4 9b bd 4c eb a5 3e f7 fb 0b 3e 5b 18 eb 3c
       -0.07608859 0.3240608 0.13670336 0.028698137
0001e0 40 0b 31 be af fe 97 3e 87 3d 10 3e eb be 94 bc
       -0.17289448 0.29686496 0.14085971 -0.018157443
0001f0 ab b8 98 bd 9c 24 a2 3e 5d 42 90 3d 38 07 eb 3d
       -0.074570976 0.31668556 0.07043908 0.11475986
000200 1d 5e 18 be 8f f8 a4 3d 66 4b 2d 3e ad 1c 30 bd
       -0.14879651 0.08055221 0.16923293 -0.042996097
000210 63 e9 ac 3c 21 94 22 bd 2e b7 b5 3d 27 4a 68 3d
       0.021107381 -0.039692048 0.088728294 0.056711342
000220 c1 ae 2f bc 87 39 48 be 31 90 1d 3e 1f b2 30 3d
       -0.010722817 -0.19553195 0.15387036 0.04313862
000230 10 69 05 be a5 70 47 3e f7 34 ed 3c 70 90 2d 3d
       -0.1302836 0.19476564 0.02895592 0.042374074
000240 e7 0d 75 be b9 43 f8 bd f6 66 31 3e 79 49 43 3e
       -0.23931085 -0.12122292 0.17324433 0.19070996
000250 61 ab 29 3e fe 2a a2 3d 99 20 79 3e 91 46 91 3e
       0.16569282 0.07918356 0.24328841 0.2837415
000260 64 ec 05 3d 57 ac 0e 3e 52 2d 1d be 9f 7f 09 3e
       0.032696143 0.1393293 -0.1534932 0.1342759
000270 32 ac 44 bd 88 6d 8e 3e 52 1c 8b 3e 96 02 5e 3d
       -0.04801578 0.2781794 0.27170044 0.054201685
000280 00 1a 68 bd 07 2f b5 bd 69 4c bf 3d f2 a4 06 3e
       -0.05666542 -0.088468604 0.09340746 0.13148859
000290 66 45 0f be 58 ae 69 be 66 5c 87 3e 0d b0 ed bd
       -0.13991317 -0.22820413 0.26437682 -0.11605845
0002a0 82 06 2b 3d 3a 5a 77 3e 45 5f 83 bd a9 d7 e6 3d
       0.041754253 0.24155512 -0.064146556 0.11271603
0002b0 e2 0a 8b 3e 12 8c 31 be a6 91 82 be 7b dc 1e be
       0.2715674 -0.17338589 -0.25501746 -0.15513794
0002c0 d7 72 23 3e 58 85 57 3d af 23 1d 3e d7 4b 5d be
       0.15961777 0.0526174 0.15345643 -0.21610962
0002d0 29 3b 52 3e b0 6a 2c be c6 78 ac 3d b1 c4 91 bd
       0.2053038 -0.16837573 0.08421473 -0.07117594
0002e0 df 55 6b 3d 98 fe 82 3e f5 54 15 3e 42 dc 29 3e
       0.05745494 0.25584865 0.1458319 0.16587928
0002f0 7e 4a 55 3e f4 51 4a be 1e ea 4a be a7 5c 31 3e
       0.20829198 -0.19757825 -0.19815871 0.173205
000300 16 aa a6 3e b8 b7 a2 3d b7 e2 17 be 65 ce 71 3e
       0.3255164 0.07945198 -0.14832579 0.2361389
000310 57 ec 95 3e d8 03 49 3e 8d 43 88 3e 4b 7d 4b be
       0.29281875 0.19630373 0.26614037 -0.19872014
000320 c5 11 9d 3e e4 3d f9 3d f1 5d b1 bc 97 e2 15 3e
       0.3067762 0.12170008 -0.02165124 0.14637218
000330 c5 1c 16 be 91 45 7e bd c3 52 0d 3e 02 07 22 be
       -0.14659412 -0.062078062 0.13801102 -0.15822986
000340 04 13 5c 3e c6 c9 b3 3d 5c 7e 15 3d 31 dc a5 bd
       0.21491629 0.087787196 0.03649746 -0.08098639
000350 c8 62 f1 3d 68 5f 4f be 4f f3 29 bc e3 d9 a6 3e
       0.11786419 -0.20251238 -0.010372951 0.3258811
000360 90 24 7d 3d 1b 64 6e bd ab 60 a3 3e b1 06 4f be
       0.061802447 -0.058200937 0.3190969 -0.20217396
000370 14 ef 6f 3e 53 7a 8c 3b 59 37 2f 3d f9 bf 31 3e
       0.23431045 0.004287043 0.042777393 0.17358388
000380 f3 5f c3 bc 95 b7 26 bc 1b b5 f5 3d 71 4a 5b 3e
       -0.023849463 -0.010175605 0.11997434 0.21415116
000390 b2 12 90 3e 1e ba 84 3d 6f e4 94 3b b3 4f 4b 3e
       0.28139263 0.064808115 0.004543833 0.19854622
0003a0 13 1c 1f be 14 a2 92 3d ca be b1 3a 80 e1 0c 3e
       -0.15538053 0.0715982 0.0013560888 0.13757896
0003b0 63 49 31 be 60 0d 89 3d 97 a1 86 be 71 c4 38 3e
       -0.17313151 0.06692004 -0.26295158 0.18043686
0003c0 af bc 9a bd 8c a6 c9 3d b7 56 b0 3d a9 d2 35 be
       -0.0755552 0.098462194 0.086102895 -0.17756142
0003d0 65 02 2d be ef 2c 30 3e 3b a8 ff bd f0 2c da 3c
       -0.16895445 0.17204641 -0.12483259 0.026632756
0003e0 b1 99 12 3e e5 a3 78 bd 5f f9 85 be c5 52 a2 bd
       0.14316441 -0.060703177 -0.26166818 -0.07925943
0003f0 0c e2 8d 3e 5d 15 f6 3c 07 e3 0b 3e 02 a0 1f 3d
       0.27711523 0.030039484 0.13660823 0.038970955

linear_layer1.bias f4 [9]
000000 04 59 b4 be 8f 26 90 be 1a 6b 1f bf a1 3e 59 bf
       -0.35224164 -0.28154418 -0.622728 -0.8486119
000010 54 f0 69 bf 1f 06 51 bf 4b 2f 40 3e 86 52 58 3f
       -0.91382337 -0.81649965 0.18768041 0.8450092
000020 5c d5 86 3f
       1.0533862

linear_layer2.weight f4 [2016, 5]
000000 ba 7b 1a 3e de ee 8d 3d a2 0c 5b 3e fe e6 84 3d
       0.1508626 0.06930326 0.21391538 0.06489371
000010 ee 9f 58 be 64 62 75 3d 81 43 c9 3b 04 41 17 3e
       -0.21154758 0.059908286 0.0061420803 0.14770895
000020 13 48 63 ba 4d cf 65 bd b8 d0 ba 3c f9 3a 35 3d
       -0.00086701027 -0.0561059 0.022804603 0.044245694
000030 11 8c 15 bd 63 c4 09 3d 26 c8 74 bd e7 a9 66 3d
       -0.03651053 0.033634555 -0.05976119 0.056314375
000040 3f 06 c3 bc 73 53 6b 3d 8c 8d 1a 3d 22 6f fb bb
       -0.02380669 0.05745263 0.037732646 -0.00767316
000050 c3 62 0c 3d 41 00 85 3d 20 6b 00 3d 39 ac d2 3c
       0.034273874 0.06494189 0.031352162 0.025716888
000060 cf 7d f7 bc dd a1 b4 3d 5c e5 79 3d 03 04 08 3e
       -0.030211357 0.088199355 0.06100975 0.1328278
000070 bc 6f 4e 3c ba cb 05 be 6e 16 40 3e 43 25 87 3d
       0.012599882 -0.13065997 0.18758556 0.06598904
000080 71 58 04 3e 1f 7a 68 3d 68 a7 27 be db 13 33 3e
       0.12924363 0.05675709 -0.16372454 0.17488043
000090 90 6d 69 3d 6f b7 53 3e a3 7f af 3d 71 0a 4e be
       0.056989253 0.20675443 0.08569267 -0.2012117
0000a0 2c b3 29 3e 22 3e 18 3e 95 d3 30 3e 01 68 1c 3d
       0.16572255 0.14867452 0.17268212 0.038185123
0000b0 a0 ae 65 be e9 c0 e5 3d 87 a5 52 3d cc 9c 58 3d
       -0.22429895 0.11218435 0.05142739 0.05288391
0000c0 3a 01 cc bb 81 b2 ec bd ac 4a 07 3e 8f d4 84 3c
       -0.006225732 -0.115574844 0.13212079 0.016214637
0000d0 6d df 2a 3e d8 f4 42 bc 86 71 cf bd 86 6c 7d 3d
       0.16686793 -0.011899196 -0.10129075 0.061871074
0000e0 ec 3a 0e bc aa 9d a1 3c bc 4c 11 bd d6 d2 19 bd
       -0.00868104 0.0197285 -0.03547357 -0.037554584
0000f0 c4 51 3f 3e ee 92 d9 3d f4 20 7d 3e 56 d6 d8 3d
       0.18683535 0.10623728 0.24719602 0.10587756
000100 92 e8 88 be da 62 97 3e 01 33 1b 3e d2 49 a1 3e
       -0.26739937 0.29567605 0.15156175 0.31501633
000110 6f ed 02 3e c4 d7 9f be 9d ff f6 3d dd 2c 1c 3d
       0.12785886 -0.31219304 0.12060473 0.038128722
000120 aa fd 64 3e e1 ab 27 3d 61 d4 07 be 93 da 29 3e
       0.2236239 0.0409354 -0.1326461 0.16587286
000130 ef 84 8a 3d 1e ea 81 3e 9a 5e b4 3d 6c 61 28 be
       0.06763636 0.2537393 0.08807106 -0.16443413
000140 fb 21 f0 3d 6f 9a d3 3d 5e 84 2e 3e 06 08 92 bb
       0.11725231 0.1033219 0.17042682 -0.004456523
000150 1d 58 2d be aa fb 18 3e 1f 46 4e 3d eb f4 18 3e
       -0.16928144 0.14939752 0.05035984 0.14937179
000160 29 67 2e 3d 83 8e 1e be 47 2f 15 3e d4 4a 9c 3d
       0.04257885 -0.15484051 0.14568816 0.0763146
000170 d1 0b 07 3e 4b 40 8e 3d 93 70 cf bd fb 37 0a 3d
       0.13188101 0.06945857 -0.10128894 0.033744793
000180 1f 82 c7 3c 72 bf af 3d af 84 e1 3c 99 8d 89 bd
       0.024354039 0.08581437 0.027529089 -0.06716461
000190 8e fa cb 3d 96 77 fd 3d 7b a9 50 3e 77 ce 77 3d
       0.09959899 0.12376325 0.20377152 0.060499635
0001a0 e6 db 32 be 2b 82 23 3e 47 b5 b6 3c 64 8b 15 3e
       -0.17466697 0.15967624 0.022303237 0.14603955
0001b0 98 32 4a 3d 0b a5 bb bd 3a fa 4a bc cd ee d4 3c
       0.049364656 -0.09162339 -0.01238876 0.025992775
0001c0 89 d0 a4 3d 08 13 17 bd ab 92 48 bd 00 8c 36 3e
       0.080475874 -0.036883384 -0.048968 0.17826843
0001d0 42 76 00 3e 66 01 8d 3e bd cd bf 3d ae ee 91 be
       0.12545112 0.2754013 0.09365413 -0.2850241
0001e0 8b e0 63 3e 2a 1f 0d 3e 5c 37 6b 3e b5 8e 46 3d
       0.22253625 0.1378142 0.22970337 0.04847594
0001f0 0f 3a 40 be ac 69 e6 3d 19 08 99 3d 4f 7c 3a 3e
       -0.18772148 0.11250624 0.07472248 0.18211482
000200 af 2b 9a 3d bd c7 17 be 58 d8 9e 3d 80 b9 b8 3d
       0.07527863 -0.14822288 0.07756108 0.09019756
000210 cf aa 13 3e a0 a0 ea 3c d7 99 f6 bd 30 57 33 3e
       0.14420627 0.028641045 -0.12041061 0.17513728
000220 04 4f bb 3d 4a 1c 5a 3e 8a 1c 4e 3d ae 7d 06 be
       0.091459304 0.21299854 0.050320186 -0.1313388
000230 e7 20 0c 3e d1 ae e3 3d 25 7e 86 3e a3 66 53 3c
       0.13684426 0.11117328 0.26268116 0.0129028885
000240 f4 da 59 be 37 22 ec 3d 04 39 d8 3d b5 60 1b 3e
       -0.2127493 0.115299635 0.1055775 0.1517361
000250 02 ae 87 3d e5 a9 28 be c3 e3 ae 3d 8f 79 db 3d
       0.06624986 -0.1647106 0.08539536 0.10716545
000260 3c 8b 1a 3e f6 18 46 3d 9e 6b 34 be 3d 26 70 3c
       0.15092176 0.04836365 -0.17619178 0.014657554
000270 c3 4f 6d bd 7a 35 bb bc c0 8c 0f bd 6f e5 92 3d
       -0.057937395 -0.022852648 -0.03504634 0.07172667
000280 e5 24 5e 3d b6 24 87 3c 5e f8 60 3b 4f dc 47 bc
       0.054234404 0.016496997 0.0034327726 -0.012198522
000290 a2 13 2f 3d f8 dc 88 3d b5 0e 66 3d 43 cb 8c 3c
       0.042743333 0.066827714 0.05616637 0.017186766
0002a0 1e 1e 06 3d 83 72 59 3b d8 07 1d bb d6 55 1b bd
       0.032743566 0.0033179827 -0.0023960974 -0.037923656
0002b0 c5 57 f1 3a 9a 58 d5 bb 04 07 81 3c 61 de 99 bc
       0.0018412998 -0.0065108063 0.015750416 -0.018782796
0002c0 1f dd f8 bc 36 9e 3c bd 38 83 a5 3b e0 4d 8c 3d
       -0.030378876 -0.04604932 0.005051043 0.06850791
0002d0 20 c2 a2 bc e3 f9 2f 3c 95 0f 27 3c 96 88 57 bd
       -0.019867957 0.01074073 0.010196586 -0.052620493
0002e0 43 81 64 3d 6d e7 2f bd 30 0b 9f bd bb 92 cb bd
       0.055787336 -0.042945314 -0.07765806 -0.09940096
0002f0 ff d8 14 bd 82 9b e7 3d 17 19 df bc 90 65 21 bd
       -0.036339756 0.11308958 -0.027233643 -0.0394035
000300 10 49 52 bd db 0a 66 bd 22 2a 4d ba 3f 9a db 3d
       -0.05133921 -0.056162696 -0.00078264077 0.107227795
000310 12 1e 5b 3c 5f 6b 1c 3e aa 6b a0 3c 6c bb 35 be
       0.013373869 0.15275334 0.019582588 -0.17747277
000320 87 28 a7 bd a4 f2 99 3a 14 d2 47 bd 3c 4d 83 bd
       -0.08162027 0.0011745286 -0.04878433 -0.06411216
000330 c9 cf 2a ba 35 f1 4c bd ce 09 cd bc 08 1d f2 bd
       -0.0006515948 -0.05003472 -0.02502909 -0.118219435
000340 2c 22 d2 bb 29 d6 99 3d e3 84 18 3b 12 4f 19 bc
       -0.006412765 0.07511551 0.0023272566 -0.009357231
000350 50 77 ac 3d b5 84 b1 bc 8d cf c1 bd 20 88 2c 3d
       0.084211946 -0.021669725 -0.09463415 0.042122006
000360 28 d4 82 bc cd 7b cf bb e1 31 89 3c a6 10 03 bd
       -0.015970305 -0.006331897 0.016747417 -0.0319983
000370 87 68 08 bd bb 0f 92 bb 61 dc f9 ba 06 eb f3 bc
       -0.03330281 -0.0044574416 -0.001906287 -0.029775154
000380 da 5b 78 bd 48 04 ad 3d cd 8b af 3c 4d 75 40 3d
       -0.06063447 0.08448082 0.021428967 0.046986867
000390 9a d2 9c bb 64 2f c0 bd d7 8b b5 bd f1 e4 29 bd
       -0.004785848 -0.09384039 -0.08864563 -0.0414781
0003a0 ea ef 08 bd 30 84 1f 3c fc e7 df 3d 69 ae 4b bc
       -0.033431925 0.009736106 0.109329194 -0.012431719
0003b0 1a 84 3a 3d 44 48 7e bb 05 04 4b 3d 83 73 dc bb
       0.045536138 -0.0038800398 0.04956438 -0.0067276373
0003c0 f1 d0 02 3d e7 ff 25 bd 47 3b 36 3d 7a 84 dd 3c
       0.031937543 -0.04052725 0.044490125 0.027040709
0003d0 58 17 46 bd 3d 51 99 3d 3b 27 ff 3c 5b 04 2c 3e
       -0.048362106 0.07486198 0.031146636 0.16798536
0003e0 36 b9 83 b9 d2 4f 12 be 19 49 7e 3d 77 d5 b4 bc
       -0.0002512426 -0.14288262 0.06208143 -0.022074444
0003f0 b0 43 cb bc 0a bd df 3b 72 92 27 bd 14 a9 e9 3d
       -0.02481255 0.006827955 -0.040911146 0.11409202

linear_layer2.bias f4 [2016]
000000 f7 ee a1 3f 28 8d 13 bf 17 32 c5 bf 07 5a 9e bf
       1.2651051 -0.5763726 -1.5405911 -1.2371224
000010 fc 76 ec bf 18 1b 17 bd ef 8f b1 3e 1d 78 98 3f
       -1.8473811 -0.036891073 0.34680125 1.1911656
000020 5e 75 38 3f 07 ca ad be 65 ef c6 3e 34 65 a1 bf
       0.7205409 -0.33943197 0.3885452 -1.260901
000030 a5 86 b7 be 54 1f 6f 3f 99 ce ac bc c2 14 6d 3f
       -0.35844913 0.9340718 -0.021094607 0.926098
000040 57 6a 46 3f 66 e2 66 bf 93 9b 89 bf 74 e2 cc bf
       0.7750601 -0.90189207 -1.0750602 -1.6006608
000050 18 ab 9b be 19 bc 28 3e e8 2a 82 bf fe 7b bb 3f
       -0.30403972 0.16478004 -1.0169344 1.4647214
000060 87 3b de 3f 2b 23 4f 3e 55 64 c1 be 45 00 10 3f
       1.7361916 0.2022826 -0.3777186 0.5625041
000070 65 83 5b 3f 77 17 eb bd 40 de 81 bf 96 99 7b bf
       0.8574737 -0.11479085 -1.014595 -0.9828123
000080 fd d3 59 be c1 0f 83 3e 47 d3 f9 bd f8 8c 55 bf
       -0.21272273 0.25597957 -0.12198501 -0.83418226
000090 e8 27 ef be 84 78 de bf 84 34 77 bf fd 96 0c 40
       -0.46710134 -1.7380528 -0.9656451 2.1967156
0000a0 73 37 24 bf 05 bc d2 bf 6f e0 4a 3f 1b 82 87 3d
       -0.6414711 -1.6463629 0.7924871 0.066166125
0000b0 22 f6 8f be f8 fc 90 3f 39 76 b3 bf de cb 50 bd
       -0.28117472 1.13272 -1.4020454 -0.050975673
0000c0 d9 3a 8d 3e 6d 0f 03 40 da 4b 7b 3c 68 81 fa 3f
       0.2758396 2.0478165 0.015337909 1.9570742
0000d0 7c 49 b9 3e 89 93 83 3f 4f ca 57 3e 8b 0b 91 bf
       0.36188877 1.0279399 0.21073268 -1.1331648
0000e0 fb ad 40 bf c3 a1 ac be 1d 71 c5 be a5 10 9a 3e
       -0.75265473 -0.33717164 -0.3856286 0.30090824
0000f0 44 f5 6d 3a 77 14 9a bf 2e ca ec 3d 77 7e 48 bf
       0.000907738 -1.2037495 0.11562 -0.7831797
000100 cf 7b 90 3e ef a4 93 3f 3d 1b 84 bf 31 91 04 bf
       0.28219458 1.1534709 -1.0320812 -0.51784045
000110 d1 c1 2a 3f 36 1a f3 3e e2 60 df 3e c2 4f 28 3f
       0.6670199 0.47480935 0.43628603 0.657467
000120 e0 b6 7f 3e 0c e3 93 bf e1 78 34 be 9d 4f b1 3f
       0.24972105 -1.1553664 -0.17624237 1.3852421
000130 84 c5 20 3d d8 9d 89 3f a9 d9 f4 3f 2c a4 84 3e
       0.039250866 1.0751295 1.9128925 0.25906503
000140 89 bb 7d bf cb 5b 86 bf 7c c7 5e be cd 7a b8 bf
       -0.9911428 -1.0496763 -0.21755785 -1.4412476
000150 2d 81 04 c0 cc fd dc bf 80 ee c7 3e 6f 2d 91 bf
       -2.0703843 -1.7264953 0.3904915 -1.134199
000160 a9 a0 d9 be 3a 95 56 bf 5a 6a 90 bd 51 ed 74 3f
       -0.42505386 -0.8382145 -0.07051535 0.95674616
000170 75 2a 9a be c8 1d c2 be 02 cd 63 bf 31 33 03 3f
       -0.30110517 -0.37913346 -0.8898469 0.51249987
000180 e7 70 dc be 7e e0 7e bf 55 bc f4 be 9a 8a 4f 3e
       -0.43054888 -0.995613 -0.47799936 0.20267716
000190 1c 99 00 3f b0 47 5c bf 82 4e 78 bf e8 d0 02 bf
       0.50233626 -0.86046886 -0.96994793 -0.51100016
0001a0 d4 f7 48 3f ae 71 0a bf 82 35 21 c0 de 7d 05 c0
       0.78503156 -0.5407971 -2.5188909 -2.0858073
0001b0 d5 f4 b7 3f 57 da e2 3e 51 41 b8 be 18 36 48 bc
       1.4371592 0.44307205 -0.35987332 -0.012219928
0001c0 92 ed 11 c0 11 a8 6f bf 8e e2 10 bf ee f3 40 bf
       -2.2801251 -0.93615824 -0.56595695 -0.7537221
0001d0 b8 12 59 bf a4 88 c1 bf e4 5e 5f 3e 0f 80 bf 3f
       -0.8479419 -1.5119824 0.21813542 1.4960955
0001e0 05 7a 30 3f 7b 81 d7 be 49 fd c4 3e 90 ca 7c 3d
       0.6893619 -0.42090973 0.3847449 0.061716616
0001f0 0d bc 94 3d d5 2c 0d bf 80 ef bf bf d7 83 91 bd
       0.0726243 -0.55146533 -1.4994965 -0.071052246
000200 e8 dd 34 3f 40 58 fe be 73 2d 1e bf e4 f4 44 3f
       0.706511 -0.49676704 -0.617881 0.76936173
000210 d2 52 70 bf 94 54 df bd 77 7f 1e bf e6 6c 44 3f
       -0.93876374 -0.10904804 -0.61913246 0.76728666
000220 80 7c 01 3f 45 2a 14 be 4e b1 14 3f e9 56 15 3e
       0.50580597 -0.1446925 0.58083045 0.14583935
000230 fe d3 91 bf f1 4a 3a 3e d9 dc 41 3f d4 cf b4 bd
       -1.139282 0.1819265 0.7572761 -0.088287026
000240 42 6f 10 c0 45 ea ad bf 5d b8 d3 be 5d 64 99 3f
       -2.2567906 -1.3587118 -0.41351596 1.1983753
000250 cf 3f 48 3f 3e e7 e3 be 8a 60 a4 3e fb 30 b4 be
       0.78222364 -0.4451236 0.32104903 -0.3519362
000260 43 e6 0d 40 13 be 90 3f b1 c9 ae bf 78 64 52 3e
       2.217179 1.1308006 -1.3655301 0.20546138
000270 36 0a 18 c0 5c 7c 94 bf b9 88 3e be bd 58 96 3f
       -2.3756232 -1.1600451 -0.18606843 1.1745831
000280 d8 b6 cd be 57 e1 73 3e 42 2b 3a bf 5e 5d 81 bf
       -0.4017856 0.23816429 -0.72722256 -1.0106618
000290 6b 6d d4 bc e5 1a 09 bf 88 ee 91 be 4c a8 4a 3f
       -0.02593108 -0.5355666 -0.28502297 0.7916305
0002a0 96 77 b1 bf 1b 7d db be ad d9 aa 3e e2 40 0b 3f
       -1.386462 -0.42868885 0.33369198 0.5439588
0002b0 d5 1c d4 bd 88 8b 82 3f 88 6d 24 3f 92 2b ad bc
       -0.10357062 1.0198832 0.6422963 -0.02113894
0002c0 65 e5 02 3f 52 3c 50 3f c8 ef c9 bf 64 82 7a 3f
       0.5113128 0.8134204 -1.57763 0.9785521
0002d0 3e 01 90 bf f6 f0 87 bf d7 17 63 3f a8 48 b1 bf
       -1.1250379 -1.062041 0.8870825 -1.3850298
0002e0 96 e1 35 3f 81 4f e0 bf 1e 80 91 3e 6e 12 51 3f
       0.7104734 -1.7524263 0.28418058 0.81668746
0002f0 cf 04 fc 3e 8d dd ed 3e 8e 23 46 be cd 02 e5 3e
       0.4922242 0.46458092 -0.193495 0.447287
000300 19 ba b5 3f 23 33 a6 3e 7e 7a 17 bf eb a1 6f 3e
       1.4197417 0.3246089 -0.59171283 0.2340161
000310 8a 86 a1 bf 2a 44 94 3d 38 85 8f bf 1a 51 39 3f
       -1.2619183 0.07239564 -1.121253 0.72389376
000320 f2 c2 15 c0 33 38 ac 3f b6 9a a7 be c9 ff 5e 3f
       -2.3400235 1.3454651 -0.32735223 0.8710905
000330 3a 87 5e 3f 1e aa c9 3e 17 18 3d 3f fe b9 8a be
       0.8692509 0.39387602 0.73864883 -0.27095026
000340 54 fb 32 bf 63 da 3d bf d3 79 c9 be ba e0 dc bc
       -0.69914746 -0.74161357 -0.39350757 -0.026962627
000350 72 8a 75 3f 5c 3f 0f 3e 38 48 c5 3e 51 bc f0 3f
       0.95914376 0.13989013 0.3853166 1.880747
000360 a7 88 b8 3f 12 39 78 bf 75 ff a3 3f 3a 70 80 bd
       1.4416703 -0.9696208 1.2812334 -0.062714055
000370 76 ae 9d bf 21 cf a8 3f 21 50 ca 3d 4b fe 2a bf
       -1.2318866 1.3188211 0.098785646 -0.6679427
000380 6e 7d b8 bf 03 d2 1c c0 f3 19 69 bf ad bd 97 3e
       -1.4413278 -2.450318 -0.9105522 0.296369
000390 32 de ac be f7 3d 0a bf 0a f6 1c 40 d7 f5 80 bf
       -0.33763272 -0.540008 2.452517 -1.0075024
0003a0 82 2c 77 bf 38 91 59 3f fd 7a d0 3f 3b ba da bd
       -0.9655229 0.8498721 1.6287533 -0.10680052
0003b0 72 1c 04 3f bc 58 82 3f a1 39 21 bb c5 60 17 c0
       0.51605904 1.018333 -0.0024601 -2.3652813
0003c0 34 4c ce 3f a2 43 9a be 4f 09 1a 3f 5f f1 ba bf
       1.6117005 -0.30129725 0.60170454 -1.4604911
0003d0 e4 24 ef 3d 94 c2 04 3b 31 b1 a2 3e 7b 08 ad bf
       0.11676958 0.002025758 0.3177581 -1.3518213
0003e0 d2 87 b4 3f ab c9 0f c0 9e 15 48 bf 55 9f 88 be
       1.4103949 -2.2466838 -0.78157985 -0.2668406
0003f0 94 7f b3 3f 14 34 d8 bd 12 37 2f 3e e6 56 04 bf
       1.4023309 -0.10556808 0.17110851 -0.51695096
