model/Artificial_Data_6000_epoch_100_attention_net_u_artificial_Q_9_K_2_F_5_REG_L0_ACT_sigmoid_WD_000001_CV.model (torch_old, 51933 bytes, 6 tensors)

key_matrix f4 [9, 2]
000000 94 65 18 bf f0 b6 98 be 01 24 5f bd 65 5e ae 3f
       -0.59529996 -0.2982707 -0.054477695 1.3622557
000010 d5 18 8d 3e cb ef ca be f1 82 59 3f 77 8e 7c 3f
       0.27558008 -0.39636073 0.84965426 0.98654884
000020 ba e9 ce bf 77 09 31 3f f0 f1 a7 be 35 c7 e8 3e
       -1.6165078 0.6915507 -0.3280177 0.45464483
000030 25 02 58 bf 6b f0 2c bf ed 8e 19 c0 3f 33 01 40
       -0.8437827 -0.6755435 -2.3993485 2.0187528
000040 53 2c a5 bf df 20 9c 3f
       -1.2904152 1.2197531

value_matrix f4 [2, 5]
000000 76 94 c8 be 04 2d c2 be fa 31 0a be 83 32 af bd
       -0.39175767 -0.3792497 -0.13495627 -0.08554556
000010 ab 5f 99 bf 1b eb 17 c0 27 04 5a 40 87 59 95 bf
       -1.198232 -2.3737247 3.4065034 -1.1667947
000020 04 86 99 c0 5b d2 88 40
       -4.7976093 4.275678

linear_layer1.weight f4 [9, 64]
000000 58 cb f5 3d 8c fe 25 be a7 dd 41 3e cc f4 5d 3e
       0.12001675 -0.16210383 0.1893221 0.21675414
000010 de bc a8 bd b7 00 af bd a3 80 c6 bd 71 d9 9a 3d
       -0.082391486 -0.08545058 -0.09692504 0.07561005
000020 53 1e 41 3c c4 df b3 3d ce 44 ed bd 53 ad 08 3e
       0.011787015 0.08782914 -0.11585389 0.13347368
000030 1b 80 e2 3c bf d7 bb bd f6 1e 88 be 7f 91 17 3e
       0.027648976 -0.0917201 -0.2658612 0.14801596
000040 0f 31 80 bd a3 29 5e be 3a 9e 64 be b1 c8 f3 3d
       -0.06259357 -0.2169557 -0.22325984 0.11903513
000050 fe ee 75 bd 4f 6b 92 bd 19 9b 02 bd 70 6b 9d bd
       -0.060042374 -0.07149374 -0.031886194 -0.07686508
000060 30 ef f0 3c cf 07 4d bc f3 c6 ba 3d ea 5d 8b be
       0.029410928 -0.012514069 0.09119978 -0.27220088
000070 c4 ed 6a be e6 51 67 3d e4 54 88 bd 07 b9 60 3e
       -0.22942263 0.05647459 -0.066568166 0.21945582
000080 9b b6 62 3e 65 41 e0 bd 3f a4 46 3d 31 fd d7 3c
       0.22139971 -0.10949973 0.04849648 0.026365848
000090 69 7b 6f 3b db 23 87 be 99 9b 7b 3e 2f 08 3e 3e
       0.0036542064 -0.26394543 0.24571075 0.1855781
0000a0 10 6c ca bd 72 63 eb bd fd c2 33 be f5 36 f4 3d
       -0.098838925 -0.11493577 -0.17554851 0.11924545
0000b0 b5 9f 81 3d df c0 65 be 12 94 2e be 6b 24 17 be
       0.0632929 -0.22436856 -0.17048672 -0.14759986
0000c0 69 fb 3b be e0 60 45 be dd 32 7f 3e db 63 9b 3d
       -0.18357624 -0.19275236 0.24921747 0.07587405
0000d0 67 86 46 be 4c e2 33 bb db a6 41 3e 41 d8 63 3e
       -0.19387208 -0.0027448116 0.18911307 0.22250463
0000e0 99 ba c2 3d b1 98 60 be b4 8e 28 3e 4d e5 fa 3d
       0.09508247 -0.21933247 0.16460687 0.12250767
0000f0 03 ca 38 3e e0 aa 66 3e d7 ab c7 bd c3 51 a7 3d
       0.18045811 0.22526121 -0.09749573 0.08169892
000100 c2 ba ec 3d 47 0d 78 3e 0f fe 0b be 6e c0 71 be
       0.11559059 0.24223815 -0.13671134 -0.23608562
000110 f8 05 0a bd a7 72 69 3e f3 a1 c7 3c 36 19 67 3e
       -0.0336971 0.22797643 0.024369216 0.22568211
000120 d6 36 52 3e cf b2 c0 3d 22 d5 ff bc 64 61 6e be
       0.20528731 0.09409105 -0.03122956 -0.23279339
000130 f1 25 a2 3d d5 86 76 bd 7d f0 8f 3d 70 84 49 be
       0.07917393 -0.06018718 0.070282914 -0.19679427
000140 98 a6 6a 3e db 4b aa 3d 12 88 72 be 30 78 82 be
       0.22915113 0.083152495 -0.23684719 -0.2548232
000150 c7 cf 63 3e c9 28 82 3d 28 46 86 be f4 05 10 be
       0.2224723 0.063554354 -0.262254 -0.14064771
000160 63 bf f6 3d e7 52 fb bd 0b 4f 18 be 6c 5a 92 3e
       0.12048223 -0.12271672 -0.14873902 0.2858461
000170 8c ac 0d 3e 7c 76 a8 3c df 85 48 be 2f c7 1e 3e
       0.13835353 0.02056431 -0.19582318 0.1550567
000180 bd 04 5a be c7 d6 7a be 95 14 1c be fc 28 3a bc
       -0.2129087 -0.24495994 -0.15242226 -0.0113623105
000190 1d 13 df 3d 23 22 12 3e cd 5a 80 bb 14 8d 8d be
       0.108923174 0.14270835 -0.0039170743 -0.27646697
0001a0 8a 6d 20 be e0 bc 1e be b2 4f 48 be 48 c9 6d be
       -0.15666786 -0.15501738 -0.19561651 -0.23221314
0001b0 a7 38 f5 bd 80 f4 8b 3d f1 e5 e1 bd ee cc 11 3e
       -0.11973696 0.06833744 -0.11030186 0.1423833
0001c0 40 c3 ba 3d a5 df 1d be 43 23 02 3e a5 83 4b bd
       0.09119272 -0.15417345 0.12708764 -0.049686093
0001d0 5c 1f 85 3e 57 6c 87 3e 93 99 a2 bd 12 9d 20 be
       0.26000488 0.26449844 -0.07939448 -0.15684918
0001e0 53 62 22 be 8c 7b 31 3e 09 b1 67 be 41 7c ed 3d
       -0.1585782 0.17332286 -0.22626127 0.11595965
0001f0 41 2b c4 3d d2 8f 89 3e 11 48 4a 3e 45 b9 a2 bc
       0.095785625 0.2686754 0.19754054 -0.019863734
000200 16 1d 1d 3e 5f 41 21 bd c8 bf 4a 3e 6b 6e ed 3b
       0.15343127 -0.039368983 0.19799721 0.007245829
000210 a2 4d fc 3d e0 72 f7 3c 60 29 93 3d cd 47 8c bd
       0.12319495 0.030206144 0.07185626 -0.068496324
000220 68 29 74 3e 07 f8 88 bd 80 6a 90 3e 35 33 97 3d
       0.2384392 -0.066879325 0.28206253 0.07382814
000230 05 64 27 3e b3 f2 b0 3b 0b 13 8a 3e a4 5d 1c 3e
       0.16346748 0.0054000258 0.26967654 0.15270096
000240 9c 28 49 3d 41 e7 8a bd d0 86 86 be 6e e8 aa bc
       0.049110994 -0.067823894 -0.2627473 -0.020862784
000250 e4 7a 37 3e 2a 6d 83 be e7 8a 3b 3d 78 92 cc 3d
       0.17917973 -0.25669223 0.045786764 0.09988874
000260 af 15 62 be 58 9c 3a be 11 a6 17 bd b4 1c f4 bd
       -0.22078584 -0.18223703 -0.037023608 -0.11919537
000270 9d 7d 20 3e 40 17 97 bd ea f4 66 3e 7b de b7 3d
       0.15672918 -0.073774815 0.22554365 0.08977982
000280 3b 18 7c 3e 2e bf 70 3e 21 1d 23 3e e8 56 6f 3e
       0.24618618 0.2351043 0.1592908 0.23372996
000290 d3 fc 21 be 3c 3d 9d 3d 2a 66 1a be 86 40 04 3e
       -0.15819101 0.07677695 -0.15078035 0.12915239
0002a0 91 c2 7d bc aa cb 71 3e 59 d3 80 3e 68 ab f4 bd
       -0.015488283 0.23612848 0.25161245 -0.11946756
0002b0 26 6f 0d be 22 43 ec 3c 7c b2 0b 3e 87 04 5d 3e
       -0.13811931 0.028840605 0.13642305 0.21583758
0002c0 ce ed 83 be fb ac 5c be 0b 87 73 be 1d e2 57 3e
       -0.25767368 -0.21550362 -0.23781984 0.21082349
0002d0 3a c1 01 3e b5 15 55 be b7 d9 d3 3d ff fa 59 be
       0.12671366 -0.20809062 0.1034426 -0.21287154
0002e0 d9 86 15 3d 9c 5e 17 be 98 29 0d 3e a9 7a 8b 3e
       0.036505554 -0.14782184 0.13785398 0.2724202
0002f0 1f 59 e7 bc c3 da 66 be b6 84 2f 3e d6 5b d7 bd
       -0.028240738 -0.22544388 0.17140469 -0.10515563
000300 74 5d bb 3d b5 91 d5 3d cd 89 94 bd 70 2f 5f bd
       0.09148684 0.10428182 -0.07252846 -0.0544886
000310 f0 6a 8a 3d e3 63 bb 3b 6c c5 89 be 6b d4 86 3e
       0.06758678 0.0057186945 -0.26908433 0.26333937
000320 32 09 53 3e ec cb 6f 3e f4 ae 67 3e b1 ca 4f 3e
       0.20608976 0.23417634 0.22625333 0.20292164
000330 a4 35 3d 3e 56 85 0c be c4 da 0f bb 8a fd 0a 3d
       0.18477494 -0.13722739 -0.0021950463 0.0339332
000340 05 05 5e be bc a6 1a 3e 49 63 8a be 18 79 f0 3c
       -0.21681602 0.15102667 -0.27028874 0.029354617
000350 24 b1 1b 3e cd 51 19 be 54 de 5e be d6 1f bd bd
       0.15204293 -0.14972611 -0.21764499 -0.09234588
000360 4e 6f 3e be 93 15 80 bc a6 6c a3 3c 19 6c 0a 3e
       -0.18597147 -0.015635287 0.019949269 0.13517798
000370 f6 54 36 be 9b 70 84 be 44 c6 06 3d dc d3 83 bd
       -0.17805848 -0.2586716 0.032903925 -0.06436893
000380 9d 0c 0d be ac 6d 71 be 62 fa 2a be af 81 38 3e
       -0.13774343 -0.23576993 -0.16697076 0.1801822
000390 34 0a 06 be 43 3b 91 bd 1d 2c 64 3e 4b bf e0 bd
       -0.1308983 -0.070913814 0.22282453 -0.10973986
0003a0 5e ef 07 be 6f 3b 2b be 23 93 b6 bd 01 e0 67 3d
       -0.13274905 -0.16721891 -0.08914783 0.05661011
0003b0 84 6c 7f 3e 45 ec 38 3d 9c 2b 82 be 43 e4 32 3e
       0.24943739 0.0451472 -0.25423896 0.17469887
0003c0 b2 29 bc 3d 32 b1 84 3e 3b 42 18 3e 65 6b 84 be
       0.0918764 0.2591644 0.14869015 -0.25863186
0003d0 c3 2d 2f 3e ea f6 8a be 27 ed da bc 5f 96 c8 bd
       0.171073 -0.27141505 -0.026724411 -0.09794306
0003e0 2e 6c eb 3d 81 07 79 3d 6a c3 86 3e 98 12 29 3e
       0.11495243 0.060798172 0.26320964 0.16510999
0003f0 67 3b 44 be 5a 9b 30 be f8 da 69 3e ba 0e 33 be
       -0.19163285 -0.17246762 0.22837436 -0.17486086

linear_layer1.bias f4 [9]
000000 42 7b a1 bf 50 f9 a0 be 22 95 01 c0 8d 12 51 3e
       -1.261574 -0.3144021 -2.0247273 0.20417233
000010 bc 31 6e 3e c6 c3 65 3f 8e 4a 00 3f 01 b3 88 3f
       0.2326116 0.8975185 0.5011376 1.0679628
000020 8d bb cd bf
       -1.6072861

linear_layer2.weight f4 [2016, 5]
000000 5c ca 94 3c 03 1c 24 bd bb 33 c6 3c f2 d6 03 3e
       0.018162899 -0.040065777 0.024194589 0.12874964
000010 4c e8 65 bd e6 b9 92 3d f7 ca b5 bc d9 8a ad 3c
       -0.05612974 0.071643636 -0.022191508 0.021184372
000020 59 99 1b bc 28 bb 46 bd 77 9f 26 3d 65 e4 7d bd
       -0.00949701 -0.04851833 0.04067942 -0.061985392
000030 fd 03 ad 3c ac bc d1 3d 19 50 26 bc 2c df 92 bd
       0.021120066 0.102410644 -0.010150933 -0.07171473
000040 b8 7a c0 3d 15 a7 54 bc ad c8 dd bd 10 55 a2 3d
       0.09398407 -0.012979289 -0.108292915 0.07926381
000050 92 a3 01 bd 3e b3 93 3d c1 b7 8a bd 11 4f f7 bd
       -0.031650133 0.07211922 -0.067733295 -0.120756276
000060 73 55 14 3e cd c9 ef bd 47 d9 c5 3d ee 98 eb bc
       0.14485721 -0.11708412 0.09660583 -0.028759446
000070 8d e3 1b be 68 f3 bb 3d 54 54 a9 3d d5 27 97 bd
       -0.15223522 0.091772854 0.082680374 -0.07380644
000080 38 ee 4b 3d f6 5e 3d 3d 42 c0 02 bd df f3 c5 bb
       0.04978773 0.04623314 -0.031921633 -0.0060410346
000090 29 5f 5f bc 06 bd 84 3c a3 88 59 bd 35 4a 1c 3c
       -0.013633528 0.016203415 -0.053108823 0.009539177
0000a0 c8 ca b3 bc a1 10 57 bd e8 15 08 bd ee 28 1c 3b
       -0.02194728 -0.052506093 -0.033224016 0.0023828107
0000b0 0e 55 e8 bc 83 0f 21 3c b0 c8 27 3c 62 c1 0f 3d
       -0.02836087 0.009830358 0.010240719 0.035096534
0000c0 47 d9 52 ba ca 52 c8 3c e5 96 65 3c b6 ca 6b 3d
       -0.0008043241 0.02445354 0.014013027 0.057566367
0000d0 77 25 42 bd 75 32 84 bc 3a 23 9d 3d b5 a4 05 3e
       -0.04739901 -0.016137341 0.076727346 0.13051112
0000e0 05 6b 14 be b0 b6 ab 3d 16 3a 3a 3e 1c 1e 13 be
       -0.1449395 0.08384454 0.1818622 -0.14366955
0000f0 b7 b3 bc bc c4 6c bd 3d 02 0d 7f bd 8a b6 9f bd
       -0.023034913 0.09249261 -0.062268265 -0.077984884
000100 b8 bc 39 3d dd 3d 09 bd 54 c1 88 3d c2 a4 fc bc
       0.04534599 -0.033506263 0.066774994 -0.030840281
000110 92 8c ff bd 5f b7 03 3e e9 84 aa 3b 46 ab ab 3c
       -0.124779835 0.1286292 0.0052038324 0.020955693
000120 6c 7a 32 3d 11 17 88 3c 81 34 ba 3c bc 7e 17 bd
       0.04357378 0.016612561 0.022730114 -0.036986098
000130 fa 58 7d 3d 4e 1d 9b bc f6 e4 cb bc e2 6a df 3b
       0.061852433 -0.018934872 -0.02488945 0.0068181613
000140 fa 6f ea bc 66 84 1f bb da 61 7b bb d1 c1 6d ba
       -0.028617848 -0.002434039 -0.0038357885 -0.00090697134
000150 32 12 e0 3b c1 6c 05 bc c6 3a b2 bc 14 ed 1f bd
       0.0068381066 -0.008143605 -0.021756541 -0.039044455
000160 51 27 1e 3d 59 9b a3 bb 0a 27 01 bc 90 f8 89 3d
       0.038611714 -0.004992884 -0.007882843 0.06736863
000170 e7 6d 7c bd ef a1 8f bd 77 46 61 3d 3a 04 8c bd
       -0.06162825 -0.07013308 0.05499884 -0.06836744
000180 fa 33 f9 bb 8e 55 40 bd 78 05 a5 bd 27 3a ac 3d
       -0.007605073 -0.04695659 -0.08057684 0.08409529
000190 42 6a 2e 3c 2d 65 2f 3c b5 a3 cb 3b 42 db 5c bd
       0.010645451 0.0107052745 0.0062145838 -0.053920038
0001a0 e2 38 8c 3d 5a 96 31 3d ff 70 3d bc 72 68 73 3c
       0.06846787 0.043356277 -0.011562585 0.014856445
0001b0 76 b1 8f bb 22 63 a8 3c a1 5d 85 3c 86 fb c8 3b
       -0.0043851687 0.020555083 0.016279997 0.0061334996
0001c0 5f 4d 1b bd 56 7c df bd 32 61 91 3c 83 33 d9 bc
       -0.037915584 -0.10912387 0.017746542 -0.02651382
0001d0 89 95 ce 3d de 8c ad bd 61 57 4f be 14 ab 2b 3e
       0.10087115 -0.08474134 -0.20248176 0.1676448
0001e0 44 0a 3c 3d 5d 88 cd bc f9 f4 b5 3c 9c 85 f4 3b
       0.045908228 -0.025089437 0.022211539 0.0074622165
0001f0 6a e2 31 ba 46 b0 27 bd 52 31 e1 bc 94 c9 f6 bb
       -0.00067857525 -0.04093959 -0.027489338 -0.007531354
000200 1b e6 3d 3d b2 43 7d bd ef 74 80 bd 87 23 12 3d
       0.046362024 -0.061832137 -0.06272303 0.035678413
000210 a3 a1 e5 3c 90 28 cd bb 42 01 5c 3d df 0a 46 bd
       0.028031176 -0.006260939 0.053712137 -0.04835021
000220 bc fb 25 3d 1a ea 05 3d 3f de 82 bd f3 3e ca 3c
       0.040523276 0.03269396 -0.06390046 0.02468822
000230 3a 88 cd 3b bb 01 4d 3d f0 bc eb bc f6 79 05 be
       0.006272343 0.05005048 -0.028776616 -0.13034806
000240 35 4c c1 3d ec ac 7f 3d 02 78 8c 3c c7 1e 42 3d
       0.094383635 0.06242077 0.017147068 0.047392633
000250 9d ea 60 3d 0f ea bb bc 9a 60 5e 3d dc 68 a8 3b
       0.054911245 -0.022938756 0.054291345 0.0051394533
000260 5f df 89 3d 68 b3 c4 3d 7c ac a6 bd ad 04 0f 3c
       0.06732058 0.096045315 -0.081383675 0.008729142
000270 71 58 ff bd 24 c4 c1 bc e4 3f a1 3d 70 5f 33 bd
       -0.12468041 -0.023653097 0.07873514 -0.04379219
000280 f5 4f aa bd fb 6c 51 3d 19 10 6b bd d8 42 5b bd
       -0.08316032 0.051129322 -0.0573884 -0.053530544
000290 30 88 65 3d 79 4c 1b bd 3d 8e ee 3c b4 0b 88 bd
       0.05603808 -0.037914727 0.029120559 -0.06642857
0002a0 3e 05 45 bd 6c d9 1e 3d 19 7d 03 3d ff 03 41 bc
       -0.048100702 0.03878157 0.032101724 -0.011780738
0002b0 74 47 28 3d 56 9b 40 3c 07 46 1e bc 34 42 68 bd
       0.041083768 0.011755785 -0.0096602505 -0.05670376
0002c0 16 4a 2f 3d 52 84 12 3d 2e 3a 38 bd db 96 a1 3a
       0.042795263 0.03577072 -0.04497736 0.0012328284
0002d0 06 b7 d6 3c c6 00 b8 bc 48 5d 0f bc 7f 5e f5 ba
       0.02621032 -0.022461306 -0.008750267 -0.0018720179
0002e0 ce 0e 3f 3d 01 aa 79 bd 61 a8 58 3c f7 e2 83 bd
       0.04664498 -0.060953144 0.013223738 -0.064397745
0002f0 6a 9d 86 bd 07 e7 38 3d 70 61 35 bd 12 fc ff 3a
       -0.06572993 0.0451422 -0.044282377 0.0019530079
000300 c3 9c 38 3d f1 48 fe bc 7e a4 c2 bc 7b f2 b4 bd
       0.045071375 -0.03104064 -0.023760077 -0.08835312
000310 7f 05 53 3e 9b ab 4c bd 33 c9 6d be b7 62 59 3e
       0.20607565 -0.049968343 -0.23221283 0.21229063
000320 09 e8 27 bd 3c 41 00 3e 80 f7 ad bc 73 a4 d6 bd
       -0.04099277 0.12524885 -0.021236181 -0.10480585
000330 74 d5 1e 3e 82 61 82 bd 6e fb 36 3d b7 e9 f9 bb
       0.15511113 -0.063662544 0.044673376 -0.007626738
000340 80 75 b8 bd 16 9a 50 3d 2e af 63 ba 9e 0e 03 3d
       -0.09006786 0.050928198 -0.00086854666 0.031996362
000350 cd 9e 5f bd ab 8a 1d be 34 9a c5 3d 79 95 ae ba
       -0.054594804 -0.15384929 0.096485525 -0.0013319693
000360 1f 39 4c 3d bf 8d 56 3c e2 b3 14 be 2a 81 98 3d
       0.049859162 0.013095318 -0.14521745 0.07446511
000370 a5 60 f4 bb 2a 08 9b bd df 21 2e bd cb 82 b6 3c
       -0.00745781 -0.075699165 -0.04251277 0.022279164
000380 02 88 71 bb c2 ad d6 bd fd d0 66 3d b5 e5 a9 bd
       -0.0036854749 -0.104823604 0.05635165 -0.08295766
000390 e6 3d 4c be 5f 4d b7 3d 62 96 3d bd c1 71 7e 3d
       -0.19945487 0.08950304 -0.046285994 0.062120203
0003a0 54 e7 5b bd 63 b0 9f bd 50 57 dc 3d ab 94 15 bd
       -0.05368741 -0.07797315 0.10758841 -0.036518734
0003b0 e7 3b cc 3d 57 67 6a bd 37 fa 1b be c8 f4 89 3d
       0.09972363 -0.05722746 -0.15232168 0.067361414
0003c0 69 e1 73 3d 9f ce 4a bd c6 2b 68 3a ed eb 69 3d
       0.05954114 -0.049513455 0.00088566204 0.057109762
0003d0 d2 b8 64 bd d6 89 5f bd 88 b0 90 3d 51 14 a3 bc
       -0.05584032 -0.05457481 0.07064921 -0.019907149
0003e0 cf 60 9a bd d8 55 86 3d cb 28 bc bc cb 35 b7 bc
       -0.07537996 0.06559342 -0.02296867 -0.022364518
0003f0 56 c6 32 bd 69 25 ff bc a0 36 93 bc 62 3a 19 bb
       -0.04364618 -0.031145768 -0.017970383 -0.0023380746

linear_layer2.bias f4 [2016]
000000 f7 d0 a6 3f 9f 9d 31 3f 82 0d 7a 3f ae ac 9d bf
       1.3032521 0.69381136 0.9767686 -1.2318323
000010 45 19 c0 bf 29 96 cd bf 3a b7 86 3f ad a3 23 bd
       -1.5007712 -1.606145 1.0524666 -0.039951015
000020 ef 00 95 3e a4 af b4 3d 5c 5d c7 be d0 59 24 40
       0.29102275 0.08822563 -0.38938415 2.5679817
000030 61 d4 6d bf b7 a9 bd bf 32 55 5a 3e f9 5e b7 be
       -0.9290219 -1.4817418 0.21321562 -0.35814646
000040 44 cc 29 3e 25 0a 80 3e 07 13 3c bf b8 e8 39 bf
       0.16581827 0.2500774 -0.73466533 -0.72620726
000050 0e 27 c8 be f8 a6 7f 3e 82 60 d7 be 77 02 f9 bf
       -0.39092296 0.24966037 -0.42065817 -1.9453877
000060 5c 5a 05 3f 5d 70 27 3f 78 c0 9c be 1a 6d 00 bf
       0.52091 0.6540583 -0.30615592 -0.50166476
000070 2e 59 8a bf e6 60 24 3f ff 98 97 3f 09 6e f8 3f
       -1.0808465 0.64210355 1.1843566 1.940858
000080 eb fd 05 be 33 07 d6 3d f4 1b a0 3f e2 f9 af 3e
       -0.13085143 0.10450592 1.2508531 0.34370333
000090 b5 b2 5a 3f 0f cd 2b 3c de 63 6b 3f d7 e7 f0 bf
       0.85428935 0.0104859015 0.9194926 -1.8820752
0000a0 26 92 47 bf 8a b3 05 be fd 59 76 be c1 4e b1 be
       -0.7795738 -0.1305677 -0.24057765 -0.34630397
0000b0 db 59 b9 3f e1 3b 82 bf 4c 4b 49 be bb f2 35 bf
       1.4480547 -1.0174524 -0.1965763 -0.710735
0000c0 90 ef e5 3f 53 c9 9b be 87 1e 31 3f d5 c3 c0 3d
       1.7963734 -0.30427036 0.69187206 0.09412352
0000d0 b7 9f d7 3e b4 48 9c be 96 a2 a9 3f 4d 2d 15 3f
       0.4211404 -0.30524218 1.3252742 0.5827225
0000e0 df 79 82 bd 77 47 7e 3d 3a ec 3d 3e 2b ae 69 3e
       -0.06370901 0.062079873 0.18547145 0.22820346
0000f0 d6 56 e5 3e a5 16 c8 3f 39 53 56 bf 94 fb b5 bf
       0.44792813 1.563191 -0.8372074 -1.42174
000100 d4 c5 6b bf bc d3 06 bf 43 96 42 3f 3b cd 02 c0
       -0.92098737 -0.5266683 0.7601053 -2.0437763
000110 5d 55 d4 be 51 e0 9c 3f 05 a5 03 bc 17 94 5c bd
       -0.41471377 1.2255956 -0.008034949 -0.053852167
000120 fa 9d a6 be 8c 36 0e 40 27 e8 41 3e fe 5c 0c be
       -0.32542402 2.2220793 0.18936215 -0.13707349
000130 c9 5b 6b 3f 47 f8 ca 3f 75 7b ec be 49 e5 d6 be
       0.9193693 1.5857018 -0.4618794 -0.41971806
000140 50 5e a4 3e 3e 6f 1e be fc 82 65 bf 7b 98 a6 3f
       0.32103205 -0.15472123 -0.8965299 1.3015283
000150 e1 a3 83 be 64 32 73 3f a3 50 83 3f 90 88 75 3f
       -0.25710967 0.94998765 1.0258983 0.959115
000160 0f eb bf 3e ce 9e 37 c0 e1 8b 6a 3e b1 dc 17 be
       0.37484023 -2.8690677 0.22904922 -0.14830281
000170 30 3d 13 3f 7d 48 63 3f 18 69 b1 be ef 9b 70 3f
       0.5751524 0.88782483 -0.34650493 0.93987936
000180 30 51 27 be 66 f5 3c bf b8 79 e2 bd 0c de d4 3f
       -0.16339564 -0.7381195 -0.11058372 1.6630263
000190 8a 5f e9 bf 10 36 bf be bb 57 12 bf 12 0a c2 3f
       -1.8232281 -0.37345934 -0.57165116 1.5159323
0001a0 b3 44 66 be 58 a0 85 be 7d 7c bd 3f fa 7e 01 bf
       -0.22487144 -0.26098895 1.4803616 -0.50584376
0001b0 c6 81 99 bf 0a 6f 4f bf 8e e6 f9 be 24 e4 7b 3e
       -1.1992729 -0.8102881 -0.48808712 0.24598747
0001c0 bc 32 4c bd ee cf 99 3c 7c 81 29 3f c2 0d 01 3f
       -0.04985307 0.018775906 0.662132 0.5041162
0001d0 92 b4 54 3f ca e3 b2 3f 5e 6f 67 3e bf 3b d3 bf
       0.8308803 1.3975766 0.22601077 -1.6502608
0001e0 b8 22 ff be 38 65 c6 bf 76 46 cc 3f 5f 9e 13 3e
       -0.49831176 -1.549964 1.5959003 0.14415883
0001f0 b9 4c 68 be e5 01 2c be 9c a5 72 be b8 0f ee 3e
       -0.22685517 -0.16797598 -0.23695987 0.46496367
000200 1b d4 a2 3d 37 b9 d8 3f 69 69 7a 3f c7 66 54 3e
       0.07950612 1.6931523 0.97817093 0.20742331
000210 0c 24 e0 bf 37 b6 d8 3e 07 eb d6 3f 89 b5 c1 bf
       -1.7511001 0.4232652 1.6790475 -1.5133525
000220 9c b0 a6 be 41 45 a3 3f c8 a3 b5 bf ee 3d 0a c0
       -0.32556617 1.275551 -1.4190607 -2.16003
000230 c5 f6 88 3f 01 89 de be 5b f7 98 bf 8e 0e d8 3d
       1.0700308 -0.434639 -1.1950487 0.10549651
000240 94 f1 20 3f aa 41 0e c0 db 73 45 bf e0 1e e8 bf
       0.6286862 -2.2227578 -0.77129906 -1.8134422
000250 ca 82 0a be 62 2d 2f 3f 9d c3 2f be b3 c9 fd bd
       -0.13526455 0.68428624 -0.17164464 -0.12391987
000260 87 b6 3c bf f7 25 c5 be 4d f4 64 3f 80 47 db 3f
       -0.73716015 -0.38505527 0.89435273 1.7131195
000270 a0 3b 9d 3e e9 ab cd bf 42 3c f6 bd 4e d1 2d 3f
       0.30709553 -1.6068088 -0.12023212 0.678975
000280 60 ad dd 3d 66 87 2f 3f 60 ff c4 bd f8 14 eb bd
       0.10824084 0.68565977 -0.096190214 -0.11478609
000290 9d 26 57 3f ce 4d a5 bf b7 ec 8a bf 1a cb 00 c0
       0.84043294 -1.2914369 -1.085349 -2.0123963
0002a0 56 ca 00 3f bc 08 b7 bf 41 97 66 3f 9d f2 ac bf
       0.5030874 -1.429954 0.90074545 -1.351154
0002b0 3f be 7f 3e 37 99 bd bf 4d 05 20 bf 46 6c 7d bf
       0.24974917 -1.4812382 -0.6250809 -0.9899334
0002c0 46 a8 84 3e e9 d6 91 3e 1d 00 b3 bd ff a1 be 3e
       0.25909632 0.28484276 -0.08740256 0.37232968
0002d0 00 00 1a 40 99 dc 7e 3e 29 0c 00 bf 00 9a 53 bd
       2.40625 0.24888839 -0.50018555 -0.051660538
0002e0 ba 66 1d be 36 16 88 3c fd f1 1d c0 b7 b5 59 3c
       -0.15371218 0.016612154 -2.4678948 0.013287953
0002f0 c5 97 53 bd e8 7b 12 c0 9c 61 c8 3f 0a 80 e9 be
       -0.05165841 -2.2888126 1.5654788 -0.456055
000300 f5 87 81 3f f7 68 14 bf c9 85 2a 3e a7 7a 2b 40
       1.0119616 -0.57972664 0.16652597 2.679361
000310 bf f7 1a bf 9f 69 ef bf 1d e0 8d be 4b fa 6c 3f
       -0.6053428 -1.8704108 -0.27710047 0.92569417
000320 21 9b 89 be ac 5c 67 bf 3a cc 57 be ea fd 89 3e
       -0.26876166 -0.9037578 -0.21074 0.26951534
000330 a4 3a c0 3e e6 c7 9e bf 3b 0a b0 be 93 10 2a bd
       0.3754474 -1.2404754 -0.34382805 -0.041519713
000340 b9 21 0d c0 1c 9a 24 3f fa fa ac bf 29 e4 37 bf
       -2.2051833 0.6429765 -1.3514092 -0.7183252
000350 99 da 58 3f 88 04 79 3f f1 5f 23 3e 02 5a 90 3e
       0.84708554 0.9727254 0.15954567 0.2819367
000360 87 d8 c9 3e a7 4e 2a bd ea f1 1c bd 29 45 bf be
       0.3942301 -0.041578915 -0.038316645 -0.37357453
000370 cc 96 cd bf 6b 54 94 bf 87 81 5d 3e cd a4 4d 3f
       -1.6061645 -1.1588262 0.21631442 0.8032959
000380 db 00 f3 3f 35 f5 12 40 bd 2b 0b 3f 26 bc ae 3f
       1.8984636 2.2962162 0.54363614 1.3651168
000390 c9 f2 04 bd 35 f8 da bd b3 9e da bc ea 92 a4 3e
       -0.0324581 -0.10691873 -0.026687002 0.32143337
0003a0 04 d1 70 3f fc da e7 3e 74 e0 fc 3f 7f b5 b3 be
       0.9406893 0.4528426 1.9755998 -0.35099408
0003b0 fa 82 93 bf b7 84 4b be cb 47 b1 be 9e 3b c2 3e
       -1.1524346 -0.19874845 -0.34625086 0.3793611
0003c0 5a 45 68 bf 2e a2 5d 3f 6f 80 57 bf 35 ed 8f 3e
       -0.9073082 0.8657559 -0.8418035 0.28110662
0003d0 78 7c 16 3f b1 99 40 40 16 f1 19 3f 60 fd 57 3e
       0.58783674 3.0093806 0.6013349 0.21092749
0003e0 45 45 67 bf e9 00 29 be a8 48 12 3f 4f 52 95 3f
       -0.9034007 -0.16504253 0.57142115 1.1665744
0003f0 c5 87 43 3f 7d 6e a8 bf ff ec b7 be 7a 0a 75 3e
       0.7637904 -1.3158718 -0.35923 0.23929778
