model/Artificial_Data_6000_LogF_False_epoch_200_attention_net_u_artificial_Q_9_K_6_F_5_REG_L0_ACT_sigmoid_WD_000001_CV.model (torch_old, 52157 bytes, 6 tensors)

key_matrix f4 [9, 6]
00000000: 61ee 0abf 11ad 22c0 6fdb 14bf 3588 373e
00000010: 1d48 88bf 8219 b13f d3db 18bf 06f4 963f
00000020: 77ea 50bf 695e b53e 3f5f edbe 5536 1ac0
00000030: cc27 9dbf fc65 913e 7cc4 adbf 44fc 9c3f
00000040: d695 f3be 4682 803f f39f f23f a985 973f
00000050: 0c4b 453f 618f 82bf 5660 d1be 9934 8e3f
00000060: 43b5 65bd 7545 e6bf 05f4 18bf 8bba 11bf
00000070: f1b0 963c b397 32bf 505e 3a3f 15b3 5abf
00000080: 1337 0fc0 825d 9abf 323e 443f a380 743e
00000090: ca7f a6bd 752a 81bf a4c2 b33f 6832 b9be
000000a0: 9512 46bf 6d7c 313f d940 f2be 534b 6c3e
000000b0: cb9b 85be 9b54 c7bc f22a c5bf 9ea0 ec3f
000000c0: e643 26be c3f7 d0be 4ec6 7f3e d2f1 31bf
000000d0: 158d 003f d04e 1540
-0.5426999 -2.5418131 -0.5814733 0.17923053 -1.0647007 1.3835909 -0.59710425 1.179322
-0.81607765 0.35423592 -0.4636173 -2.4095662 -1.227777 0.2839812 -1.3575587 1.2264485
-0.47575253 1.0039756 1.8955063 1.1837665 0.7706764 -1.0200006 -0.4089381 1.1109802
-0.056081068 -1.7989947 -0.59747344 -0.56925267 0.01839492 -0.69762725 0.7280016 -0.8542951
-2.2377365 -1.2059786 0.766574 0.23877196 -0.081298426 -1.0091082 1.4043775 -0.3617127
-0.77372104 0.69330484 -0.473151 0.23075609 -0.26095423 -0.024332335 -1.5403731 1.8486516
-0.16236839 -0.40814027 0.24977991 -0.69509614 0.50215274 2.3329353

value_matrix f4 [6, 5]
00000000: dd90 66bf 7f96 e0bf 50b5 d5be 2650 f9bf
00000010: 4182 8a3e d8e4 7e3f 9b3d a03f 5cc7 2abf
00000020: 05fd 8d3d 616a 5b3f 309c 8e3e 40ca 6abe
00000030: e41d 56bf 7e28 a3bf a650 a03f 8d66 9a3d
00000040: c26e 6fbe 23ec d23f 8acc 54bf 132e b6be
00000050: 9e6f dabf 95a5 e3bd eba9 e9be 1520 f53f
00000060: a4e6 2b3f 0586 4ebf 099d e5be b6b6 cd40
00000070: 3a29 66c0 d95e 9abf
-0.90064794 -1.7545928 -0.41739893 -1.9477584 0.270525 0.9956794 1.25188 -0.6671045
0.06933025 0.85709196 0.27853537 -0.22928715 -0.8363936 -1.2746732 1.2524612 0.07539091
-0.23382095 1.6478313 -0.831246 -0.35582027 -1.7065313 -0.11115567 -0.4563745 1.9150416
0.67148805 -0.8067325 -0.4484637 6.4285536 -3.5962663 -1.2060195

linear_layer1.weight f4 [9, 64]
00000000: 4947 c33d 1296 093e 0e49 80be c10f f9bd
00000010: bd62 303e 5e96 713e ccba 0b3d 63cd 03be
00000020: c761 3c3e a48d 3f3e 0d41 ac3c 005d 99bd
00000030: 15c8 043e f159 333d f4cd be3c 37a5 5dbe
00000040: 687b 9dbc dd21 133e 4ac7 18be 48d4 11be
00000050: 70bc 83bd 024e b3bd e09c ed3b d794 023e
00000060: c563 053e 58f9 ba3d 9e40 04be 89d6 33be
00000070: 120e 80be 9b61 2f3e 619c 8c3e 3829 673e
00000080: 0f25 063e f306 613e 31c0 56be 1d2f 0bbe
00000090: 6702 1ebe 3dae cc3c d945 353e 5ae6 40be
000000a0: 34d9 a63d bac3 0fbe eddc a43d ebfa 9ebd
000000b0: da12 8c3d 409d 37bd bd47 9a3e 283d d1bd
000000c0: 32f6 8d3e 5022 583d bf82 953e 6ba5 c5bd
000000d0: 67a3 2fbe 58fa d93d 2d11 49be 4482 693d
000000e0: 8066 1a3e 901b 123e e0d8 dc3d fbd5 91bd
000000f0: 4fa3 583e b3cb 9d3e cf0b 22bd d88b 113c
00000100: ef42 243e fc2c ccbd 6e7c 653d 64db 42be
00000110: dfea b6bd 816b 69bd 62aa a0be bb55 4d3d
00000120: 8f7d 95be d975 2abe a2f9 5c3e cea8 4b3e
00000130: a2d1 243e 1e65 123e 55c3 8bbe 8587 e3bd
00000140: efe9 3a3e 8c5a 6bbe 02ce 173e b547 103d
00000150: 52d1 373e 395a 013d 051a a0be b447 6f3e
00000160: 419d dd3c 2edb cdbd 3f1f 21be f524 4d3e
00000170: 2b3d 0bbe 3252 95be b30d 543e 669f 01be
00000180: 7742 3ebe adae 2ebd 3e10 c3bd e718 be3d
00000190: b438 183e fa02 f33d 6457 37be 2baa 91bc
000001a0: b4e6 ff3d 444c 75be 6802 96bc e782 9fbe
000001b0: c78f 36be 0adc 8abd e502 fa3d 55ab 113e
000001c0: 6a2e 6abd 8ce3 8cbe 88b5 3d3e 0f6f 3e3c
000001d0: f565 64be 298e eb3c a6ab 55be 9683 10be
000001e0: 9f7d a8be 5424 9ebe 7fc9 01be a713 74bd
000001f0: 9b52 07be 169b 28bd d668 87bd 9882 713d
00000200: dcb8 58bc 29ca 193e e59e 57be a967 303d
00000210: 4d14 5abe 821c 813e 6a65 4fbe 6002 ad3c
00000220: 7d95 71bd 25e3 323e 129f 67be 9aed 5e3e
00000230: e1bc e5bd c94c 9dbd 79bd 7a3d e8af 593e
00000240: dfa4 883e 6d46 85bd b9f5 4abe 3a1a 153e
00000250: ac04 9a3e a123 ffbc 8cab 6cbd 2020 293b
00000260: de7f 963d 63c6 2d3e 4978 583e d1ed 0c3e
00000270: 2b37 82be 87b2 02bc 35db 1dbd 9668 0f3e
00000280: e3e3 9bbd 20db 513c d140 14be 98b5 663c
00000290: a6c6 0cbe 808d 2dbe 1b2b 78be 86e1 4bbe
000002a0: 7fcb 07be 8e9b e63b 675f e0bd bea0 6d3e
000002b0: bff3 7ebd 510a 6d3e f356 70bd 44fb bdbd
000002c0: 2fcf 853a c1fd d33d fde0 57be be7a d03c
000002d0: 27ce 87bd eb38 f0bd d25c 61be 6bef 0fbe
000002e0: 968a 833e cb6c 0abe f925 8f3e be4a 313d
000002f0: 299b 073e cc09 733e e6e0 06be 9424 54be
00000300: 1d6e 9ebd 4c4f f6bd f866 27be fd7c 763e
00000310: 9ee0 533d a9be 333e 6775 f73d b8be 4ebe
00000320: b6b7 56be 20af 5f3d 416b 2dbe 58a1 bf3b
00000330: 1703 be3c adb1 143d 8558 1fbe 7774 593d
00000340: 4762 073e 5216 943e 8d56 73be a01a 00be
00000350: c4d0 743e cdc6 2fbd 7e77 8bbd 47fb 453e
00000360: ed56 ba3d 831b 653e 19af 1a3c ca93 933d
00000370: f747 2a3e 5a26 01be 9176 1b3c 1dbb 323e
00000380: cd1b 5bbe ba89 cc3c 6c3c 57bd ab8e 173e
00000390: 3768 063d 72c9 5bbb 5088 0bbe b28d 613e
000003a0: 73f2 9d3d 055a 43be 3504 273e 5ae3 dfbd
000003b0: 8ce1 cdbc 1958 a83a b426 a7bd 9c0d 6e3e
000003c0: 3fdd 8b3d 15b1 38be d20a db3d 6a27 963e
000003d0: c42a 033e a491 c6bd 09d1 753e 1b22 98bd
000003e0: 196f 5bbe faf5 75bd 7a2a 123d 4573 0c3e
000003f0: 790f 3fbe 2cf4 843e f3ea 7b3e 0dd5 613d
0.09535081 0.13436154 -0.25055736 -0.12161208 0.17225166 0.23592517 0.03411369 -0.12871318
0.18396674 0.18706375 0.021027112 -0.074884415 0.1296695 0.043786947 0.023291565 -0.21645056
-0.019223884 0.14368387 -0.14919773 -0.14241135 -0.06432426 -0.08755113 0.007251367 0.1275209
0.1302634 0.0912959 -0.12915275 -0.17562307 -0.25010735 0.17127077 0.27463058 0.22574317
0.13100074 0.21975307 -0.20971753 -0.13592191 -0.15430604 0.024985427 0.17702426 -0.18837872
0.08146897 -0.14039508 0.08049951 -0.077627026 0.06839533 -0.0448277 0.30132857 -0.10216743
0.27726895 0.052767098 0.29201314 -0.096506916 -0.17152177 0.106434524 -0.19635458 0.057008997
0.15078163 0.14268327 0.10783553 -0.07120892 0.21156047 0.30819473 -0.039562043 0.008883439
0.16041158 -0.099695176 0.05602687 -0.19029003 -0.08931517 -0.05698729 -0.31379992 0.050130587
-0.29197356 -0.16646518 0.21579602 0.19888613 0.16095594 0.14296386 -0.27297464 -0.11109833
0.18253301 -0.2298376 0.1482468 0.035224635 0.17950943 0.031580184 -0.3126985 0.23367196
0.027052524 -0.10051571 -0.15734576 0.20033629 -0.13597552 -0.29164273 0.20708351 -0.12658462
-0.18580042 -0.042647053 -0.09524582 0.092820935 0.1486538 0.11865802 -0.1790443 -0.017781338
0.12495175 -0.23954874 -0.018311694 -0.31154558 -0.17828284 -0.0678025 0.12207583 0.14225514
-0.05717317 -0.27517354 0.1852628 0.011623158 -0.22304519 0.02875431 -0.2086626 -0.14112696
-0.3290834 -0.3088709 -0.12674521 -0.059589054 -0.13215105 -0.041163526 -0.06611793 0.058962435
-0.013227668 0.15018524 -0.21056707 0.043067608 -0.21296807 0.25217062 -0.2025353 0.021119297
-0.058980454 0.17469461 -0.22619274 0.21770325 -0.112176664 -0.07680661 0.06121585 0.21258509
0.26688287 -0.06507573 -0.19820298 0.14560786 0.3008169 -0.031144919 -0.057780787 0.0025806502
0.073486075 0.1697021 0.21139635 0.13762595 -0.25432715 -0.007977135 -0.03853913 0.1400474
-0.07611825 0.012808591 -0.1447785 0.014081381 -0.13747653 -0.16948509 -0.24235193 -0.19910249
-0.13261221 0.0070375865 -0.109556966 0.2320585 -0.062244173 0.23148467 -0.05867667 -0.09276441
0.001020884 0.10351134 -0.2108192 0.025449153 -0.06631117 -0.11729606 -0.22008064 -0.14056174
0.2569167 -0.13518064 0.27958658 0.04328417 0.13242783 0.23734206 -0.1317173 -0.20717078
-0.07735846 -0.120268434 -0.16347873 0.24071117 0.051727884 0.175532 0.120829396 -0.20189941
-0.20968518 0.05461037 -0.16935445 0.005848091 0.023194833 0.036302257 -0.15561111 0.053089585
0.13221084 0.2892328 -0.23763485 -0.12510157 0.23907763 -0.0429142 -0.06809901 0.19334136
0.09098611 0.22373776 0.009441161 0.07205923 0.16629015 -0.12612286 0.009488718 0.1745419
-0.21397324 0.024968017 -0.052547857 0.14800517 0.03281423 -0.0033536819 -0.13626218 0.22026709
0.07712259 -0.19077308 0.16310199 -0.10932036 -0.025131963 0.0012843638 -0.08161679 0.23247379
0.06829309 -0.18036301 0.10695423 0.29326946 0.12809283 -0.096957475 0.24005522 -0.0742838
-0.21429099 -0.060049035 0.03568504 0.13715847 -0.18658246 0.25967538 0.24601345 0.05513482

linear_layer1.bias f4 [9]
00000000: 85c1 9a3f b71e f5be 0053 483f af9b e9bf
00000010: 5ea2 ebbe d1a2 193f 20c4 4f3f eddb a33f
00000020: d2b3 5d3f
1.2090307 -0.47874996 0.7825165 -1.8250636 -0.46022314 0.60014063 0.8115864 1.2801491
0.8660251

linear_layer2.weight f4 [2016, 5]
00000000: 437f 0f3d 2bea a93c 85b7 74be c906 bf3d
00000010: 2691 bb3c 2059 9fbd 3e7e 18bd 684c 563e
00000020: 302f 9cbd 2323 70bc 5e13 45bd 41a6 b43c
00000030: c0e0 3cb8 607c 1a3c 16a9 54bd 3138 6a3d
00000040: df8a 2d3d 2b6c 93bd 73eb 333d f445 d5bc
00000050: b9ed 2e3d 7a23 263d 675f f43d daca 7abd
00000060: 9f56 dabc adc6 f73c bb3d ff3a 8244 1f3e
00000070: 2c1b fdbd 233a 78bd a38e 51bd bfb7 e03c
00000080: 7c81 ad3d 2473 61bd bb43 a03c 441b 4abc
00000090: 52d2 f63c ed29 633e 4c40 b5bd 88b5 76bd
000000a0: 280d f6bb 0602 a2bc 98d2 cfbd 1531 3b3d
000000b0: 2eec 273c 315e 423c d8e8 ca3c 5545 cd3c
000000c0: 4a41 adbd ac52 2d3d 4c2e 913d 23f1 dc3c
000000d0: d0d4 0fbe 29ca 4d3d c818 4c3c 4144 d03c
000000e0: d909 3bbb b4bf e33c 4c18 093d 944b 383d
000000f0: 2ead c5bc 2f74 fcbb c588 803d 4d2b 0dbc
00000100: 6c17 3a3d 2f94 8ebc ed00 60bd 7e24 233c
00000110: d9ed fb3c b98a 0c3d 0c88 713b 887a 6d3d
00000120: 0400 3fbe 3219 0a3e 8fe1 2d3d 03ad a7bc
00000130: c429 2bbc 3eb0 f3bc 6610 36bc f64f 0b3c
00000140: 9314 893c 29da a9bc 970b 893e 2443 d9bd
00000150: 9e31 c7bd c969 7cbd 8215 b93c 3dc0 2b3e
00000160: cfcf a5bd 0171 b7bd fed5 d6bc 0599 82bd
00000170: f5cb 923e 4e4a e6bd 0f6c 92bd cf8b 51bc
00000180: cad6 1cbd 26b1 d93d d999 7bbd dd65 7abc
00000190: 9bec 303c 9f59 00bc ec3d 663d 010a d7bd
000001a0: 8bda 1d3d 3143 a5bd 4e08 40bd 59e4 3c3e
000001b0: 9e91 aabd 3e0e acbb 3fa1 aabc 2fdd 16bd
000001c0: 6ce0 743d 2740 d23b 85fa 253d e667 31bc
000001d0: a7bb 433b 96e4 e6bd c420 883d 2ce8 c7ba
000001e0: c8e5 bfbb d977 ea3c f40f 4cbe 0713 223e
000001f0: adc8 2b3d a4ac f93c 59ee 6f3d 1a19 e6bc
00000200: 772b 69bc b9c7 29bc 70af acbc 718d 42bb
00000210: b145 b83c f448 aabc fee8 b23b cc5b f13c
00000220: 512f cebc 7a30 883b 32fb 883b 6175 c73c
00000230: 732d da3c a5bb 4c3d 16fd 37bd f0d6 07bc
00000240: 484c 1dba 8652 2fbd 9e56 323b a115 2b3d
00000250: 5520 71bd bfca e93b f3cd 04bc c6b6 32bd
00000260: d3e9 c2bd b9f5 973d fa60 61bc 5936 b2bc
00000270: d857 433c dbbd d03d 4628 03be 416f 66bc
00000280: 1fd1 7dbd 2899 d93c c070 ee3d 6426 dfbd
00000290: 8a74 893c e1ba 173d 792c a53c b2ba 813d
000002a0: 32b7 5fbd df6a 933c cc32 42bd c5a4 17bc
000002b0: 5aaf d43e 61df 56be 0a93 c1bc 0732 1c3c
000002c0: 45d0 f1bb 77c7 7cbb 9fbb ddbc 8c06 1bbc
000002d0: 9e45 d93c 2a56 ddbc cd30 b13c 59a6 dabc
000002e0: 5bdd ed3c efcb 27bd dd74 e83c 1d6f 3b3e
000002f0: 75e9 1ebe b7f4 58bc 54c2 90bd 8eb6 3ebc
00000300: c6b4 8e3e 534a 26be cee7 46bc b795 4cbd
00000310: a6ae dbbc 2fce 853d 2cca cc3c 24df 393d
00000320: 03a0 f1bc 4cd0 71bc 6ceb c0bc 88aa 873c
00000330: 385b 8a3d aa3e 98bd 267a 95bd 2cba 7b3e
00000340: e705 00be 668e 6abd b6b0 a2ba a54e bd3b
00000350: 3908 0c3e 8dcf 05bd ba10 43bc b67b 12bc
00000360: 8c44 bc3c bf75 e63d 2c26 3cbc 2749 f73c
00000370: f242 e4bb 569a 98ba ff69 9c3e 7b66 4cbe
00000380: e25a c9bd ea06 5fbc e264 b23c ded4 d73d
00000390: c127 b1bd b49a a33c b974 173b eb34 34bd
000003a0: 5bba 5f3e 8212 28be fd4b b3bb 2d13 debc
000003b0: 6a93 f0bc 4629 283e 7657 f8bd c14b 5ebd
000003c0: d4ce d6bc cf35 403c 2fe2 6e3e ca8e 45be
000003d0: 8dc6 c3bd b21d e7bc 4e5b 60bd a68b 4a3b
000003e0: e625 d6bb fa91 92bb 7a41 4fbd 16fc 61bd
000003f0: dbee 3c3e 3996 00be cdb9 df3c dbd2 753d
0.035033476 0.020741543 -0.23898132 0.09327466 0.02289636 -0.07780671 -0.03722977 0.20927584
-0.07626188 -0.014656815 -0.048114173 0.022051932 -4.5032008e-05 0.009429067 -0.051919065 0.057182495
0.042368766 -0.07198366 0.043925714 -0.026034333 0.04270718 0.040561177 0.11932259 -0.06122861
-0.026652632 0.030246103 0.0019473353 0.15553477 -0.12358698 -0.06060232 -0.05116142 0.027431367
0.08471963 -0.055041447 0.019563546 -0.012335602 0.030129585 0.22183962 -0.08850154 -0.060231715
-0.0075088926 -0.019776355 -0.101475894 0.045701105 0.010249181 0.011863277 0.024769232 0.025057474
-0.084597185 0.04231517 0.070889086 0.026970452 -0.14046025 0.050241623 0.01245708 0.025423171
-0.0028539805 0.027801372 0.033470437 0.044993952 -0.02413043 -0.00770428 0.06276087 -0.008616281
0.045432493 -0.017404644 -0.054688383 0.009957431 0.030753063 0.034311984 0.0036854772 0.057978183
-0.1865235 0.13486174 0.042451438 -0.02046824 -0.010446969 -0.029747125 -0.011112308 0.008502951
0.016733443 -0.02073391 0.26766655 -0.10608509 -0.097262606 -0.061624322 0.022593264 0.16772552
-0.08096277 -0.08957101 -0.026225086 -0.063768424 0.28671232 -0.11244641 -0.07149517 -0.012789681
-0.038290776 0.106294915 -0.061426017 -0.015283075 0.010798599 -0.007833867 0.056211397 -0.10499955
0.038538497 -0.08069456 -0.04688292 0.18446483 -0.083285555 -0.0052507212 -0.020828841 -0.03683203
0.059784338 0.006416339 0.040522117 -0.010827994 0.0029866488 -0.11274068 0.066468745 -0.0015251688
-0.0058562495 0.028621601 -0.1992796 0.15827571 0.041939426 0.03047783 0.058576915 -0.028088141
-0.014231554 -0.010362559 -0.021079749 -0.0029686356 0.022494169 -0.02078674 0.0054599037 0.029462717
-0.025169047 0.0041561695 0.0041803354 0.024347963 0.026633 0.04998364 -0.044919096 -0.008290991
-0.00060004415 -0.04280331 0.0027212272 0.041768674 -0.058868725 0.007134765 -0.008105743 -0.043631338
-0.09517255 0.07419915 -0.013756031 -0.02175443 0.011922799 0.10192462 -0.12808332 -0.014064611
-0.06196701 0.026562288 0.11642599 -0.10895994 0.016779203 0.037043456 0.020162808 0.063344374
-0.054618068 0.017995296 -0.047411725 -0.009255593 0.41540033 -0.2098365 -0.023629684 0.009533412
-0.007379564 -0.0038571039 -0.027067004 -0.00946201 0.026522454 -0.027018625 0.021629715 -0.026690649
0.029036215 -0.04096597 0.028376037 0.18304105 -0.15518744 -0.013241938 -0.07068315 -0.011640204
0.27872294 -0.1623929 -0.0121402275 -0.049947467 -0.026816677 0.06533467 0.024998747 0.04537882
-0.029495245 -0.0147591345 -0.023549758 0.016560808 0.0675568 -0.07433827 -0.072986886 0.24582738
-0.12502252 -0.057264708 -0.0012412283 0.0057771974 0.13675012 -0.03266864 -0.011905843 -0.008940628
0.022981904 0.11252927 -0.01148371 0.030186249 -0.0069659883 -0.0011642675 0.3054962 -0.19960968
-0.09831788 -0.013612488 0.02177662 0.10538648 -0.086501606 0.01997123 0.0023110344 -0.04399578
0.21848433 -0.1641331 -0.005471705 -0.027108753 -0.029367168 0.16421995 -0.12126057 -0.054271463
-0.02622167 0.011731579 0.2332847 -0.19292751 -0.09559355 -0.028212402 -0.054774575 0.003090599
-0.0065352796 -0.004472968 -0.050599553 -0.05517205 0.18450491 -0.12557305 0.027310276 0.06001554

linear_layer2.bias f4 [2016]
00000000: ce4b 0a40 4b92 b7bf 70ea 603d cf41 473f
00000010: be68 5dbf ad8c a9bf 9acc 0cbf e1d6 cbbf
00000020: 0d9a 603f 2769 63be aee1 b13f 5e8c 4c3e
00000030: a26f a3be 2290 643d 5017 fe3f 7ae8 7e3e
00000040: f0a6 f6bf b2d0 babf 287e 0cc0 57fc 3abf
00000050: a9e6 03bf 32fd aebf 4f19 0dbe 660c 983f
00000060: 8bd0 0940 1aaf b13e d7a3 1cbd b6d6 1d3e
00000070: b744 de3e c73e babe 0dfe 813f 6d75 33be
00000080: 8066 b1be c2ee 6a3e 5f22 1ec0 2b4c 393f
00000090: 959a 3e3f 42a2 78bf 558b b3bf e737 473f
000000a0: d852 983f fd1f acbf a503 a53d 6dd2 d73d
000000b0: c569 d2bf 3c57 cdbd 880f 7bbf cdee 46bf
000000c0: cf13 aabf 9660 223f 0d1f 5cbf 334f 8e3f
000000d0: 42f7 41bf 75d4 0cbf 692f 25bf da14 d23f
000000e0: b9dc 52bd 23a7 37bf 6911 75bd ad87 eabf
000000f0: 8a18 623f c6e8 623e d260 cbbe ec5b f3be
00000100: 9856 eabe 9347 9abe ad4b 1740 6b85 583f
00000110: 7a3e fbbe 1e05 b33e b348 01c0 d3e9 ee3e
00000120: 7706 3b40 40ce 0abf 3c7e e53d 50ad 5a3f
00000130: f9ae 463f e314 a03e 8dae 153f 2bec 323f
00000140: 4fb3 1dbf 254f 25be 611d fc3e 5902 323e
00000150: 46da 26bc ed90 b0be e285 1fbf c38c 843f
00000160: f547 173f 09fe 1fbe 1d8c 523d 1985 233f
00000170: 4853 903f 7762 81bf 8e7f e03d 7131 dcbe
00000180: 2c86 173e 941c 263f 480a 4a3f ad91 22be
00000190: 9ee6 0a40 4b39 81bf cc45 463f ab37 a7be
000001a0: 00d5 c3bd f2c5 5c3f 3078 523f eb70 efbe
000001b0: 73a5 b3be 37de a63f 7f3f 05be 4c4d c83e
000001c0: 87ff cf3e 87d3 fc3e d1ac c4bf 1479 57bf
000001d0: 9f86 393f 061e a03f bb1d ed3e 850a d1bf
000001e0: 78f4 53bd 5cb7 0140 1156 7c3f 816a ad3e
000001f0: 05e8 073f 6737 9fbf 0072 e0bf de28 253f
00000200: b045 28bf 779f 53bf 130b c3bf 91e1 bf3f
00000210: fc23 463e 5526 9fbf 011f 2b3f 0992 47bf
00000220: ff99 e4be 90c3 85bf 429f 24bf 6dcf 8abe
00000230: 8f02 f8be 6416 0f3f e10c 6cbf 9476 6dbe
00000240: 3dba f83e d5c4 15bf 9dbb de3f b6b9 e53e
00000250: c95e bdbf 1c28 8a3f 76ff 843e d548 9d3d
00000260: 3a94 6abf ca24 493f d405 af3e 7782 bf3d
00000270: d723 67bf 846d 6f3f 282e 293f 0aa0 013e
00000280: 8682 d43e 2b42 113f c611 0bbf 917b 14bd
00000290: acb7 6c3f 23e1 383f 5a2d a23f ffe0 a7bd
000002a0: 2449 673e 300d 31bf ba34 c8bf b104 bd3f
000002b0: 4911 143f 5ab8 85bf 6bea abbe 9738 bebf
000002c0: 6364 b83e 35b0 65bf f920 e83e 733d ed3d
000002d0: dc38 46bf 443c 6a3e 77af 9cbf 2173 213d
000002e0: b817 b73f b2cf 3e3e bc52 623e ee03 0f40
000002f0: 343b 74be 2627 2d3d 4459 e03e c420 13bf
00000300: 8f9a ba3d 5818 2b3e 8496 3fbf eca9 ccbe
00000310: 10a4 81be dcec 30bf 57cc 11bf 2fdd 36be
00000320: a83a e4be d642 4c3f aa5c 89be 44b5 0dbf
00000330: 3c13 693e b83e 9d3e bc67 413f 395c 1cc0
00000340: 4a5e cf3e bfdd 923f 3477 e63f 67e6 1f3f
00000350: 8b8d bc3e 5adc b63f e074 0cbf a104 90bf
00000360: 9a90 293e 0c56 50be 8612 d23f 8604 68bf
00000370: 8829 363f be56 83be f2e2 73be 41da c63e
00000380: 04ee 0640 5665 1ebe 7541 a23d 0543 a63e
00000390: a70e 80bf 7c3c 2c3f eaa1 2a3f 7d47 123f
000003a0: 2811 b73e 0179 e53e 6766 f73e b75d d9bd
000003b0: 8bb9 5cbf 4339 2d3f 1dbd 8fbf ae87 aebe
000003c0: 5414 18be 6b39 63be 15c2 3ebf 23cc f83e
000003d0: b863 0a3f 2c8b 793e 1fd4 0cbe 177e 053f
000003e0: e8d1 5f3f 8989 08bf e6ce 7c3f cb66 8e3e
000003f0: 1cf7 0bbf 3731 0a3d 6941 ef3f c540 12be
2.1608768 -1.434152 0.054911077 0.7783479 -0.8648795 -1.3246056 -0.549997 -1.5924951
0.8773506 -0.22208081 1.3896997 0.19975421 -0.31921107 0.05580152 1.9850864 0.2489337
-1.9269695 -1.4594939 -2.1952 -0.7304129 -0.51523834 -1.3671019 -0.13779186 1.1878784
2.1533535 0.34703904 -0.038242187 0.15413937 0.434118 -0.3637602 1.0155655 -0.17525263
-0.34648514 0.22942641 -2.4708478 0.7238185 0.74454623 -0.97122586 -1.4026896 0.77819675
1.1900282 -1.3447262 0.08057336 0.105381824 -1.6438528 -0.10026404 -0.98070574 -0.7770813
-1.3287295 0.6342863 -0.8598488 1.111792 -0.7576791 -0.55011684 -0.6452547 1.6412613
-0.05148003 -0.71739405 -0.059831057 -1.8322655 0.88318694 0.22159109 -0.39722306 -0.47531068
-0.4576919 -0.30132732 2.363994 0.8457858 -0.49071103 0.34964842 -2.0200622 0.4666277
2.9222696 -0.5422096 0.11205718 0.85420704 0.7761074 0.31265935 0.5846947 0.69891614
-0.6160173 -0.16143472 0.49241164 0.17383708 -0.010183876 -0.3448557 -0.62313664 1.0355457
0.5909417 -0.1562425 0.051403154 0.63874966 1.1275415 -1.0108174 0.10961829 -0.4300647
0.14797276 0.64887357 0.7892194 -0.15875883 2.1703258 -1.009561 0.7745025 -0.3265966
-0.09562111 0.8623954 0.8221464 -0.46765837 -0.35087165 1.3036565 -0.13012503 0.39121473
0.4062464 0.49380133 -1.5365239 -0.84169126 0.7247104 1.2509162 0.46311745 -1.6331335
-0.051746815 2.0268164 0.98568827 0.3387032 0.5308841 -1.2438782 -1.753479 0.64515483
-0.65731335 -0.826652 -1.5237755 1.4990712 0.19349664 -1.2433573 0.66844183 -0.77957207
-0.4464874 -1.0450306 -0.6430551 -0.27111378 -0.48439452 0.5589354 -0.9220715 -0.23189765
0.4857959 -0.58503467 1.7401005 0.4486825 -1.4794551 1.079349 0.2597615 0.07679907
-0.91632426 0.7857176 0.34184134 0.09351056 -0.9028906 0.9352648 0.66086054 0.12658706
0.4150583 0.5674159 -0.54323995 -0.036250655 0.9246776 0.7221853 1.267009 -0.081972115
0.22586495 -0.6916075 -1.5641091 1.4767057 0.57838875 -1.0446885 -0.33577284 -1.486102
0.3601409 -0.89721996 0.45337656 0.11583986 -0.7743051 0.22874552 -1.2241048 0.039416436
1.4304113 0.18633917 0.22101873 2.2346148 -0.23850709 0.042273663 0.43818104 -0.5747187
0.09111511 0.16708505 -0.74839044 -0.3997339 -0.25320482 -0.6911142 -0.5695242 -0.17857812
-0.44576 0.79789484 -0.2682851 -0.55354714 0.22761244 0.30711913 0.7554891 -2.4431288
0.40501624 1.1473922 1.8005128 0.6246094 0.3682674 1.4285996 -0.5486584 -1.1251413
0.16559067 -0.20345324 1.6411903 -0.906319 0.7115712 -0.25652117 -0.23817042 0.3883839
2.1082773 -0.15468344 0.07922641 0.32473007 -1.0004472 0.6727979 0.6665331 0.5714033
0.35755277 0.4481888 0.48320314 -0.10613578 -0.86220616 0.676655 -1.1229588 -0.3408789
-0.14851505 -0.22189872 -0.74514896 0.48593244 0.5405841 0.24369496 -0.13752793 0.5214552
0.87429667 -0.5333486 0.987532 0.278128 -0.54673934 0.03373834 1.8691837 -0.1428252
