model/Artificial_Data_6000_epoch_100_attention_net_u_artificial_Q_9_K_6_F_5_REG_L2_ACT_sigmoid_WD_000001_CV.model (torch_old, 52157 bytes, 6 tensors)

key_matrix f4 [9, 6]
0.86504716 -1.2972758 -0.51269376 -0.44320333 1.9131743 -1.7779375 1.1234677 1.7407914
0.63362104 -0.5075214 0.6892815 -1.4424276 2.6466727 1.1070842 -0.08736012 0.17682493
1.0809319 0.97424734 0.0022133538 -0.8005833 -0.52419436 -0.21816178 1.9296882 -1.2357594
-0.4520608 0.46367598 0.8166151 1.0415865 -0.2521775 -1.7937884 0.27965358 1.2285167
-0.32375833 0.29227325 1.2901596 1.2940537 -0.05641649 -1.7108419 0.13909508 -1.6381984
-0.25575212 1.653283 0.7626879 0.5507183 -0.5288683 0.5508301 0.5095891 -1.7101514
3.2027602 0.07219476 -0.11241349 0.3254044 -1.3776866 -0.21628746
00000000: bb73 5d3f 220d a6bf e63f 03bf 8ceb e2be
00000010: e5e2 f43f 7593 e3bf cacd 8f3f 41d2 de3f
00000020: fd34 223f ecec 01bf c174 303f 78a1 b8bf
00000030: 1663 2940 efb4 8d3f dde9 b2bd 9811 353e
00000040: fa5b 8a3f 4668 793f ea0d 113b 07f3 4cbf
00000050: 9a31 06bf cd65 5fbe 0600 f73f 5d2d 9ebf
00000060: 8374 e7be f066 ed3e b00d 513f b552 853f
00000070: 691d 81be dc9a e5bf c12e 8f3e 0940 9d3f
00000080: a7c3 a5be d7a4 953e f323 a53f 8da3 a53f
00000090: fa14 67bd defc dabf f16e 0e3e 7cb0 d1bf
000000a0: f1f1 82be c79e d33f 843f 433f e0fb 0c3f
000000b0: ea63 07bf 3403 0d3f 6e74 023f 3ee6 dabf
000000c0: 06fa 4c40 d9da 933d 0b39 e6bd 689b a63e
000000d0: 0958 b0bf 767a 5dbe

value_matrix f4 [6, 5]
3.6252592 -7.27195 -4.7458615 1.210883 -5.067614 -0.070604645 0.7843092 1.7468687
-0.4405563 -0.70945764 -1.2682998 -0.85385424 1.0454102 -0.47055846 -0.6418043 0.048183285
1.5176675 0.47116283 -0.007954594 1.7254394 1.0629348 -4.0835032 1.8338215 4.168711
0.05787307 0.2969014 -0.921173 -0.43012893 -1.441042 -0.015004845
00000000: 3f04 6840 d0b3 e8c0 19de 97c0 37fe 9a3f
00000010: e529 a2c0 2b99 90bd 7dc8 483f 6599 df3f
00000020: 9890 e1be 049f 35bf a657 a2bf 3196 5abf
00000030: 00d0 853f 0aed f0be 494d 24bf d65b 453d
00000040: ee42 c23f 413c f13e fc53 02bc 33db dc3f
00000050: 3f0e 883f 0fac 82c0 aaba ea3f 1566 8540
00000060: 500c 6d3d 7603 983e fed1 6bbf dc39 dcbe
00000070: 1074 b8bf e2d6 75bc

linear_layer1.weight f4 [9, 64]
0.31765845 0.08220161 0.1777566 0.115254216 0.19882196 -0.07930122 0.19240516 -0.05822633
0.04927798 0.009537772 0.016825726 0.3850219 -0.087240905 0.05292752 0.022303596 -0.066111304
0.03293817 0.09772271 0.21744291 -0.062387075 0.3668873 0.01089623 -0.0065514892 0.08854846
0.24044451 -0.11672783 -0.038153067 0.18145783 -0.1579181 0.33603752 -0.06535077 -0.08308103
0.010183762 0.066924445 0.18987195 0.111373745 0.0460392 -0.07755757 0.16529799 0.15683958
0.19476819 0.09224716 0.24006124 -0.22783244 0.014151411 -0.16826731 -0.0431889 0.043434866
0.02857192 -0.17912604 0.08898144 -0.07208867 0.18229729 0.086703956 -0.017435119 0.27156547
0.22106275 0.025676727 0.12195693 0.15368567 -0.007268664 0.2150454 0.30974665 0.29328343
0.24692127 0.15458404 0.06834289 0.11412116 0.08303028 -0.0734203 -0.23198414 0.062215503
0.18512392 -0.098305866 0.13244149 0.10876227 -0.21880426 -0.1084891 0.015618103 0.064742856
-0.06734311 0.17910919 -0.18714105 -0.14969574 -0.20215456 0.21057498 0.0050542713 -0.14889269
-0.18514343 -0.23848581 0.08865426 0.23980364 0.16336647 0.042698454 -0.2964785 0.18006049
-0.059615932 -0.10559994 -0.12675771 0.18348278 0.09778976 0.20841031 -0.13948251 -0.2350269
0.049830373 0.21628743 -0.29031557 0.15920617 -0.08265031 0.18092972 -0.15430513 0.1875174
0.007141482 -0.09972489 0.24874373 -0.0658467 -0.16348301 -0.17351452 -0.1886793 0.2005824
0.057158504 -0.014678539 0.22829683 -0.23328297 0.12185717 -0.24193951 -0.22054057 0.29864872
0.15527886 -0.2994642 -0.18821737 -0.15984674 -0.34582514 -0.24194656 0.028770095 -0.27486524
-0.14225829 -0.06851869 -0.20213811 -0.25861576 0.13211086 0.17862019 -0.05545858 -0.050931465
0.18644255 0.028643895 -0.024017936 -0.07437784 -0.1759731 -0.04422773 -0.03165874 -0.08525479
-0.120867655 -0.2391606 0.11774434 -0.08223583 0.05373993 0.08999079 0.054776676 0.036080357
-0.00207456 -0.033761542 0.2639756 0.0071202805 -0.09349318 0.32589617 0.1133607 0.08456757
0.16653346 0.06734255 0.055896826 0.0780483 0.14687008 -0.06232051 0.11266922 -0.13275878
-0.030919043 0.14920956 -0.09488642 0.03205867 0.10766585 0.15325709 0.05120407 0.10456052
-0.0593462 0.13876443 0.07689472 -0.09893713 0.13871446 0.12917641 -0.025541991 -0.05558985
-0.051928587 -0.023481999 0.043917455 0.30025637 -0.13748628 0.042659186 0.26300088 -0.12757525
-0.0698054 0.03637238 0.1214284 -0.05688396 0.35822487 -0.0026473766 -0.07375968 0.09125479
0.30260128 0.32317472 0.16145332 -0.10647298 -0.025224783 0.03296765 0.10709548 0.20533244
-0.08373602 0.033022124 0.28881773 0.0018671846 0.04319627 0.12378061 0.11583014 -0.023745714
-0.09979955 -0.1021579 0.09781558 0.10002305 -0.22513136 0.18072379 -0.15707415 -0.06991822
-0.09574202 -0.059537992 -0.08558284 0.18000388 0.036955778 -0.013030815 -0.063369565 -0.11866045
-0.11889877 0.012426563 -0.100959696 0.089962244 -0.09754262 0.20075831 0.0755333 -0.005061848
-0.17238423 0.06506353 -0.09508562 -0.22305934 -0.13634305 -0.15705487 -0.26512545 -0.046287186
00000000: 21a4 a23e 5159 a83d d305 363e 670a ec3d
00000010: fc97 4b3e ae68 a2bd dc05 453e bb7e 6ebd
00000020: b5d7 493d 5144 1c3c 1bd6 893c 9721 c53e
00000030: 5cab b2bd 87ca 583d 08b6 b63c 5d65 87bd
00000040: 2dea 063d d822 c83d 5ba9 5e3e 9789 7fbd
00000050: a7d8 bb3e 1a86 323c e0ad d6bb e558 b53d
00000060: 1637 763e 000f efbd 6446 1cbd 15d0 393e
00000070: 48b5 21be 1c0d ac3e a0d6 85bd 6326 aabd
00000080: cbd9 263c af0f 893d cb6d 423e eb17 e43d
00000090: 9a93 3c3d 81d6 9ebd e043 293e 8e9a 203e
000000a0: 5071 473e 14ec bc3d 9dd2 753e e84c 69be
000000b0: 52db 673c 444e 2cbe d8e6 30bd c2e8 313d
000000c0: a90f ea3c d16c 37be e73b b63d 3aa3 93bd
000000d0: 24ac 3a3e d891 b13d 18d4 8ebc a10a 8b3e
000000e0: 465e 623e 0058 d23c 8ec4 f93d c75f 1d3e
000000f0: f92d eebb dd34 5c3e 1d97 9e3e 3f29 963e
00000100: eed8 7c3e 474b 1e3e 5bf7 8b3d 5bb8 e93d
00000110: c80b aa3d 625d 96bd 408d 6dbe afd5 7e3d
00000120: 2091 3d3e 9654 c9bd be9e 073e c1be de3d
00000130: 390e 60be 892f debd 12e3 7f3c e797 843d
00000140: 2feb 89bd 6668 373e e7a1 3fbe d749 19be
00000150: 9b01 4fbe f8a0 573e 4d9e a53b 5377 18be
00000160: 3d96 3dbe a035 74be 5d90 b53d 168f 753e
00000170: 8a49 273e 93e4 2e3d 08cc 97be c761 383e
00000180: d62f 74bd c844 d8bd c6cc 01be e9e2 3b3e
00000190: ff45 c83d 8369 553e 81d4 0ebe e4aa 70be
000001a0: ef1a 4c3d 747a 5d3e 3ea4 94be f106 233e
000001b0: 9144 a9bd a445 393e 2a02 1ebe 9004 403e
000001c0: 1803 ea3b 903c ccbd adb6 7e3e a2da 86bd
000001d0: 1768 27be caad 31be 2535 41be 7965 4d3e
000001e0: 091f 6a3d 417e 70bc a5c6 693e bbe1 6ebe
000001f0: 4090 f93d febe 77be 63d5 61be 7ce8 983e
00000200: 6c01 1f3e 5f53 99be 0ebc 40be ddae 23be
00000210: fe0f b1be d7c0 77be 43af eb3c 23bb 8cbe
00000220: 28ac 11be 8753 8cbd 4bfd 4ebe 4969 84be
00000230: 1248 073e 36e8 363e 8928 63bd 839d 50bd
00000240: ccea 3e3e 9aa6 ea3c 43c1 c4bc 6953 98bd
00000250: 4b32 34be 2328 35bd 98ac 01bd 109a aebd
00000260: 7689 f7bd 84e6 74be f223 f13d 426b a8bd
00000270: 671e 5c3d 174d b83d 825d 603d ffc8 133d
00000280: 57f5 07bb 8b49 0abd cf27 873e 3e51 e93b
00000290: 5a79 bfbd dddb a63e a829 e83d c331 ad3d
000002a0: bf87 2a3e e4ea 893d 12f4 643d cad7 9f3d
000002b0: 1c65 163e cb43 7fbd 1fbf e63d ebf1 07be
000002c0: ef49 fdbc 64ca 183e d053 c2bd f44f 033d
000002d0: ea7f dc3d 6def 1c3e 5cbb 513d d323 d63d
000002e0: 0015 73bd 4318 0e3e fb7a 9d3d 8d9f cabd
000002f0: 2a0b 0e3e d246 043e 703d d1bc 2fb2 63bd
00000300: 12b3 54bd 525d c0bc cae2 333d 34bb 993e
00000310: 34c9 0cbe 66bb 2e3d 0da8 863e 16a3 02be
00000320: 22f6 8ebd 34fb 143d 74af f83d 28ff 68bd
00000330: 4069 b73e 9c7f 2dbb 510f 97bd cbe3 ba3d
00000340: 8eee 9a3e 2877 a53e 0554 253e 810e dabd
00000350: 34a4 cebc 1609 073d e054 db3d ab42 523e
00000360: ca7d abbd 3542 073d ebdf 933e 52bc f43a
00000370: 92ee 303d b080 fd3d 5a38 ed3d 5f86 c2bc
00000380: b563 ccbd 2938 d1bd 8953 c83d e3d8 cc3d
00000390: d688 66be a80f 393e 0cd8 20be 4931 8fbd
000003a0: 6414 c4bd 1cde 73bd 0e46 afbd f052 383e
000003b0: f15e 173d 337f 55bc e7c7 81bd 4004 f3bd
000003c0: 3381 f3bd c898 4b3c f5c3 cebd 203e b83d
000003d0: 6dc4 c7bd 9693 4d3e 34b1 9a3d dcdd a5bb
000003e0: 7e85 30be 0740 853d 40bc c2bd ab69 64be
000003f0: 839d 0bbe fed2 20be 86be 87be a297 3dbd

linear_layer1.bias f4 [9]
0.6510169 -0.24707896 0.28696772 0.99397445 -1.0184681 0.29516384 1.6567264 0.21008813
-1.4709568
00000000: 0ba9 263f 4402 7dbe 6fed 923e 1c75 7e3f
00000010: 2a5d 82bf b71f 973e 9c0f d43f 5821 573e
00000020: 5048 bcbf

linear_layer2.weight f4 [2016, 5]
-0.06053252 0.0057726814 0.061522704 0.08323676 0.06485908 -0.061017424 0.0055046603 0.16485307
0.08389347 0.10746548 -0.058395065 0.2126351 0.075208895 -0.0845547 0.09548405 -0.049539212
0.12194357 0.046520982 -0.052401856 0.06086152 -0.10345969 0.10422382 0.1630226 -0.05134358
0.10034064 -0.06480082 0.16106832 -0.016227378 -0.043649103 0.11361324 -0.073472515 0.18308353
-0.07599411 -0.20875114 0.051052567 -0.11519063 0.23367883 0.061887883 -0.069527194 0.13866824
-0.10565164 0.28194094 0.01365686 -0.15137985 0.1369714 -0.097690284 0.22012495 -0.15653585
-0.3231956 -0.016679695 -0.09971838 0.15767805 0.23494826 0.06506617 0.12741485 -0.08171894
-0.01946584 0.23807642 0.29247558 0.10457414 -0.1194445 0.46764073 -0.11449329 -0.40190193
0.113121085 -0.21171965 0.5250805 -0.01965878 -0.3641899 0.12484528 -0.1222731 0.063691124
0.22820115 0.16045637 0.13364698 -0.10008954 0.26100883 0.010792049 -0.19299778 0.0047772303
-0.06665919 0.16841316 0.10805692 -0.03488566 0.13562112 -0.113411106 0.2598073 0.2607387
0.050000805 0.26296818 -0.07519017 0.08650104 0.06760999 -0.058772936 0.045748338 -0.19123176
0.37458277 0.09117121 -0.25232336 0.1147366 -0.1893455 0.37597945 0.20071611 -0.07612898
0.2517785 -0.110349126 -0.02259494 0.2996628 0.16809429 0.22262548 -0.051121175 0.11681543
-0.05956348 -0.08795534 0.087878205 -0.04151434 0.18565534 0.08849964 -0.05767058 0.15558241
-0.050034642 0.22892961 0.10348963 -0.034920473 0.12948471 0.02362369 -0.047737524 0.008198415
-0.013639775 -0.060924694 -0.14723346 0.3721231 0.034323066 -0.28851697 0.091902986 -0.09473672
0.11239665 0.0819559 0.052569225 0.0935217 -0.047198746 0.18834262 0.022960817 -0.11819198
0.09444891 -0.030735057 0.1157784 0.1867447 0.08795491 0.19913314 -0.08735998 0.12239592
0.13827053 0.04743507 0.1862104 0.08228723 -0.084455006 -0.029150972 0.010749477 -0.1087123
-0.047033958 0.24993938 0.14457783 -0.037427634 0.067819476 -0.060870197 0.10814733 0.087480366
-0.03328024 0.0880545 0.09614647 -0.11117632 -0.010632371 0.037939798 -0.088743165 -0.020312067
-0.109851226 0.010979817 -0.016284613 -0.0799532 0.028425701 -0.032581173 0.0050155176 -0.037538193
0.046305295 -0.06384779 0.048208557 -0.013217894 -0.0361817 0.05473319 -0.021028457 -0.007366963
0.039284486 -0.04205248 0.0244778 0.01742519 -0.051762246 -0.016258774 -0.012582198 -0.10871113
-0.03443242 0.03643018 0.05051527 0.007269751 0.07833347 0.03737573 -0.013590183 -0.02922197
-0.023987211 0.052077398 0.03530911 -0.004661047 0.004790859 0.013897747 0.0026625847 0.010751623
-0.0101801045 -0.02847609 -0.0009297729 0.064969525 -0.060517162 0.13807125 0.06375048 -0.02428553
0.038606595 -0.009611233 0.0974725 0.0005927671 0.019367836 -0.0043118014 -0.088362016 0.20147014
0.106581636 -0.04149678 0.08530768 0.04962387 -0.12111396 -0.058585685 0.008913328 -0.13218312
0.0008470747 0.066699594 0.008640191 0.037634686 -0.007189933 -0.20048897 0.5155087 0.213737
-0.16302022 0.32208243 -0.026240213 0.037061837 -0.05132947 0.04505775 0.025792234 0.058594935
00000000: f3f0 77bd c328 bd3b 3bff 7b3d 0978 aa3d
00000010: d6d4 843d 68ed 79bd 7060 b43b 3ecf 283e
00000020: 57d0 ab3d dd16 dc3d aa2f 6fbd 04bd 593e
00000030: 1f07 9a3d 042b adbd 248d c33d a1e9 4abd
00000040: 8dbd f93d c98c 3e3d 54a3 56bd ee49 793d
00000050: ade2 d3bd 4c73 d53d 65ef 263e a54d 52bd
00000060: 657f cd3d 4bb6 84bd 18ef 243e 47ef 84bc
00000070: 67c9 32bd 0fae e83d c278 96bd 407a 3b3e
00000080: cda2 9bbd dcc2 55be 7f1c 513d 11e9 ebbd
00000090: 8149 6f3e 267e 7d3d 4664 8ebd 0cff 0d3e
000000a0: e35f d8bd 905a 903e 06c1 5f3c 5203 1bbe
000000b0: 3b42 0c3e d811 c8bd 6f68 613e ef4a 20be
000000c0: e579 a5be dba3 88bc 2639 ccbd 5b76 213e
000000d0: 4796 703e 6a41 853d 0a79 023e 425c a7bd
000000e0: d376 9fbc 4eca 733e 5cbf 953e f72a d63d
000000f0: 519f f4bd 9b6e ef3e 757b eabd 17c6 cdbe
00000100: 07ac e73d 09cd 58be ad6b 063f 730b a1bc
00000110: 1977 babe e2ae ff3d 526a fabd 7e70 823d
00000120: 90ad 693e ad4e 243e c1da 083e bffb ccbd
00000130: f3a2 853e 22d1 303c 36a1 45be 508a 9c3b
00000140: 9d84 88bd 8074 2c3e f24c dd3d 44e4 0ebd
00000150: 43e0 0a3e 1544 e8bd 7605 853e 8b7f 853e
00000160: a5cd 4c3d c4a3 863e 4efd 99bd 7527 b13d
00000170: 1b77 8a3d e4bb 70bd 9c62 3b3d 42d2 43be
00000180: 50c9 bf3e f9b7 ba3d 8730 81be 06fb ea3d
00000190: c9e3 41be 6180 c03e 8688 4d3e 83e9 9bbd
000001a0: 1de9 803e b9fe e1bd 0619 b9bc 676d 993e
000001b0: e920 2c3e eff7 633e 7064 51bd ee3c ef3d
000001c0: d6f8 73bd ee21 b4bd 7df9 b33d f10a 2abd
000001d0: 6f1c 3e3e 4d3f b53d fc37 6cbd ff50 1f3e
000001e0: 20f1 4cbd 866c 6a3e 5ff2 d33d c508 0fbd
000001f0: a497 043e 7886 c13c 6c88 43bd a552 063c
00000200: 5d79 5fbc 2c8c 79bd 5ec4 16be eb86 be3e
00000210: 5896 0c3d 7fb8 93be a237 bc3d 5305 c2bd
00000220: 3730 e63d 7fd8 a73d d452 573d 4e88 bf3d
00000230: 7953 41bd e3dc 403e 5318 bc3c a30e f2bd
00000240: 6e6e c13d 16c8 fbbc 3a1d ed3d 013a 3f3e
00000250: b421 b43d 8fe9 4b3e cae9 b2bd b6aa fa3d
00000260: ca96 0d3e 474b 423d f0ad 3e3e 3586 a83d
00000270: bff6 acbd 05ce eebc 931e 303c 8ea4 debd
00000280: aea6 40bd 1cf0 7f3e 360c 143e b84d 19bd
00000290: f0e4 8a3d 0753 79bd 597c dd3d e828 b33d
000002a0: dc50 08bd eb55 b43d 71e8 c43d 69b0 e3bd
000002b0: 6533 2ebc c366 1b3d fabe b5bd 7e65 a6bc
000002c0: aef9 e0bd b1e4 333c 4f67 85bc 81be a3bd
000002d0: 04dd e83c d673 05bd 3659 a43b a6c1 19bd
000002e0: 9faa 3d3d a1c2 82bd 5676 453d de8f 58bc
000002f0: 4333 14bd e92f 603d df43 acbc 9166 f1bb
00000300: c5e8 203d 393f 2cbd ab85 c83c 46bf 8e3c
00000310: a604 54bd 1f31 85bc 9025 4ebc f1a3 debd
00000320: 0209 0dbd d037 153d 1ae9 4e3d 1737 ee3b
00000330: 4c6d a03d 4b17 193d 5ca9 5ebc ea62 efbc
00000340: d480 c4bc 1c4f 553d 49a0 103d b2bb 98bb
00000350: a3fc 9c3b 60b3 633c c27e 2e3b 9327 303c
00000360: 74ca 26bc b046 e9bc 01bc 73ba be0e 853d
00000370: d8e0 77bd 8d62 0d3e 9d8f 823d 73f2 c6bc
00000380: f321 1e3d 6f78 1dbc a99f c73d ed63 1b3a
00000390: 4ca9 9e3c 034a 8dbb 25f7 b4bd 304e 4e3e
000003a0: 7947 da3d 87f8 29bd cbb5 ae3d 6642 4b3d
000003b0: 990a f8bd 8bf7 6fbd 3509 123c 035b 07be
000003c0: 390e 5e3a cc99 883d 968f 0d3c d426 1a3d
000003d0: 8899 ebbb fb4c 4dbe 61f8 033f dfdd 5a3e
000003e0: c6ee 26be fde7 a43e b7f5 d6bc 27ce 173d
000003f0: da3e 52bd 7a8e 383d 3c4a d33c 3e01 703d

linear_layer2.bias f4 [2016]
-0.99418163 -0.49446532 0.080340706 -0.6397001 -0.4901162 -0.17042455 0.10621373 1.0965148
0.39516884 -0.054059092 0.5718328 -1.5644711 1.7088015 0.25617194 -0.27401814 0.21270052
0.80017805 -0.29765436 -0.6314781 2.5680351 2.4079149 -0.68895113 -0.35308322 0.8224432
1.0324298 -2.2799466 2.1810675 -0.67463946 0.026645731 -0.29695126 0.20774406 -0.7908084
1.2860813 0.5994137 -0.95621234 -0.7727817 -0.09089875 0.28995633 0.1962217 -0.30866602
0.26578838 -0.17365135 -0.042995326 -0.16626316 1.0401582 0.2631716 1.4087332 -1.1297904
0.16885543 3.5026808 -0.11658775 -1.4082797 -1.1849434 0.8231669 -0.3059804 0.3743291
0.8720357 -0.3469923 -1.0642507 1.422765 0.4098259 0.09177283 -0.38633007 -0.24419816
0.021144466 0.028543307 0.6225932 -0.34024355 0.3606622 -0.13312101 1.8179218 -1.2466161
-1.8371866 1.471099 1.0461915 -0.10576291 -0.8724563 1.0399306 0.49790022 -0.96550775
-0.16100779 0.3723504 -0.76755255 -0.49688128 1.4439331 -0.5746414 0.10553072 0.6465542
-0.5743255 1.2926663 0.334027 -1.0773758 -0.845344 -1.1899765 1.5501926 -0.21157464
-0.33025002 -1.5521358 -0.025011698 1.454755 -0.7124254 0.2827775 -0.87640506 0.6892015
-1.1113131 0.3228773 0.21444225 -0.028824609 0.8524531 -0.79448664 -0.38162473 0.29289332
-0.28658476 -0.9270628 -0.12405919 -0.22472502 0.4092308 -1.0045638 1.0142955 0.32321155
1.1304945 -0.542661 1.5778704 0.5600647 -0.6513815 -1.1819232 -1.3743478 1.8563833
-0.9410321 -0.7203967 -0.6978727 1.2626458 -0.85131127 1.6238763 -2.6066864 0.6007249
-0.26293182 -0.8702807 -1.0102776 -0.9945659 2.302357 0.40732038 -0.8331384 -0.093778856
0.25391147 0.5266837 0.3253018 -0.035173398 -0.21043992 0.0055954456 -0.9743936 -0.66955334
-1.5678374 1.0762246 -0.0034911921 -0.18146941 -0.90373033 1.8717227 -1.0806416 -0.14040548
-0.51720035 0.4800784 0.1739746 0.023708943 -0.6599879 -0.39657313 -0.39887705 -0.86420965
-0.47968376 -0.22931899 -0.27626073 -1.7128586 0.38789108 -0.12866722 -0.47662076 -0.13681795
1.3517617 -2.191958 0.2600965 -0.22065227 -0.09528277 0.770758 0.40666357 0.03487569
0.15169974 1.2076434 1.0882521 -0.65655136 0.6086218 1.3751813 1.0143133 -1.3850048
-0.29375014 -1.4042888 0.47230643 -0.6601184 0.087182805 2.9879997 1.3726581 0.3028426
1.3996179 0.012647833 0.7812683 0.8105802 0.613044 0.5133558 -0.32365164 0.7683759
0.9075271 0.88854545 0.613166 -1.1832275 0.62008244 -0.24158065 -1.3956983 -0.9624889
1.1327863 0.75260967 -1.5612483 -1.2271277 1.2541863 0.99981403 1.0836227 -1.5918821
-0.33035523 1.0458434 2.0828311 -0.3032165 -0.6272342 -0.35368654 -0.1861015 0.36272767
-1.1898179 -1.2645692 -0.5734726 0.4216461 -0.63864017 1.874731 0.6269752 -2.0477
-1.2225807 0.45867723 0.687141 -0.75566596 -1.4039737 -0.30021068 -1.4716505 -1.2313664
0.87532884 0.844232 -0.25701874 0.1723531 1.2505244 -0.06326848 -0.49625868 -0.41314155
00000000: b082 7ebf 8f2a fdbe ab89 a43d 63c3 23bf
00000010: 83f0 fabe c683 2ebe 9686 d93d 995a 8c3f
00000020: 9253 ca3e 116d 5dbd a263 123f 9740 c8bf
00000030: 02ba da3f f828 833e 1b4c 8cbe 2ace 593e
00000040: 78d8 4c3f 2766 98be 8ca8 21bf b05a 2440
00000050: 471b 1a40 1a5f 30bf 53c7 b4be a38b 523f
00000060: a926 843f a5ea 11c0 9c96 0b40 2cb5 2cbf
00000070: 2648 da3c ff09 98be dcba 543e 6b72 4abf
00000080: 509e a43f 2d73 193f 55ca 74bf 06d5 45bf
00000090: 2029 babd 2875 943e 57ee 483e 7909 9ebe
000000a0: 6a15 883e a9d1 31be de1b 30bd e440 2abe
000000b0: e723 853f 6ebe 863e 5f51 b43f f99c 90bf
000000c0: 70e8 2c3e ec2b 6040 8fc5 eebd 8242 b4bf
000000d0: 3aac 97bf 11bb 523f 77a9 9cbe 10a8 bf3e
000000e0: bb3d 5f3f faa8 b1be 5e39 88bf 2a1d b63f
000000f0: b3d4 d13e 65f3 bb3d 0ecd c5be 150f 7abe
00000100: 2937 ad3c a7d3 e93c 4562 1f3f 6734 aebe
00000110: b7a8 b83e e050 08be a9b1 e83f 1e91 9fbf
00000120: ee28 ebbf f94c bc3f 9ae9 853f 399a d8bd
00000130: 4c59 5fbf 721c 853f c7ec fe3e 842b 77bf
00000140: 3adf 24be b6a4 be3e 537e 44bf 3967 febe
00000150: cdd2 b83f b31b 13bf 7d20 d83d 9384 253f
00000160: ff06 13bf 1776 a53f 9605 ab3e 73e7 89bf
00000170: 7768 58bf 2651 98bf b66c c63f 06a7 58be
00000180: 8816 a9be 63ac c6bf 55e5 ccbc 6935 ba3f
00000190: 8361 36bf 36c8 903e 155c 60bf 826f 303f
000001a0: 823f 8ebf 2c50 a53e c096 5b3e 9621 ecbc
000001b0: 5e3a 5a3f 7a63 4bbf 5164 c3be 1df6 953e
000001c0: 3dbb 92be fd53 6dbf bf12 febd 511e 66be
000001d0: b386 d13e 8c95 80bf 6fd4 813f fc7b a53e
000001e0: 0bb4 903f d5eb 0abf a8f7 c93f 6660 0f3f
000001f0: f0c0 26bf 4249 97bf a1ea afbf f89d ed3f
00000200: 7be7 70bf eb6b 38bf c9a7 32bf 619e a13f
00000210: 89ef 59bf 2edb cf3f f3d3 26c0 1bc9 193f
00000220: 009f 86be b7ca 5ebf c750 81bf df9b 7ebf
00000230: d159 1340 4c8c d03e 8f48 55bf 210f c0bd
00000240: af00 823e bed4 063f f58d a63e fb11 10bd
00000250: 907d 57be 005a b73b dc71 79bf d967 2bbf
00000260: e5ae c8bf bac1 893f 7ccc 64bb 1ed3 39be
00000270: df5a 67bf 9c94 ef3f 7752 8abf 74c6 0fbe
00000280: 3e67 04bf d6cc f53e 6626 323e 4239 c23c
00000290: f8f4 28bf a20b cbbe 9d39 ccbe d83c 5dbf
000002a0: 1c99 f5be 99d2 6abe 0c72 8dbe f33e dbbf
000002b0: a999 c63e 57c1 03be a307 f4be 011a 0cbe
000002c0: 8706 ad3f 0a49 0cc0 5e2b 853e abf2 61be
000002d0: 9d23 c3bd 6550 453f 3536 d03e d0d9 0e3d
000002e0: 2d57 1b3e 0f94 9a3f d84b 8b3f c013 28bf
000002f0: a3ce 1b3f f105 b03f 05d5 813f d647 b1bf
00000300: 6b66 96be bcbf b3bf 26d2 f13e 85fd 28bf
00000310: e68c b23d 633b 3f40 43b3 af3f 2f0e 9b3e
00000320: ae26 b33f db38 4f3c 3301 483f 2f82 4f3f
00000330: 74f0 1c3f 496b 033f abb5 a5be 48b4 443f
00000340: b253 683f b777 633f 72f8 1c3f 0074 97bf
00000350: b9bd 1e3f eb60 77be 3ea6 b2bf ac65 76bf
00000360: 24ff 903f 07ab 403f fcd6 c7bf 8512 9dbf
00000370: 2d89 a03f d0f3 7f3f 26b4 8a3f cbc2 cbbf
00000380: 5224 a9be 32de 853f 1b4d 0540 313f 9bbe
00000390: 6c92 20bf 6716 b5be 6491 3ebe 71b7 b93e
000003a0: f44b 98bf 67dd a1bf 1acf 12bf ffe1 d73e
000003b0: ec7d 23bf 2ff7 ef3f 7281 203f 840d 03c0
000003c0: 867d 9cbf bed7 ea3e 79e8 2f3f 5373 41bf
000003d0: 69b5 b3bf 37b5 99be 0b5f bcbf 6a9d 9dbf
000003e0: 8d15 603f 971f 583f f697 83be 557d 303e
000003f0: 2f11 a03f e892 81bd 9e15 febe 4a87 d3be
