model/Artificial_Data_30000_epoch_100_attention_net_u_artificial_Q_9_K_6_F_5_REG_L0_ACT_sigmoid_WD_00002_CV.model (torch_old, 52157 bytes, 6 tensors)

key_matrix f4 [9, 6]
0	0x3f2a799e	0.66591823
1	0xbef50f02	-0.47863013
2	0x400a4864	2.1606684
3	0x3e5b30e8	0.21405375
4	0xbfc15eaa	-1.5107014
5	0xbf43fcc5	-0.7655757
6	0x3df71184	0.12063888
7	0x3fb2534a	1.3931668
8	0xbf770d0b	-0.96504277
9	0xbf5d904b	-0.865483
10	0xbf5cd739	-0.86265904
11	0xbe133a53	-0.14377718
12	0xbffa8d9c	-1.9574466
13	0x40114775	2.2699864
14	0xbf6dfcaf	-0.9296369
15	0xbdc7f26d	-0.09763036
16	0xbe2f008f	-0.17090057
17	0x3fad1109	1.3520824
18	0x3ecf0474	0.40433085
19	0xbea300b1	-0.31836465
20	0xbf6dfc2a	-0.92962897
21	0x3d188961	0.03724039
22	0xbfd0f6f8	-1.6325369
23	0xbde0c963	-0.109759115
24	0x3ec2533d	0.3795413
25	0x3f340c9a	0.7033173
26	0x3f91b9c1	1.1384813
27	0xbf83bfb7	-1.0292882
28	0xbe251f51	-0.16125228
29	0xbf66d6b7	-0.9017138
30	0x3e4d4d92	0.20049122
31	0x3eff60a2	0.49878412
32	0xbf047eed	-0.51756173
33	0xbdf56ab8	-0.119832456
34	0x3f9a78ba	1.2068093
35	0x3f160014	0.5859387
36	0x3f297719	0.66197354
37	0x3f3b0cb8	0.7306628
38	0x3f8c8271	1.0977308
39	0x3f8c483b	1.0959543
40	0xbf37cc9b	-0.7179658
41	0x40189bd2	2.3845105
42	0xbf137116	-0.5759443
43	0xc01b55ca	-2.4271111
44	0xbf37954a	-0.7171217
45	0xbec39001	-0.38195804
46	0xbe4b0147	-0.19824706
47	0x4018224a	2.3770928
48	0xbd282161	-0.041047458
49	0xbe4d58a8	-0.20053351
50	0xbf756614	-0.95858884
51	0xbe918212	-0.28419548
52	0xbf7c349f	-0.98517793
53	0x3f5bc4c4	0.85847116

value_matrix f4 [6, 5]
0	0x3f260212	0.6484691
1	0x3ebaed43	0.3650914
2	0x3e51a775	0.20474036
3	0xbf69a6cb	-0.9127013
4	0xbeb3ba05	-0.3510286
5	0x3f9b273d	1.212135
6	0x40ab171a	5.34657
7	0xbf03e914	-0.51527524
8	0xc07f3e9d	-3.9881966
9	0xbe0de359	-0.13856257
10	0xbfececca	-1.8509762
11	0x402cf066	2.7021728
12	0xbfdc83ef	-1.7227763
13	0x3f02782e	0.5096463
14	0x3f317ca1	0.69330794
15	0x3f83f2f0	1.0308514
16	0x3cff603c	0.031173818
17	0xbee08844	-0.43853962
18	0xbebc5d98	-0.36790156
19	0x3d104fe0	0.035232425
20	0xbe634d25	-0.22197397
21	0x3e9db5a1	0.30802634
22	0x3fdcffbb	1.7265543
23	0x3f65e5ea	0.89803946
24	0x3eddc915	0.43317476
25	0x40c8d9da	6.276593
26	0x40dca455	6.89506
27	0x3f6cdbef	0.9252309
28	0x3fee607b	1.8623194
29	0xc08121af	-4.035362

linear_layer1.weight f4 [9, 64]
0	0x3e07f061	0.13275291
1	0x3c510ef2	0.012759911
2	0x3e7603ac	0.24024838
3	0x3e93dddd	0.28880206
4	0x3deb5f59	0.114927955
5	0xbe460804	-0.19338995
6	0x3dc9ac36	0.098473
7	0xbe5d3934	-0.21603853
8	0x3dd73459	0.105080314
9	0xbe0f1e64	-0.13976437
10	0xbd787b82	-0.06066466
11	0x3e19731b	0.14985316
12	0x3ebc07aa	0.36724597
13	0xbdc7ea75	-0.09761516
14	0x3e4d9052	0.20074585
15	0x3d8b9a8e	0.06816588
16	0x3e3048d1	0.17215277
17	0xbe334bba	-0.17509356
18	0xbd880359	-0.066412635
19	0x3e2dc55e	0.16969821
20	0x3e6a2315	0.22864945
21	0xbc4aefd9	-0.012386286
22	0x3d9754d8	0.073892295
23	0x3e3dea7e	0.18546483
24	0xbe0183fc	-0.12648004
25	0xbdddc7be	-0.108291134
26	0xbbe64a6d	-0.007027915
27	0xbe30248a	-0.17201439
28	0xbd3fbcd8	-0.046810955
29	0x3d42d2d6	0.04756435
30	0x3cc1d6e9	0.023662047
31	0xbe51b4ee	-0.20479175
32	0xbd9d2282	-0.076725975
33	0xbdf86ab6	-0.121297285
34	0x3e358ffc	0.17730707
35	0x3db57f09	0.08862121
36	0xbe3c80d0	-0.18408513
37	0x3ca39de7	0.019972755
38	0x3d5943d2	0.053043194
39	0xbccb9b7a	-0.02485441
40	0x3e192389	0.14954962
41	0x3d665db6	0.056241713
42	0xbe3df504	-0.18550497
43	0x3e44eb07	0.19230281
44	0xbe0a5373	-0.13508396
45	0x3dca69af	0.09883439
46	0xbe33ffe7	-0.17578088
47	0x3dbaedb4	0.091273695
48	0xbe8a71b0	-0.27039862
49	0xbd7bf77e	-0.061515324
50	0x3c42fabb	0.011900599
51	0x3a8efaf4	0.001090853
52	0x3dbb0ace	0.0913292
53	0xbe8cff13	-0.27538356
54	0x3e148922	0.14505437
55	0xbbb00363	-0.0053714975
56	0xbce17478	-0.027521357
57	0xbe8f845d	-0.28030673
58	0xbe50dbf4	-0.20396405
59	0xbe7d8a82	-0.24759868
60	0x3e3a7fa5	0.18212755
61	0x3e33b03b	0.17547695
62	0xbd63f6ed	-0.05565541
63	0xbe3ebd27	-0.18626843
64	0x3daf1c73	0.08550348
65	0x3d8e4802	0.06947328
66	0x3e0035be	0.12520501
67	0x3dd44116	0.10363977
68	0xbde25da2	-0.11053015
69	0x3df58063	0.119873784
70	0x3dbe887b	0.09303375
71	0x3ce3adad	0.027792776
72	0xbc387a92	-0.011259692
73	0xbcb6c181	-0.022309067
74	0x3de65b1a	0.11247845
75	0x3be1729b	0.006880117
76	0x3d9a6078	0.07537931
77	0x3d5be013	0.05368049
78	0x3e1239ce	0.14279863
79	0xbe4d9c28	-0.200791
80	0x3e43d6f3	0.19124965
81	0x3d4d3269	0.050096903
82	0x3c754068	0.014968969
83	0xbe47d783	-0.19515805
84	0x3e993387	0.29922125
85	0xbe144725	-0.14480264
86	0x3d7d9f2d	0.06191938
87	0x3e2b12e0	0.16706419
88	0x3d0d57a8	0.034507424
89	0x3e232700	0.15932846
90	0x3dd3f521	0.10349489
91	0x3dc99a01	0.09843827
92	0xbe57324a	-0.21015278
93	0x3dbc34f9	0.09189791
94	0xbe65db9a	-0.22447053
95	0xbe16eb1e	-0.14738128
96	0xbdacf818	-0.08445758
97	0x3e757ad8	0.23972642
98	0x3df08f1f	0.11746048
99	0x3e5e2718	0.216946
100	0x3db32060	0.087464094
101	0x3e9be3e8	0.30447316
102	0x3da4619e	0.080264315
103	0x3c80a511	0.01570371
104	0x3b449c8d	0.0030000538
105	0x3cee7a6b	0.029111108
106	0x3cdf2c77	0.027242882
107	0x3def108f	0.1167308
108	0xbdbb99d1	-0.091601975
109	0xbd70a104	-0.058747306
110	0x3e862d6e	0.26206535
111	0x3c3dff02	0.011596443
112	0x3eb8101b	0.35949787
113	0x3e3067b8	0.17227066
114	0xbd31ba50	-0.043390572
115	0x3ca75de1	0.020430507
116	0x3ea7de8c	0.32786977
117	0xbd8a89c3	-0.06764557
118	0x3b9e4ba9	0.0048307967
119	0xbdeb086a	-0.11476214
120	0x3de87523	0.11350467
121	0x3ce76561	0.028246583
122	0x3e2eb006	0.17059335
123	0x3e0563e1	0.13026382
124	0xbcb5a63d	-0.022173995
125	0xbd8ab7f9	-0.06773371
126	0xbe6d9bf1	-0.23204018
127	0x3dd489b8	0.1037783
128	0xbe5b601b	-0.2142338
129	0xbe234643	-0.15944771
130	0x3da70b21	0.081564195
131	0x3e1e167e	0.15438268
132	0xbd3d0119	-0.046143625
133	0xbdcc5d41	-0.09978724
134	0xbc9fe58e	-0.01951864
135	0xbdb6e121	-0.08929659
136	0xbe1ba837	-0.15200888
137	0xbe5430ba	-0.20721713
138	0xbcb099f2	-0.021557782
139	0xbe831e84	-0.2560922
140	0xbe955bd4	-0.29171622
141	0xbe876aa7	-0.26448557
142	0xbe31dd9d	-0.17369695
143	0xbde224bb	-0.11042162
144	0x3e509259	0.20368327
145	0xbcb28f01	-0.021796705
146	0xbd269030	-0.04066485
147	0xbd20477d	-0.039130677
148	0xbe423aa8	-0.18967688
149	0x3dc00c04	0.09377292
150	0xbe013b4a	-0.12620273
151	0xbdee255b	-0.11628219
152	0xbd944a8a	-0.0724078
153	0xbd821feb	-0.06353744
154	0xbde54b5c	-0.11196014
155	0xbdcb1d3b	-0.09917685
156	0x3c41b1b0	0.011822149
157	0xbd2825e6	-0.041051768
158	0xbbd9f969	-0.0066520465
159	0xbe3ef61c	-0.18648571
160	0x3eac8af8	0.33699775
161	0xbe16bb19	-0.1471981
162	0x3e962bdf	0.29330346
163	0x3d9b1636	0.07572596
164	0x3e2ed102	0.17071918
165	0x3d91ae86	0.07113366
166	0xbcb677c2	-0.022273902
167	0x3d6c10e7	0.057633307
168	0xbd45cfe7	-0.048293974
169	0x3ec5e6dd	0.38652697
170	0xbcedf1ed	-0.029046023
171	0xbd803f68	-0.06262094
172	0x3e3e527f	0.18586157
173	0x3e9031c8	0.2816298
174	0x3dd7028c	0.10498533
175	0x3db37140	0.08761835
176	0xbd825a82	-0.06364919
177	0x3d39b125	0.045334954
178	0x3e9a90b8	0.30188537
179	0x3e1e4bd7	0.15458618
180	0x3d0fc1ea	0.03509704
181	0xbdce03f2	-0.10059346
182	0x3e846db5	0.2586495
183	0x3cb34dbf	0.021887658
184	0x3e05c760	0.13064337
185	0x3e16e14f	0.14734386
186	0x3e0d4430	0.13795543
187	0x3d7bc157	0.06146368
188	0x3db30348	0.0874086
189	0xbd3ba37d	-0.04581021
190	0x3e557ef7	0.20849214
191	0x3c8b3836	0.016994577
192	0xbe397378	-0.18110454
193	0xbe7f677e	-0.24941823
194	0x3e3c340b	0.18379228
195	0xbe1e2429	-0.15443482
196	0x3e7ec067	0.24878083
197	0xbe23a2cd	-0.15980072
198	0xbe8ae5bd	-0.271284
199	0x3d971fd5	0.07379118
200	0x3e818be1	0.25302032
201	0x3e35e2e8	0.17762339
202	0x3dfcc1d7	0.123416595
203	0xbe76853d	-0.24074264
204	0x3d8c1798	0.06840438
205	0x3e2a6d18	0.16643178
206	0x3e5bb08e	0.21454069
207	0x3e31cc4e	0.17363092
208	0x3e5934bd	0.21211524
209	0x3e5911ee	0.21198246
210	0xbd44a77d	-0.04801129
211	0x3db712b4	0.08939114
212	0xbd52539e	-0.051349275
213	0xbe79d5fe	-0.24398038
214	0x3e21d57f	0.15804099
215	0xbe0bb7f2	-0.13644388
216	0xbe80815c	-0.25098693
217	0x3e721272	0.23639849
218	0xbe09a862	-0.13443139
219	0xbd24f34e	-0.040271096
220	0xbd4181f2	-0.047243066
221	0xbe46b018	-0.19403112
222	0x3cc7688f	0.02434185
223	0x3e23e113	0.16003828
224	0xbe6af40c	-0.22944659
225	0x3e43f8e9	0.1913792
226	0x3e7ec4ef	0.24879812
227	0x3c8ec157	0.017426176
228	0x3e29eb28	0.16593611
229	0x3dc80e7b	0.09768387
230	0xbd7b67dc	-0.061378345
231	0xbe0ba42e	-0.13636848
232	0x3e2b8601	0.16750337
233	0xbe431a80	-0.19053078
234	0x3e05f900	0.13083267
235	0x3e864767	0.2622635
236	0x3e39ecc9	0.18156733
237	0xbd8adfb8	-0.06780952
238	0x3e9fdfad	0.3122534
239	0xbe08f493	-0.13374548
240	0xbe5ba50c	-0.21449679
241	0xbe1bcf06	-0.15215692
242	0x3beeb4f5	0.0072847554
243	0x3d8c6f26	0.068571374
244	0xbd68cc92	-0.05683572
245	0x3e8d2187	0.27564642
246	0x3e80acab	0.25131735
247	0x3cabe495	0.02098302
248	0xbe213df7	-0.15746294
249	0xbdf76767	-0.12080269
250	0x3e93b64b	0.28850016
251	0xbe58da74	-0.21177083
252	0xbde41827	-0.11137419
253	0x3d545a21	0.051843766
254	0x3e95bd75	0.29246107
255	0xbe4967c1	-0.19668485

linear_layer1.bias f4 [9]
0	0xbfb13480	-1.3844147
1	0x3eca954d	0.39567032
2	0x3f5aee0a	0.8551947
3	0x3f98376a	1.1891911
4	0x3f4687a5	0.7755073
5	0x3f4fefc7	0.81225246
6	0xbf04d6fb	-0.51890534
7	0xbfccfb80	-1.6014252
8	0xbeaca5ed	-0.3372034

linear_layer2.weight f4 [2016, 5]
0	0xbe0c7666	-0.1371704
1	0xbd72e45b	-0.059299808
2	0xbcf5b584	-0.02999378
3	0xbe24c6d5	-0.16091473
4	0x3e19b6bb	0.15011112
5	0xbe4580cc	-0.19287413
6	0xbe7d50a9	-0.247378
7	0x3af93b6b	0.00190149
8	0xbb8f1aab	-0.0043671927
9	0x3e0ac1e8	0.13550532
10	0xbd42fd25	-0.0476047
11	0xbec420ee	-0.38306373
12	0x3c613343	0.013745132
13	0x3e80da98	0.25166774
14	0xbcdcd011	-0.026954683
15	0xbe159124	-0.14606148
16	0xbe1c01f2	-0.15235117
17	0xbd5126a8	-0.051062256
18	0xbe0955a9	-0.13411583
19	0x3e193c3a	0.14964381
20	0xbdd013b1	-0.10160006
21	0xbee1650d	-0.44022408
22	0x3d47ff5d	0.048827518
23	0x3ec18c27	0.3780224
24	0xbd0cbe8d	-0.03436141
25	0xbe5fef45	-0.21868618
26	0xbe25ff00	-0.16210556
27	0xbd8ee89b	-0.0697796
28	0xbdecd83f	-0.11564683
29	0x3d8ac301	0.06775475
30	0xbdd03bc7	-0.101676516
31	0xbdbf26e8	-0.09333593
32	0xbcf77061	-0.030204954
33	0xbe12b7de	-0.14327952
34	0x3dc65b78	0.09685415
35	0xbe58769b	-0.21138994
36	0xbeecda00	-0.4626007
37	0x3d721bfe	0.059108727
38	0x3e80a0dc	0.25122726
39	0x3d155a0b	0.036462825
40	0xbdc726c4	-0.09724191
41	0xbe78dfd8	-0.2430414
42	0x3ceb28c6	0.028705966
43	0x3db26d4f	0.08712255
44	0x3da611b3	0.081088446
45	0xbe4f2134	-0.2022751
46	0xbead4bb2	-0.33846813
47	0xbc9856b9	-0.01859604
48	0x3dae23eb	0.085029446
49	0x3d6630c8	0.056198865
50	0xbde51e25	-0.1118739
51	0x3dfea435	0.12433664
52	0xbd3cfeb0	-0.046141326
53	0xbea491ef	-0.32142588
54	0x3d84026d	0.06445775
55	0x3c2a771b	0.0104043735
56	0xbe837eea	-0.25682765
57	0xbca220df	-0.019791065
58	0x3e86b101	0.26306918
59	0xbc8ea6ca	-0.017413516
60	0xbda895c1	-0.08231688
61	0xbeb93c90	-0.36179018
62	0x3cc5293f	0.02406752
63	0x3e986f7d	0.2977256
64	0xbd004674	-0.03131719
65	0xbe34e02d	-0.17663641
66	0xbe90c065	-0.28271785
67	0x3c6738ca	0.014112661
68	0x3ddbe7d1	0.10737575
69	0x3da7b18e	0.08188163
70	0xbd74a5e6	-0.059728526
71	0xbd0f36b8	-0.034964293
72	0xbda7e385	-0.08197693
73	0xbe29485b	-0.16531508
74	0x3dcad694	0.09904209
75	0xbe1df141	-0.15424062
76	0x3d9d7c2c	0.076896995
77	0xbdab9f01	-0.08379937
78	0xbe60f3c6	-0.21967992
79	0x3d23b474	0.039967015
80	0xbe303e7b	-0.17211334
81	0xbee1d77e	-0.4410972
82	0x3cfb56da	0.030681062
83	0x3eb5044b	0.35354838
84	0x3bee1638	0.0072658323
85	0xbe96b147	-0.29432127
86	0xbe1ae35f	-0.15125798
87	0xbd29621d	-0.041353334
88	0xbea58bdd	-0.3233327
89	0x3e39bdeb	0.18138854
90	0xbe1d6dbe	-0.15373895
91	0xbdf2f58c	-0.118632406
92	0xbd811d0f	-0.063043706
93	0xbe4ad1bd	-0.19806571
94	0x3df018d4	0.117234856
95	0xbe48ee42	-0.19622138
96	0xbe3a093c	-0.18167585
97	0xbc8b4704	-0.017001636
98	0xbe6df934	-0.23239595
99	0x3e1520ba	0.14563265
100	0xbdc485df	-0.095958464
101	0xbdd8383f	-0.10557603
102	0x3cb3a5c8	0.021929637
103	0x3c40ea7a	0.011774654
104	0x3ddb0754	0.10694757
105	0xbe2ebd60	-0.17064428
106	0xbe429322	-0.19001439
107	0xbd205c87	-0.03915074
108	0xbd7d1a48	-0.061792642
109	0x3dbf4d9d	0.093409754
110	0xbe7c3784	-0.24630553
111	0xbe5ed5a0	-0.21761179
112	0xbc0c67a7	-0.0085696345
113	0xbe36f517	-0.17866932
114	0x3e31aa57	0.17350136
115	0xbe1eb3a8	-0.15498221
116	0x3d0b7f9e	0.034057252
117	0xbd8a96c9	-0.06767041
118	0xbe8b89f4	-0.27253687
119	0x3e280193	0.1640685
120	0xbe2b65ef	-0.16738103
121	0xbe8015f1	-0.2501674
122	0xbc4a8460	-0.012360662
123	0xbcd609a9	-0.026127653
124	0x3e04ef18	0.12981832
125	0xbc7f424d	-0.015579772
126	0x3d607174	0.054795697
127	0xbcdfc20c	-0.027314208
128	0xbe2666fd	-0.16250224
129	0x3d200acd	0.0390728
130	0xbe8485b2	-0.2588325
131	0xbe009e2e	-0.12560341
132	0xbc92f13c	-0.017937295
133	0xbe117a9f	-0.14206932
134	0x3e1b7ee3	0.15185122
135	0xbe243c63	-0.1603866
136	0xbdfbc1fc	-0.12292859
137	0xbd385a25	-0.045007844
138	0xbdcb2eec	-0.09921059
139	0x3da11816	0.07865922
140	0xbe2e109f	-0.16998528
141	0xbd347e0d	-0.044065524
142	0xbdebf278	-0.115208566
143	0xbebaede5	-0.36509624
144	0x3e495138	0.19659889
145	0xbe42f38d	-0.1903822
146	0xbd05ed69	-0.032697115
147	0xbdae4561	-0.08509327
148	0xbe1299c4	-0.1431647
149	0x3e04bdd6	0.12963042
150	0xbe1c3975	-0.15256293
151	0xbdc986c4	-0.09840158
152	0xbd767267	-0.060167696
153	0xbd51b344	-0.05119635
154	0x3df07c3d	0.117424466
155	0xbdac9399	-0.084265895
156	0xbd9f8439	-0.07788891
157	0x3cf6d136	0.030129056
158	0xbab3eba7	-0.0013726846
159	0x3d0eb08d	0.03483634
160	0xbd2bdfe6	-0.041961573
161	0xbc82a03d	-0.015945548
162	0x3cddbe29	0.027068214
163	0xbd0cdd17	-0.034390535
164	0x3d63c8e3	0.055611502
165	0x3bc747a4	0.0060815383
166	0x3d1e3b7f	0.03863096
167	0x3d5d9167	0.054093745
168	0x3971905f	0.00023037333
169	0xbc9f0a29	-0.019414024
170	0x3d29567d	0.041342247
171	0x3d6d99d5	0.058008034
172	0x3af8fb09	0.0018995713
173	0xbb98844f	-0.0046544443
174	0x3c5b0af2	0.013369309
175	0x3df1ad25	0.11800603
176	0x3e137904	0.14401633
177	0x3c9d2c7a	0.019186247
178	0x3cd11a8d	0.025525356
179	0xbda4e5f6	-0.08051674
180	0x3d687ff9	0.05676267
181	0xbc3c57ac	-0.011495512
182	0xbc44509c	-0.011982109
183	0x3d01f965	0.03173198
184	0x3bc23e6a	0.0059278505
185	0x3d8f3651	0.06992782
186	0x3e2055e4	0.15657765
187	0x3cb5676d	0.022144044
188	0x3b16f447	0.0023033784
189	0xbc801fcf	-0.015640168
190	0xbd3cec36	-0.046123706
191	0xbd4383da	-0.047733165
192	0x3c1b8aed	0.009493572
193	0xbcc1e15b	-0.023667028
194	0x3c12b738	0.008954816
195	0x3da0d2ed	0.07852731
196	0x3da4dec2	0.080503
197	0x3d590797	0.052985754
198	0xbce864e7	-0.028368426
199	0xbd8d6c0d	-0.06905375
200	0x3dadad5d	0.08480332
201	0x3db453af	0.08805024
202	0x3d774a79	0.060373757
203	0x3cee6e35	0.029105285
204	0xbd091a2a	-0.033472218
205	0x3cd2f67c	0.025752299
206	0xb9512677	-0.00019946122
207	0xbd5a0653	-0.053228687
208	0x3c95b308	0.018273845
209	0x3cacc6f7	0.021090968
210	0xbe22f18c	-0.15912455
211	0xbe27303a	-0.1632699
212	0x3cc79798	0.024364278
213	0x3c24fdaa	0.010070244
214	0x3dd1dc49	0.10247094
215	0x3db1e7ae	0.086867675
216	0x3e069e20	0.13146257
217	0x3bfab4d5	0.0076509514
218	0xbcf63c06	-0.030057918
219	0xbdad6303	-0.084661506
220	0x3d87c7e0	0.0662992
221	0x3d452488	0.048130542
222	0x3c97bc52	0.018522415
223	0x3d3cac11	0.046062533
224	0x3b194dcc	0.0023392318
225	0x3d964385	0.07337097
226	0x3d9a8fbe	0.07546948
227	0x3c8de5aa	0.017321426
228	0xbc9d169f	-0.019175826
229	0xbd6ca7d2	-0.057777233
230	0x3cc9cf4b	0.024634978
231	0xbc2684e5	-0.01016352
232	0x3ccf8d55	0.025335947
233	0x3cd430bc	0.025902145
234	0xbcf5f092	-0.03002194
235	0xbdebb4a5	-0.115090646
236	0xbe689e87	-0.22716723
237	0xbd9259ac	-0.0714601
238	0xbc9784c0	-0.018495917
239	0x3dd28e46	0.10281043
240	0xbd3d4f19	-0.04621801
241	0xbe0a255c	-0.13490814
242	0x3d24de62	0.040251143
243	0xbca0e211	-0.019639047
244	0x3d010a30	0.031503856
245	0x3d997eed	0.07494912
246	0x3da72fd5	0.0816342
247	0xbc9990cf	-0.018745808
248	0xba6b7ae4	-0.00089828507
249	0xbc8a5225	-0.016884873
250	0xbe7d2a66	-0.24723205
251	0xbe64e42b	-0.22352664
252	0x3c289aaf	0.010290786
253	0x3aa82be2	0.0012830461
254	0x3dc330c1	0.095307834
255	0x3d1f8002	0.038940437

linear_layer2.bias f4 [2016]
0	0x3e2a5365	0.16633375
1	0x3f69dbae	0.9135083
2	0x3e5d92ad	0.21637984
3	0x3f286c30	0.6579008
4	0x3f483212	0.782014
5	0x3f6175ff	0.8807067
6	0xbf0591e0	-0.5217571
7	0x4016d476	2.3567176
8	0xbe1dc1b0	-0.15405917
9	0x3e86b63c	0.2631091
10	0xbfbccc64	-1.4749875
11	0xbfcef534	-1.616858
12	0xbf426bd4	-0.7594578
13	0x3e7ea6fb	0.24868385
14	0xbfa51baf	-1.2899073
15	0xbfb0e932	-1.3821166
16	0x3fd53fe6	1.6660125
17	0x3e1db09d	0.15399404
18	0x3debb84d	0.11509762
19	0x3e2c587c	0.16830629
20	0xbf9b7b88	-1.2147074
21	0x3f5adab3	0.8548996
22	0xbf8d2690	-1.1027393
23	0xbf37f8c5	-0.7186397
24	0x3f9b7abf	1.2146834
25	0xbfdd7da7	-1.7303971
26	0x3f21dad6	0.6322454
27	0x3e6095f8	0.21932209
28	0xbeb018aa	-0.34393817
29	0xbf26541e	-0.649721
30	0x3dfa31dd	0.12216542
31	0x3eb07828	0.34466672
32	0xbd0f7de6	-0.035032175
33	0xbe3e858c	-0.18605632
34	0xbf4b4fa8	-0.7941842
35	0xbfa44d1e	-1.2836034
36	0xbebe3db1	-0.37156442
37	0xbf9e54c1	-1.2369615
38	0x3e9dd0b0	0.30823278
39	0xbf536fbf	-0.82592386
40	0xbf25d3b8	-0.6477618
41	0xbe077da7	-0.13231526
42	0x3fb363e7	1.4014863
43	0xbfb2c026	-1.3964889
44	0xbf03bad3	-0.51456946
45	0xbf887a8c	-1.0662398
46	0xbe179150	-0.14801526
47	0x3fa0a692	1.2550833
48	0x3f499b43	0.78752536
49	0xbf4fb76b	-0.8113925
50	0x3fd394b6	1.6529758
51	0xbe8d6545	-0.27616325
52	0x3e9cc5b9	0.306196
53	0x3e935c7f	0.28781506
54	0xbfa8128f	-1.3130664
55	0xbf32a831	-0.6978789
56	0x3f81f05d	1.0151478
57	0xbf416c5a	-0.75555956
58	0xbdf61870	-0.1201638
59	0xbf716b10	-0.9430399
60	0x3cf8e547	0.030382765
61	0xbea879d0	-0.32905436
62	0x4037b00b	2.8701198
63	0x3e90b4b6	0.28262872
64	0x3f7c6193	0.98586386
65	0xbf1330cd	-0.5749634
66	0xbf13c196	-0.57717264
67	0xbebd8c58	-0.37021136
68	0xbf866438	-1.0499334
69	0x3efc66aa	0.49297076
70	0xc03bad14	-2.9324389
71	0xbfe99650	-1.8248997
72	0xbf49c0b0	-0.7880964
73	0x3f368b8d	0.7130669
74	0x3fd38616	1.6525295
75	0x3f93e75e	1.1554983
76	0xbf1e52fe	-0.61845386
77	0x3f082e39	0.5319553
78	0x3f3ef590	0.7459345
79	0x3eb26c49	0.3484824
80	0xbea37da8	-0.31931806
81	0xbf3e1c8c	-0.7426231
82	0x3f5e9f56	0.8696188
83	0x3f3d3714	0.7391217
84	0x3e4f0d4f	0.2021992
85	0x3f4664fe	0.7749785
86	0xbefb720b	-0.49110445
87	0xbf5fc302	-0.87406933
88	0xbe2f163f	-0.1709833
89	0x3f1ac3e7	0.60455173
90	0x3faff2f5	1.374602
91	0x3f67bb04	0.9051974
92	0xbf219985	-0.6312488
93	0xbf48a7ea	-0.78381217
94	0xbf6dbee0	-0.9286938
95	0xbe17cc03	-0.14823918
96	0x3ec2bdd6	0.38035458
97	0xbf324b35	-0.69646007
98	0x3f9890b8	1.1919165
99	0x3f37d050	0.71802235
100	0x3f14e581	0.58162695
101	0x3e923edf	0.28563592
102	0xbe95973a	-0.2921694
103	0xbe7998bf	-0.24374674
104	0xbe040d8a	-0.1289579
105	0xc01c5f18	-2.443304
106	0x3e507665	0.20357664
107	0xbd97ae6a	-0.07406314
108	0xbf5e9e23	-0.8696005
109	0xbf18b0c5	-0.5964473
110	0xbf4aa43d	-0.7915686
111	0x3f13abb8	0.57683897
112	0x3eca8e26	0.39561576
113	0xbeb5b941	-0.354929
114	0xbf286672	-0.6578132
115	0x3f7c9eb8	0.98679686
116	0x3fe61940	1.7976456
117	0x3e0463c0	0.12928677
118	0x3f815db5	1.0106722
119	0x3ff04cd2	1.8773444
120	0x3f6ac952	0.9171344
121	0x3ea01d5d	0.31272402
122	0xbe7708d4	-0.24124461
123	0xbf8ee290	-1.1162891
124	0x3fda8133	1.7070678
125	0x3f368189	0.71291405
126	0xbd5d1677	-0.053976502
127	0x3d2141de	0.039369456
128	0x3f445de4	0.76705766
129	0x3fb20d3b	1.3910288
130	0xbf81d857	-1.0144147
131	0x3dedd5dd	0.11613057
132	0xbfa782e2	-1.3086817
133	0x3d93a4b4	0.07209149
134	0xbf8f56f2	-1.1198409
135	0x3f83a974	1.0286088
136	0x3e872bc4	0.26400578
137	0xbf3597e7	-0.7093491
138	0xbe29086f	-0.16507123
139	0x3de1b894	0.110215336
140	0x3f5c6d82	0.86104596
141	0xbd49484f	-0.049141224
142	0xbf933575	-1.1500689
143	0x3e8e2459	0.27762106
144	0xbdb74ad3	-0.089498185
145	0xbeb1722f	-0.34657428
146	0x3f3487b5	0.7051957
147	0x3f593e50	0.84860706
148	0x3e72eb96	0.23722681
149	0xbe986330	-0.29763174
150	0xbec25460	-0.37954998
151	0xbf8e982b	-1.1140188
152	0xbf3e1cf7	-0.74262947
153	0x3d8d3e08	0.06896597
154	0xbfad0624	-1.3517499
155	0x3ef1fca0	0.4726305
156	0xbf8bda81	-1.0926057
157	0xbf692c6d	-0.91083413
158	0x40369c81	2.8533022
159	0x3f313af8	0.69230604
160	0x3fc83e1f	1.5643958
161	0xbfa5ff72	-1.2968581
162	0xbda5c513	-0.080942295
163	0x3f69d517	0.91340774
164	0x40091ddf	2.1424482
165	0x3f2bde4c	0.67136073
166	0x3e408f0f	0.18804573
167	0xbef33d8a	-0.47507888
168	0x3eb436ff	0.3519821
169	0x3fa15a5e	1.2605703
170	0xbfaffdd6	-1.374934
171	0x39bed922	0.000364014
172	0x4000957f	2.0091245
173	0xbfa0e2a9	-1.2569171
174	0x3d593a3a	0.053034045
175	0x3f153a49	0.5829206
176	0xbe7cdda0	-0.24693918
177	0xbe4a357c	-0.19746965
178	0x3d66f324	0.05638422
179	0x3e29ed1f	0.16594361
180	0xbf1fc68e	-0.62412345
181	0xbfdadeca	-1.709924
182	0x3df4bc1c	0.119499415
183	0x3fb159ed	1.3855568
184	0x3dfe3579	0.12412543
185	0xbf0c17bb	-0.5472371
186	0x3ec00bd2	0.37509018
187	0x3f3e6222	0.7436849
188	0xbec7d0f2	-0.390266
189	0xbf7e63a1	-0.9937077
190	0xbe1be08f	-0.15222381
191	0xbe85152d	-0.25992718
192	0xbec41b7b	-0.38302216
193	0x3dfa2cb4	0.12215558
194	0xc0101d3a	-2.2517838
195	0x3d9debd5	0.07710997
196	0xbfd621ef	-1.6729106
197	0x3f5e76fa	0.86900294
198	0xbf516604	-0.8179629
199	0xbe8e4c4e	-0.2779259
200	0xbf3d9dce	-0.74068916
201	0x3f8887f4	1.066649
202	0x3fe4f06d	1.7885872
203	0xbfa6e2c7	-1.3037957
204	0xbf97a14b	-1.1846098
205	0x3e991ce5	0.29904857
206	0xbd4f482d	-0.05060594
207	0xbdab0679	-0.08350844
208	0xbf15276a	-0.58263266
209	0xbeb03073	-0.34411964
210	0x3f5df8ff	0.8670806
211	0xbe65609c	-0.22400135
212	0x3eb2f675	0.34953657
213	0x3e48c55f	0.19606541
214	0x3f1bcea3	0.6086218
215	0x3d8fbf84	0.070189506
216	0x3ed9caa9	0.4253743
217	0xbf424e55	-0.75900775
218	0xbed07531	-0.4071441
219	0x3fd6b985	1.6775366
220	0xbebafd2e	-0.36521286
221	0x3f4deedf	0.80442613
222	0x3f299ad4	0.66251874
223	0x3fc74e9f	1.5570868
224	0xbf1a24da	-0.6021248
225	0xbf703e9e	-0.93845546
226	0xbf0cab19	-0.54948574
227	0xbf58ceab	-0.8469035
228	0x3f9fbd27	1.24796
229	0x3e122429	0.14271607
230	0xbd6fec1c	-0.05857478
231	0xbf7a846d	-0.97858316
232	0x3ef9818e	0.48731655
233	0xbf9cc629	-1.2247974
234	0x3f9f7dad	1.2460228
235	0xbf0530b3	-0.52027434
236	0xbee370a5	-0.44421878
237	0x3f39c222	0.7256185
238	0x3e63dddb	0.222526
239	0xbf41aada	-0.75651324
240	0xbfb7fecd	-1.4374634
241	0x3b96e4bd	0.0046049044
242	0xc028c416	-2.6369681
243	0x3fc2361e	1.5172765
244	0xbec6f55a	-0.38859063
245	0x3faa056a	1.3282902
246	0x3f3369ad	0.70083123
247	0x3f0b8976	0.54506624
248	0xbe0ca00b	-0.13732927
249	0x3e704698	0.2346443
250	0xbedc0167	-0.4296982
251	0x3f49fade	0.7889842
252	0x3ecbe2da	0.39821512
253	0xbe494939	-0.19656838
254	0xbf471f7d	-0.7778242
255	0xbf9c3342	-1.2203143
