model/Artificial_Data_6000_LogF_False_epoch100_attention_net_u_artificial_Q_9_K_5_F_5_REG_L0_ACT_sigmoid_WD_000001_CV.model (torch_old, 52101 bytes, 6 tensors)

key_matrix f4 [9, 5]
0	0x3d7c901f	0.061660882
1	0x3d877785	0.066145934
2	0xbf19943c	-0.5999181
3	0x3fd381d3	1.6523994
4	0xbf6ed969	-0.9330049
5	0xbe486b75	-0.19572242
6	0xbf4bb645	-0.79574996
7	0x3e8da4d2	0.2766481
8	0x401e4cde	2.4734416
9	0x3f3810ca	0.7190062
10	0xbfe31ea6	-1.7743728
11	0x3f83366a	1.0250981
12	0xc004baf5	-2.073911
13	0x3f67f084	0.9060137
14	0xbed998a4	-0.42499268
15	0xc065d126	-3.5908904
16	0xbf6a488c	-0.9151695
17	0xbe751c1a	-0.23936501
18	0xbf81feea	-1.0155919
19	0xbfb3a89f	-1.4035834
20	0x3ed9b5f8	0.42521644
21	0x3ed68682	0.41899496
22	0xbf6761f6	-0.9038385
23	0x4014187f	2.3139951
24	0x3eddfe8a	0.4335826
25	0x3fa5c36e	1.2950265
26	0xbeffb9c7	-0.49946424
27	0x3fa77107	1.3081368
28	0x3ebe10fe	0.3712234
29	0xbf3d0591	-0.7383662
30	0xbee31dd3	-0.44358692
31	0x3fd766c7	1.682824
32	0xbf420442	-0.75787747
33	0x400c7bc3	2.1950538
34	0x3f13f104	0.57789636
35	0x3f9b91c5	1.215386
36	0x39a86573	0.00032119043
37	0x3eb02f38	0.34411025
38	0x3f4b9224	0.7951987
39	0xbf9be0fa	-1.2178032
40	0x3fb5ae0e	1.4193742
41	0xbf9db953	-1.2322181
42	0xbfe2d361	-1.7720758
43	0xbf89fceb	-1.078031
44	0x3e5eaf35	0.21746524

value_matrix f4 [5, 5]
0	0x3f717c01	0.9432984
1	0xc005f59c	-2.0931158
2	0x3f568552	0.8379718
3	0x3ef146f8	0.47124457
4	0x3fba3b37	1.4549321
5	0x3ff3b569	1.9039737
6	0xbedeb743	-0.43499193
7	0xc00fb972	-2.2456937
8	0xbfb6c946	-1.4280174
9	0x3f5725f7	0.84042305
10	0x3ea763cc	0.32693326
11	0xbe1d36da	-0.15352955
12	0x3eedd649	0.4645255
13	0xc01831ff	-2.3780515
14	0xbf54bc7b	-0.831001
15	0x3f9bdf9e	1.2177618
16	0xbff6d039	-1.9282295
17	0xc061039f	-3.515846
18	0x40ae7ad6	5.4524946
19	0x402fdf0f	2.7479894
20	0x3fd79ec7	1.684533
21	0x3ea6ca8c	0.32576406
22	0x3ebdac7b	0.37045655
23	0x3eba3f42	0.36376387
24	0xbd5ddac8	-0.054163724

linear_layer1.weight f4 [9, 64]
0	0x3e8f9d3f	0.28049657
1	0xbd9ea799	-0.077468105
2	0x3e043121	0.12909366
3	0x3e95721f	0.2918863
4	0x3c381957	0.01123651
5	0x3e80a4e7	0.2512581
6	0x3d25f9fb	0.040521603
7	0xbe66b75a	-0.2253088
8	0x3e925021	0.28576759
9	0x3e9b1d30	0.30295706
10	0xbe002be3	-0.12516741
11	0x3cd23406	0.025659572
12	0x3c4b46c7	0.012407011
13	0xbd69f81f	-0.057121392
14	0x3c155429	0.009114304
15	0x3dd2f658	0.103008926
16	0x3e2966c4	0.16543108
17	0x3e61432d	0.21998282
18	0x3dcd1d79	0.10015387
19	0x3e77c97a	0.24197951
20	0x3e8c37b5	0.2738625
21	0x3e76ee79	0.24114408
22	0x3e038cce	0.12846681
23	0x3e98a91b	0.29816517
24	0x3e4831a6	0.1955019
25	0x3db0df0b	0.08636292
26	0xbe130f61	-0.14361335
27	0xbd8fe4a4	-0.070260316
28	0xbe6de66a	-0.23232427
29	0x3da1db36	0.07903139
30	0x3e7767d6	0.24160704
31	0x3e2fca6f	0.17167066
32	0x3b05dc6b	0.0020425569
33	0x3d96db38	0.073660314
34	0x3ca02cfb	0.019552698
35	0xbd58c22f	-0.052919563
36	0xbe6104d3	-0.21974497
37	0xbdab7f77	-0.08373921
38	0xbe263690	-0.16231751
39	0x3e53d4ce	0.20686647
40	0xbcdcb8fb	-0.026943674
41	0xbdd988a3	-0.106217645
42	0x3e2f43e2	0.17115739
43	0xbdb06c36	-0.086143896
44	0x3c8c39a1	0.017117323
45	0xbca3b0dc	-0.019981794
46	0x3e6ced4f	0.23137401
47	0xbdd6ab04	-0.104818374
48	0x3e8bf5f0	0.27336073
49	0x3e42380c	0.18966693
50	0xbe4f2ca8	-0.20231879
51	0x3e56021e	0.20899245
52	0x3e21e231	0.15808941
53	0xbde6d2cf	-0.11270677
54	0xbdc58f1f	-0.09646439
55	0xbde59fe7	-0.112121396
56	0xbda52b2d	-0.08064876
57	0x3ea272c4	0.31728184
58	0xbdf98575	-0.12183658
59	0x3bf81365	0.0075706714
60	0x3e053e17	0.13011967
61	0x3d97ad91	0.07406152
62	0xbc9d2841	-0.019184234
63	0x3e428dce	0.18999407
64	0x3e5c7799	0.21529998
65	0xbe4d4e62	-0.20049432
66	0x3e2c410d	0.1682169
67	0x3e8253be	0.25454515
68	0xbe572899	-0.2101158
69	0x3d550668	0.052008063
70	0xbe066002	-0.13122562
71	0xbdcb9a9e	-0.099416
72	0x3e82a0bc	0.25513256
73	0x3e9fefc4	0.31237614
74	0xbe3009bd	-0.17191215
75	0x3e6b2525	0.22963388
76	0xbe250084	-0.16113478
77	0x3e9acef5	0.3023602
78	0x3e7b6d55	0.24553426
79	0x3d634e9a	0.055494882
80	0x3d148917	0.03626355
81	0x3e215f49	0.15759005
82	0x3d6f401e	0.058410756
83	0xbe5d6886	-0.21621904
84	0x3cffd6a6	0.031230282
85	0x3e84f652	0.25969177
86	0xbd3944f6	-0.045231782
87	0x3e08a915	0.1334575
88	0xbd5c5716	-0.05379399
89	0x3e8dcfd2	0.27697617
90	0xbd874cab	-0.0660642
91	0xbd6e3903	-0.05815984
92	0xbd4666f5	-0.04843803
93	0xbcf6f293	-0.030144965
94	0xbcf18c42	-0.029485825
95	0x3d4c3d5d	0.049863208
96	0xbda1324a	-0.0787092
97	0x3d934b06	0.07192044
98	0xbd45f7fb	-0.048332196
99	0x3c7eca8a	0.015551219
100	0x3e50a247	0.20374404
101	0x3df545bc	0.119761914
102	0x3d8badfc	0.06820294
103	0xbacd690f	-0.0015671569
104	0x3de770ea	0.113008335
105	0x3e010647	0.12600051
106	0x3e64eb62	0.22355416
107	0xbe090926	-0.13382396
108	0xbd2a28fc	-0.041542992
109	0x3e9cba79	0.30611017
110	0x3d3c4cc6	0.045971654
111	0xbe1e501c	-0.15460247
112	0x3de37ea2	0.11108138
113	0x3e0d0c09	0.13774122
114	0xbe15a532	-0.14613798
115	0x3e9cf3b8	0.30654693
116	0xbd427b06	-0.047480606
117	0xbb97198b	-0.0046111993
118	0xbdbb8b68	-0.09157449
119	0xbd6cd94b	-0.057824414
120	0x3e78508d	0.24249478
121	0x3d50066f	0.050787386
122	0x3e0fc401	0.14039613
123	0x3e56536f	0.20930265
124	0x3cec6722	0.028857771
125	0xbcff8ddb	-0.031195572
126	0xbd136025	-0.035980362
127	0x3e2038a9	0.15646614
128	0xbe2e3358	-0.17011774
129	0x3e3cccda	0.1843752
130	0x3e8f0411	0.2793279
131	0x3e5e5ec1	0.21715833
132	0x3c9dfb63	0.01928491
133	0xbd313748	-0.04326561
134	0xbe661e2b	-0.22472446
135	0x3de6df68	0.1127308
136	0xbe3de5c8	-0.18544686
137	0x3e3a0442	0.18165687
138	0xbe639ed1	-0.22228552
139	0xbdee98ac	-0.116502136
140	0x3e07f2e8	0.13276255
141	0xbc843fba	-0.016143668
142	0xbdf7429f	-0.12073254
143	0x3bf33c2c	0.0074229445
144	0x3dd62a82	0.104573265
145	0x3e7be29a	0.2459816
146	0x3e8d1a20	0.27558994
147	0xbe516b7c	-0.20451158
148	0xbde47da1	-0.11156774
149	0xbe33361c	-0.1750111
150	0xbdeb497f	-0.11488628
151	0xbe7c3520	-0.2462964
152	0xbe371cce	-0.17882082
153	0x3e646ddd	0.22307535
154	0xbc41e249	-0.011833736
155	0x3e33dc79	0.17564572
156	0xbe313a80	-0.17307472
157	0x3e305172	0.17218569
158	0x3de35873	0.11100855
159	0xbd964372	-0.07337083
160	0x3d9deeb5	0.077115454
161	0xbe1cfdb1	-0.1533115
162	0x3e7ef84b	0.24899404
163	0xbe5def99	-0.2167343
164	0x3e4eba30	0.20188212
165	0x3e6a5eea	0.2288777
166	0x3e592cb2	0.21208456
167	0x3e27dcf3	0.16392879
168	0xbd8cc10a	-0.06872757
169	0xbca39c84	-0.019972093
170	0x3d4d551a	0.050129987
171	0x3df78b46	0.12087111
172	0x3b8186d4	0.0039528403
173	0xbe22b4f3	-0.15889339
174	0xbd24b92a	-0.04021565
175	0x3ea1aed5	0.315787
176	0xbe3c3a3f	-0.18381594
177	0x3b5066d8	0.003179958
178	0x3be36c79	0.006940421
179	0x3dd16c36	0.10225718
180	0x3de5afe8	0.11215192
181	0xbe08be07	-0.1335374
182	0xbe6905c8	-0.22756112
183	0x3e5f9db3	0.21837501
184	0xbe05a55b	-0.1305136
185	0x3dd30d40	0.103052616
186	0xbe11c81e	-0.14236495
187	0xbe6127d9	-0.21987857
188	0x3e1d77bc	0.15377706
189	0x3e03ccf2	0.12871149
190	0x3e0ac451	0.13551451
191	0x3dc04a81	0.093892105
192	0x3e5cfc78	0.21580684
193	0x3e369e24	0.17833763
194	0x3d4b5b12	0.0496474
195	0xbe67d99b	-0.22641604
196	0x3e219474	0.15779287
197	0x3e8623a5	0.2619907
198	0x3e1b924b	0.15192525
199	0x3e875b72	0.26436955
200	0xbda1dde5	-0.07903651
201	0x3d263308	0.04057601
202	0x3db4e5f3	0.08832922
203	0x3d7b318d	0.061326552
204	0xbd9cc101	-0.07654
205	0x3c17da67	0.00926838
206	0xbab48e7e	-0.0013775376
207	0x3dfa91f1	0.12234867
208	0x3e918fa1	0.28429893
209	0xbe31bddd	-0.17357583
210	0x3e8321c0	0.25611687
211	0x3d84fba5	0.0649331
212	0xbddb1405	-0.10697178
213	0x3da92ccb	0.08260497
214	0x3d297d4a	0.04137925
215	0xbd2ab047	-0.041672017
216	0x3e469d4a	0.19395939
217	0xbe0b796b	-0.13620536
218	0x3e81863b	0.25297722
219	0x3e875d9b	0.26438603
220	0xbe1f2a6d	-0.15543528
221	0xbd8a238e	-0.06745063
222	0x3d9b6612	0.07587828
223	0x3e5a32fe	0.21308514
224	0xbbaf4cac	-0.005349716
225	0x3cc8ff81	0.024535896
226	0xbd84f37a	-0.06491752
227	0xbcf926ac	-0.030413948
228	0x3e9243c7	0.28567335
229	0x3e4ea79a	0.20181122
230	0xbe5d89a3	-0.21634535
231	0xbddd28e0	-0.10798812
232	0xbe5bba3c	-0.21457762
233	0x3e1b253b	0.15150921
234	0xbe5759fa	-0.21030417
235	0xbe60d0bf	-0.2195463
236	0xbda6d9da	-0.08147021
237	0x3e6102f4	0.21973783
238	0xbe7a5ae6	-0.24448738
239	0x3e223e7e	0.15844151
240	0xbe0d94e1	-0.13826324
241	0x3e21599b	0.15756838
242	0xbcf4f73d	-0.029903049
243	0x3d497398	0.049182504
244	0xbe094593	-0.13405447
245	0x3e091a42	0.13388923
246	0x3e2d98c8	0.16952813
247	0xbe4cbd2d	-0.1999404
248	0x3e470321	0.19434787
249	0x3dff1222	0.124546304
250	0x3e70625f	0.23475026
251	0x3e563f9b	0.20922701
252	0xbc9c6f27	-0.01909597
253	0xbe37dd47	-0.17955504
254	0x3e0767d0	0.13223195
255	0x3dc9915f	0.098421805

linear_layer1.bias f4 [9]
0	0x3ed80256	0.42189282
1	0x3def7595	0.11692349
2	0xbf488e91	-0.7834254
3	0xbe9ff046	-0.31238002
4	0xbce87e82	-0.028380636
5	0xbf86b10c	-1.052278
6	0x3f6f0d3b	0.93379563
7	0x40081f8f	2.1269262
8	0xbe9c8f0a	-0.3057788

linear_layer2.weight f4 [2016, 5]
0	0x3c0a423b	0.008438642
1	0x3c23672c	0.009973329
2	0xbd7590d8	-0.059952587
3	0x3d7ebac2	0.062189825
4	0x3d58d244	0.0529349
5	0x3d0afb9d	0.033931363
6	0x3d4789e4	0.048715487
7	0xbc2f2204	-0.010689262
8	0xbda3a934	-0.07991257
9	0xbd05aece	-0.03263741
10	0x3d1b0f6f	0.037856515
11	0xb9a3a9ab	-0.00031216195
12	0xbd3f0a3c	-0.04664062
13	0x3d735f05	0.05941679
14	0x3c9e65e5	0.019335696
15	0xbc2da215	-0.010597725
16	0xbce187fb	-0.02753066
17	0xbd083427	-0.03325286
18	0xbcf496ef	-0.029857127
19	0xbd33c89a	-0.04389248
20	0x3ceb1279	0.028695332
21	0x3cd068e9	0.02544065
22	0xbc89a190	-0.016800672
23	0x3c4a300d	0.012340558
24	0x3c855330	0.016275018
25	0xbcd08154	-0.025452293
26	0xbd953827	-0.07286101
27	0xbdb69112	-0.08914389
28	0x3d90acea	0.07064231
29	0x3da1b305	0.078954734
30	0x3cb589cf	0.022160439
31	0xbc58736d	-0.013211113
32	0x3d17b5f9	0.037038777
33	0xbdd5a9a5	-0.10432748
34	0xbd7d6690	-0.06186539
35	0xbcdcb845	-0.026943335
36	0x3d7d8e36	0.0619032
37	0x3cfe3714	0.031032123
38	0xbdde6276	-0.10858624
39	0xbb16378b	-0.002292129
40	0xbb8a2636	-0.004215981
41	0xbd616b9b	-0.05503426
42	0xbd9aeb21	-0.075643785
43	0x3e495d9d	0.19664617
44	0x3de8b60d	0.113628484
45	0x3d8c0ff3	0.068389796
46	0xbd92420d	-0.071415044
47	0x3ae58efc	0.0017513926
48	0x3d9f0371	0.07764328
49	0x3d87eb9a	0.06636734
50	0x3c3d8399	0.01156702
51	0xbe02f2ee	-0.12787983
52	0xbe37c9d0	-0.17948079
53	0x3e33538f	0.17512344
54	0x3e0ef22b	0.13959567
55	0x3cfe169c	0.03101664
56	0x3cf63c5a	0.030058075
57	0x3d068530	0.03284186
58	0x3c3d0d4e	0.011538817
59	0x3ce43304	0.027856357
60	0xbcdbe0cd	-0.026840592
61	0x3c8cb8bd	0.017177934
62	0xbd63aca8	-0.05558458
63	0x3dbee636	0.09321253
64	0x3cd549c8	0.026036158
65	0x3c56f058	0.013118826
66	0xbd721b6e	-0.05910819
67	0xbdfb9ea3	-0.12286117
68	0x3dbb81f5	0.09155647
69	0x3cb073eb	0.021539649
70	0x3bba6f69	0.0056895507
71	0xbb070453	-0.0020601943
72	0xbbbd437f	-0.0057758684
73	0x3d87fecb	0.06640395
74	0x3d399371	0.045306627
75	0x3c0467d2	0.008081393
76	0x3c50eb0e	0.012751354
77	0x3d08c07c	0.033386692
78	0x3b5789c7	0.0032888518
79	0xbb4c4429	-0.0031168556
80	0x3c7b13d2	0.01532455
81	0xbcfaf4db	-0.030634334
82	0xbbe12354	-0.0068706665
83	0x3db41dd5	0.087947525
84	0x3d905773	0.070479296
85	0x3c89df5a	0.016830135
86	0xbd50a189	-0.050935302
87	0xbdab860f	-0.08375179
88	0x3d87d5f9	0.06632609
89	0x3d9a2dcc	0.07528266
90	0x3cbbb2cf	0.022912411
91	0xbc95e6f8	-0.018298611
92	0xbc689ec2	-0.014198007
93	0x3de21ac8	0.11040264
94	0x3dc3ef65	0.09567145
95	0xbcea4d8c	-0.02860143
96	0xbd0eccaa	-0.03486315
97	0x3cb26ae4	0.021779485
98	0xbb6c4c91	-0.003605638
99	0xbd3b39e7	-0.045709517
100	0x3d2e7dc2	0.0426004
101	0xbdb1982e	-0.08671604
102	0xbdb17ddf	-0.08666586
103	0x3e36a775	0.17837317
104	0x3d26b653	0.04070122
105	0x3d1bdd02	0.038052566
106	0xbd0d0dbc	-0.034436926
107	0xbd936220	-0.0719645
108	0x3c946db6	0.01811872
109	0xbc03f0dd	-0.008053032
110	0xba44cf66	-0.00075077114
111	0x3c083ce2	0.008315297
112	0x3dc3d6c7	0.0956245
113	0xbd43b1c6	-0.04777696
114	0xbcd4c6c8	-0.025973693
115	0xbbad167a	-0.0052822204
116	0xbc3e9b26	-0.01163367
117	0xbcda965e	-0.026683029
118	0xbd223e20	-0.03961003
119	0xbcbabccd	-0.022795105
120	0x3c2a1b61	0.010382504
121	0x3cfe6666	0.031054687
122	0xbced75d3	-0.028986847
123	0xbc697dce	-0.014251186
124	0x3d0021d4	0.03128226
125	0xbd28fce5	-0.041256804
126	0x3be23897	0.0069037187
127	0x3d4431dc	0.047899112
128	0xbda8fe91	-0.0825168
129	0xbd3118f5	-0.04323669
130	0x3d36bc13	0.044612955
131	0x3d126421	0.03574002
132	0x3d06836c	0.032840177
133	0x3c869560	0.01642865
134	0x3c89a728	0.01680334
135	0x3d6cbc9b	0.057797056
136	0xbdd0ded5	-0.10198752
137	0xbe15a64d	-0.1461422
138	0x3e0297ac	0.1275317
139	0x3dede37d	0.116156556
140	0x3c829b84	0.015943296
141	0xbc5d0126	-0.013489043
142	0xbdea4bac	-0.114402145
143	0x3e400bba	0.18754473
144	0x3da30060	0.07959056
145	0x3d1b7ceb	0.037960928
146	0xbc333159	-0.010937058
147	0x3ad4e14b	0.0016241459
148	0x3d58cbe6	0.052928828
149	0x3dc15fe0	0.09442115
150	0xbd353a86	-0.044245265
151	0xbc8776b8	-0.016536102
152	0x3d88338a	0.06650455
153	0xbca2de49	-0.019881384
154	0x3d2bed58	0.041974396
155	0x3dac54e3	0.08414628
156	0xbb07dd69	-0.0020731336
157	0xbdb38439	-0.08765454
158	0x3debd4da	0.115152076
159	0x3df288de	0.118425116
160	0x3ccf6ca2	0.025320355
161	0xbd8f3f70	-0.069945216
162	0xbe029123	-0.12750678
163	0x3e2943d8	0.16529787
164	0x3dacea73	0.08443155
165	0x3a7218e2	0.0009235275
166	0xbaab242f	-0.0013057048
167	0x3d05ea61	0.032694224
168	0x3c75309e	0.0149652045
169	0x3d0c58d2	0.034264393
170	0xbc6162f5	-0.013756503
171	0x3b81d1ab	0.003961762
172	0x3b1ca441	0.0023901614
173	0x3deb9e58	0.11504811
174	0x3d61062b	0.054937523
175	0x3b52456c	0.0032084836
176	0xbc13706e	-0.008998973
177	0x3caf3950	0.021389633
178	0xbc196e84	-0.009364728
179	0x3ca9ec18	0.020742461
180	0x3d296b26	0.04136195
181	0xbd79a484	-0.06094791
182	0xbdb584f1	-0.08863247
183	0x3d9bb755	0.07603327
184	0x3b80d339	0.0039314297
185	0xbcc00f22	-0.023444716
186	0x3c8f0844	0.017459996
187	0xbd761838	-0.06008169
188	0x3d737caa	0.05944506
189	0x3cd0a4a0	0.025469124
190	0x3d0fa560	0.035069823
191	0xbda5cd6d	-0.080958225
192	0xbdbb41d3	-0.09143414
193	0x3e517a95	0.20456918
194	0x3e048f8c	0.12945384
195	0x3d965241	0.073399074
196	0xbde72d26	-0.11287908
197	0xbdd1ae6e	-0.10238348
198	0x3e7ab7a4	0.24484116
199	0x3e05d3cc	0.13069075
200	0x3d4c05cd	0.04981022
201	0xbd0c8626	-0.03430762
202	0xbd8f67c9	-0.07002217
203	0x3e2bbb0e	0.16770574
204	0x3dde16d9	0.108442016
205	0x3d463001	0.048385624
206	0xbc5cc8fd	-0.013475654
207	0x3c145971	0.009054528
208	0x3d74ba8c	0.059748217
209	0x3d8e31bc	0.0694308
210	0xbb5f4cb0	-0.003407281
211	0x3d348c2c	0.04407899
212	0x3c1b9210	0.009495273
213	0xbaecc710	-0.0018064696
214	0xbd19be01	-0.037534717
215	0xbc9353a3	-0.017984217
216	0x3d87dbd7	0.06633728
217	0x3c8125f3	0.015765166
218	0xbe072919	-0.13199271
219	0xbd96d59d	-0.07364962
220	0x3bd15684	0.0063884873
221	0xbbc8263a	-0.0061080726
222	0xbd4694e0	-0.048481822
223	0x3e26da59	0.1629423
224	0x3cf0ab64	0.0293786
225	0x3cae86d4	0.021304525
226	0x3d3228ed	0.04349606
227	0x3ccf8940	0.025334
228	0xbc1e2a25	-0.009653603
229	0xbc89ac67	-0.01680584
230	0x3b84bc9a	0.0040508034
231	0xbba5d00f	-0.005060203
232	0xbc618b2a	-0.013766089
233	0xbc99baa6	-0.018765759
234	0x3d7dfd5d	0.062009204
235	0x3d451d8a	0.048123874
236	0xbe0da408	-0.13832104
237	0xbe27f8c7	-0.16403495
238	0x3e997e91	0.29979375
239	0x3e1fc2d6	0.15601668
240	0x3cbdf92e	0.023190107
241	0xbbf7bce0	-0.0075603575
242	0xbd1bb362	-0.03801287
243	0x3dd78a50	0.10524428
244	0x3dd626e3	0.10456636
245	0xbd88b4bd	-0.06675098
246	0x3dab1dd9	0.08355302
247	0x3d69db8a	0.057094134
248	0xbe1d79d2	-0.15378502
249	0xbdee8f3e	-0.11648415
250	0xbc84472b	-0.016147217
251	0x3bb61c2b	0.005557557
252	0x3c3197ed	0.010839445
253	0x3c9a36aa	0.018824894
254	0xbc5395bf	-0.01291412
255	0x3d36b2e2	0.04460419

linear_layer2.bias f4 [2016]
0	0xbee26685	-0.4421884
1	0x3f4cdf19	0.8002792
2	0xbef2d20e	-0.47425884
3	0x3e82a6b5	0.25517812
4	0xbd7f1fa4	-0.062286034
5	0xbf5d8c6c	-0.8654239
6	0x3f80297e	1.0012662
7	0x3f87b603	1.060242
8	0xbfd644ec	-1.6739783
9	0xbf265030	-0.64966106
10	0xbffe7a49	-1.9881068
11	0x3e39e30b	0.18153016
12	0xbf204334	-0.62602544
13	0xbf8db000	-1.1069336
14	0xbe8d093f	-0.27546117
15	0x3e6e4204	0.2326737
16	0xbf022c6e	-0.50849044
17	0xbf711a47	-0.9418072
18	0xbf514268	-0.8174195
19	0x3ecb9ebf	0.3976955
20	0xbfb7e7ab	-1.4367574
21	0xbe7a6cda	-0.24455586
22	0x3f62cf7c	0.88597846
23	0x3ed1fe4b	0.41014323
24	0x3e4c44c7	0.19948111
25	0x3f7a459b	0.9776246
26	0x3e3cc9d6	0.1843637
27	0xbfd4ba37	-1.6619328
28	0xbfc5b727	-1.5446519
29	0xbef128d0	-0.4710145
30	0x3edec3a1	0.43508628
31	0xbeccbe4e	-0.3998894
32	0xbf6ed6c4	-0.93296456
33	0x3f33e943	0.70277804
34	0x3e7f387b	0.2492389
35	0x3f59a77a	0.85021174
36	0x3d081874	0.033226445
37	0x3e794ca5	0.24345644
38	0xbf741cbc	-0.95356345
39	0xbf9f1561	-1.2428399
40	0xbf256ff1	-0.64623934
41	0x3e864b48	0.2622931
42	0x3fa88602	1.3165896
43	0x3ff8facf	1.9451541
44	0xbc840010	-0.016113311
45	0x3f8cfc36	1.1014469
46	0x3f6384e8	0.88874674
47	0xc0098554	-2.1487627
48	0xbd6ff35a	-0.058581688
49	0x40148598	2.320654
50	0x3f4b985c	0.79529357
51	0x3f1883f1	0.59576327
52	0xbf3a950b	-0.7288367
53	0x3fa064c1	1.2530748
54	0xbeddb393	-0.43301067
55	0x3f4d3e85	0.8017352
56	0xbc87f8b4	-0.016598083
57	0x3ec96eb8	0.39342284
58	0x3e8ebbcb	0.2787765
59	0xc02440cc	-2.566455
60	0x3fc9ca10	1.576479
61	0xbc0eec6c	-0.00872336
62	0x3f0c6992	0.5484859
63	0xbe08a1db	-0.13342993
64	0x3e63693c	0.22208112
65	0x3e8f2f2c	0.27965677
66	0x3f3ec112	0.7451335
67	0x3e5eed84	0.21770293
68	0xbf5269b9	-0.8219257
69	0xbe4bc944	-0.19900995
70	0xbeefdce8	-0.46848226
71	0xbf454157	-0.77052826
72	0x3e8b79e5	0.27241436
73	0xbfb5617c	-1.4170375
74	0xbea51c75	-0.32248273
75	0x3fc1cb8d	1.5140244
76	0x3fba6b6b	1.4564031
77	0x3fda2fad	1.70458
78	0x3e20c92b	0.1570174
79	0x3cb4de8b	0.022078773
80	0x3fba6c32	1.4564269
81	0x3eeb5103	0.45960245
82	0x3fed0929	1.851842
83	0x3f00b219	0.50271755
84	0xbf31767c	-0.6932142
85	0xbee9cedc	-0.45665634
86	0x3fa88e70	1.3168468
87	0xbe7f6e49	-0.24944414
88	0xbd951e5d	-0.07281182
89	0xbf491203	-0.7854311
90	0x3f3c49cf	0.7355012
91	0x3fb539fb	1.4158319
92	0xbf4e2676	-0.80527437
93	0xbd80de05	-0.06292347
94	0xbdb24315	-0.08704201
95	0x3f1e7940	0.6190376
96	0x3ed63023	0.418336
97	0x3c94ae88	0.01814963
98	0x3ea30fd7	0.31848022
99	0xbf5d2692	-0.8638698
100	0x3f035135	0.5129579
101	0x3e9d3a94	0.30708754
102	0xbf7ac6c9	-0.9795957
103	0x3f252d9b	0.64522713
104	0x3f4c322e	0.7976407
105	0x3f12675b	0.5718896
106	0xbf7e8b7a	-0.99431574
107	0x3efd69a4	0.4949466
108	0x3f598fdb	0.8498513
109	0x3f26d0d0	0.6516237
110	0x3f46b297	0.77616256
111	0xbfac5c8f	-1.3465747
112	0xbf202f6c	-0.6257236
113	0xbdfd5810	-0.12370312
114	0x3fd75493	1.6822685
115	0xbf2c023a	-0.671909
116	0x3e8c6547	0.27421018
117	0xbfaca1a5	-1.348683
118	0xbeec9cde	-0.4621343
119	0x3ea31b86	0.31856936
120	0x3f0b3c1b	0.5438859
121	0xbe883143	-0.26600084
122	0x3e51bf83	0.20483212
123	0xbe6c6fce	-0.23089525
124	0x3df34ea1	0.11880232
125	0xbea31f91	-0.3186002
126	0xbf3bfca4	-0.73432374
127	0xbeb0b8fe	-0.34516138
128	0x3fd67720	1.6755104
129	0x3f53db60	0.82756615
130	0xbfd20198	-1.6406736
131	0xbd993cff	-0.07482337
132	0x3e831265	0.2559997
133	0x3f33fda1	0.7030888
134	0x3ebd95eb	0.3702844
135	0xbd374392	-0.044742174
136	0xbf7ab3ac	-0.9793041
137	0x3ecf053c	0.4043368
138	0x3e92804f	0.28613517
139	0xbeba6c14	-0.36410582
140	0xbf42bfc7	-0.7607388
141	0x3e7dd4fd	0.2478828
142	0xbe9f6554	-0.31131995
143	0xbfd1c45c	-1.6388049
144	0x3edec0f3	0.43506584
145	0x3cfc38cb	0.0307888
146	0xbf97ce47	-1.1859826
147	0x3f04fcec	0.5194843
148	0xbf33eec4	-0.702862
149	0x3e566696	0.20937571
150	0xbf855feb	-1.0419897
151	0x3fb574ad	1.4176232
152	0x3ec97e69	0.39354256
153	0x3f207455	0.6267751
154	0xbfc0b260	-1.5054436
155	0xbf1dfd32	-0.6171447
156	0x3f8d1d6f	1.1024607
157	0xbf5dd2ed	-0.8664997
158	0xbf3ff6a9	-0.7498575
159	0x3c801f82	0.015640024
160	0x3f673bd7	0.90325683
161	0x3f788160	0.9707241
162	0xbf4e1e18	-0.8051467
163	0x3fcf2fd5	1.6186472
164	0x3e98364b	0.29728922
165	0x3f0ec1ab	0.55764264
166	0x3fa0968f	1.2545947
167	0xbf5879af	-0.84560674
168	0x3f76b947	0.9637646
169	0x3ed1ce31	0.40977624
170	0xbf2c3665	-0.672705
171	0x3e162247	0.14661513
172	0x3f40bf8d	0.75292283
173	0x3f7993ad	0.9749096
174	0xbf8840e5	-1.0644804
175	0x3e5713db	0.21003668
176	0xbdf6aef4	-0.120450884
177	0x3d6d48b5	0.057930667
178	0xbfb54a06	-1.4163215
179	0xbe764938	-0.24051368
180	0xc01336ca	-2.300219
181	0x3e321314	0.1739009
182	0x3e440822	0.19143727
183	0x3f19f925	0.6014579
184	0xbe9d7829	-0.30755737
185	0xc00c2063	-2.1894767
186	0xbef233c8	-0.4730513
187	0x3d8c0066	0.068360135
188	0xbfaf9db3	-1.3720001
189	0x3e93b2a8	0.2884724
190	0x3fac6c9a	1.3470643
191	0x4001a581	2.0257266
192	0x3f64f96d	0.89443094
193	0xbf4322a8	-0.76224756
194	0xbfdb4269	-1.7129642
195	0xbeb3391d	-0.3500451
196	0xbf946626	-1.1593673
197	0x3f2303f2	0.63677895
198	0x3e80dc88	0.25168252
199	0xbe06f5cf	-0.13179706
200	0xbf7bf097	-0.98413986
201	0x3f01b2e5	0.50663596
202	0xbebbaad8	-0.3665378
203	0xbeb733fb	-0.35781845
204	0x3f533332	0.8249999
205	0x3f80e7b8	1.0070715
206	0x3d91f300	0.07126427
207	0x3f614179	0.8799053
208	0x401f19a8	2.485941
209	0x3f677f46	0.9042858
210	0x3f73ff47	0.953114
211	0xbe628ce3	-0.22124057
212	0x3f48e5ec	0.7847583
213	0x3f4cfef1	0.8007651
214	0xbf51d248	-0.8196149
215	0x3e574fc1	0.21026517
216	0x3e6d33a7	0.23164235
217	0x3f64b451	0.8933764
218	0xbf132891	-0.57483774
219	0xbf99b6f8	-1.2008963
220	0xbf8b27b1	-1.0871488
221	0xbe5fff9b	-0.2187485
222	0xbebb84c0	-0.36624718
223	0xc030bd9d	-2.761573
224	0x3dc1390b	0.09434708
225	0x3f114c05	0.5675662
226	0x3fbc01ca	1.4688046
227	0xbf374a8c	-0.71598125
228	0x3fabca02	1.3421023
229	0x3e24f3a0	0.1610856
230	0xbd6efbd6	-0.05834564
231	0xc015a88b	-2.338412
232	0xbeae3ca3	-0.34030637
233	0xbea22c07	-0.31674215
234	0xbf96626b	-1.1748785
235	0x3e42dcdb	0.19029562
236	0x3fb00156	1.3750408
237	0xbf441746	-0.7659801
238	0xbf6d0752	-0.92589295
239	0x3e071335	0.1319092
240	0xbeafc472	-0.34329563
241	0xbee88baa	-0.45419055
242	0x3f0e2d7c	0.55538154
243	0xbe6609be	-0.22464654
244	0xbfa55cf3	-1.2918991
245	0xbebc6ae2	-0.36800295
246	0xbeedecfc	-0.46469867
247	0xbe30ef28	-0.17278731
248	0x3f019373	0.50615615
249	0x3f91a017	1.137698
250	0x3e0d3479	0.13789548
251	0xbf17f5cb	-0.59359425
252	0x3ec93138	0.39295363
253	0x3f2336c0	0.63755417
254	0xbe03e446	-0.12880048
255	0xbebf9401	-0.37417606
