model/Artificial_Data_6000_epoch_100_attention_net_u_artificial_Q_9_K_6_F_5_REG_L1_ACT_sigmoid_WD_00002_CV.model (torch_old, 52157 bytes, 6 tensors)

key_matrix f4 [9, 6]
00000000: 23da 4cb6 ea99 7fb6 2c75 7a3e 81ac 40b6
00000010: 27c6 94b6 8e46 7db5 ff46 a235 0e69 02b6
00000020: 15a0 a939 8f6a ebb4 fbb8 7eb6 0eb7 ecb5
00000030: 8959 83bd bf67 55b6 96ba 2340 bfdc c135
00000040: 8d30 51b6 2074 a2bf 0fd8 96b6 3b4f e933
00000050: ed1c d43f 61cf 18b6 aa29 babe 6b3d 0cb3
00000060: 6aff 36b6 d5dc 1d36 c99d 223f 5b9d 16be
00000070: fd2e 45b6 c851 22b5 5436 6634 9599 79be
00000080: 6d00 7f3e 026d 25b6 1b82 3f36 1aaf 2036
00000090: b09e c6b4 bb5b 22b5 1de7 a339 8f7d 0136
000000a0: c579 79b6 a394 58b5 9b7a 32b6 c084 a735
000000b0: bd8f 3640 858a 96b6 5d30 2fbd c8a5 9cb6
000000c0: f441 56b6 79e3 24b4 2da7 b439 fb92 fdbe
000000d0: 3195 c8b5 a8bd 1eb6
-3.052534e-06 -3.808755e-06 0.2445876 -2.871064e-06 -4.4338117e-06 -9.4352515e-07 1.2090603e-06 -1.943266e-06
0.00032353462 -4.3849693e-07 -3.7956622e-06 -1.7636646e-06 -0.06413562 -3.1799862e-06 2.5582633 1.4443866e-06
-3.1171687e-06 -1.2691689 -4.495501e-06 1.086432e-07 1.6571327 -2.2770475e-06 -0.36359912 -3.265215e-08
-2.7268784e-06 2.3523364e-06 0.6352201 -0.14708464 -2.9382638e-06 -6.046871e-07 2.1440184e-07 -0.24374993
0.24902506 -2.4650367e-06 2.853695e-06 2.394378e-06 -3.6995834e-07 -6.048319e-07 0.00031261976 1.9295583e-06
-3.717477e-06 -8.0682565e-07 -2.6595433e-06 1.2481105e-06 2.852523 -4.486474e-06 -0.042770732 -4.6684618e-06
-3.1926875e-06 -1.5356444e-07 0.0003445683 -0.495262 -1.4944582e-06 -2.365423e-06

value_matrix f4 [6, 5]
00000000: fd24 24bf fce4 72b5 de3e 1bb5 90d3 6e35
00000010: b8ae e6b4 17c9 0c36 7901 c535 8841 09b6
00000020: f49c 58b5 8692 07b5 673b 95c1 c2c3 1fbf
00000030: 5424 5c40 4d8b 11b5 ecf7 1141 2597 bfb5
00000040: 1a91 cdb5 53b7 ddb4 920a 9535 d6e4 c034
00000050: a53e dbb3 e238 85b5 e4b7 bbb3 eb7a 04b5
00000060: d956 3eb6 b380 cbb5 0a79 1736 7423 e1b4
00000070: b8d7 acb5 fc25 25b6
-0.6411894 -9.048524e-07 -5.7833483e-07 8.8969773e-07 -4.2967963e-07 2.0978675e-06 1.4678072e-06 -2.0452735e-06
-8.069467e-07 -5.050464e-07 -18.654005 -0.6240808 3.4397173 -5.421942e-07 9.123028 -1.4274598e-06
-1.531592e-06 -4.1297844e-07 1.1104441e-06 3.5929287e-07 -1.0209377e-07 -9.925827e-07 -8.7413156e-08 -4.93527e-07
-2.8362758e-06 -1.5162135e-06 2.2571207e-06 -4.193531e-07 -1.2877781e-06 -2.4609026e-06

linear_layer1.weight f4 [9, 64]
00000000: 5ec5 7536 22c4 4c36 78e6 1f36 50c9 2c34
00000010: de5c 7c35 fbb8 6535 7893 59b4 e540 64b5
00000020: 5365 2235 f12a 9835 492b 0436 bb11 0736
00000030: 1a81 cc34 7b24 4235 719b f5b2 812c 1536
00000040: e141 52b5 c940 4c36 19d5 ca34 723e 1e35
00000050: ff0c 99b5 92c8 f6b4 22a0 8236 cc04 5a35
00000060: c5eb ea34 6376 6d35 d91c 14b6 dbf8 bb35
00000070: e402 ca36 1509 ad34 d7a1 3135 8f2d 12b6
00000080: d1d7 9db4 e5d9 a5b4 2914 a635 bfe1 c135
00000090: 3076 2db5 bbe1 5fb4 225b 28b5 db12 8e34
000000a0: 360c 6a36 6620 85b5 db22 2135 086b ab34
000000b0: 1389 75b5 28b7 0736 89dd b435 8b47 b6b5
000000c0: 00d9 22b5 59e1 acb5 0a5a 6e36 926e 0ab5
000000d0: 45a8 f0b5 9047 a734 8d72 0636 819e 6a36
000000e0: ccf0 1a36 2bb0 adb5 692f 0db6 bcb1 a534
000000f0: 63c2 0eb5 fb21 1d34 e192 2d36 db2d 4a35
00000100: 05df fb35 eb7c 18b6 8d9c 1f36 834d 51b6
00000110: 67e7 d3b3 70e6 7e35 0150 0d35 ab61 fcb4
00000120: cf8d 95b4 33a3 1734 d7e7 64b5 cd45 09b2
00000130: 2214 91b5 24c3 9c35 2df6 06b6 a5f5 d6b5
00000140: 6e83 db35 b6a6 bab4 b091 87b5 1563 0535
00000150: 3209 7fb3 ead9 7c34 0722 56b4 096b 2136
00000160: e0fd b3b2 db6e f435 695d 44b5 9ff1 7eb4
00000170: 876e bb35 65fb 1f36 0277 ef35 1d2e fd34
00000180: 84a2 7f35 e00a 0436 b269 c3b5 5d0d 6d35
00000190: 3a2f e235 4ecb 0835 9fe8 f235 6485 11b6
000001a0: 46c2 fdb3 2ad5 7336 dbd3 bd35 43f9 d0b5
000001b0: f919 0a35 7954 ceb5 3515 9eb5 1578 28b5
000001c0: 8fc7 3a34 2bcf 5d36 cf53 fbb5 5deb ec35
000001d0: a6ae 1935 c740 6235 920a 1035 3f41 b235
000001e0: 7cc7 af34 ba7d 9db5 5152 e935 9dea 3735
000001f0: 3ee6 31b4 d4d7 1c36 6588 5a34 bff1 dbb4
00000200: 0a1e 83b4 c6e1 0bb6 97e0 7b36 875f 2a36
00000210: ec36 a734 f3b3 e5b5 9d57 a737 dca8 3436
00000220: fb4b 23b7 1edf 51b5 5376 f336 2054 9434
00000230: 6bc2 fd35 ad94 8036 d667 53b6 42f2 1eb7
00000240: bd48 81b5 fe69 2637 517c 9036 1893 9534
00000250: 2475 4235 e410 5137 6738 e1b3 10b4 3437
00000260: a782 3736 4297 60b4 954b df36 94d6 2936
00000270: 1a9f 2436 3342 1db5 81ee 9e37 3dd0 4e37
00000280: 2ea3 8b35 dcbe 9a35 643f 3e35 3c98 69b5
00000290: c92a a3b6 9ccc 45b6 c783 66b4 f538 e4b5
000002a0: ab7a bc35 e442 dbb5 56d0 96b5 9b83 c2b5
000002b0: 4af8 1a36 4900 bbb5 48f4 ff35 9b23 7eb5
000002c0: b3c4 56b5 4fa3 1736 c2ae 22b6 71b3 2036
000002d0: f53b 0eb6 2443 9136 c06e 6eb5 d1f4 cc35
000002e0: d893 8a36 670d fbb5 1b3b f3b4 d410 7635
000002f0: 76a0 a2b6 1310 bc35 6de4 b234 9781 2535
00000300: 3591 67b5 962a 05b6 e297 1036 20c0 6f32
00000310: 49a9 8834 5c69 a1b5 8085 0b36 b574 b136
00000320: 24cb 71b7 e097 8d36 17f6 1237 a9b1 2837
00000330: 3a6f 68b6 e063 8e36 53ad c2b6 d900 c3b6
00000340: b557 15b6 25dc bd36 d1c2 f2b5 a46c 9336
00000350: 3e31 97b5 3640 d136 d33f 9535 c7a9 4037
00000360: fc4c 1736 7107 c835 1272 8cb6 db1c 7836
00000370: f343 61b6 9558 d4b4 411e 3436 5eca aa36
00000380: 7435 c635 1888 2135 8181 88b5 dad3 2c33
00000390: 94e1 1336 e59b 2d36 cb80 88b6 4865 1f36
000003a0: 492f 5d36 8207 21b6 9b2d 8735 85ce 75b5
000003b0: 0a98 5d33 3262 7ab6 652a 8a35 882b 5336
000003c0: aa72 4bb6 de5e 1036 6f98 f733 cff4 9236
000003d0: 20ab 6fb5 32bc 6036 0521 bc35 c840 13b6
000003e0: 0039 0835 0b03 72b5 8d1b e7b3 bfd2 2b35
000003f0: 9ad6 7cb4 63cf ab35 9522 86b4 7303 89b6
3.6622728e-06 3.0512533e-06 2.3826997e-06 1.6091985e-07 9.4012455e-07 8.557833e-07 -2.0263349e-07 -8.503105e-07
6.049715e-07 1.133738e-06 1.9694728e-06 2.0126888e-06 3.8091895e-07 7.232372e-07 -2.859244e-08 2.2228635e-06
-7.832696e-07 3.0436079e-06 3.778048e-07 5.8950457e-07 -1.1403171e-06 -4.5967005e-07 3.892944e-06 8.121831e-07
4.375744e-07 8.8461655e-07 -2.207051e-06 1.4005012e-06 6.0204056e-06 3.223037e-07 6.6173146e-07 -2.1782214e-06
-2.9400556e-07 -3.0892184e-07 1.2373831e-06 1.4445321e-06 -6.461951e-07 -2.0850614e-07 -6.271749e-07 2.646328e-07
3.4875825e-06 -9.918701e-07 6.0027895e-07 3.1929108e-07 -9.146908e-07 2.0223179e-06 1.347552e-06 -1.3580878e-06
-6.066548e-07 -1.2880583e-06 3.5517173e-06 -5.1569907e-07 -1.7930366e-06 3.1158243e-07 2.0034233e-06 3.4960979e-06
2.308795e-06 -1.2940776e-06 -2.1038234e-06 3.0862964e-07 -5.318199e-07 1.4634126e-07 2.5864504e-06 7.531759e-07
1.8765865e-06 -2.2722477e-06 2.378397e-06 -3.1188545e-06 -9.867545e-08 9.4957704e-07 5.2643014e-07 -4.700972e-07
-2.7856592e-07 1.4122342e-07 -8.527399e-07 -7.99032e-09 -1.0809201e-06 1.1679699e-06 -2.011085e-06 -1.6015734e-06
1.6355023e-06 -3.4766498e-07 -1.0100684e-06 4.9690544e-07 -5.9380177e-08 2.3548606e-07 -1.9942682e-07 2.4053172e-06
-2.0953792e-08 1.821168e-06 -7.315162e-07 -2.3743495e-07 1.3964753e-06 2.3839177e-06 1.7841523e-06 4.7158474e-07
9.5231394e-07 1.9675863e-06 -1.4559394e-06 8.8308826e-07 1.6852057e-06 5.0959795e-07 1.8098107e-06 -2.1684327e-06
-1.1816569e-07 3.63339e-06 1.4143255e-06 -1.5569752e-06 5.14468e-07 -1.5372781e-06 -1.1778089e-06 -6.275962e-07
1.7395199e-07 3.3052154e-06 -1.8725349e-06 1.765187e-06 5.725109e-07 8.4285824e-07 5.365956e-07 1.3281023e-06
3.2741434e-07 -1.1734003e-06 1.738381e-06 6.851422e-07 -1.6568171e-07 2.337144e-06 2.0352452e-07 -4.0967822e-07
-2.4422508e-07 -2.0844031e-06 3.7532643e-06 2.5387578e-06 3.1146135e-07 -1.7114202e-06 1.994875e-05 2.692038e-06
-9.733248e-06 -7.8183245e-07 7.255739e-06 2.7628357e-07 1.8906552e-06 3.8320054e-06 -3.150189e-06 -9.473939e-06
-9.632419e-07 9.919049e-06 4.3060068e-06 2.7860438e-07 7.2441094e-07 1.2461303e-05 -1.04876385e-07 1.077076e-05
2.7345175e-06 -2.0916653e-07 6.654717e-06 2.5307863e-06 2.4530514e-06 -5.858339e-07 1.894613e-05 1.2327041e-05
1.0403799e-06 1.1529442e-06 7.087276e-07 -8.7020794e-07 -4.8627594e-06 -2.9474386e-06 -2.146836e-07 -1.70039e-06
1.4042793e-06 -1.6336239e-06 -1.1236505e-06 -1.4492429e-06 2.3092311e-06 -1.3932669e-06 1.9070076e-06 -9.4674186e-07
-8.000745e-07 2.2595812e-06 -2.4241604e-06 2.3946307e-06 -2.1194548e-06 4.329153e-06 -8.882307e-07 1.5270435e-06
4.1299318e-06 -1.8704858e-06 -4.5305282e-07 9.166663e-07 -4.8466563e-06 1.401177e-06 3.3321285e-07 6.165587e-07
-8.626551e-07 -1.9843333e-06 2.154608e-06 1.3955315e-08 2.5455145e-07 -1.2026098e-06 2.0790321e-06 5.2885975e-06
-1.4412017e-05 4.219808e-06 8.759575e-06 1.0054945e-05 -3.4635436e-06 4.2435568e-06 -5.801828e-06 -5.8115515e-06
-2.2253782e-06 5.658267e-06 -1.8087104e-06 4.393589e-06 -1.1264708e-06 6.2361605e-06 1.111994e-06 1.1483621e-05
2.2545564e-06 1.4903327e-06 -4.1856047e-06 3.6971676e-06 -3.3567164e-06 -3.955253e-07 2.68397e-06 5.0899534e-06
1.4767706e-06 6.0175216e-07 -1.017048e-06 4.023955e-08 2.203601e-06 2.5869751e-06 -4.0681093e-06 2.37518e-06
3.295909e-06 -2.399524e-06 1.0071557e-06 -9.157014e-07 5.159385e-08 -3.731006e-06 1.029414e-06 3.1466789e-06
-3.03161e-06 2.1512892e-06 1.1529561e-07 4.3796385e-06 -8.928346e-07 3.3488145e-06 1.4016701e-06 -2.1942415e-06
5.0746894e-07 -9.0156453e-07 -1.0761787e-07 6.400914e-07 -2.35474e-07 1.280085e-06 -2.4984607e-07 -4.0833197e-06

linear_layer1.bias f4 [9]
00000000: da22 4a36 a75c 7a35 d89e 893f db24 5839
00000010: 53d4 b436 fded 3e36 6274 e935 0eac 0a3f
00000020: 1887 8735
3.0120632e-06 9.3267084e-07 1.07516 0.00020613095 5.389136e-06 2.8450734e-06 1.7393725e-06 0.54168785
1.0097601e-06

linear_layer2.weight f4 [2016, 5]
00000000: 3e50 9f3d 3353 49b6 2948 eb36 beed 18b2
00000010: c773 2fb9 a306 9f3d 34d7 73b6 23df f0b5
00000020: bd24 6434 cbb0 0c37 9c89 f73d 6bc5 2d36
00000030: c7e3 77b6 76d8 9f33 28b1 5eba effb de3d
00000040: 36b0 3436 3e4e f835 8581 f233 6ca0 a5b8
00000050: 1615 073e b1bd b935 90dc 38b8 dabe 7c35
00000060: f315 ceb9 8bfd cd3d 1f55 ae35 3985 21b8
00000070: 8443 6fb5 1fa2 dbb8 c58c b63d f3bc 34b6
00000080: 01fa d6b7 aff5 b235 e8bf 44b9 b1e2 b23d
00000090: e536 87b6 7e4e 83b7 5e24 0536 9089 29b7
000000a0: ce55 123e 91ee 9933 a302 8cb6 507c ceb4
000000b0: bb46 c5b8 547a cc3d e459 e735 b900 8336
000000c0: 7ff3 78b3 a394 ceb9 581f c93d 1fed fab6
000000d0: 52c0 9337 20a6 17b6 9bf7 afba de37 ef3d
000000e0: dacc cfb7 75e4 f138 4b86 4034 0ee4 a3b9
000000f0: 7a02 0c3e 9fef 6032 8dbe d1b6 dbe7 60b4
00000100: db10 87b7 6ece 883e 4e1c f3b4 d77a 4ab6
00000110: a831 eb32 eb76 ef36 c249 c63d 4f5e 9537
00000120: da5c 4e39 fa11 dbb4 b063 943a 22e2 f13d
00000130: 4673 08b6 d48d a633 8f9f 9334 37dd 53b7
00000140: 80f4 9c3d 237c 63b5 3c45 37b9 7c0f 47b4
00000150: b500 3bba 0558 5c3e e3f8 2d37 e4d6 93b9
00000160: bb1c f735 26c4 aa3a 5897 cd3d 888a ad35
00000170: 70dd ad36 3e27 88b4 cfd3 6837 0d62 b13d
00000180: 4825 9035 f583 beb6 564d 59b6 9e0b 03ba
00000190: 474b ff3d c6f0 4037 47e9 45ba 51f1 6334
000001a0: 8259 00bb 962f f63d 6560 02b7 3bf6 ed38
000001b0: fa7d 2bb5 4f7d 6f39 b660 ac3d 6ab3 ceb3
000001c0: 7029 84b6 b586 66b2 3aae 84b5 c4b2 a43d
000001d0: 2ea5 be36 36d5 bab8 88dc 3435 7b05 07ba
000001e0: 44e6 9a3d a3f6 52b5 f8bb 20b9 fa10 8eb5
000001f0: 0e2e a4b9 686f bb3d e937 d4b5 47a2 9f36
00000200: 65c6 5034 8fab a437 64c0 b53d 94f9 3636
00000210: 33a3 d637 adaa 15b3 6bc2 2c38 773c f03d
00000220: 6658 0934 186b 8436 4a57 9035 6edd 72ba
00000230: fdd0 db3d b781 2eb6 5320 e135 5a33 7f35
00000240: 3490 3cb9 df89 4a3e 3a9b 50b6 9ec4 9db8
00000250: 66e4 13b6 6801 0a38 c570 d63d e93f deb6
00000260: 50e9 89b7 2d03 6535 c92a 90ba d5c2 b1b6
00000270: 20d6 1236 ea91 e435 0935 1d35 d177 6a35
00000280: 2d81 d73a 1c44 22b5 ca9e 5ab6 3344 02b6
00000290: 5232 aa37 b6aa 823b 9a2d 6035 274e fc35
000002a0: d157 7ab3 efb0 5937 d18a aa35 07ea 9335
000002b0: 0b19 0536 bb5a 35b6 8b28 9bb6 67ea f13a
000002c0: a9c7 0336 d032 f433 32e7 e135 6816 aeb6
000002d0: bacf 8137 3af8 f3b5 784f d2b4 21ac 8835
000002e0: e31b 3236 a75a 523a c214 9b35 477f bdb7
000002f0: c148 13b6 f545 15b8 bbc9 08b6 009c 4f33
00000300: 91f6 1f35 a72a 3d34 24f6 84b5 8a9f 03b9
00000310: 67ed a5b4 dde5 cb35 2914 dd35 db37 2a36
00000320: 21bc ae37 5ae7 eb35 5480 9135 88d6 5a34
00000330: 53e4 1736 b972 8938 a003 0c35 ab5e 99b6
00000340: 46a5 8835 a58e 62b8 0fee fdb4 5837 8035
00000350: 1bcb 97b5 ac7d d735 defd 9ab5 4763 8238
00000360: e78e 4d35 18ea 17b5 a4b8 6535 7e4c c7b7
00000370: 39de d737 40c6 bfb4 261b 0835 b270 3835
00000380: e784 b4b4 768b 93b7 73c9 2ab5 2ebf d0b5
00000390: d6ec eb34 3ae7 1cb7 c152 02b6 459c dc33
000003a0: 3d9c 1335 9ac8 4bb5 5ab9 18b6 eab1 243a
000003b0: f5c2 31b4 bf57 6ab6 411f 69b5 aa06 49b7
000003c0: cce4 5e31 2f4c 9b34 d27b 02b6 f0db ae35
000003d0: 7c3a 3235 5ff8 da3b 2350 5535 977a e3b5
000003e0: 06af 41b6 99c7 a5b7 17d0 373b 7ad9 6035
000003f0: a417 9435 225a 4d35 7d0e 26b7 f1f0 793b
0.07778977 -2.9999762e-06 7.0119463e-06 -8.901621e-09 -0.00016732431 0.07764938 -3.6335086e-06 -1.7946335e-06
2.124752e-07 8.385813e-06 0.12086794 2.5893921e-06 -3.6938452e-06 7.4433885e-08 -0.0008495026 0.10887896
2.6924658e-06 1.8500211e-06 1.12925626e-07 -7.897694e-05 0.13191637 1.3838782e-06 -4.4074433e-05 9.415504e-07
-0.00039307735 0.10058125 1.2988784e-06 -3.8509465e-05 -8.9132686e-07 -0.00010472931 0.089135684 -2.6932073e-06
-2.5627205e-05 1.3333537e-06 -0.00018763507 0.08734644 -4.029704e-06 -1.5652968e-05 1.9839713e-06 -1.0105214e-05
0.14290544 7.168013e-08 -4.172632e-06 -3.846094e-07 -9.4068666e-05 0.0998427 1.7237003e-06 3.9041884e-06
-5.7963458e-08 -0.00039402125 0.098204315 -7.478185e-06 1.7613322e-05 -2.259745e-06 -0.0013425233 0.11680578
-2.4771714e-05 0.00011534329 1.7930249e-07 -0.00031259697 0.1367282 1.3093e-08 -6.2508684e-06 -2.0945974e-07
-1.6101103e-05 0.26719993 -4.5282871e-07 -3.0171848e-06 2.7380182e-08 7.136599e-06 0.09682037 1.78061e-05
0.00019680281 -4.0805008e-07 0.0011321213 0.118107095 -2.0332677e-06 7.755776e-08 2.7496978e-07 -1.2628086e-05
0.07663822 -8.474473e-07 -0.00017478032 -1.8538952e-07 -0.0007133589 0.21517952 1.0369552e-05 -0.0002819813
1.8411296e-06 0.0013028427 0.10038632 1.2929822e-06 5.1815805e-06 -2.5360526e-07 1.3877593e-05 0.0866128
1.0739686e-06 -5.677803e-06 -3.2380535e-06 -0.00049989845 0.1246553 1.1500151e-05 -0.00075497146 2.1228813e-07
-0.00195846 0.12020795 -7.771047e-06 0.00011346905 -6.3885784e-07 0.00022839497 0.08416884 -9.625258e-08
-3.9387305e-06 -1.3418391e-08 -9.885473e-07 0.08041909 5.6816707e-06 -8.908885e-05 6.737614e-07 -0.0005150658
0.07563451 -7.859e-07 -0.00015328813 -1.0584765e-06 -0.0003131483 0.091521084 -1.5811503e-06 4.757461e-06
1.9443685e-07 1.9630212e-05 0.08874586 2.7265387e-06 2.5586784e-05 -3.4846995e-08 4.118906e-05 0.11730283
1.2791278e-07 3.946374e-06 1.075424e-06 -0.0009264563 0.10733221 -2.6003524e-06 1.6773214e-06 9.506963e-07
-0.00017982797 0.19779156 -3.108477e-06 -7.522966e-05 -2.2037652e-06 3.2903074e-05 0.10470728 -6.6235557e-06
-1.6440317e-05 8.531377e-07 -0.0010999079 -5.2976925e-06 2.1880332e-06 1.702979e-06 5.8564234e-07 8.734615e-07
0.0016441696 -6.0448815e-07 -3.2576959e-06 -1.9411207e-06 2.0289011e-05 0.0039876355 8.351286e-07 1.8798208e-06
-5.828753e-08 1.29754035e-05 1.2706388e-06 1.1020464e-06 1.9833121e-06 -2.7023914e-06 -4.62408e-06 0.0018456698
1.9636739e-06 1.1371378e-07 1.6831093e-06 -5.1882125e-06 1.5474729e-05 -1.8177154e-06 -3.917337e-07 1.0182886e-06
2.65403e-06 0.00080243725 1.1554441e-06 -2.2589824e-05 -2.1947055e-06 -3.558952e-05 -2.0383002e-06 4.8337824e-08
5.9590917e-07 1.7617513e-07 -9.906403e-07 -0.00012552566 -3.0906378e-07 1.5191578e-06 1.647165e-06 2.5364486e-06
2.083002e-05 1.7576197e-06 1.084069e-06 2.0380878e-07 2.2633656e-06 6.554038e-05 5.215934e-07 -4.570776e-06
1.018089e-06 -5.4015447e-05 -4.7298133e-07 9.55285e-07 -1.1309488e-06 1.6055324e-06 -1.1547779e-06 6.217375e-05
7.65764e-07 -5.6592535e-07 8.5577835e-07 -2.3758268e-05 2.5733478e-05 -3.5720768e-07 5.0703454e-07 6.8709335e-07
-3.3624312e-07 -1.7588707e-05 -6.362308e-07 -1.5552848e-06 4.3944482e-07 -9.352161e-06 -1.9419679e-06 1.02729736e-07
5.4989124e-07 -7.5915307e-07 -2.2757654e-06 0.0006282615 -1.6555335e-07 -3.4919792e-06 -8.6844744e-07 -1.1982085e-05
3.2435308e-09 2.892643e-07 -1.9443582e-06 1.302802e-06 6.6395273e-07 0.00668244 7.94653e-07 -1.6948496e-06
-2.8861118e-06 -1.9762478e-05 0.0028047615 8.376297e-07 1.103374e-06 7.649961e-07 -9.897744e-06 0.0038137997

linear_layer2.bias f4 [2016]
00000000: 0b94 f036 9040 06b7 b565 ad35 a801 91b5
00000010: 55f0 2d35 c85d 0836 875f 7a35 5962 1a37
00000020: b403 adb5 755a c3b5 b7df ec37 ec3d 1e38
00000030: cc5e 8db5 6f4b 1f35 f36b 23b7 10b1 67b3
00000040: 3b51 d2b5 0419 6bb8 54b6 ad36 215d a334
00000050: d5df 94b7 a7d0 1838 c9f0 9a35 e8b9 29b7
00000060: c849 0e37 bd67 91b5 cb24 70b3 89fd e6b6
00000070: cd25 3c34 4bce a63f 98e5 bb36 9241 afb4
00000080: 955c aeb5 b56a f7b5 e618 2ab5 d684 87b5
00000090: e9ea 5d36 9ae0 2236 ce59 8535 2022 41b6
000000a0: 2c6b 92b5 5c38 1035 ca9f 8bb5 f6ef 81b5
000000b0: a723 e7b2 e3e1 d835 56fd b8b5 922f a333
000000c0: 3dc6 1fb4 8490 7cb5 fe92 e134 b0ae 43b6
000000d0: ab0f 80b5 6851 2536 8838 2f35 3ddd 08b4
000000e0: e70f fe3e f9f5 c7b5 12c8 31b6 eb95 b9b5
000000f0: e1ef 74b5 dccd 8635 1e4a 383e d6b7 2fb8
00000100: 0e89 6038 00bb b236 a1ef 3b36 8cbb 02b7
00000110: e3d1 eeb6 be83 15b6 49a4 c7b5 f9a0 6338
00000120: de80 4bb7 47c8 a635 90c7 67b6 3f59 b336
00000130: 1cc2 c9b4 5e76 8237 bd1b 8e36 1646 d7bc
00000140: 6b0b df35 8baa e2b5 917f ac35 6109 94b5
00000150: 8166 ddb8 d05b 40b6 9cda 1638 a4b9 a837
00000160: 6625 e235 ea0a 133f e489 ea35 9376 01b5
00000170: 84cb 3036 8e9d 97b5 3302 4735 bee0 c235
00000180: b02c 33b6 32d4 aeb6 40a4 16b6 b0b4 afb5
00000190: caff 12b6 8e6e 1b35 5acc 3ab5 9848 3934
000001a0: 6f14 af35 18b2 8235 d958 d434 f7bb 68b5
000001b0: 8ae9 cab5 9b9f 74b6 fd1e 0235 25b8 a2bd
000001c0: 1567 58b5 b88b 9b3e 72f3 5036 a604 4636
000001d0: a257 9a3d 30d4 1736 c61a ccb5 ea71 c3b5
000001e0: eb0a 2eb5 b455 4db4 42e7 f2b5 1fb0 e5b5
000001f0: 3630 e3b5 1614 b737 44c8 8337 742a a335
00000200: 7c35 9536 0e5a 06b6 9b97 8ab6 bcf3 0a36
00000210: b870 4839 2f40 f836 0406 8a35 ee51 7236
00000220: 3eed cd36 57b8 9f35 67fe e3b5 4ef2 40b6
00000230: c7a0 8237 8952 74b7 3831 e134 941a 5fb6
00000240: 5d92 b336 805b 0839 e7c5 35b6 952f 40b8
00000250: 2ac3 51b8 5b35 06b6 9ee4 b5b6 ac68 0e34
00000260: 93a8 ca35 8b9c 4235 d741 5cb6 d2eb 18b6
00000270: e053 e7b5 fbac 80b2 adf9 c535 5fbd dd35
00000280: 789d 4736 9478 d735 3978 7ab5 212c f735
00000290: b627 f233 52b9 98b5 9897 9035 3ead 00bf
000002a0: 9629 ea34 5fa5 4eb2 fa75 7fb5 74a2 c1b5
000002b0: 4b77 0ab5 8f82 00b6 c70f 7bb6 f656 ef34
000002c0: f2d1 abb3 1a66 14b6 b183 33b6 5633 f732
000002d0: 4813 a335 348b 9d35 42fc 2e36 ab75 86b5
000002e0: 8167 533e e39f 3cb4 bcab c836 823a 2db2
000002f0: 4e73 f4b5 78ae b5b5 aa84 1638 b704 d436
00000300: b872 a535 c342 8737 3db6 8038 8849 97b6
00000310: 3fe1 80b5 9adc 6237 26e2 feb5 7fb0 f136
00000320: b25f 5536 2600 6fb7 150e 0237 c054 0238
00000330: f446 1237 8632 30b7 2c7a 84b6 4669 67b6
00000340: 7e3f 9a34 e332 0137 0ae4 f4b6 23b8 8235
00000350: a0ef 31b8 138a b3bf 90c7 20b6 ad24 eab4
00000360: 130c 06b5 1a7b 8636 844d e9b4 88fc d134
00000370: 67d0 6236 5e17 9db5 c0d7 e4b3 4fb1 33b6
00000380: d132 af34 0a24 cab5 d4d1 ba35 12c8 cab4
00000390: aa1f 5c35 a487 81b6 fa1d d935 1aec 8434
000003a0: e86b d1b4 6d00 0536 ce4e 8136 42cc a934
000003b0: 3bdd 9034 8253 33b5 0031 1a32 b8f3 3933
000003c0: 66a5 f7b5 df09 8835 3a98 72b4 2051 2336
000003d0: 2bf5 1236 44b2 2e34 97ec 9438 ffd5 2437
000003e0: 0f39 3db5 2549 77b5 f198 98b5 28cb 91b5
000003f0: f6da a3b7 ca20 85b6 c08c 2db6 2a52 6f36
7.169792e-06 -8.0020545e-06 1.2919105e-06 -1.0803824e-06 6.479725e-07 2.0320167e-06 9.327127e-07 9.202014e-06
-1.2890582e-06 -1.4554959e-06 2.8237568e-05 3.7727805e-05 -1.0532908e-06 5.9341886e-07 -9.740691e-06 -5.3944916e-08
-1.566986e-06 -5.6051664e-05 5.1770276e-06 3.0428876e-07 -1.7747205e-05 3.6433947e-05 1.1543972e-06 -1.011647e-05
8.481038e-06 -1.0833534e-06 -5.5912817e-08 -6.8840495e-06 1.7522616e-07 1.3031706 5.5997625e-06 -3.2644e-07
-1.2990955e-06 -1.843399e-06 -6.3366167e-07 -1.0096944e-06 3.3068302e-06 2.4270616e-06 9.935409e-07 -2.8779104e-06
-1.0909039e-06 5.3726194e-07 -1.0402812e-06 -9.681087e-07 -2.6908152e-08 1.6158996e-06 -1.3782799e-06 7.598932e-08
-1.4880148e-07 -9.4087613e-07 4.2016467e-07 -2.9158946e-06 -9.541303e-07 2.46343e-06 6.5274844e-07 -1.2746473e-07
0.49621508 -1.4898243e-06 -2.6491512e-06 -1.3827206e-06 -9.1246153e-07 1.0043691e-06 0.17997023 -4.1894462e-05
5.3533404e-05 5.326583e-06 2.8004654e-06 -7.7922705e-06 -7.1173868e-06 -2.2279414e-06 -1.4874469e-06 5.4270935e-05
-1.2129747e-05 1.2426252e-06 -3.4537843e-06 5.3450053e-06 -3.75804e-07 1.5552327e-05 4.235159e-06 -0.026278537
1.6618118e-06 -1.6887947e-06 1.2852125e-06 -1.1029589e-06 -0.00010557194 -2.8663671e-06 3.5966383e-05 2.0113606e-05
1.6849197e-06 0.5743853 1.747449e-06 -4.8228793e-07 2.6344505e-06 -1.1296231e-06 7.413648e-07 1.4519535e-06
-2.669909e-06 -5.210307e-06 -2.2447348e-06 -1.3091103e-06 -2.1904584e-06 5.790288e-07 -6.958777e-07 1.7255877e-07
1.3044463e-06 9.737587e-07 3.9552722e-07 -8.670026e-07 -1.5118142e-06 -3.6451736e-06 4.847387e-07 -0.07945279
-8.0616275e-07 0.30380034 3.113612e-06 2.9507005e-06 0.07536246 2.2624263e-06 -1.5206977e-06 -1.4561786e-06
-6.483594e-07 -1.9123291e-07 -1.809771e-06 -1.7113088e-06 -1.6926849e-06 2.1824653e-05 1.5709673e-05 1.2156802e-06
4.4467724e-06 -2.0019975e-06 -4.1303697e-06 2.0705475e-06 0.00019115477 7.398448e-06 1.0283552e-06 3.61085e-06
6.1370947e-06 1.1900073e-06 -1.6986859e-06 -2.875127e-06 1.5572075e-05 -1.456275e-05 4.1945327e-07 -3.324506e-06
5.3516546e-06 0.00013004057 -2.7086296e-06 -4.582068e-05 -5.0011244e-05 -1.9998613e-06 -5.420835e-06 1.326286e-07
1.5099234e-06 7.249843e-07 -3.2820878e-06 -2.278703e-06 -1.7235252e-06 -1.4979824e-08 1.4750309e-06 1.6520897e-06
2.974497e-06 1.6053841e-06 -9.3307204e-07 1.8415777e-06 1.12762265e-07 -1.1378818e-06 1.0772956e-06 -0.50264347
4.3616154e-07 -1.2028379e-08 -9.516658e-07 -1.4426901e-06 -5.15826e-07 -1.9149481e-06 -3.7411098e-06 4.4580491e-07
-8.000997e-08 -2.211315e-06 -2.6749733e-06 2.877793e-08 1.2150058e-06 1.1737925e-06 2.6074854e-06 -1.0018024e-06
0.20644952 -1.7567031e-07 5.980457e-06 -1.00832285e-08 -1.8212975e-06 -1.3536328e-06 3.588634e-05 6.318641e-06
1.2326846e-06 1.6124342e-05 6.13746e-05 -4.508711e-06 -9.602298e-07 1.35220125e-05 -1.8990293e-06 7.2029065e-06
3.1795175e-06 -1.4245545e-05 7.751883e-06 3.1073345e-05 8.718798e-06 -1.0502181e-05 -3.9481292e-06 -3.448296e-06
2.8730932e-07 7.700847e-06 -7.298314e-06 9.739346e-07 -4.2423257e-05 -1.4026512 -2.3958019e-06 -4.3612582e-07
-4.993646e-07 4.007842e-06 -4.3456032e-07 3.9113024e-07 3.379793e-06 -1.1704212e-06 -1.0656322e-07 -2.6776286e-06
3.2633264e-07 -1.5060662e-06 1.3919148e-06 -3.7771002e-07 8.2002464e-07 -3.8602902e-06 1.6176484e-06 2.4758702e-07
-3.9007796e-07 1.9818792e-06 3.8536737e-06 3.162732e-07 2.6983057e-07 -6.6804216e-07 8.975121e-09 4.329533e-08
-1.8451071e-06 1.0135662e-06 -2.2593386e-07 2.4336114e-06 2.1898402e-06 1.6269865e-07 7.101258e-05 9.824987e-06
-7.049102e-07 -9.212111e-07 -1.1369394e-06 -1.0862468e-06 -1.9533076e-05 -3.967526e-06 -2.5860936e-06 3.56616e-06
