model/Artificial_Data_6000_LogF_True_epoch_200_attention_net_u_artificial_Q_9_K_5_F_5_REG_L0_ACT_sigmoid_WD_000001_CV.model (torch_old, 52101 bytes, 6 tensors)

key_matrix f4 [9, 5]
000000 c0 68 92 3e 7a 27 b8 3b 3d 2c 01 40 d8 fe 0f bf
       0.28595543 0.0056199403 2.018325 -0.56248236
000010 00 db 1b 3f 0c 98 77 3f 53 ef 72 bf 48 28 cf be
       0.6088104 0.9671638 -0.9489643 -0.4046042
000020 0c 85 0d 40 d0 d9 95 bf 92 a7 b6 bf 4d b0 a5 be
       2.2112455 -1.1707096 -1.4269888 -0.3236107
000030 eb ac 37 bf 79 4c 74 3b d0 08 25 3f db 12 e0 3f
       -0.71748227 0.0037277027 0.6446657 1.7505754
000040 54 3c 19 3f 51 b0 47 3f 20 70 11 3e 7a 23 06 bf
       0.5985768 0.7800341 0.14202929 -0.5239788
000050 24 9e 3a bf 59 74 13 3f 35 83 85 bf 7f fd 71 3f
       -0.72897553 0.5759941 -1.0430666 0.9452743
000060 6c 86 f8 3e be 94 30 40 9a 61 d3 be 91 ac f1 bf
       0.48540056 2.7590785 -0.41285402 -1.8880788
000070 c8 82 2b bf e6 e2 59 bf 9b 05 ec 3f e9 3f 0b 3e
       -0.6699643 -0.85111845 1.8439211 0.13598599
000080 a9 0e bf 3f 24 27 a1 bf 90 85 85 be e8 6e 38 be
       1.4926349 -1.259007 -0.26078463 -0.18011057
000090 66 c5 9a be ae 30 c1 3f c4 ba 08 be 78 67 53 bf
       -0.30228728 1.5092981 -0.13352495 -0.82579756
0000a0 1e 94 86 3f 7e fb 08 bf 0d 27 c7 3f 3a 21 74 bf
       1.0513952 -0.53508747 1.5558792 -0.953632
0000b0 cc 21 27 3f
       0.65285945

value_matrix f4 [5, 5]
000000 eb 80 b4 3f 2d 34 ac 40 3f 2d a0 c0 e5 6e 0d 40
       1.4101843 5.381369 -5.005523 2.2098935
000010 a7 d4 e9 40 e8 9a 8d 3e 3b 8e f2 be e2 ff 5c 3e
       7.3072085 0.27657247 -0.47374138 0.21581987
000020 8b 6b 48 3f f0 90 02 bf 4c d0 c7 bf 2e 25 a6 40
       0.782891 -0.5100241 -1.5610442 5.1920385
000030 87 10 4a 40 8e f4 d5 be 46 c8 10 40 94 c9 ff bf
       3.1572587 -0.41788143 2.2622237 -1.9983392
000040 6a 5e 44 bf 57 e1 e8 be f5 a7 ee be f2 72 09 c0
       -0.76706564 -0.4548442 -0.46612516 -2.1476407
000050 66 13 25 bf f2 04 cd 3f 73 d6 cf bf f4 40 68 bf
       -0.64482725 1.6017134 -1.623732 -0.9072411
000060 3e 8c 9e bf
       -1.2386549

linear_layer1.weight f4 [9, 64]
000000 45 26 1f be ee 80 8a 3a 89 55 43 3e d7 51 9f bd
       -0.15541942 0.0010566988 0.19075598 -0.077792816
000010 4f 02 07 be c4 94 4a 3e 96 4e f6 bd 9a 3b 31 bd
       -0.13184474 0.19783312 -0.12026708 -0.04326973
000020 a9 f4 2a 3e 64 1f 8f 3d 4e e1 85 3c 5d ba 2e 3e
       0.16694893 0.06988409 0.016342785 0.1706328
000030 86 8f 92 3e 0c 85 e9 bd 46 f8 5d 3e 7b 6d 2d 3e
       0.28625125 -0.1140233 0.2167674 0.16936295
000040 77 d1 eb 3d d6 ef 80 3e 37 9b 5f 3e b1 d2 ca bd
       0.115145616 0.2518298 0.21836554 -0.099034674
000050 9f a9 dd bd de 4f 7b bd 5f b4 0e 3e 95 12 30 3e
       -0.10823368 -0.061355464 0.13935994 0.17194588
000060 01 ae 79 3e 31 07 5b bd 08 f8 2c be dd 3a c3 bd
       0.24382783 -0.053473655 -0.16891491 -0.09532712
000070 0a e8 c4 bd 5a 25 30 3d 87 07 e2 3d 2b 37 37 be
       -0.096145704 0.04300437 0.11036592 -0.17892139
000080 d7 7a bc 3d b4 45 1c 3d d8 b7 e2 bd 99 41 44 3e
       0.09203117 0.03815241 -0.11070222 0.19165649
000090 3a 35 81 3e 7d 80 36 3c b1 8a 35 bd d8 94 cf bd
       0.2523592 0.011139032 -0.04432172 -0.101358116
0000a0 e1 f9 34 bd 61 7d d5 3d 9a 1a c2 3d 42 fe 30 3c
       -0.044183616 0.10424305 0.0947773 0.010802807
0000b0 79 d6 af bc 6e 27 47 3e 31 96 ba 3b 51 0f 65 3c
       -0.021464573 0.19448635 0.0056941737 0.0139807025
0000c0 2a 36 de 3d 58 1e 66 3d 1b 62 00 be e8 69 dc 3d
       0.10850175 0.05618128 -0.12537424 0.107623875
0000d0 c2 21 13 be 6b 25 c1 bd 46 81 e8 3d fc 31 98 3e
       -0.14368346 -0.09430965 0.11352782 0.29725635
0000e0 3a 29 ea bd dd 0a 74 3e b5 cb 0b 3d 01 9d e7 3b
       -0.114336446 0.23832269 0.034129817 0.007068277
0000f0 39 03 de bb ff cb a4 bd 1d a0 a0 3c e6 06 1e 3e
       -0.0067752865 -0.08046722 0.019607598 0.15432319
000100 ce e3 d9 bc a2 0f dc bd 31 c4 e5 bd f9 45 72 be
       -0.026597884 -0.10745169 -0.11219061 -0.23659505
000110 7b b4 21 bd 02 f3 06 be a5 43 c2 3c b8 da e3 3d
       -0.03947876 -0.13178638 0.023713896 0.11125702
000120 16 c1 8f bd 57 95 f6 3c 48 c4 a1 be b8 35 86 be
       -0.0701925 0.030100508 -0.31595063 -0.2621286
000130 4f 61 01 be 4c 59 2d 3d 06 c6 2a 3e 73 2d d4 bd
       -0.12634777 0.04232149 0.16677102 -0.10360231
000140 f3 05 43 3c 15 4a 96 bd 8a 80 89 bd f9 09 fa bc
       0.011903274 -0.07338349 -0.0671397 -0.030522333
000150 b6 ef 42 be f4 67 2e 3d dc c9 24 be ab c1 8c bc
       -0.19036755 0.042579606 -0.16092628 -0.017182192
000160 54 f3 2c 3c 4a fb 08 be 00 f1 3a bd c0 e1 45 be
       0.010556061 -0.13377109 -0.04563999 -0.19324398
000170 b4 74 02 3e 2d 36 1e 3d f0 cc 8d bd 67 81 b8 3d
       0.12739831 0.038625885 -0.06923854 0.090090565
000180 c8 34 d7 3c 95 2d f5 3c df 62 53 be 0a 7f 49 3e
       0.026270285 0.029928962 -0.20643185 0.19677368
000190 4b 18 aa bd 4f 15 25 3d 5e cd 15 be 59 76 90 bc
       -0.08305415 0.040303525 -0.14629123 -0.017634558
0001a0 19 e4 e6 bd f3 f0 1f bd 09 95 6c bd b2 a3 9e 3c
       -0.11273975 -0.039048146 -0.05775932 0.019365165
0001b0 c6 ee 2d 3e 01 b3 03 3e e2 77 d9 bd d3 6b 65 be
       0.16985616 0.12861253 -0.10618569 -0.22404413
0001c0 85 58 61 3d 86 61 40 3e 33 90 d7 3d 69 d2 23 3d
       0.05501606 0.18787202 0.10525551 0.039995585
0001d0 4f 70 38 3e de fe f4 bc 5c 7f 07 3d c2 6c 25 3d
       0.18011592 -0.029906686 0.033080444 0.040386923
0001e0 06 85 ce bd 01 b9 ce 3d 21 6e ca bd e5 72 54 3e
       -0.10083966 0.100938804 -0.09884287 0.20746954
0001f0 6b 36 ad bd dc 93 31 be 15 96 e4 3d c9 42 d1 bd
       -0.08457645 -0.1734156 0.111614384 -0.102178164
000200 e0 91 65 3e 4d f5 c0 3d 32 bc bb bd 00 4b 86 be
       0.22418928 0.094217874 -0.09166755 -0.26229095
000210 3f a3 08 be 56 0a 59 3e e7 fe db bc f8 a2 48 3c
       -0.13343523 0.21195349 -0.026854945 0.012245886
000220 38 ff 68 3e 22 61 0b 3e e8 d8 7a be 58 e6 5c 3e
       0.22753608 0.13611272 -0.24496806 0.21572244
000230 97 74 19 3e 7d 88 71 3e 4c e5 69 be 56 7c d6 3d
       0.14985882 0.23587222 -0.22841376 0.10472934
000240 b9 bf 5b be 04 57 18 3e 1b 44 e1 3a 0e cc c7 bc
       -0.21459855 0.14876944 0.0017186435 -0.024389293
000250 e6 39 1e bc 8c 1a 7e be a3 0d ca bd 30 12 65 be
       -0.009657359 -0.24814814 -0.09865882 -0.22370219
000260 2c e2 4d 3e 56 df d8 3c 04 52 7d bc 8f b4 ec bd
       0.20105809 0.026473682 -0.015461449 -0.11557876
000270 62 c5 40 3e b9 98 66 3e 22 f4 d9 bd bb 33 44 be
       0.18825296 0.22519197 -0.10642268 -0.19160359
000280 00 01 28 3e 45 9e 53 3b 19 28 97 3d 21 ad 38 3e
       0.16406631 0.003229038 0.07380695 0.18034793
000290 d0 52 14 3e fb c7 8a be 72 33 28 3d e6 c9 ec 3d
       0.14484715 -0.27105698 0.041064687 0.115619466
0002a0 bf bd 19 3e 0a 53 26 be 1a 4d d6 bc e8 a8 2d be
       0.15013789 -0.16242614 -0.026159812 -0.16958964
0002b0 5a c0 a0 be 08 0d e1 3d 87 70 2d 3e 07 e6 33 bc
       -0.31396753 0.10988814 0.16937457 -0.010980136
0002c0 3f ca 3e be 49 b7 5e 3e 66 03 29 3c 5f 01 08 be
       -0.18631838 0.21749605 0.010315752 -0.13281773
0002d0 06 de 36 be 3c b2 9f bd e6 44 02 be c1 5a 72 be
       -0.17858133 -0.077976674 -0.12721595 -0.23667432
0002e0 67 7a 33 3c 61 b3 5f 3e a9 73 58 be f9 d1 6a be
       0.010954476 0.21845771 -0.21137871 -0.2293166
0002f0 0a 2d 83 be fb 9e 5d bd 6f 21 c1 3d 08 c7 9f bb
       -0.256203 -0.054106694 0.09430205 -0.0048760213
000300 ae 04 b5 bb 19 a3 13 be 3c 8a 13 be 1e 4a 21 3e
       -0.0055242395 -0.14417686 -0.14408201 0.1575093
000310 2a ca 24 3e 33 14 58 bd 31 7d 84 be 06 e6 63 be
       0.16092744 -0.05275364 -0.25876763 -0.22255716
000320 99 d6 8b 3e 80 91 96 bd a0 4a cc bd 7b a9 46 3e
       0.27312163 -0.07351971 -0.09975171 0.19400589
000330 24 bd e9 bc bf 6d ad 3d 74 4a 38 bc 7e 5c 1c 3e
       -0.028532572 0.08468198 -0.01124822 0.15269658
000340 0c ef 20 3d a1 c4 2e 3e 90 10 6e 3d 41 95 a7 3e
       0.039290473 0.17067195 0.058121264 0.3273106
000350 a2 60 da 3d 6f fe 7a be 06 61 02 3e 76 b1 ad ba
       0.106629625 -0.24511121 0.12732324 -0.001325174
000360 1d c9 05 bd 7e f9 78 ba 35 2e 81 bd 59 4d 9a 3e
       -0.0326625 -0.00094976265 -0.063076414 0.30137137
000370 c4 41 cd 3d 02 10 fe bd e0 23 88 bc 52 ae 3f be
       0.100223094 -0.12405397 -0.016618669 -0.18718842
000380 80 88 4a 3e 0b 03 ac 3d b3 87 33 3e e7 f4 eb 3d
       0.19778633 0.08399018 0.17532234 0.11521321
000390 5c da 01 3e 8c ee 17 3e ee 67 a7 bd a8 c1 21 3e
       0.12680954 0.14837092 -0.0817412 0.1579653
0003a0 48 c6 3a be 8c 7a cf 3d d9 27 49 3e 27 64 3c 3e
       -0.18239701 0.10130796 0.19644107 0.1839758
0003b0 cf 87 2f be be 99 0f be 35 7f 3d 3e 83 fd 32 3e
       -0.1714165 -0.14023492 0.18505557 0.1747952
0003c0 0a 4d 95 ba 25 3c 64 be b1 e6 76 3e f7 3f 3f 3e
       -0.0011390757 -0.22288568 0.2411144 0.18676744
0003d0 e9 9e 3d be 52 06 7a 3e 63 d1 99 3e 1c 93 40 3e
       -0.1851765 0.24416474 0.30042562 0.18806118
0003e0 49 f9 56 bd f3 1c 8a 3e 72 31 06 be 1c 01 3f be
       -0.05248383 0.26975212 -0.131048 -0.18652767
0003f0 8f cb 15 bd b1 ce 7c 3d 02 6f 3b 3e b6 d1 e0 3d
       -0.03657108 0.061720554 0.18304065 0.10977499

linear_layer1.bias f4 [9]
000000 91 6d d1 3f 45 91 50 3e 0f 24 f6 bf d2 02 e7 3f
       1.6361562 0.20367916 -1.9229754 1.8047736
000010 87 c7 9c bf d9 a9 80 bf bb a1 05 3f 29 11 78 3f
       -1.2248391 -1.0051833 0.52199906 0.96901184
000020 91 0b 8a 3f
       1.078478

linear_layer2.weight f4 [2016, 5]
000000 07 54 de bd 89 a3 92 3d 25 3d e4 3d b8 d8 8c 3c
       -0.10855871 0.07160098 0.11144475 0.017193183
000010 78 ae 29 bc 3f fb 7f bd 4d e9 bf 3d d1 f8 83 3e
       -0.010356538 -0.062495466 0.093706705 0.2577577
000020 a1 a5 20 bc 1b 40 77 bc f4 b1 1b bd e6 1e c4 bd
       -0.009805114 -0.0150909675 -0.038011506 -0.09576206
000030 6a c7 98 3d 09 fe bb bb 28 f0 a4 bd 46 e2 04 3b
       0.0745991 -0.0057370705 -0.08053619 0.002027647
000040 0a 68 f1 bd 94 71 51 3c da a0 71 bd b7 ef cb bd
       -0.11787422 0.012783427 -0.05899129 -0.09957831
000050 b3 3f 47 3c df 96 b2 be 6e e3 5f 3c 92 8e a1 bd
       0.012161183 -0.3488073 0.013665063 -0.07888521
000060 d9 58 a6 be be aa 4c 3d f7 d3 26 be 0e 27 4b 3d
       -0.3248966 0.04996752 -0.16291796 0.049597792
000070 b4 c1 0f 3d 17 d8 ec bd 21 f4 9b 3d ab 52 bf be
       0.03509684 -0.11564653 0.07614923 -0.37367758
000080 e7 6a 1f be 46 29 c4 bc 8c 3a 05 be 1e b8 22 3c
       -0.15568124 -0.023945462 -0.13010615 0.009931592
000090 80 eb 69 be 15 87 70 3d 08 d2 a5 bd 79 4f 23 be
       -0.22843742 0.058722574 -0.08096701 -0.15948285
0000a0 2e 71 01 bd 7d 21 06 be 40 07 3a bd 53 35 0e 3c
       -0.031602077 -0.13098712 -0.04541707 0.008679706
0000b0 73 d0 33 be 15 08 ce 3d 58 bf c1 be 96 bb a0 be
       -0.17559986 0.10060135 -0.37841296 -0.31393117
0000c0 47 5b 5e 3d c2 86 2b be f4 dd fe bc a0 0f 49 be
       0.054286268 -0.16750625 -0.031111695 -0.19634867
0000d0 eb 0f 5f 3e 4c f2 50 bd 41 7c 5b be d5 57 0a be
       0.21783416 -0.051012322 -0.21434118 -0.13510068
0000e0 f5 00 f7 bc ec 88 8f 3e 85 bf 0f be c6 fc 21 be
       -0.030151824 0.2803415 -0.14037903 -0.15819082
0000f0 18 ac a1 3d 42 db a4 be 82 b5 12 be 90 26 8d 3d
       0.078941524 -0.3219853 -0.14327052 0.06892121
000100 4c 5f 3d be af a0 1e 3e 19 d9 0e bf b6 62 23 be
       -0.18493384 0.15490983 -0.55800015 -0.15955624
000110 54 01 7e bb af 66 bb be 50 f5 29 bd 87 a2 df bd
       -0.0038758116 -0.3660178 -0.041493714 -0.109196715
000120 48 2d 7f 3e 20 e4 08 be 71 25 25 be 52 66 21 3e
       0.24919617 -0.13368273 -0.16127564 0.15761688
000130 9a b5 28 bf 85 b8 37 be 34 33 32 3d a6 1d c7 be
       -0.659021 -0.17941482 0.043505862 -0.38889807
000140 13 31 5c bc 97 43 a7 3d d5 4a 42 3e 6d 6a a6 bc
       -0.013439435 0.081671886 0.18973859 -0.02031442
000150 83 e4 65 bd a7 af 03 be 4a f1 46 be a3 10 9e 3e
       -0.05612613 -0.12859975 -0.19427982 0.30872068
000160 c5 95 90 bd fc 20 74 be 92 87 83 bc af ea d1 bd
       -0.07059816 -0.23840708 -0.016055856 -0.102498405
000170 6a 0c b9 3c db ef 66 bd d1 07 e7 bd 66 81 92 3d
       0.022588927 -0.056381088 -0.11280788 0.07153587
000180 a3 89 b6 be 12 ed 9b bc 4a c5 2c bd c9 cb a8 be
       -0.35651883 -0.019033942 -0.042180337 -0.32967976
000190 cc c6 eb bd 02 02 af 3d de 54 ab 3e 05 19 85 bd
       -0.11512527 0.08545305 0.33463186 -0.06498913
0001a0 e3 1d f3 bd a1 37 1a be 9b c7 ff bc e3 ab 9f 3e
       -0.11870935 -0.15060283 -0.031223109 0.31185827
0001b0 f9 02 9b bd b1 32 30 be 79 00 18 3d ef 24 0f be
       -0.07568926 -0.17206837 0.037109826 -0.13978933
0001c0 27 9b f6 bc 26 b6 95 3c b6 38 6d bd e7 a0 88 bd
       -0.03010328 0.018275332 -0.057915412 -0.06671315
0001d0 a3 66 07 bd 44 14 ff 3d be b8 bc bd df 7a aa bd
       -0.033056866 0.12455037 -0.09214924 -0.08324217
0001e0 6a b4 83 3c 27 2c 2b bb 92 31 01 3e 1d bd 8d bd
       0.016077239 -0.0026118846 0.12616566 -0.06920836
0001f0 12 4a 28 be d1 dd 43 bb 1d b4 4a be ed ef f2 bd
       -0.16434506 -0.0029886852 -0.1979527 -0.118621685
000200 7a 6b 6e 3d 8a cf c4 bd fa d5 2f 3d 9d 16 b8 be
       0.058207966 -0.096098974 0.042928673 -0.35954753
000210 73 a5 a5 bd d3 ba ce bc 67 70 8b be 48 a7 f9 bc
       -0.080881976 -0.02523557 -0.27234194 -0.030475274
000220 03 1d 1a be cd 4b e5 3d 8c 73 a1 bd fa c0 fb bd
       -0.1505013 0.111960985 -0.07883367 -0.12292667
000230 03 7d 73 bd 4d 2d 11 3e 6f bf b7 3d dd 58 63 bc
       -0.059445392 0.14177437 0.0897206 -0.013876167
000240 1a d2 18 3d 26 06 01 be 6a 13 66 bd e5 51 3a 3e
       0.037309743 -0.12600002 -0.05617086 0.18195303
000250 cb df dc bd 57 57 6a be 77 b8 d5 bd 68 6b a2 3d
       -0.107848726 -0.2288488 -0.104355745 0.07930642
000260 42 59 77 3e 3c 49 13 bd df 12 b9 bd 9b aa 4b 3d
       0.24155143 -0.035958514 -0.090368025 0.04972325
000270 ec a2 3b 3c d9 16 d2 3b 53 26 13 bd 4a c3 00 3d
       0.011452418 0.006411415 -0.03592522 0.031436242
000280 83 78 3e 3d 56 6f c8 3c 3f 54 14 bd 17 52 5c bc
       0.046501648 0.024467152 -0.036213156 -0.013447306
000290 a8 68 b6 3d 59 dd 0d bc 35 e2 0d 3c fd c6 31 bc
       0.0890668 -0.00865873 0.008659889 -0.010850665
0002a0 af f9 02 bd b3 18 7d bc e6 9e 04 3d 6d a3 b1 bd
       -0.031976398 -0.015447783 0.0323781 -0.08673749
0002b0 b0 7f a1 3d fa 7a af bc 67 67 d6 bd 32 69 06 3c
       0.078856826 -0.021420944 -0.10468941 0.008203791
0002c0 b2 7b bd bd c2 0f 20 3d 15 44 a1 bd 90 45 ba bd
       -0.09252109 0.039077528 -0.07874314 -0.09095299
0002d0 c5 8d 21 3a 48 b6 ad bd 43 c1 8e 3c 38 83 ce bb
       0.0006162788 -0.08482033 0.017426139 -0.0063022636
0002e0 17 9a 88 bd bd 3e 47 bd 0c 74 6d bc b3 55 4d bd
       -0.06670015 -0.048643816 -0.014493 -0.050130557
0002f0 2e 1c c9 3a 11 dc ad 3d 90 5b 27 3d 42 b9 87 bc
       0.0015343481 0.0848924 0.040858805 -0.01656783
000300 ee d4 a8 3c fa 70 07 3d 10 02 bd bb f0 90 ec 3b
       0.020609345 0.033066727 -0.005768068 0.0072194263
000310 20 da 48 3d ac d5 b7 bc ab 64 9f bc 5d 98 57 bd
       0.049036145 -0.022440754 -0.019457182 -0.05263554
000320 29 dc 50 3d 06 15 59 bc aa cd c8 3c cb 6c 08 bd
       0.05099121 -0.013249641 0.02451213 -0.033306878
000330 e0 68 c1 3c 9e 40 11 3d 01 53 3b be 79 7c fb 3d
       0.023609579 0.035462014 -0.18293382 0.12279601
000340 d1 dd 83 bd 01 79 3d be 28 c3 1a bc b6 d7 83 bd
       -0.064387925 -0.1850319 -0.009445943 -0.06437628
000350 20 23 74 3d 7e 4c 84 bc 5c 8e df bd c5 3c 94 3c
       0.05960381 -0.016149756 -0.10915825 0.018095383
000360 80 03 91 bb ac 5f 72 bd 4e 65 79 bb 12 59 97 3d
       -0.004425466 -0.05917327 -0.0038054767 0.07390036
000370 64 dd 53 bc a6 d7 f4 bd 68 9a 14 3d d4 c5 c0 bc
       -0.012931202 -0.11955194 0.036280066 -0.023531832
000380 cd d4 f7 bd 8b 0a 4a 3d c5 bd 82 3d 43 44 99 bd
       -0.121011354 0.04932646 0.06383852 -0.07483723
000390 12 55 7e 3c dc a4 a4 3d 4c d9 56 3d 68 0c f1 3d
       0.015523212 0.08039257 0.052453324 0.117699444
0003a0 d7 ec 9d bc d4 81 e7 3c 3a 8f 09 3e ce 3c 36 3d
       -0.019277973 0.028260149 0.13433543 0.04449158
0003b0 42 2e 10 3c 73 26 03 3c 28 6b ea bc 04 cf 55 3d
       0.008800091 0.0080047725 -0.02861555 0.05219938
0003c0 e9 67 50 bd 79 e3 3b be 07 07 96 3d 68 42 b8 3b
       -0.050880346 -0.18348493 0.07325559 0.0056231506
0003d0 2b 45 0f be 01 85 c9 3c 5d 04 db 3d 7e be 9d bc
       -0.13991229 0.024599554 0.106941916 -0.019255873
0003e0 56 b9 84 3d 39 a7 14 3d aa c9 28 bd 19 e4 75 be
       0.064806625 0.03629229 -0.041207947 -0.24012794
0003f0 eb 5b 31 3e 96 e8 8f bd 5b df 82 be fa a8 72 3d
       0.1732022 -0.07026784 -0.25561032 0.05924318

linear_layer2.bias f4 [2016]
000000 4a 45 b2 bf a4 22 75 bf 5e e7 73 bf 60 c0 2d bf
       -1.3927395 -0.9575598 -0.95274913 -0.67871666
000010 c9 61 c9 3f ec 76 6d be a5 a4 19 3f 20 3c 63 3f
       1.5732967 -0.23189896 0.6001685 0.8876362
000020 77 03 7e bf b2 a7 00 ba 68 ed ac 3f 03 54 1c 3e
       -0.99224037 -0.0004907801 1.3509951 0.15266423
000030 c8 5b a0 be 7e 83 a1 be 4f d7 2d 3f 2b 10 3c 40
       -0.31320024 -0.31545633 0.6790666 2.9384868
000040 52 59 57 bf cc b0 9f be 81 5c fa be e1 9d 0f 40
       -0.84120667 -0.31189573 -0.488987 2.2440112
000050 bc ab 42 bf ac 62 22 3e 59 55 24 bf 2d 9a 3a be
       -0.76043296 0.15857953 -0.6419273 -0.18222876
000060 61 6c 7b 3d 2f ac 0d bf 5f 7c d4 3f a8 61 e9 bd
       0.061382655 -0.55340856 1.6600455 -0.113955796
000070 a2 61 28 c0 0b 5e 94 3e cc 50 50 bf 0e aa 32 be
       -2.630959 0.28978 -0.81373286 -0.17447683
000080 6f df 1b bf 83 04 74 be 73 35 4a 3f c2 36 19 3f
       -0.6088781 -0.23829846 0.7898781 0.5984918
000090 70 45 1c 3f 43 a4 f7 be e6 64 09 3e 0d a9 88 3d
       0.61043453 -0.4836751 0.13417396 0.06672869
0000a0 36 b3 7f bd a3 7d b2 3f fd 61 46 3f 8e 17 c5 be
       -0.06242677 1.3944591 0.7749327 -0.38494533
0000b0 7c c9 96 3f f9 86 32 bf 1e cb 86 bf d0 04 db be
       1.1780238 -0.697372 -1.0530736 -0.4277711
0000c0 f0 e3 ac 3f dd 5e 7e bf b3 33 eb 3f 34 a0 7f bf
       1.3507061 -0.993635 1.8375152 -0.99853826
0000d0 be 45 18 bf bb ed 73 bf 92 a0 1d bf dd d5 eb 3f
       -0.5948142 -0.9528462 -0.61573136 1.8424641
0000e0 8a fe 9c 3f 9e 65 cd 3e 84 4e 7a 3e 30 d3 c4 3e
       1.2265179 0.4011659 0.24444014 0.38442373
0000f0 43 ea dc 3e 6c d5 e9 3f 55 12 bd be 26 02 66 bf
       0.43147478 1.8268256 -0.3692805 -0.8984703
000100 85 9f c5 bf de 49 05 c0 81 eb 12 3e e5 07 99 bf
       -1.5439306 -2.0826335 0.1434765 -1.1955534
000110 2d 91 16 3e 1f c9 a5 3d 6e 96 9d 3d 1e df 3a 3e
       0.14703818 0.080950014 0.07694708 0.18249175
000120 23 a1 77 3f 6b ae 06 bf 58 6a d1 3f d6 78 33 bd
       0.9673025 -0.5260989 1.6360579 -0.04381641
000130 40 ac 82 3f 2a 81 ba 3f ba 02 00 bf 87 df 35 bf
       1.0208817 1.4570668 -0.5000416 -0.710442
000140 45 22 87 bf 01 86 bd bf 7a e4 78 3e 8b 65 7d bf
       -1.0557333 -1.480652 0.24305907 -0.9898307
000150 a3 24 71 bf 44 2e 4b 3f 06 e6 cc 3f 7a fa 33 bf
       -0.9419653 0.7936747 1.6007698 -0.7030407
000160 68 f6 c7 bf ef 37 22 40 56 3a 5e 3f 78 2e 69 3e
       -1.5622072 2.534664 0.86807764 0.22771633
000170 06 2c 0b c0 6e 5c 32 bf 88 89 5e 3f cf b2 ea 3e
       -2.174562 -0.69672287 0.86928606 0.45839545
000180 22 ad ee 3f fe 8c e0 bc 33 35 42 bf 10 f3 82 bf
       1.8646586 -0.02741098 -0.75862426 -1.0230427
000190 4c 83 ee bf e9 3c 35 bf 12 a0 dc 3e 96 0b 40 3f
       -1.8633819 -0.70796067 0.43090874 0.7501768
0001a0 24 4d af 3e d8 eb 0d bf 93 2b 1d bf 55 72 11 bf
       0.3423854 -0.55437994 -0.61394614 -0.5681508
0001b0 5d 82 01 bf 0a 71 1a 3e 5e c8 bc 3f 0a 68 01 3f
       -0.50589544 0.15082183 1.4748647 0.50549376
0001c0 79 7c 20 bf 90 49 4d 3f 1f 36 96 3f 95 fe 50 3f
       -0.6268993 0.8019037 1.1735266 0.8163846
0001d0 64 3f 40 3f e9 c5 36 3e 66 65 f2 bd bd 43 3e bf
       0.75096726 0.17848934 -0.118357465 -0.7432211
0001e0 67 0e 14 c0 3f 70 f8 bf eb 7b 8b bf ed 68 2e bd
       -2.313379 -1.9409255 -1.0897192 -0.042580534
0001f0 cd 32 39 bf 33 d2 3f bf e7 77 67 3f 06 17 c8 3e
       -0.7234314 -0.74930114 0.9041733 0.39080065
000200 63 32 59 bf 02 e1 96 3f 51 fe 2a bd 31 c8 bc be
       -0.8484251 1.1787417 -0.04174644 -0.36871484
000210 62 eb 2a 3f 07 21 8a bf af da 0a 3f 2a bd e7 be
       0.66765416 -1.0791329 0.54239935 -0.45261508
000220 d6 11 ec bf dd 66 83 bf 2e 49 d4 3b f1 bd 74 3d
       -1.8442943 -1.0265766 0.0064784503 0.059751455
000230 36 8e 5f 3d 3b 33 89 bf 26 1f 15 bf 8e 91 52 3f
       0.054578982 -1.0718759 -0.58250654 0.8225335
000240 63 7b 33 3d 0d 0f 98 bf 4e 78 bd be 4a 54 ea 3e
       0.043818843 -1.1879593 -0.37005848 0.45767432
000250 f3 1f df bf 9f 7d 2d 3f 34 b2 1a 3f df aa 09 be
       -1.7431625 0.6776981 0.60428166 -0.13444088
000260 46 07 48 bf c9 7b e8 be 61 8d 31 bf 54 2b b2 be
       -0.781361 -0.4540694 -0.6935635 -0.34798682
000270 01 a5 81 3f a5 86 d0 bf de 95 ef bf 9a b9 a3 3e
       1.012848 -1.629109 -1.8717611 0.3197754
000280 b4 8b 39 c0 54 5d 12 40 ed 54 b9 3f 2f 1d ae be
       -2.8991518 2.2869463 1.4479042 -0.3400664
000290 19 3a 4e be 5b b4 49 3e 58 9a 0f bf 88 bd d2 3e
       -0.2013935 0.19697706 -0.56094885 0.41160226
0002a0 1f e3 e4 be c9 cc 5f bf a8 b0 0d bf f9 f7 85 bd
       -0.4470453 -0.8742185 -0.5534768 -0.06541438
0002b0 38 4e 73 bf b1 15 fd be 39 ce dc be 3d 3c cf 3e
       -0.9504123 -0.49430612 -0.43126085 0.40475646
0002c0 ef b5 da 3e 73 8e a6 bf 0a d1 09 3f 12 66 54 bf
       0.4271693 -1.3012222 0.53834593 -0.82968247
0002d0 b1 2d 5a 3f 74 71 ab 3f e1 89 f8 3f b8 dc 59 bf
       0.8522597 1.3393998 1.9417077 -0.85102415
0002e0 c3 46 79 bc cc 6a 20 3e d7 92 14 3e 6c cd 88 3f
       -0.015214625 0.1566574 0.1450914 1.068769
0002f0 41 2a 48 be 9c 03 4a 3e 51 e0 a2 bf 7b 09 9c 3e
       -0.19547369 0.1972794 -1.2724706 0.30475983
000300 ba c0 a7 3f e9 fe 10 bf 8f 26 56 bf a2 50 db be
       1.310569 -0.5663896 -0.83652586 -0.42834955
000310 cc 18 cf 3f 94 06 ac be cf 2d 5a bf ef 37 9d 3f
       1.6179442 -0.3359877 -0.8522615 1.2282695
000320 dd 3a c2 3e 44 81 a8 3f 21 23 99 be be 41 3d 3f
       0.37935534 1.3164449 -0.29909614 0.7392844
000330 5e 50 e0 3e 48 75 a8 bf 5f 98 a2 3f fb ef cf 3e
       0.43811315 -1.3160791 1.270275 0.40612778
000340 c4 24 35 bf 31 54 40 bf f2 79 f3 3e 90 3c 6f bf
       -0.70759225 -0.75128466 0.47553974 -0.93451786
000350 0c 99 a9 3e 7f bf 29 bf 1d c4 95 3f 81 71 34 3f
       0.33124578 -0.66307825 1.1700474 0.70485693
000360 d7 6d 0f bf 5e 88 db 3f 5c af 2b 3f 16 58 05 3f
       -0.5602698 1.7150991 0.6706445 0.52087533
000370 6b 48 e8 be a2 5a 61 3c 11 6d 19 bf f2 44 94 3c
       -0.4536775 0.013754519 -0.5993205 0.018099282
000380 70 75 a4 3e 1a 3e e8 3e 1b b4 59 bf ca 96 a7 bf
       0.32120848 0.4535988 -0.85040444 -1.3092892
000390 b0 0f e7 be e3 44 50 3f 13 77 73 3f 05 3c bb 3d
       -0.45129156 0.8135511 0.9510357 0.09142307
0003a0 7c df 41 3f 2d 49 1c be 50 f5 cb 3f 4f 95 51 be
       0.75731635 -0.1526229 1.5934238 -0.20467113
0003b0 51 d7 01 c0 2e e2 80 bf 14 f3 bb 3f 11 2c 1b 3f
       -2.0287669 -1.0069025 1.4683557 0.60614115
0003c0 9c 1d e1 be 35 09 8a be f0 6d bf 3f 76 69 9f be
       -0.43967903 -0.2696015 1.4955425 -0.31135148
0003d0 19 ad 9a 3f c7 c4 10 3f 24 7c a7 be b8 1b ba 3e
       1.2084075 0.5655026 -0.327119 0.36349273
0003e0 24 ed 15 40 af c4 5a 3d b9 f3 b1 3e 7e e1 ad bf
       2.342599 0.05341023 0.34756258 -1.358444
0003f0 32 1a 71 be 02 60 a4 3f 55 69 4a 3f af bd a1 be
       -0.23545149 1.2841799 0.79066974 -0.3159003
