model/Artificial_Data_6000_epoch_100_attention_net_u_artificial_Q_9_K_3_F_5_REG_L0_ACT_sigmoid_WD_000001_CV.model (torch_old, 51989 bytes, 6 tensors)

key_matrix f4 [9, 3]
00000000: 10d6 b33f f68e adbd a12a 0dbd c5c3 4fc0
00000010: 4691 de3e aeb9 99be d337 20be 696b 0640
00000020: 361e a0bf 2b63 a73e fe35 f03f d715 523e
00000030: d582 cabe a313 af3d 2f08 aebc 312c 2bbd
00000040: 5e0b 9b3f 96f4 f8bf 0b3c 5fbf 2a2b 6c3f
00000050: 9d03 f5bf 4085 45bf 68e4 febc 596f bd3f
00000060: c4b0 d6be 5237 9bbd ad0a adbf
1.4049702 -0.08474533 -0.034464482 -3.2463238 0.4347021 -0.30024475 -0.15646295 2.1003058
-1.250922 0.32692847 1.8766477 0.20516144 -0.39552942 0.08548667 -0.021244137 -0.04179019
1.2112844 -1.9449642 -0.87200993 0.92253363 -1.9141728 -0.7715645 -0.031114772 1.4799606
-0.41931736 -0.07578911 -1.3518883

value_matrix f4 [3, 5]
00000000: 417b 83bf 1f36 78bd 091b 10bf 8749 14bf
00000010: 67f4 f9be 6260 0340 0e55 6f3f 275a df40
00000020: 5db5 193f 7b52 3d3f f7ac 5dbf 9981 85bf
00000030: 11e2 55bf 16a1 4dbf e40e c4bf
-1.0271989 -0.06059849 -0.5629125 -0.57924694 -0.48819277 2.0527577 0.9348916 6.979755
0.60042363 0.7395398 -0.8659205 -1.0430175 -0.83548075 -0.8032392 -1.5317044

linear_layer1.weight f4 [9, 64]
00000000: e9aa 40be c03a 8fbe c254 bbbd 3659 38bd
00000010: b254 2dbe fb7b 41be 4c3a 833e a9dd f7bd
00000020: d562 0d3d cd2e 643e a32f 13be 14c3 ec3d
00000030: 1642 94bc fa68 90be 587e 5c3e b70f 59be
00000040: ba27 f43d 0961 b6bd eac6 67be c212 103e
00000050: 2cfc 14be dce2 7dbe 1231 a2ba f32c 50be
00000060: d1f0 84bd 3ee1 c2bb 56cf f3b7 c5aa adbc
00000070: 0a00 123e 89d0 55be 1b5c 333d 0831 573e
00000080: f0f1 303e f2d4 063e fe5a 00be 2338 f33d
00000090: 9a0f 25be c0af 65be 6f02 c0bb 201d 003e
000000a0: 0db0 77be c2c3 8ebd a21f 89be 1509 febd
000000b0: 04bf 803e 06db 143e a17c 6abe da3e 03be
000000c0: d001 593e 4554 223d 5865 61be eb9f da3d
000000d0: 6f10 f73c a517 f53d 8c17 9ebb 5bb5 23be
000000e0: 02ce 1f3e fd5b 763e 5742 8dbe 326c 5f3d
000000f0: 16e2 623c 940a 0dbe bbaa 863e ccc0 c3bd
00000100: 8c7e 8e3e 05c9 8d3e af67 6a3e c2c3 45bd
00000110: 53d6 6a3e c543 95bd 9c70 cd3b f214 5dbd
00000120: 5800 c1bd b8a9 153e ba70 f13c 3765 e5bd
00000130: 606e 12be 0c8d 073e 8281 78bd 46ea 18be
00000140: 128a b4bc 6a03 2d3e a4ac 73be 8b32 99bd
00000150: 8881 1cbe 6890 a6bd d28d 703e 63f5 00be
00000160: 56ba cfbc d703 cbbd 431c 29be 1c7d cdbd
00000170: a149 99bd c517 dcbb c887 cfbd b560 eebd
00000180: 0c63 1a3e e034 6c3e e627 173c 4508 6a3e
00000190: df55 343e 1518 ffbd 4fc6 423e 0a3e 93bd
000001a0: 9a83 14be d434 43be ade6 03be 2484 bbb9
000001b0: 6761 8a3e 6f63 823e 546e 21be 013d 49be
000001c0: 8ecd fd3d 26dc 623e e36f 703e 4c3d 723e
000001d0: 96e8 0a3d 2a91 4dbe 3a4e 893e 512e ddbd
000001e0: 6d0e 893e 9656 9f3e d5c1 b9bd 5af8 043e
000001f0: 8041 babd fb14 253e be32 a03e 5148 203e
00000200: 5800 c43b 07b0 ccbd 8ce7 c7bd 17d4 f23d
00000210: 92a9 00be 1766 31be f87f 9c3e 3bf0 073d
00000220: 2c92 67bd aa0e b63b d37a 583b 0e9e 7f3e
00000230: b407 33be 1b14 403e d406 42be 6d5e 453d
00000240: a700 48be 30f5 c83c dd92 45bd e0fb a53d
00000250: 7718 3dbd 740e 363e 1d6f 8c3e 4211 0f3e
00000260: aaaf 42be 7358 6e3e bc61 983e 210f 89bc
00000270: 8199 513e 73c1 fbbd df2d 1abe 3a27 103e
00000280: c12f 6e3d 67d0 223d ebac 103c c537 3abd
00000290: 631b 663d 58f9 0d3d 65fe 543e 65e2 0cbe
000002a0: 4091 39be 55aa 83bd 058d 4ebc 4986 923e
000002b0: d85b 48be 15e5 873d d832 5f3e d0ef 44be
000002c0: 61b4 c1bd 2f68 53bc 3482 10be 7315 67be
000002d0: ccc4 983d edf2 3e3e 58f9 01be d487 683d
000002e0: 0446 923e 3eb0 4c3d 3a02 bdbd bc64 2ebe
000002f0: 3c7f 8f3e 65f0 2a3e e8ac 1e3e 5a2d 52bd
00000300: e074 2e3e 2ed2 c6bc 6590 1dbb 9535 063d
00000310: 19f1 80bc c3a3 833d 3cef 843e ce15 dfbd
00000320: 3ec8 563e 3014 87bd 6de3 36be d595 66be
00000330: 4162 123e 1802 47be eb85 43bd 430c 37be
00000340: b2c5 743e 4e6a 053d 8a61 5fbe 866b cfbd
00000350: cc78 71be c9c6 9c3d 86e3 3fbc 18ca 8b3e
00000360: c9b7 d33d 9722 6abe 55ca 7dbd b306 8f3e
00000370: 56ce 18be d87f 123d 8bd4 02be 5dfc 2ebd
00000380: 02e8 44be 7f65 23bc 15b6 31be b754 563d
00000390: fdf9 ab3d 05f1 993e 2898 563d a0de e1bd
000003a0: dc97 2ebe 1511 473e ca8e 8c3e adb3 383e
000003b0: cc39 f73d e10f 943d 942e a7bd 0598 1b3e
000003c0: 35c8 12bb e2e8 1fbe 7fd0 863e dec9 523e
000003d0: af0f 03be d2dd 833c 1d65 70be 29cf ce3d
000003e0: 3065 1abe 6651 a8bd f577 5e3c 9d11 593e
000003f0: d869 343e e501 733c 2304 743e 6d7c ff3c
-0.18815197 -0.2797451 -0.09147026 -0.045006953 -0.1692684 -0.18894951 0.25630414 -0.12102825
0.03451808 0.22283478 -0.1437364 0.11560646 -0.018097918 -0.2820509 0.21532571 -0.21197401
0.1192164 -0.08905227 -0.22634473 0.14069656 -0.14549321 -0.24793571 -0.0012374243 -0.20329647
-0.064912446 -0.005947261 -2.9064406e-05 -0.021199593 0.14257827 -0.20880331 0.04378901 0.21014798
0.17279792 0.1316717 -0.12534711 0.118759416 -0.16119233 -0.22430325 -0.005859665 0.1251111
-0.24188252 -0.069709316 -0.26781946 -0.12404076 0.25145733 0.14536676 -0.22899105 -0.12816945
0.21192098 0.039631147 -0.22011316 0.10675033 0.030159203 0.119674005 -0.0048245843 -0.1598715
0.1560593 0.24058528 -0.27589676 0.054546542 0.013847848 -0.13773566 0.26302132 -0.095582575
0.27830923 0.27692428 0.22891115 -0.048282392 0.2293332 -0.07288317 0.0062695276 -0.053975053
-0.09423894 0.14615524 0.029472698 -0.11200946 -0.14299917 0.13237399 -0.060670383 -0.14933118
-0.022038493 0.16895834 -0.23796326 -0.074803434 -0.15283787 -0.08133012 0.234916 -0.12593608
-0.025357407 -0.09912842 -0.16514687 -0.10033628 -0.07484747 -0.0067167007 -0.1013332 -0.11639539
0.15076846 0.23067045 0.009225821 0.22854717 0.17610882 -0.12455765 0.19020961 -0.071895674
-0.14503327 -0.19063121 -0.12880965 -0.00035765872 0.27027437 0.25466487 -0.15764743 -0.19652177
0.12392722 0.22154292 0.23480181 0.23656195 0.033913217 -0.20074907 0.26817495 -0.1079985
0.26768818 0.31120747 -0.09070174 0.12985364 -0.090945244 0.16121285 0.31288713 0.15652587
0.0059814863 -0.09994512 -0.09760961 0.11856859 -0.12564686 -0.173241 0.30566382 0.033188086
-0.056535885 0.0055559473 0.0033032193 0.24962637 -0.17483407 0.1875767 -0.18947917 0.048185755
-0.19531499 0.024530977 -0.048235763 0.08104682 -0.04616591 0.17778951 0.27428523 0.13971427
-0.19012323 0.23275928 0.29762065 -0.016730847 0.20468713 -0.12292757 -0.15056561 0.14077464
0.05815101 0.03974953 0.008830289 -0.045463342 0.05617846 0.03466162 0.20800169 -0.13758238
-0.18121815 -0.06428973 -0.012606864 0.28618076 -0.19566286 0.06635491 0.21796739 -0.19232106
-0.09458233 -0.012903257 -0.14112169 -0.22566776 0.07459411 0.18647356 -0.12692773 0.05677016
0.28569043 0.049972765 -0.0922894 -0.17030615 0.2802676 0.16693266 0.15495646 -0.051312782
0.17036772 -0.024270143 -0.0024042365 0.032765944 -0.015739964 0.064277194 0.2596377 -0.10892831
0.20974824 -0.06595647 -0.17860194 -0.22518094 0.14295293 -0.19434392 -0.047735136 -0.17875771
0.2390354 0.032572083 -0.21814552 -0.1012793 -0.23581237 0.07655103 -0.011711961 0.27302623
0.103377886 -0.22864757 -0.061960537 0.279348 -0.14922461 0.035766453 -0.12776391 -0.04272114
-0.19229129 -0.009972929 -0.17354615 0.052326884 0.08397291 0.30066696 0.0523912 -0.110287905
-0.17050117 0.1944011 0.2745269 0.18037291 0.12071571 0.07229591 -0.08163181 0.1519471
-0.0022397165 -0.15616181 0.26330945 0.20584819 -0.12798952 0.016096983 -0.23476072 0.100981064
-0.15077662 -0.082186505 0.013578405 0.21198125 0.17618501 0.014831995 0.23829703 0.03118726

linear_layer1.bias f4 [9]
00000000: 3faf 36bf b832 babe 1d08 acbc 1951 3d3e
00000010: 6aeb 59bf 84a5 a93e 9bb5 3c3b 4d02 adbf
00000020: fb2a 84bf
-0.71361154 -0.3636682 -0.020999962 0.18487968 -0.8512484 0.3313409 0.0028794769 -1.3516327
-1.0325617

linear_layer2.weight f4 [2016, 5]
00000000: bf88 b23b 37a9 58bc babb 0f3e 9a1b cbbc
00000010: b2f8 9bbc 618c d7bc 71b2 0abd 60c2 b43d
00000020: 4e7f 883c fade c23c 9b3f 923c bfa7 32bd
00000030: 075c 503d 9cb0 563d b365 f3bb 665c 7dbb
00000040: acf2 1c3d 656d 83bc 5242 44bd 515f 44bc
00000050: 72e4 bb3c 85d5 9d3c 4a3b e23d 6d0a abbc
00000060: b20f 2b3d 89d2 0ebd 8421 8ebd 6817 09be
00000070: 2901 183d 7a20 12bd e6d8 28bc 5a78 343d
00000080: 95fe 1a3e 0169 04bc 03b2 16bd bb12 20bc
00000090: d681 35bd 3c60 6ebd 0681 693c c07c f03c
000000a0: bcb4 3e3c 34b0 1e3d ee6b b13c c9b4 47bd
000000b0: 36b7 2bbd 8191 4f3d 96f9 7d3c 4ff5 c13d
000000c0: 23ce 903c f349 c93c 8570 cbbd 8755 2bbd
000000d0: 885d 7abe d991 80bd 3cb7 463c 4e43 773d
000000e0: cacb a63c a747 4b3e 06be 8cbc 643f b9bc
000000f0: 052b 12bd dda1 bc3c dfc8 d6bd 217f 0e3c
00000100: e006 82bd bdad 9e3d f9f3 603d 8955 8f3d
00000110: 6e84 f53a 0055 5f3b 11d3 713d e53c ae3c
00000120: 9daf cb3d 0fc1 33bd e135 ffbb ce04 6b3d
00000130: 056d 3e3d e54e 283e fa0c 893b 0d85 9dbc
00000140: fbc7 c23b 1a5f 8c3c df9f 053e ee2d 1f3c
00000150: 3756 12bd fffc 263d de62 4c3d 35f7 d03d
00000160: e65e a9bc 74b3 c43c ab11 babc 69a8 2fbc
00000170: b0c4 c33c 5b05 8b3c 3dbd 41bd c499 1a3d
00000180: 1173 a2bc e4d8 39bc 72e9 433d 569d 783c
00000190: f674 ee3c bac0 5d3d e2e4 2e3e 24d2 6abc
000001a0: 9422 713d 6631 913c fe04 0d3d 008d 04be
000001b0: 7a6b 53bd 6ac1 303d bdcc 323d c147 323c
000001c0: c45a 343d e158 883c 2586 3d3d 661b 793c
000001d0: 8083 293c 5543 fbbc db15 053d 8327 2ebd
000001e0: 739e a9bc 9fea d73c 3aa2 183d 46ea 1cbc
000001f0: 0690 26bc 5ba7 96bd c8a1 6cbd 60d2 0abe
00000200: 12a7 2bbd b48e acbc aa6d 93bd 5d86 a2bd
00000210: f7a8 7abe 1bb7 1a3c 56f6 6dbd 987b b53c
00000220: 2ef3 1b3d af63 51bd d3c6 18bd e926 0a3d
00000230: b720 d4bc 585b 0f3d 50a0 a5bb f050 183d
00000240: 3ced 913c e1cc c43c 8449 febc 99c7 893d
00000250: 5fc9 0f3d bc52 c53c 0ad0 633d ece5 30bb
00000260: 6364 993d e282 1c3d 5319 b6bc d2ba 4d3c
00000270: e612 58bc b58b 133e ae8f 063d 1b9f 933c
00000280: 8248 f0bc 298d 233d 6950 83bd f60d 48bd
00000290: da86 5fbd 6702 863d bbb4 1a3d 9361 333e
000002a0: 08a6 ea3c 0e90 e1bc a428 fe3b cf0f 04bd
000002b0: a8a5 9f3d 4e4b 1abd 9325 3e3d 2ca0 003d
000002c0: 3abe 823d 4f58 503e b2c6 303d 76f2 983c
000002d0: 21de 8ebb 6cc9 3abd 62cd 6ebd 5ad7 523d
000002e0: 7dfd 3e3d b328 9a3d e0d2 063d 78a6 8e3e
000002f0: ccc3 363d 387b 8b3c 3898 30bb c69b 3c3d
00000300: 75d7 293d 2968 a8bc 0916 103d fabd ecbb
00000310: 23cf 2e3d e934 893d 115e 4f3d a4d3 273b
00000320: ca4f b63d 2d06 723c 2533 d03e cfd4 9e3c
00000330: 06a7 b23d 3c9f 463d c1fb 33bc 5383 323e
00000340: 4077 793d 51a4 5c3d f679 1a3e 44b2 febb
00000350: ffdb 953e b2bd 3bbc 5e72 a73d c7b0 523d
00000360: e39b 853d ffec 543e 490b f03b 6c26 713b
00000370: 3b16 52bd 2eba 11bc 5718 b5bd ade9 d53c
00000380: b328 8d3c cd53 003d d9c3 b73c 98ee f13d
00000390: 6ac6 7b3d b247 7b3d 3ad1 b13d 66e2 303d
000003a0: 7aa7 753e a18d 74bc a54f 3b3d 9a3b 64bc
000003b0: 1a46 5bbc 81dd ce3d 4c1f 8b3c 4eeb cebc
000003c0: b64f a93d 13a9 7e3d 3915 ca3d 11d4 a03b
000003d0: b14e e5bc ab94 a33d 1989 88bc 9b1d 593e
000003e0: e0ee c2bb 1d00 4ebc 519d 923c d17f fbba
000003f0: a06a 353e 9cbd d1bc e529 143d 77c5 183c
0.0054484303 -0.013223938 0.14036456 -0.024793435 -0.019039486 -0.026312055 -0.03386158 0.088261366
0.016662266 0.023787964 0.017852595 -0.043617006 0.050869014 0.05241452 -0.007427895 -0.003865981
0.038317367 -0.016043374 -0.04791481 -0.011985616 0.02293608 0.019266853 0.11046465 -0.020878995
0.041763015 -0.03486875 -0.06939986 -0.13387835 0.03711048 -0.035675503 -0.010305619 0.04406009
0.15136178 -0.0080816755 -0.03679086 -0.009770091 -0.044313274 -0.058197245 0.014251953 0.02935636
0.01163977 0.03874226 0.02165791 -0.048756395 -0.04192277 0.050675873 0.0155014 0.09470617
0.017676419 0.024571395 -0.09933571 -0.041829612 -0.24449742 -0.06277818 0.012128647 0.06036692
0.020360846 0.19851552 -0.017180454 -0.022613235 -0.035685558 0.023026401 -0.10487532 0.008697302
-0.063489676 0.07747982 0.05492017 0.069987364 0.0018731484 0.0034077764 0.05903918 0.021269271
0.09945605 -0.043885287 -0.0077884053 0.05737763 0.046490688 0.16436346 0.004182455 -0.019228483
0.0059442497 0.017135192 0.13049267 0.00971554 -0.035726752 0.04076862 0.049898975 0.10203401
-0.020675134 0.024011351 -0.022713503 -0.010721304 0.023897499 0.016970327 -0.047299612 0.0377443
-0.019830259 -0.011343215 0.047830053 0.015174231 0.029108506 0.054138876 0.170795 -0.014332328
0.058870867 0.01772375 0.03442859 -0.12944412 -0.05161617 0.043153204 0.043652285 0.010881365
0.044031873 0.016643943 0.04627051 0.015204286 0.010346293 -0.030671755 0.032491546 -0.04251815
-0.020705437 0.026356993 0.037264086 -0.0095773395 -0.010166174 -0.07356139 -0.057771474 -0.13556814
-0.041907378 -0.02106414 -0.07198651 -0.07935784 -0.24478517 0.00944307 -0.058096252 0.02215366
0.03807371 -0.051120456 -0.03729899 0.033728514 -0.025894506 0.03499922 -0.005054511 0.037186563
0.017813317 0.024023475 -0.031040914 0.06727523 0.03510415 0.024087302 0.055618323 -0.0026992513
0.0748985 0.038210757 -0.022228872 0.012556748 -0.0131880995 0.14408763 0.032851867 0.018020203
-0.02933145 0.039929543 -0.064118214 -0.04884144 -0.054571964 0.06543427 0.037770014 0.1751769
0.028643623 -0.027534511 0.0077563096 -0.03224164 0.07795268 -0.037669472 0.046422552 0.03140275
0.06383939 0.20346187 0.04315824 0.018670302 -0.004359976 -0.045602247 -0.058301337 0.051474907
0.046628464 0.07527294 0.03291595 0.2786138 0.04462032 0.017026529 -0.0026946198 0.046046995
0.04146524 -0.02055748 0.035177264 -0.0072247954 0.04267801 0.06699545 0.050626818 0.0025608325
0.08901937 0.01477198 0.4066402 0.019388584 0.087232634 0.0484917 -0.010985316 0.17432909
0.06090474 0.05386764 0.15085587 -0.0077727158 0.29269406 -0.011458801 0.08176111 0.05143812
0.06523874 0.20793532 0.007325564 0.0036796583 -0.051290732 -0.008894486 -0.08842533 0.026112402
0.017231321 0.03132992 0.022432255 0.11813086 0.06146852 0.06134767 0.08682485 0.04318466
0.23989668 -0.014926345 0.04573025 -0.013930226 -0.013383413 0.10100842 0.016982697 -0.025258686
0.08267157 0.06217296 0.09867329 0.004908093 -0.027991625 0.079873405 -0.016666936 0.212027
-0.0059488863 -0.012573269 0.01789728 -0.0019187873 0.17716455 -0.025603108 0.036172766 0.009324423

linear_layer2.bias f4 [2016]
00000000: bacb 34bf 99b8 95be 070a 87be 397a 803e
00000010: 1494 41bf 21d4 9c3f 9578 59bf fac8 233f
00000020: f026 a3bd 5b2d 23bf edd8 0c40 5d56 a7bf
00000030: c1af 663f 20da 30bf aece 0fbf cb0d 97bf
00000040: ceba 26bf 93fd 4ebf 4670 8f3d 2a68 423e
00000050: ba73 95bf 86d6 833f 59f8 7abe f33b db3e
00000060: 7672 063d 83f9 ae3f 2e9a 0940 56c1 ca3e
00000070: 75a4 1e3e 0bb5 c7be d0a7 e6be ad53 b4bd
00000080: cf93 ab3f c7b2 1dbf 3b5f e63e 22b0 46bf
00000090: 0ab3 a93f 8f9d b0bf 27e4 2f3f 3edd 143f
000000a0: f48b 0ac0 b0e5 0bbf 9b61 a7bf ef96 4bbf
000000b0: fef0 ea3f 45f1 05be ec52 63bf 7518 163e
000000c0: 7ae8 a33d 5736 61bf 987a f7be 5438 91be
000000d0: 18c6 933e b789 a73e 7eba dcbd 4ff0 543f
000000e0: d049 a53e 0aa6 e83f af01 863f 4f15 15bf
000000f0: ff00 cc3e c4fb 303e d656 cf3e 77d1 b3be
00000100: 8801 42be fc2a 07bf 33c8 aabf d1f6 66bf
00000110: c109 afbe 6843 6f3f 79d6 95be 4d50 d43e
00000120: bed0 633f 7371 c8bf 87d0 6d3e 67ea 6f3e
00000130: f79c 14be ff70 07bf 6d94 8ebe aff8 d6bf
00000140: 4bb6 cabf 934a 03bf 20c4 bd3f a2d5 1d3f
00000150: 4384 3dbe 5bd1 453e 0655 8fbe 1194 99bf
00000160: 07fe 01bf b702 71be b86f bf3f f6c4 3b3f
00000170: f046 3e3f 5994 11bf a9ec e53f b031 18bf
00000180: b1d2 54bf 0a8b 6cbe f362 5b3e e119 193f
00000190: 0e74 a8bf 2f5c 893f 9d58 d03f 38d9 9a3d
000001a0: 6293 9f3d a3f9 58bf be6b 063e 9a3c 14be
000001b0: c4d2 fabf cc6c 6b3f 716c 70bd 8c60 15bf
000001c0: dbe2 12bf ce60 eabe a94d f43e 1533 3a3d
000001d0: be25 62be baa4 3c3e 5245 b83e 15bb 883f
000001e0: 4faf c5bf 30cf f53e de98 36be e708 123f
000001f0: 2e00 e7bf cdb8 54bf 36ca 203d fbe3 403e
00000200: bf94 813e 0cf2 b2bf fac5 963c d83e 02c0
00000210: c25d ecbe 9c02 ba3e 13ae e9be 3c2e 043f
00000220: 75ac 8d3e fff2 ba3f cf4c 1b3f b60a 1c3e
00000230: 788f b8bf 07e5 cfbe a9ec 06be 6ac3 123f
00000240: d0c7 99bf 8b13 d03e 0454 343f 32c8 3a3f
00000250: fe11 c33e 62be 23bf 1a3f 98be 0760 6dbf
00000260: 5703 3f3d eabc 3ec0 995c d83e d046 a2be
00000270: a0a3 943f e2c2 b5be 197b 883e 4362 3cbe
00000280: 7a53 b9bd 7361 86bf 89f1 c53e 0b6c 593f
00000290: 5c17 fbbb 226b 803f 61c7 9fbf 741e 1e3f
000002a0: 91ac 50be c314 143f f003 e83f 3f0c f03e
000002b0: bef3 75bf d177 aebc 89bc c1be febb 57bf
000002c0: 8c83 dc3e 6448 23be e009 5cbe afaf bcbf
000002d0: 2c0f 803e 47d3 543e 8c68 483e 378f 61bf
000002e0: 4865 8cbd 8ae3 9cbe c134 523f a106 b43f
000002f0: 2850 1440 ee9f 063e d9fc 1abf 9626 e1bf
00000300: 3f81 863f 3914 36bf 0aac 88bd e9f4 1cbf
00000310: ca96 133f 10d8 ffbe e0a4 d3be a038 e23e
00000320: dacb 8fbe 48f4 173d 838f 4fbf 3ced a8be
00000330: f73e 773f 8b38 56bf 6393 e8be 7e3f d2be
00000340: 027f f5be e8ab a93f 354a 2cbf f2ba 36bf
00000350: 8eb9 3e3f f659 1cbf 74e7 7ebe 5d40 3440
00000360: 0dfa 2f3f 723a c2be 0de6 12c0 f54d f43f
00000370: ed22 65be 5122 893f 44c3 6b3f bc22 803f
00000380: e5b0 9e3f b330 0d3d aac7 273f fce8 89be
00000390: 8c8a 513f ea6d a0bf e1db 943e 1037 99bf
000003a0: 9f30 fcbe 8205 cfbe 9b72 393f 5357 853e
000003b0: ae73 6b3f 0b1e c23d 44c1 053e 757a 1c3e
000003c0: c36c 153f 8495 3d3f 3ddf f43e 4150 91bf
000003d0: 58d1 bd3f 6719 ab3d 03c6 08c0 185b a4bf
000003e0: 256e 9c3e ed7e 0440 19d3 94be 651a c0bf
000003f0: ae38 6c3f 9495 653f f070 c5be c2f3 b9bd
-0.7062336 -0.292424 -0.26374838 0.25093248 -0.75616574 1.2252237 -0.8494962 0.6397854
-0.07966411 -0.6374108 2.20074 -1.3073231 0.9011193 -0.6908283 -0.56174743 -1.1801084
-0.6512879 -0.80855674 0.07003836 0.18985048 -1.1675942 1.0299842 -0.245088 0.42819175
0.032824002 1.3669895 2.1500354 0.3960063 0.15492423 -0.39005312 -0.45049906 -0.088050224
1.3404483 -0.6160092 0.4499453 -0.7761251 1.3257763 -1.3798083 0.6870751 0.5815009
-2.164792 -0.5464735 -1.3076662 -0.7952718 1.8354795 -0.13080318 -0.88798404 0.14657767
0.08003326 -0.8797354 -0.4833572 -0.28363287 0.2886207 0.32722256 -0.10777758 0.8317918
0.32282877 1.8175671 1.0469264 -0.5823564 0.3984451 0.17283541 0.40495938 -0.35120746
-0.18945897 -0.52799964 -1.3342346 -0.9022036 -0.3418713 0.9346223 -0.29265192 0.41467515
0.8899039 -1.5659622 0.23224078 0.23429261 -0.14513002 -0.52906793 -0.27847615 -1.6794642
-1.5836881 -0.51285666 1.4825478 0.616541 -0.18507485 0.19318144 -0.27994555 -1.1998311
-0.5077824 -0.23536192 1.4955969 0.73347414 0.7432699 -0.56866986 1.7962848 -0.5945082
-0.8313399 -0.23099914 0.21424465 0.59805113 -1.3160417 1.0731257 1.6277043 0.075609624
0.07791783 -0.84755915 0.13127038 -0.14476243 -1.959557 0.91962886 -0.058697168 -0.58350444
-0.57377404 -0.4577698 0.477155 0.045458872 -0.2208471 0.18422213 0.35990387 1.0682093
-1.5444125 0.48009634 -0.17831752 0.57044834 -1.804693 -0.83094484 0.039255343 0.18836968
0.25308797 -1.3980117 0.01840495 -2.0350857 -0.46165282 0.36330116 -0.4564062 0.5163305
0.27670637 1.4605407 0.60664076 0.15238461 -1.4418783 -0.40604421 -0.13176216 0.5732943
-1.2014103 0.4063991 0.704407 0.72961724 0.38099664 -0.63962376 -0.29735643 -0.9272465
0.046634044 -2.9802804 0.42258146 -0.3169465 1.1612434 -0.35500246 0.26656416 -0.18396859
-0.09049125 -1.0498489 0.3866084 0.84930485 -0.0076626968 1.0032694 -1.2482721 0.6176522
-0.20378329 0.5784418 1.8126202 0.46884343 -0.96075046 -0.021297367 -0.37839153 -0.8427123
0.43069112 -0.15945584 -0.21488142 -1.4741114 0.25011575 0.20783721 0.19571131 -0.88109154
-0.06855255 -0.3064235 0.82111746 1.4064523 2.3173923 0.13146946 -0.60542065 -1.75899
1.0508193 -0.7112461 -0.06673439 -0.61311203 0.5765196 -0.4996953 -0.41336727 0.44183826
-0.28085214 0.0370982 -0.81078357 -0.32993495 0.9658045 -0.8368003 -0.45424947 -0.41064066
-0.47948462 1.3255587 -0.6730073 -0.71379006 0.74501884 -0.6107477 -0.2489298 2.8164284
0.6874092 -0.37935215 -2.2952912 1.9086291 -0.22376604 1.0713598 0.92094827 1.00106
1.2397734 0.03447027 0.6553904 -0.26935565 0.8185203 -1.2533543 0.29074004 -1.1969929
-0.49255845 -0.4043389 0.724405 0.26043186 0.9197339 0.094783865 0.13062006 0.15281089
0.5836908 0.7405627 0.47826567 -1.1352617 1.4829512 0.083544545 -2.1370857 -1.28403
0.30552784 2.070247 -0.29067305 -1.5008055 0.92273986 0.89681363 -0.38562727 -0.09079696
