model/Artificial_Data_600_epoch_100_attention_net_u_artificial_Q_9_K_6_F_5_REG_L1_ACT_sigmoid_WD_00005_CV.model (torch_old, 52157 bytes, 6 tensors)

key_matrix f4 [9, 6]
000000 76 e7 aa 35 f6 62 ea 3e 93 5b 02 bf e4 df e1 be
       1.2733351e-06 0.45778626 -0.5092098 -0.44116127
000010 9e be 1f 3e cb 80 08 3e 81 73 19 bf ae 4f fa 36
       0.15600058 0.1333038 -0.5994187 7.4598565e-06
000020 a9 fe 2d 3f 56 cf c1 3e 3a bc 95 3e a2 4c 8d bf
       0.67966706 0.37853497 0.29245168 -1.1039011
000030 9a 0f a5 b4 37 a3 ce be ba e5 41 3e 83 83 a1 b5
       -3.0744997e-07 -0.40358898 0.1893529 -1.203371e-06
000040 cb e7 26 38 97 83 b2 b6 c1 3d da 36 a4 c5 16 be
       3.9793358e-05 -5.3201325e-06 6.5040954e-06 -0.14723831
000050 00 b1 96 3f 72 a9 b8 b6 22 c3 9b b6 60 e6 86 b6
       1.1772766 -5.5033533e-06 -4.6420764e-06 -4.0203304e-06
000060 c8 8c 05 3f ac 6a a5 b5 d4 34 a8 3f 5e 47 74 bf
       0.5216794 -1.2324504e-06 1.3141122 -0.954214
000070 e1 25 22 40 43 9a 01 b7 c8 ba 50 b5 f9 a0 cc bf
       2.533562 -7.724916e-06 -7.775784e-07 -1.5986625
000080 59 76 d4 be 9a cc 37 36 05 02 52 3f 88 61 9d bf
       -0.41496542 2.7388219e-06 0.8203433 -1.2295389
000090 5d 24 c6 be c1 b5 2c 3f 0d 94 89 bd c2 ac 22 36
       -0.38699618 0.67464834 -0.067176916 2.424044e-06
0000a0 eb 67 ef 3f fe 3b a6 3f 1b 3e 20 be 2b 11 0b 36
       1.8703588 1.2987058 -0.15648691 2.0722607e-06
0000b0 6e ed 67 b6 8b 59 b5 34 59 d8 da 3f fb 3b a2 b6
       -3.4559885e-06 3.3779028e-07 1.7097274 -4.834959e-06
0000c0 c2 5d 5e be 96 89 46 be a4 76 ce bf f1 8c 97 be
       -0.21715453 -0.19388422 -1.6129956 -0.29599717
0000d0 1a 42 09 40 d9 9e 01 bf
       2.1446595 -0.5063301

value_matrix f4 [6, 5]
000000 3b 81 91 bf 8b b2 d9 b6 05 b9 40 b6 16 da f8 3e
       -1.1367563 -6.487889e-06 -2.8717925e-06 0.48603886
000010 8c 07 36 3f 1e 20 6a 3f 18 f8 33 3e 39 d4 3b bf
       0.71105266 0.91455257 0.17575109 -0.733707
000020 26 2b 26 3d aa b5 52 35 f0 27 7c 36 e7 db 30 3f
       0.040568493 7.849545e-07 3.7574173e-06 0.69085544
000030 0d 82 de 36 83 12 a0 bf 2a 89 3d 36 17 6d 99 36
       6.6312555e-06 -1.2505649 2.8243035e-06 4.572455e-06
000040 fc b4 39 be d5 7b 6a b6 c3 b9 92 36 97 30 14 3f
       -0.18135446 -3.4940797e-06 4.3727646e-06 0.5788664
000050 dc 9b 19 40 9e 3b 73 ba 0b 88 ef c0 85 c0 21 41
       2.400138 -0.0009278598 -7.485357 10.109502
000060 8c 7e 08 bd 0d cd 82 bf a2 5b ec b6 71 0a 86 be
       -0.03332381 -1.0218827 -7.0440155e-06 -0.2617984
000070 5b 21 1c 35 17 36 a6 bf
       5.816307e-07 -1.2985257

linear_layer1.weight f4 [9, 64]
000000 84 d2 80 b6 21 cc a6 34 69 fb 76 36 6d 2b 28 b7
       -3.8392045e-06 3.1068433e-07 3.6803197e-06 -1.0023691e-05
000010 01 7d 7b b5 27 0c e8 b6 59 67 38 b4 b7 cd 30 b6
       -9.368669e-07 -6.9155535e-06 -1.7173933e-07 -2.6345785e-06
000020 9f 5d f2 36 19 7c e2 35 05 46 77 36 6e 84 d9 36
       7.223061e-06 1.6874429e-06 3.6846625e-06 6.482521e-06
000030 e3 82 2f 37 26 17 35 b6 a1 ad 09 b6 d5 92 aa 35
       1.0461287e-05 -2.6984576e-06 -2.0515656e-06 1.2708721e-06
000040 8d e7 48 b6 69 37 b2 36 23 f7 7e b4 43 e2 1e 35
       -2.9937103e-06 5.311264e-06 -2.3745501e-07 5.918884e-07
000050 5e 8b a3 b5 bd 51 1f 35 f8 4f 78 35 5b eb 03 36
       -1.2185008e-06 5.935106e-07 9.250357e-07 1.9657516e-06
000060 38 f9 79 36 b7 9c 09 37 e1 20 52 36 2e 48 48 36
       3.7248956e-06 8.202324e-06 3.1311577e-06 2.9844336e-06
000070 cc 72 ba b6 5c fd ab b6 e7 33 5a b6 36 90 04 36
       -5.556596e-06 -5.125692e-06 -3.2514743e-06 1.9753475e-06
000080 9f 16 08 b6 d2 01 22 b6 48 9d e5 b5 94 f7 2c 36
       -2.0278746e-06 -2.414094e-06 -1.7107604e-06 2.5774107e-06
000090 96 11 9d b5 4c 8e 63 34 ff 9f a7 b6 cc 89 95 b5
       -1.170253e-06 2.119279e-07 -4.995614e-06 -1.1141469e-06
0000a0 ea 9b b8 35 11 38 a7 b4 1a a8 06 b6 66 e7 4b b6
       1.3754445e-06 -3.1146968e-07 -2.0065404e-06 -3.0384049e-06
0000b0 c8 43 18 36 d2 9e 1c 36 3a 18 da 35 24 9d 03 36
       2.268922e-06 2.3338257e-06 1.6249317e-06 1.961199e-06
0000c0 78 17 c4 b5 14 aa ed 36 cc 27 1c b6 17 ca 97 36
       -1.4609968e-06 7.08295e-06 -2.3268976e-06 4.523677e-06
0000d0 9c 5a ab b5 92 59 1a 36 1c 34 af 35 6d 75 bf b3
       -1.2766864e-06 2.2999925e-06 1.3053682e-06 -8.91549e-08
0000e0 91 12 5c b5 e9 63 26 b6 fd d0 16 36 0b a7 d6 b5
       -8.1983404e-07 -2.4794083e-06 2.247339e-06 -1.5992858e-06
0000f0 ec 35 2a b6 6e 76 e6 35 9b d3 9c b6 ef 2c 25 b6
       -2.536336e-06 1.7170803e-06 -4.6737964e-06 -2.461307e-06
000100 e0 00 9f b6 db 5b 37 35 9d 5d 29 b5 e4 b9 86 33
       -4.738671e-06 6.830648e-07 -6.309363e-07 6.2736746e-08
000110 11 26 15 b6 5b f7 24 35 99 7e 3c 37 f8 84 01 b5
       -2.2224888e-06 6.145471e-07 1.1235149e-05 -4.824974e-07
000120 95 10 de 36 82 f0 fc 36 e0 b8 9d 36 19 5c 87 36
       6.618046e-06 7.538184e-06 4.700487e-06 4.034035e-06
000130 17 25 72 36 3b df 80 36 22 9b b9 b6 06 3e 76 b6
       3.60824e-06 3.8406847e-06 -5.5314895e-06 -3.669296e-06
000140 21 1c 30 b6 92 ba 61 36 84 e3 13 35 02 81 f3 35
       -2.6242417e-06 3.363621e-06 5.5092846e-07 1.8142457e-06
000150 35 2b 0b 36 d4 da 2d 36 c4 f0 76 b5 af 48 33 b7
       2.0737764e-06 2.5906384e-06 -9.19925e-07 -1.0686154e-05
000160 5b 66 bb b5 12 79 b7 33 c2 ba a5 b5 89 a1 c6 36
       -1.3962375e-06 8.543624e-08 -1.2347812e-06 5.919665e-06
000170 99 6f 91 36 f8 4a 9c 36 53 ed 9d 36 bd 91 59 b6
       4.3343284e-06 4.65789e-06 4.706593e-06 -3.242035e-06
000180 8b e1 64 b6 20 13 e2 36 b2 6a 72 b6 34 e8 3a 34
       -3.410593e-06 6.7375513e-06 -3.6122915e-06 1.7407075e-07
000190 67 1a 54 35 e7 af 46 33 e7 b8 bc 35 1b 9d ba 33
       7.9014575e-07 4.626045e-08 1.4060905e-06 8.689877e-08
0001a0 39 fe 58 b6 7c c7 d7 b5 d8 ab d1 36 8d fa 83 b6
       -3.2334485e-06 -1.6076806e-06 6.2486906e-06 -3.933272e-06
0001b0 eb 05 c0 b5 59 18 f7 35 38 32 02 37 28 22 14 36
       -1.4306837e-06 1.841002e-06 7.760296e-06 2.20736e-06
0001c0 24 25 e1 35 44 0f 60 b5 d3 4f c7 36 15 b2 cf 34
       1.6774616e-06 -8.3468717e-07 5.939955e-06 3.8686326e-07
0001d0 9d 5e 74 b5 bf fc a5 b6 87 b7 96 36 1e 73 e7 35
       -9.1034764e-07 -4.9468067e-06 4.4917138e-06 1.7244345e-06
0001e0 05 6e 3b b6 de cc 8c b4 5d f2 84 b6 a0 11 89 b6
       -2.7929211e-06 -2.6226093e-07 -3.9621214e-06 -4.08497e-06
0001f0 fe 2a 9a 35 e4 db aa 36 e8 3b ae 35 75 88 18 b6
       1.1486406e-06 5.0919934e-06 1.2981445e-06 -2.2729193e-06
000200 68 0c c0 35 5a b4 2c b7 40 42 9e 35 95 a8 21 36
       1.4308725e-06 -1.029399e-05 1.1791199e-06 2.4088997e-06
000210 f5 ee 5a b5 33 0f 94 b6 26 04 27 34 96 cb c4 35
       -8.1559057e-07 -4.412513e-06 1.5554596e-07 1.4662389e-06
000220 f5 c0 f2 35 7b 87 8e b6 fe b0 ff b5 62 f2 1f b6
       1.8086563e-06 -4.247702e-06 -1.9050492e-06 -2.3833932e-06
000230 59 5e d2 36 b8 26 e9 b6 ab 3f b3 b6 55 0e 8e b6
       6.269471e-06 -6.9484486e-06 -5.3420276e-06 -4.2335982e-06
000240 cf 8d 67 36 28 df 91 36 4b 94 42 b6 5d 7d 24 b4
       3.4504226e-06 4.3473156e-06 -2.899457e-06 -1.5319297e-07
000250 b4 8f d5 b5 b3 9b 32 36 3c 41 95 35 d7 8c 47 36
       -1.591156e-06 2.6614696e-06 1.1120351e-06 2.973529e-06
000260 e0 d4 b3 b6 9c 15 d9 b4 87 2f 38 36 7b 7a 1e b7
       -5.3593976e-06 -4.0435123e-07 2.7445801e-06 -9.446051e-06
000270 6e 23 4b b5 ba f1 73 b6 f2 e0 e5 b5 8f 76 d4 34
       -7.567495e-07 -3.6350525e-06 -1.7127297e-06 3.957434e-07
000280 5f de be b5 22 e8 82 36 64 ad 8f b5 89 b5 ed 35
       -1.4220822e-06 3.9013257e-06 -1.0704794e-06 1.771071e-06
000290 4a 8b e8 34 97 19 a7 b5 0b 27 cc b6 0f 75 26 36
       4.3314714e-07 -1.2449917e-06 -6.084219e-06 2.4804065e-06
0002a0 9a bd 4f 36 9c b4 12 36 9b b5 9d 35 07 f8 7a b5
       3.0955766e-06 2.1860824e-06 1.1750266e-06 -9.3493185e-07
0002b0 56 1b 2a b6 a8 bb 41 b5 e6 32 48 36 b7 0d 89 b6
       -2.5347886e-06 -7.217118e-07 2.983195e-06 -4.084515e-06
0002c0 57 22 75 b6 28 b9 1c 35 9d 57 f5 b5 58 88 16 36
       -3.6527833e-06 5.8383966e-07 -1.8279421e-06 2.2431104e-06
0002d0 4c 4d 91 34 3c 9c d9 b4 9f bb 09 36 c5 5e a2 b5
       2.7064596e-07 -4.0533075e-07 2.05238e-06 -1.2097522e-06
0002e0 ea 1f d7 34 ce 63 32 36 c1 ed 07 b6 5b 0d 88 b5
       4.007009e-07 2.658216e-06 -2.0254959e-06 -1.0136677e-06
0002f0 06 93 90 b6 94 10 be 34 d0 8a 8a 36 c1 a1 8c b5
       -4.30865e-06 3.540232e-07 4.1288804e-06 -1.0477889e-06
000300 1d e9 05 b7 cd ae 16 b6 79 18 05 37 99 bc 29 b6
       -7.981694e-06 -2.245349e-06 7.933116e-06 -2.529274e-06
000310 b5 7e a8 35 1b 10 82 36 93 49 10 36 49 00 1a 37
       1.2553852e-06 3.876177e-06 2.1500498e-06 9.179182e-06
000320 c6 44 2c b6 2c 1e 55 b5 4a 5e cb 36 be 80 72 36
       -2.5670029e-06 -7.939259e-07 6.060848e-06 3.6135748e-06
000330 a0 62 32 b6 13 e7 89 36 34 e9 ad 36 3d bc 68 b6
       -2.6581474e-06 4.1098187e-06 5.18295e-06 -3.4680263e-06
000340 5e 9f 92 35 f8 e1 8e 36 9f 9f 2b 35 19 36 13 35
       1.092423e-06 4.258236e-06 6.3934743e-07 5.484049e-07
000350 e3 7e c6 35 97 8e e2 36 b2 aa b1 b6 11 61 4f 36
       1.4789078e-06 6.7519245e-06 -5.2948826e-06 3.0901904e-06
000360 8c 6d aa b5 72 1e 39 34 12 f5 16 36 1c 91 fb 36
       -1.2697869e-06 1.7240544e-07 2.2494391e-06 7.497276e-06
000370 e7 6e 83 36 7b 80 9e 35 fd 36 30 36 f6 a3 a2 36
       3.917015e-06 1.180931e-06 2.625805e-06 4.847064e-06
000380 f7 da 90 b5 0b 10 f1 b5 b1 c6 3c 36 c6 5e 17 34
       -1.0792563e-06 -1.7960568e-06 2.8129837e-06 1.4097449e-07
000390 10 4e 86 36 d8 b3 46 36 e4 75 b9 b6 23 c6 a9 36
       4.002599e-06 2.9608982e-06 -5.527154e-06 5.0596586e-06
0003a0 72 d2 e4 b6 0d 15 33 37 5c 00 9f b6 db 4e 8c 36
       -6.8194286e-06 1.0674133e-05 -4.738611e-06 4.181505e-06
0003b0 77 ab 94 36 1f bc 3b b4 c9 f3 10 b6 51 62 1d 36
       4.430705e-06 -1.748417e-07 -2.1599574e-06 2.345205e-06
0003c0 a3 97 41 35 85 e5 f4 35 03 e0 1d 36 99 40 5e 34
       7.2118763e-07 1.8246216e-06 2.3525215e-06 2.0698862e-07
0003d0 75 33 76 b6 b1 98 ad 35 87 de b0 35 d8 ee 52 36
       -3.6686808e-06 1.2933943e-06 1.3177786e-06 3.1431464e-06
0003e0 3c 69 8c b6 14 9e 46 b6 e9 66 e7 b5 50 e8 e6 b5
       -4.184576e-06 -2.9596313e-06 -1.7240792e-06 -1.7203947e-06
0003f0 12 dd 81 b5 1c 60 b3 b6 d5 7a 90 36 a7 6a b5 35
       -9.675589e-07 -5.3458043e-06 4.305834e-06 1.3516591e-06

linear_layer1.bias f4 [9]
000000 0f cd 01 37 bc dd 0a 36 45 c8 b0 36 d6 fa ab bf
       7.736743e-06 2.0692669e-06 5.268523e-06 -1.3435924
000010 c2 ae 78 3d 1d fd db 3e 17 22 3d 3f 2a 18 d9 3e
       0.060713537 0.42966548 0.7388014 0.42401248
000020 d0 1c 7d 3e
       0.24718022

linear_layer2.weight f4 [2016, 5]
000000 14 ff 79 b8 9d ed 35 36 e4 86 22 3d f5 23 fa bd
       -5.9603786e-05 2.710941e-06 0.039679423 -0.122138895
000010 ec 5e 4c 36 20 20 0f 38 63 58 ac b6 5a 94 85 36
       3.045362e-06 3.4123776e-05 -5.136289e-06 3.9809793e-06
000020 67 17 a8 bb a0 77 90 36 7f 99 a1 37 1f 12 ff b5
       -0.005129743 4.3054606e-06 1.9264173e-05 -1.9004254e-06
000030 a8 df 46 3d 30 cd 0c be 48 0c 5a b6 4a 75 e8 36
       0.04855314 -0.13750148 -3.249168e-06 6.927793e-06
000040 5b 78 d1 35 f4 c3 3b 39 f9 a8 9e bd bc 04 be b5
       1.5606741e-06 0.00017906708 -0.07747073 -1.4157481e-06
000050 6e a5 3f 37 f2 5f 96 b5 40 c1 b9 3d 79 97 28 be
       1.1423004e-05 -1.1203795e-06 0.09070063 -0.16464032
000060 f2 91 c2 36 46 c4 7e 37 96 5b 91 b2 66 1b e6 3c
       5.798641e-06 1.5185278e-05 -1.692187e-08 0.028089236
000070 75 d2 c1 bd df 1f c8 b5 8f 8e c9 b8 a2 e2 9e 34
       -0.094639696 -1.4910437e-06 -9.6109805e-05 2.959469e-07
000080 80 bc 84 3d 41 97 09 be 70 66 b9 b6 86 81 ab b8
       0.06481266 -0.13436605 -5.525355e-06 -8.178041e-05
000090 58 b5 bc 34 87 a4 78 3d 9a f4 ee bd 9f 6b df 36
       3.5149674e-07 0.06070378 -0.11667748 6.6584466e-06
0000a0 e4 47 28 39 6d be 79 b5 5f 53 72 3a 5f 00 aa bd
       0.0001604851 -9.3036834e-07 0.00092439906 -0.08300852
0000b0 68 0b 16 37 ea 48 d8 b7 be 6c 93 35 51 51 b0 39
       8.943352e-06 -2.578316e-05 1.0984002e-06 0.0003362992
0000c0 41 e4 ff b9 a6 9b a4 35 d0 72 c6 b7 c1 b0 22 36
       -0.00048807453 1.2264252e-06 -2.3656903e-05 2.4242765e-06
0000d0 ce 38 3f 3d 31 d9 09 be 67 03 9b b6 f9 88 06 b8
       0.046685033 -0.13461758 -4.619756e-06 -3.2075655e-05
0000e0 4e be 8c 36 32 73 90 3d 80 ea f7 bd 22 1c ab b6
       4.1944795e-06 0.07053222 -0.12105274 -5.099472e-06
0000f0 f2 19 48 38 be 79 68 36 a7 d7 1c 3e 4e 24 a1 be
       4.770788e-05 3.4641557e-06 0.1531664 -0.3147301
000100 bd 9e ef 35 e7 3c a3 b5 fe 75 92 36 4e f1 27 3e
       1.7853087e-06 -1.2162171e-06 4.364875e-06 0.16400644
000110 32 c3 76 be ef ff b8 36 0b 95 47 b8 5c 62 30 b6
       -0.24097899 5.513422e-06 -4.7584104e-05 -2.6283296e-06
000120 0c 3f d1 3d f5 97 15 be 12 5e 82 35 6a 82 a4 b4
       0.10217103 -0.14608748 9.713133e-07 -3.064227e-07
000130 73 b0 bf 34 0e 7b 48 3d 3e 7d 18 be af 7d 74 b6
       3.5704906e-07 0.04894548 -0.14891526 -3.643199e-06
000140 26 4f b2 b6 64 f5 ea b4 ed 73 2e 38 ad 80 c1 b8
       -5.3140275e-06 -4.3764442e-07 4.1592797e-05 -9.226925e-05
000150 f2 1c 1e b6 b6 b2 28 b7 0b e4 3e 37 69 db e3 3d
       -2.3560683e-06 -1.005519e-05 1.1377978e-05 0.111258335
000160 e6 85 54 be cf 42 8c b5 c1 ff 95 b7 8e ae 81 36
       -0.20754203 -1.0450257e-06 -1.7881279e-05 3.8648204e-06
000170 fa a3 b2 3d b5 29 55 be e3 d0 3f 37 d3 72 49 b8
       0.08722682 -0.20816691 1.1433122e-05 -4.8029073e-05
000180 80 bb f3 b5 a7 b2 84 3d df 9f 22 be 69 50 60 35
       -1.815948e-06 0.06479388 -0.15881298 8.3563515e-07
000190 73 9a 0a b7 12 86 eb b5 00 10 d5 3d 1c 53 50 be
       -8.2614015e-06 -1.7547884e-06 0.104034424 -0.20344204
0001a0 3d 4a b3 b4 37 fe 11 38 16 f3 63 b6 16 fa 2d 3d
       -3.3395364e-07 3.480745e-05 -3.396713e-06 0.04247483
0001b0 33 8b 05 be f5 45 d1 36 93 8f 7b 36 87 32 50 b6
       -0.13041382 6.2368294e-06 3.7485486e-06 -3.1023826e-06
0001c0 9e b3 f5 39 fe 78 9d bd 9d b2 19 b5 92 e8 15 37
       0.00046863867 -0.07689093 -5.725686e-07 8.935242e-06
0001d0 55 81 d6 35 9c 1f c3 3d bc f3 3d be 36 7a 02 36
       1.5981883e-06 0.095275134 -0.18550009 1.9442646e-06
0001e0 dd ca c1 37 71 bc 95 b5 56 10 92 3d df 60 09 be
       2.3101858e-05 -1.1156209e-06 0.07132022 -0.1341586
0001f0 6e f2 05 37 74 b9 fb b7 a8 9e 19 b6 60 25 21 3d
       7.983863e-06 -3.000789e-05 -2.2891127e-06 0.039342284
000200 96 5b 04 be 92 09 a5 36 05 e3 5e b7 6e cc ff 35
       -0.12925562 4.9184973e-06 -1.3285088e-05 1.9058477e-06
000210 51 02 7f 3d e3 51 26 be 7e b5 5e 36 09 32 44 b7
       0.06225807 -0.16242175 3.318622e-06 -1.169416e-05
000220 33 bd 6b 35 fa 47 99 3d cb a6 25 be 83 58 ef b5
       8.7819643e-07 0.074844316 -0.16176908 -1.7832648e-06
000230 a9 8e 5e b8 70 82 08 b6 ff b4 79 3d f2 e0 2c be
       -5.3061787e-05 -2.0341504e-06 0.060963627 -0.16882685
000240 c9 9e 37 36 76 f5 29 b8 2f d7 6d 36 dd 9e ab 3d
       2.736155e-06 -4.0521343e-05 3.5441005e-06 0.0837991
000250 cb 74 30 be 6c 73 60 35 d6 c4 b3 37 92 b8 34 b5
       -0.17232053 8.3614464e-07 2.1430122e-05 -6.732381e-07
000260 95 cc 03 3e 0a 21 34 be 95 94 b0 b5 a2 e5 75 b8
       0.1287101 -0.17590728 -1.3156265e-06 -5.8626414e-05
000270 d7 c9 b6 36 64 d2 ee 39 d2 cd 1e ba 33 46 b7 b5
       5.44752e-06 0.0004555165 -0.00060578913 -1.3654993e-06
000280 d3 de e2 36 f1 d6 c0 35 1e 07 c6 b6 c0 d4 35 b9
       6.761265e-06 1.4367671e-06 -5.9016884e-06 -0.0001734076
000290 d4 42 60 b5 64 37 c6 37 c6 4c d4 35 95 a1 df b7
       -8.354375e-07 2.3629233e-05 1.5817575e-06 -2.6658914e-05
0002a0 56 b0 22 38 ab 64 d7 35 99 81 46 b6 c5 26 6e 35
       3.8788035e-05 1.6048047e-06 -2.9579735e-06 8.8718326e-07
0002b0 c8 f8 31 39 04 5d 81 b9 1f 47 dd 35 aa 30 12 b6
       0.00016972714 -0.000246741 1.6486482e-06 -2.1784022e-06
0002c0 85 6f 80 36 47 aa 68 37 a0 8a d3 38 8d f8 b3 b6
       3.82768e-06 1.3867923e-05 0.00010087085 -5.363551e-06
0002d0 2d 27 9c b7 d8 be 89 35 70 08 54 38 c7 75 77 b8
       -1.8614892e-05 1.0262838e-06 5.0552597e-05 -5.8999078e-05
0002e0 67 75 8e b6 49 97 dd 37 1e 1c 16 b6 2a 78 72 39
       -4.245597e-06 2.64157e-05 -2.2368108e-06 0.00023123683
0002f0 72 76 a2 b9 ac 36 83 b5 99 bc a4 b5 13 5a 80 b6
       -0.00030987296 -9.776172e-07 -1.2273841e-06 -3.8251833e-06
000300 fc 41 b2 36 d3 76 61 36 46 66 8f b5 be 03 50 36
       5.312495e-06 3.3596777e-06 -1.0684096e-06 3.0996594e-06
000310 e6 39 5b 36 a6 f0 35 b6 4b 2f ea 35 02 0f d3 34
       3.2667244e-06 -2.7111178e-06 1.7448123e-06 3.9312732e-07
000320 a9 15 6e 37 88 48 a1 36 41 bd 05 39 12 eb c3 b8
       1.4190949e-05 4.8066177e-06 0.00012754371 -9.34211e-05
000330 97 b4 da b5 aa 84 47 34 5b d6 b2 b6 06 7f dd 36
       -1.6294824e-06 1.8581582e-07 -5.3297676e-06 6.6011007e-06
000340 b7 b5 fb 36 52 02 e3 b5 2a ef 35 36 42 66 7f b6
       7.5015373e-06 -1.6913493e-06 2.7110314e-06 -3.8057483e-06
000350 79 34 46 b6 ce a9 37 36 2c 07 94 34 85 2f 6c 36
       -2.9534842e-06 2.7367964e-06 2.7572366e-07 3.51944e-06
000360 df 94 93 b6 19 eb af b5 08 cf c4 36 d7 06 42 b5
       -4.3982723e-06 -1.3106938e-06 5.865357e-06 -7.2280585e-07
000370 4b 96 79 b7 4f 03 0a b4 5c a6 21 39 33 de 67 b9
       -1.4876549e-05 -1.2853455e-07 0.0001541613 -0.00022112652
000380 7b 4b 33 b6 86 06 c0 36 f0 56 c0 35 33 c2 96 b6
       -2.6717014e-06 5.7228053e-06 1.4330417e-06 -4.492956e-06
000390 51 e1 1f 34 f4 5c 72 36 97 15 d7 35 50 1f e9 b6
       1.4889999e-07 3.6114916e-06 1.6025032e-06 -6.9475864e-06
0003a0 43 5e 03 b7 fd 0c d1 36 44 06 5a b6 c9 98 9f 35
       -7.8301555e-06 6.2301974e-06 -3.2488178e-06 1.189089e-06
0003b0 7d 65 fd 34 ec 9a 7e 35 77 33 40 b7 ca 53 2f b6
       4.7198765e-07 9.4847815e-07 -1.1456074e-05 -2.6125804e-06
0003c0 d0 7c ef b6 54 96 55 36 c6 b4 31 38 8d 81 81 b8
       -7.137285e-06 3.1826976e-06 4.2368447e-05 -6.17533e-05
0003d0 84 b1 e5 b5 cd 0d 21 b6 98 c2 40 35 a9 a3 9a 36
       -1.7113493e-06 -2.3998903e-06 7.1808745e-07 4.60861e-06
0003e0 07 06 7f b6 e7 32 80 b4 bb fe 3f 36 7b a0 1d b6
       -3.800147e-06 -2.3878894e-07 2.860949e-06 -2.3488235e-06
0003f0 c7 46 a8 37 4d d2 d9 b8 26 74 dc b5 83 e5 2b 37
       2.0060119e-05 -0.00010386538 -1.6425081e-06 1.0245832e-05

linear_layer2.bias f4 [2016]
000000 39 5b b7 b6 3c 86 bf bf 86 32 f0 b6 71 dd 43 bf
       -5.4644447e-06 -1.496284 -7.158439e-06 -0.7650977
000010 69 e9 e0 36 2c 40 72 be 1c 2b 81 b7 fd 64 72 b5
       6.7028927e-06 -0.23657292 -1.5398073e-05 -9.029898e-07
000020 5f 48 9f bf a1 00 cd bf 73 27 ca 3e 5d 08 36 3e
       -1.2443961 -1.6015817 0.39483222 0.17776628
000030 58 30 a4 3e 40 22 3b 35 67 ba e8 b7 41 23 38 34
       0.32068133 6.971277e-07 -2.7743356e-05 1.714916e-07
000040 ac 51 c8 bf ce ce a2 36 cd 0f 83 be d7 f3 d7 b7
       -1.5649924 4.8520515e-06 -0.25597993 -2.5743544e-05
000050 56 c7 3a b7 70 6b 82 b6 c9 e8 06 bf 8f 90 a3 3e
       -1.1132875e-05 -3.8868093e-06 -0.5269895 0.31946227
000060 ad 29 ce 3e 46 20 b0 be 77 4c c3 af 8c fd 79 3e
       0.4026617 -0.34399623 -3.5524625e-10 0.24413127
000070 ee 61 a3 b7 e9 dd d0 3c 25 ec bb be 0b fd b2 3e
       -1.9476716e-05 0.02549644 -0.367036 0.3495868
000080 8c 20 b9 3f ac c9 2e bf ff d2 25 3f 12 1e ce be
       1.4463058 -0.68276477 0.6477508 -0.40257317
000090 c6 7c 2f 3f e4 bd c9 3e 19 a9 16 36 d6 26 84 b6
       0.68549764 0.39402688 2.245017e-06 -3.9384277e-06
0000a0 5a 26 49 3f 9d c4 48 35 7d c1 1c b6 f0 c6 a1 be
       0.78574145 7.4791916e-07 -2.3358436e-06 -0.3159709
0000b0 a1 51 36 b7 90 cd 36 b6 59 8a 5b bd 02 af c0 36
       -1.0867051e-05 -2.7239766e-06 -0.053598735 5.7424195e-06
0000c0 f7 4a 06 36 cc e8 a0 b6 92 d8 cf b6 04 d2 3a 3f
       2.0011191e-06 -4.7954727e-06 -6.194293e-06 0.7297671
0000d0 cd 57 91 b5 ae 1c 04 c0 3a 35 6c 3d bf 8d b6 be
       -1.0828895e-06 -2.0642505 0.05766795 -0.3565502
0000e0 d6 10 dd 3d 20 1f 40 36 ca 75 27 be ab 10 9d be
       0.10794227 2.8628347e-06 -0.16353527 -0.3067678
0000f0 25 70 a1 be a3 05 16 3f e6 42 81 3e 02 f9 34 bf
       -0.31530872 0.5860235 0.25246352 -0.70692456
000100 b0 53 1e 3f 46 79 f3 b6 29 5a 0e 3f 91 b7 58 37
       0.61846447 -7.2560824e-06 0.55606323 1.2917343e-05
000110 7c 89 05 be 34 2f cd be 24 a3 04 40 54 c8 19 be
       -0.13040727 -0.40075076 2.0724573 -0.15017825
000120 95 33 56 b6 b1 23 7d 37 06 3e c4 be f2 52 86 bf
       -3.191851e-06 1.5088285e-05 -0.3832857 -1.0494063
000130 93 af 21 be 41 cf 83 36 17 ce 2f 3e b5 8c a9 3f
       -0.15789632 3.9282318e-06 0.17168461 1.3246065
000140 aa e5 07 37 45 9b 5f bf a0 10 d6 be e7 e5 93 bf
       8.1001e-06 -0.873463 -0.4180956 -1.1554536
000150 18 c8 64 b6 55 cf 39 bf 47 2d 00 36 06 5c 4e 3f
       -3.4091117e-06 -0.7258199 1.9099841e-06 0.80609167
000160 82 e3 40 b7 15 84 7a 3f e7 d4 73 be 69 c1 f9 3e
       -1.1497063e-05 0.9785779 -0.23811685 0.48780373
000170 91 27 c3 36 c7 d4 37 be e1 bc b1 b5 72 37 8e b4
       5.816059e-06 -0.17952262 -1.3242499e-06 -2.6489903e-07
000180 5a 5f 56 3e 06 f6 42 36 38 e9 8c 3e e9 b0 59 b6
       0.20934811 2.9051457e-06 0.27521682 -3.2438495e-06
000190 aa b1 dd b6 f3 96 ee b5 02 39 43 bf 61 c5 88 b6
       -6.606996e-06 -1.7776314e-06 -0.7625886 -4.076094e-06
0001a0 cc 11 a0 3f 6c 29 5d bf 8d 14 b4 35 08 ce e3 b5
       1.2505431 -0.8639133 1.3417026e-06 -1.6972781e-06
0001b0 b0 31 99 3e 21 fd 04 3f 27 e8 b5 3e 14 6d c7 3f
       0.2992072 0.51948744 0.3552868 1.5580163
0001c0 c9 3a 21 3f 56 41 d6 3e c6 19 90 bf 9e f6 09 37
       0.62980324 0.41846722 -1.1257865 8.223256e-06
0001d0 e5 a3 87 35 7a 12 4f bf a6 c7 a4 bf 20 20 ec be
       1.0105983e-06 -0.8088757 -1.2873428 -0.4611826
0001e0 7f 8b 73 be ab dd 0c 3f 59 26 e1 bf cf 71 79 b5
       -0.23783682 0.5502574 -1.7589828 -9.292534e-07
0001f0 52 7b 45 b6 76 f6 8b 36 aa 8d 6d b5 cd e6 ec be
       -2.942707e-06 4.1712146e-06 -8.849553e-07 -0.46269837
000200 66 f2 49 36 16 36 40 36 14 95 9f bf 03 d3 c1 3e
       3.0092428e-06 2.8641712e-06 -1.246737 0.37856302
000210 7f 65 49 bf 23 a2 cf bf 84 2d b0 bd be 2a 39 bf
       -0.78670496 -1.6221355 -0.086024314 -0.72330844
000220 7e e5 ae 3f 21 9e ed bf 54 e9 32 b7 ba 18 f8 be
       1.3663785 -1.8563882 -1.0663953e-05 -0.48456365
000230 85 92 a6 3e 44 d0 8e bf 2e 14 f4 be 82 cb 05 37
       0.3253366 -1.1157308 -0.47671646 7.974801e-06
000240 40 74 83 be 20 4b 53 3f 8b 2e 74 bf 11 e8 d4 b6
       -0.2567463 0.82536507 -0.9538352 -6.3451084e-06
000250 5d e1 6d b7 58 cd 8c 3f b1 28 55 bf 6c 49 af 3e
       -1.4178772e-05 1.1000166 -0.83265215 0.34235704
000260 62 4f e1 b5 3b 45 b6 be 17 44 35 bf 1d ab db 3e
       -1.678691e-06 -0.35599694 -0.7080702 0.42903987
000270 bf a4 ce bc 3b 2f 1f b5 9d 72 2e b6 78 22 4a b6
       -0.025225041 -5.9300845e-07 -2.5994734e-06 -3.012041e-06
000280 52 74 84 bf fd e9 2d bf c7 0c 30 be 04 a1 a6 bf
       -1.0347998 -0.6793516 -0.17192374 -1.3017888
000290 c1 2a 8c 3f 61 be 1e bf a2 26 2d 3f 63 ba 7b 3f
       1.0950547 -0.62009245 0.67637074 0.9833128
0002a0 b3 63 5a 3f 3b 8f be be d8 14 4a 36 d5 6e b0 3e
       0.8530838 -0.3721865 3.0112478e-06 0.34459558
0002b0 26 cb f4 bd 01 d7 03 3e 17 91 53 34 e3 d1 2f bf
       -0.1195281 0.12874986 1.970369e-07 -0.68679637
0002c0 51 97 51 36 79 2f 2f b6 8e af 5f b5 10 8f aa 3e
       3.1231505e-06 -2.6104665e-06 -8.332944e-07 0.33312273
0002d0 c0 da ed bd d5 bf 45 3e ca a0 51 bf 34 bb cd 3f
       -0.11613989 0.1931146 -0.8188597 1.6072755
0002e0 b6 15 74 bf b7 be 5c 35 3d b1 b8 3e f2 73 a2 3d
       -0.9534563 8.2233913e-07 0.36072722 0.07932271
0002f0 96 8a 90 be 06 55 c5 bc 3f 60 35 bf 26 26 64 bf
       -0.28230733 -0.024088394 -0.70849985 -0.8912071
000300 95 b7 0d c0 ad 6c 35 c0 50 70 ec 3e 98 80 4c 36
       -2.21433 -2.834758 0.46179438 3.047322e-06
000310 90 fd 49 bf 34 14 62 3f 32 62 90 3f 30 e8 27 b6
       -0.7890253 0.8831208 1.1279967 -2.502009e-06
000320 0b b6 7f 3e 0c 0b 64 3f 86 69 aa 3e 3a 9d 85 37
       0.24971788 0.89079356 0.33283633 1.592805e-05
000330 e4 bf e7 be 69 13 d6 be 31 10 c4 35 51 4b 6e b6
       -0.45263588 -0.41811684 1.460785e-06 -3.5508604e-06
000340 b1 87 60 bf 08 65 3a b7 96 7d 00 40 8e 75 df bf
       -0.8770705 -1.1109987e-05 2.0076652 -1.745775
000350 ed 7c 76 bf e6 c6 52 b6 83 15 0d bd 47 7a 88 b6
       -0.9628437 -3.1408213e-06 -0.034444343 -4.067351e-06
000360 59 67 85 b6 d9 5b 02 35 b3 dd 07 35 10 c7 df 34
       -3.97574e-06 4.856243e-07 5.0614034e-07 4.1681824e-07
000370 83 4a 1a 3e cb b3 23 36 e5 bf 1f b6 0b cd ef be
       0.15067486 2.4393546e-06 -2.3804544e-06 -0.46836123
000380 4c 98 2b 3f d8 53 e1 bf 60 2f 8b b5 85 a7 0f be
       0.6702926 -1.7603712 -1.0370095e-06 -0.14028747
000390 87 9e 89 3f 1d 09 82 be 2c f3 c0 36 a1 56 a6 bf
       1.0751504 -0.25397578 5.750355e-06 -1.2995187
0003a0 4f 39 8b be c1 9c 37 3f a8 07 17 b6 fb be 10 b6
       -0.2719216 0.7172356 -2.250521e-06 -2.1568837e-06
0003b0 e5 32 cf 36 21 9c 59 34 9d 50 2d 3e ed 27 8e b6
       6.1750056e-06 2.0266499e-07 0.16925283 -4.2365778e-06
0003c0 0a 8b e4 b5 c1 ea 42 3f 53 bf 21 3d 93 38 10 40
       -1.702779e-06 0.76139456 0.0394891 2.253453
0003d0 f3 00 bb 36 47 3a 98 b6 61 ad 29 be 3c e7 c9 3d
       5.573145e-06 -4.5367374e-06 -0.16570045 0.098585576
0003e0 1b c7 59 bf 30 de ce be 5d 0c 6e b6 58 4b 17 bf
       -0.85069436 -0.4040389 -3.547196e-06 -0.5909934
0003f0 b3 84 72 b6 fc a8 5c be 29 60 d0 bf 77 af c9 bf
       -3.6138051e-06 -0.21548837 -1.6279346 -1.5756673
