model/Artificial_Data_6000_LogF_True_epoch100_attention_net_u_artificial_Q_9_K_2_F_5_REG_L0_ACT_sigmoid_WD_000001_CV.model (torch_old, 51933 bytes, 6 tensors)

key_matrix f4 [9, 2]
-1.6502737 -0.022725726 1.168175 0.80877966 -0.13230509 -2.2933514 0.64708626 1.3687545
-0.6855471 -0.38133687 2.471248 -2.1711164 0.16179803 -0.6165978 -0.5241297 1.7602438
-0.24635707 -0.21578084
00000000: 2b3c d3bf 4d2b babc c286 953f 2f0c 4f3f
00000010: fc7a 07be 45c6 12c0 72a7 253f 5933 af3f
00000020: 0480 2fbf 963e c3be ed28 1e40 92f3 0ac0
00000030: 62ae 253e 5ad9 1dbf 5d2d 06bf ab4f e13f
00000040: 0745 7cbe a7f5 5cbe

value_matrix f4 [2, 5]
-0.16982119 -6.4759274 2.6848009 -7.4466953 3.095435 -2.9039655 -4.192645 -2.8026402
-0.30007216 1.5853292
00000000: 9be5 2dbe cc3a cfc0 c7d3 2b40 544b eec0
00000010: 9b1b 4640 92da 39c0 262a 86c0 755e 33c0
00000020: 0fa3 99be 11ec ca3f

linear_layer1.weight f4 [9, 64]
-0.055628702 -0.025622863 -0.14701848 0.14307009 -0.16495179 0.15985349 -0.26408094 -0.06438302
-0.20564933 -0.08544081 0.053272594 0.10767576 0.0833938 0.024070343 0.105154134 0.19266552
-0.07840694 0.028449362 -0.0112601975 -0.23683612 0.034125723 -0.22283252 -0.19193609 0.16304325
-0.19513634 -0.09145066 -0.19270615 0.02535758 -0.2871278 -0.095331736 -0.05725294 -0.16430794
0.29949594 0.16851239 0.15477431 0.05997626 -0.050668187 -0.13264143 -0.06017204 0.06733349
-0.23559956 0.1119368 0.22878055 -0.09060428 -0.1561497 0.040859535 0.0422255 0.20945641
-0.1456653 0.12964879 -0.0104364455 0.25360978 -0.0015884719 0.13995942 0.3049351 -0.19675022
-0.010845534 -0.04677644 0.18725379 0.14665593 0.17322658 -0.097865 -0.0923514 0.21619639
-0.20128104 -0.18285044 -0.20358135 0.13100989 0.20134142 -0.26325202 0.20840551 -0.03201769
-0.12091334 -0.1967932 0.10905468 -0.25203437 -0.04490688 -0.061874278 -0.18336587 -0.18644872
-0.018497359 -0.24419527 -0.074998856 0.20926607 0.036071613 -0.13628936 0.025017504 -0.1698865
-0.18170382 -0.025319692 0.008346942 -0.26772496 -0.19645117 -0.024665661 0.17990004 -0.11845834
0.23131467 0.09924244 0.14044861 -0.13204052 -0.08727521 0.24648347 -0.0731916 -0.13843998
0.2576615 -0.019011995 -0.12989284 -0.18356803 0.053579565 0.19154203 0.22642304 -0.047968592
0.15460363 -0.22950064 0.22761446 -0.10086341 -0.0980364 0.013429637 0.0734669 0.07585897
-0.15834486 -0.11181122 0.15131655 -0.14517683 0.20452873 -0.07288899 0.082277596 0.037763245
-0.008556781 -0.14358854 0.021979766 0.10297815 -0.36335146 0.24194624 -0.24574268 -0.21546668
0.09557688 0.07967852 -0.28363463 -0.23142914 -0.15548871 -0.12710226 0.18118484 0.07814693
-0.14877225 -0.12777327 -0.4202943 -0.11063186 -0.030044224 -0.062274225 -0.28841555 -0.1137992
0.011396286 -0.08668837 -0.29088482 -0.23367304 -0.025804233 -0.04434553 -0.054697394 -0.07971503
0.10925975 -0.037122365 0.022004522 0.029431546 0.14880921 -0.105813384 -0.11816852 -0.011356908
-0.06630335 -0.1444315 -0.068492584 0.012552228 -0.07174382 0.14776117 -0.15828909 0.22239083
-0.021355554 0.007591199 -0.054118108 -0.059051268 -0.0050645717 0.26894075 -0.17572844 0.15395562
-0.12773727 -0.07311637 0.27956697 -0.20445299 0.18829753 -0.20438957 -0.061954852 0.085943244
-0.07362597 0.18726507 -0.13590768 -0.09659262 0.11781872 0.12729032 0.1132048 0.16682675
0.17268866 -0.09099045 -0.145277 -0.06673214 -0.18701789 0.14489721 0.24211186 0.18991888
0.23291533 0.20773813 -0.14341426 0.10078528 0.047986723 0.024546828 0.02786885 0.19117291
-0.27492133 -0.08366591 -0.2507022 -0.22544345 0.01493258 -0.095095605 0.077491276 -0.23054025
-0.16146976 -0.02466626 -0.12976803 -0.022165738 -0.22112055 -0.113413304 0.26772675 0.1604382
-0.010438078 0.111657016 -0.1600929 -0.10087273 -0.21195334 0.09281959 0.29467523 -0.20329946
0.1841332 -0.2426787 0.17455982 -0.113695204 -0.23906407 -0.026159907 -0.10470231 0.09329521
-0.018385733 0.050816566 0.20463955 -0.26616853 -0.23383968 0.031374577 -0.26309633 0.11183959
00000000: ecda 63bd 0ae7 d1bc 038c 16be f780 123e
00000010: 1fe9 28be a2b0 233e 9e35 87be 3fdb 83bd
00000020: bd95 52be 97fb aebd 5d34 5a3d 1c85 dc3d
00000030: 5eca aa3d 2b2f c53c 0d5b d73d 1c4a 453e
00000040: d193 a0bd a30e e93c b17c 38bc 2b85 72be
00000050: 6ac7 0b3d 352e 64be e58a 44be cff4 263e
00000060: d2d1 47be 7c4a bbbd c354 45be b3ba cf3c
00000070: 6a02 93be 493d c3bd 0f82 6abd 5740 28be
00000080: 8857 993e 838e 2c3e 287d 1e3e aba9 753d
00000090: 7289 4fbd 28d3 07be f576 76bd 24e6 893d
000000a0: 0341 71be 1f3f e53d 7345 6a3e bd8e b9bd
000000b0: b5e5 1fbe 545c 273d a5f4 2c3d be7b 563e
000000c0: 4929 15be a7c2 043e a0fd 2abc 24d9 813e
000000d0: 4634 d0ba 8651 0f3e 7420 9c3e e478 49be
000000e0: 77b1 31bc a798 3fbd 75bf 3f3e f92c 163e
000000f0: 4f62 313e 726d c8bd bb22 bdbd 9662 5d3e
00000100: 9e1c 4ebe 253d 3bbe a177 50be 7527 063e
00000110: 722c 4e3e f8c8 86be 4168 553e fb24 03bd
00000120: 6aa1 f7bd 2884 49be 0f58 df3d a60a 81be
00000130: 47f0 37bd e26f 7dbd 43c4 3bbe 6aec 3ebe
00000140: c687 97bc 530e 7abe 0099 99bd d849 563e
00000150: d4bf 133d 708f 0bbe 82f1 cc3c baf6 2dbe
00000160: 9110 3abe 3e6b cfbc 9dc1 083c 3f13 89be
00000170: 7f2a 49be a40f cabc b737 383e 499a f2bd
00000180: c1dd 6c3e 9f3f cb3d c3d1 0f3e a135 07be
00000190: 58bd b2bd 2a66 7c3e 7ae5 95bd 36c3 0dbe
000001a0: 35ec 833e 0bbf 9bbc a102 05be 42f9 3bbe
000001b0: 3f76 5b3d 9823 443e 71db 673e b77a 44bd
000001c0: 6a50 1e3e 3702 6bbe c413 693e 7a91 cebd
000001d0: 4fc7 c8bd fb07 5c3c d075 963d f35b 9b3d
000001e0: 2825 22be 48fd e4bd baf2 1a3e 3ca9 14be
000001f0: fb6f 513e d346 95bd 2881 a83d a2ad 1a3d
00000200: be31 0cbc e008 13be e90e b43c 35e6 d23d
00000210: 3409 babe c1c0 773e f8a3 7bbe 4ca3 5cbe
00000220: d0bd c33d 7e2e a33d 8f38 91be c3fb 6cbe
00000230: 6f38 1fbe 1827 02be 8588 393e 7f0b a03d
00000240: c157 18be ffd6 02be d130 d7be f592 e2bd
00000250: 4e1f f6bc 4213 7fbd 34ab 93be 8e0f e9bd
00000260: 7db7 3a3c ac89 b1bd dbee 94be fc47 6fbe
00000270: 6663 d3bc a9a3 35bd 600a 60bd a241 a3bd
00000280: 93c3 df3d 9f0d 18bd d442 b43c 6d1a f13c
00000290: 7161 183e b0b4 d8bd 5602 f2bd 5312 3abc
000002a0: 0dca 87bd dae5 13be d745 8cbd dca7 4d3c
000002b0: 6dee 92bd b44e 173e 8916 22be 6cba 633e
000002c0: d8f1 aebc 98bf f83b f3aa 5dbd bedf 71bd
000002d0: b5f4 a5bb 9ab2 893e 28f2 33be 8ba6 1d3e
000002e0: 8fcd 02be 09be 95bd 6723 8f3e 205c 51be
000002f0: 11d1 403e 804b 51be 5fc4 7dbd 0303 b03d
00000300: 36c9 96bd 6ac2 3f3e 622b 0bbe 5ad2 c5bd
00000310: f14a f13d 6558 023e ebd7 e73d a2d4 2a3e
00000320: 4cd5 303e 3359 babd 7ec3 14be dcaa 88bd
00000330: 9e81 3fbe ef5f 143e 2cec 773e 187a 423e
00000340: 5b81 6e3e 4eb9 543e 30db 12be 8368 ce3d
00000350: ba8d 443d 6e16 c93c 374d e43c d5c2 433e
00000360: 7dc2 8cbe 0859 abbd 0a5c 80be a6da 66be
00000370: c8a7 743c 7cc1 c2bd bfb3 9e3d be12 6cbe
00000380: 5458 25be e610 cabc e9e1 04be ec94 b5bc
00000390: 6d6d 62be 3c45 e8bd 7b13 893e e949 243e
000003a0: 7904 2bbc 6fac e43d 65ef 23be 5d96 cebd
000003b0: 4c0a 59be 3218 be3d acdf 963e bc2d 50be
000003c0: 6a8d 3c3e c480 78be cfbf 323e 08d9 e8bd
000003d0: 36cd 74be 4d4d d6bc 2a6e d6bd 8f11 bf3d
000003e0: ad9d 96bc 0825 503d 088d 513e 3e47 88be
000003f0: ab73 6fbe a182 003d 90b4 86be 280c e53d

linear_layer1.bias f4 [9]
1.136397 -1.1814232 0.40507525 -0.72045743 0.3973499 -1.8463335 -0.091902554 -0.07018917
-1.5770621
00000000: 7575 913f e038 97bf 0666 cf3e e66f 38bf
00000010: 7271 cb3e a854 ecbf 6837 bcbd 57bf 8fbd
00000020: 2cdd c9bf

linear_layer2.weight f4 [2016, 5]
0.020164525 0.11105011 -0.014894824 0.13066636 -0.058620907 -0.08810525 -0.0523477 -0.16420624
0.11338794 -0.013527859 0.060345095 0.14628208 0.01396861 0.13165788 -0.12136743 0.089230716
0.30757913 0.06292028 0.10424122 -0.16059658 0.04750372 0.23651543 -0.050773688 0.21744628
-0.05298465 0.022631833 0.1199613 -0.019129945 0.07871026 -0.035442464 0.05812845 0.023394978
0.034008898 -0.04359494 -0.02809968 7.210121e-05 0.1284563 -0.042631406 0.12005639 -0.09796891
0.08346687 0.18620904 0.028729413 0.09383218 -0.11882495 0.30173892 0.43001294 0.27545127
-0.023457812 -0.105607495 -0.048057374 0.04539734 -0.1551932 0.25772235 -0.06115991 -0.06969268
0.10672324 -0.26324913 0.21167354 -0.088865146 0.14087185 0.1674704 0.11470997 0.033577036
-0.078108884 0.36192423 0.6289772 0.21629293 0.2083519 -0.30601257 -0.15019187 0.05715306
-0.21534584 0.21524248 -0.052943554 0.16890737 0.25714415 0.051109094 0.063399725 -0.08654728
0.06693105 0.23733713 -0.048048005 0.18037055 -0.08425234 -0.048697695 0.180141 -0.17341563
0.3581663 -0.041921314 0.10433165 0.17566071 0.062410053 0.15455662 -0.12721644 0.10309961
0.22075172 0.038927067 0.20584399 -0.13959417 -0.090929165 0.116851486 -0.1761759 0.26796514
-0.06424318 -0.23132524 -0.086238906 -0.3105885 0.2167575 -0.061563134 0.050515857 0.06700937
0.051103927 0.027203767 -0.06847003 0.082140684 0.25414342 -0.028875642 0.17910434 -0.15117872
-0.000679702 0.06402188 -0.11008987 0.15541583 -0.06468383 0.052437503 0.15461849 0.10838251
0.012831495 -0.024727311 0.038994025 0.15932612 -0.0014581478 0.077846795 -0.04008882 0.04233433
0.113508254 -0.10825617 0.14032194 -0.13271025 0.065360114 0.23122087 0.059545692 0.1727969
-0.07844113 -0.13048218 -0.08489795 -0.23378517 0.15271892 0.056166634 -0.0852824 -0.006772246
-0.18716638 0.1507783 -0.0337235 0.007178671 0.11918946 0.0051445137 0.07269173 -0.06630313
0.01977435 0.15512203 -0.07264191 0.21173668 -0.10912325 -0.033655252 0.06831653 -0.0029056834
0.015773425 -0.018563014 -0.029928802 -0.036113363 0.06341263 -0.0490051 0.023917517 -0.023732483
-0.17547409 0.024043178 -0.23172322 0.060966887 0.045827046 0.05737319 -0.054754082 -0.028949026
-0.007120016 0.017218627 0.24755801 -0.10505335 0.18889122 -0.06779299 0.03955155 0.0690448
-0.045755547 0.04441106 0.024772113 -0.035375986 -0.15286823 0.060007934 -0.06905581 0.07109049
-0.0139772175 0.18276529 -0.00149944 0.15781377 -0.08608365 -0.041639026 0.044098154 -0.003332671
0.062859155 -0.0005373545 -0.020275416 -0.077965654 0.040562846 -0.07211552 0.05779038 0.05519621
0.11176776 -0.0010706091 0.14345184 -0.028143417 -0.0036332016 -0.08551952 0.051769834 -0.08731827
0.012569681 -0.019294325 0.050824374 0.0185269 0.056971226 0.026166534 0.020814411 0.022068024
-0.025651734 -0.038047597 -0.018484447 -0.029281612 0.0069010383 -0.006127766 -0.057206023 0.054618888
0.027354477 0.05721757 -0.023396783 0.062304042 -0.037475716 -0.06670686 -0.22062393 0.08781031
-0.25964883 0.078038424 0.056140386 0.22330047 -0.096742645 0.23836844 -0.06720515 -0.0039062155
00000000: 1330 a53c 3d6e e33d 6b09 74bc 67cd 053e
00000010: 7a1c 70bd 8670 b4bd 8b6a 56bd ae25 28be
00000020: f037 e83d f4a3 5dbc 6b2c 773d f8ca 153e
00000030: 99dc 643c 53d1 063e 7d8f f8bd 98be b63d
00000040: 037b 9d3e 59dc 803d 6c7c d53d 6e73 24be
00000050: 4393 423d 1a31 723e 12f8 4fbd 3daa 5e3e
00000060: 6f06 59bd 6566 b93c 45ae f53d 67b6 9cbc
00000070: d832 a13d 1e2c 11bd 1918 6e3d d3a6 bf3c
00000080: ea4c 0b3d 9c90 32bd 4d31 e6bc 0b35 9738
00000090: 0c8a 033e 459e 2ebd 20e0 f53d eda3 c8bd
000000a0: aef0 aa3d 95ad 3e3e f259 eb3c 162b c03d
000000b0: 7f5a f3bd 867d 9a3e a82a dc3e f307 8d3e
000000c0: 992a c0bc be48 d8bd cfd7 44bd 90f2 393d
000000d0: f7ea 1ebe 2ff4 833e d082 7abd 09bb 8ebd
000000e0: b791 da3d 97c8 86be f3c0 583e eefe b5bd
000000f0: b640 103e 5c7d 2b3e 10ed ea3d 1388 093d
00000100: 8df7 9fbd 224e b93e a604 213f e57b 5d3e
00000110: 335a 553e aead 9cbe e6cb 19be 5419 6a3d
00000120: 9f83 5cbe 8668 5c3e 57db 58bd 0ef6 2c3e
00000130: 66a8 833e c557 513d b7d7 813d b33f b1bd
00000140: 2513 893d 8108 733e fccd 44bd 0fb3 383e
00000150: 7e8c acbd 3c77 47bd e276 383e de93 31be
00000160: 9361 b73e afb5 2bbd d5ab d53d 67e0 333e
00000170: afa1 7f3d 1744 1e3e 0745 02be e325 d33d
00000180: bd0c 623e fd71 1f3d c4c8 523e c6f1 0ebe
00000190: 1239 babd d54f ef3d 7567 34be ba32 893e
000001a0: ee91 83bd 86e0 6cbe 069e b0bd 7505 9fbe
000001b0: aef5 5d3e a029 7cbd b7e9 4e3d 353c 893d
000001c0: 5a52 513d 6fda de3c 043a 8cbd 6039 a83d
000001d0: 161f 823e 9c8c ecbc 2167 373e 98ce 1abe
000001e0: 072e 32ba e71d 833d cc76 e1bd 5425 1f3e
000001f0: f578 84bd b5c8 563d 4f54 1e3e a6f7 dd3d
00000200: 313b 523c ee90 cabc 33b8 1f3d 6326 233e
00000210: 521f bfba 246e 9f3d 2d34 24bd c366 2d3d
00000220: 0477 e83d 69b5 ddbd 8eb0 0f3e 32e5 07be
00000230: 86db 853d 2ac5 6c3e 2fe6 733d acf1 303e
00000240: bea5 a0bd 1f9d 05be fade adbd 6165 6fbe
00000250: 5962 1c3e fc0e 663d 8aa8 aebd b8e9 ddbb
00000260: 8ba8 3fbe a065 1a3e a721 0abd 0f3b eb3b
00000270: 9b19 f43d 4f93 a83b 67df 943d efc9 87bd
00000280: d1fd a13c 4fd8 1e3e 48c5 94bd 80d1 583e
00000290: 037c dfbd 17da 09bd 89e9 8b3d 476d 3ebb
000002a0: 4537 813c 7611 98bc 3f2d f5bc 9beb 13bd
000002b0: 7bde 813d 92b9 48bd abee c33c a06a c2bc
000002c0: 7baf 33be 33f6 c43c da48 6dbe 6ab8 793d
000002d0: 24b5 3b3d 2600 6b3d d145 60bd 8226 edbc
000002e0: 064f e9bb 140e 8d3c d97f 7d3e 3626 d7bd
000002f0: b36c 413e 0dd7 8abd ce00 223d 5c67 8d3d
00000300: 2b6a 3bbd 5fe8 353d e3ee ca3c 69e6 10bd
00000310: 7d89 1cbe e1ca 753d 226d 8dbd e497 913d
00000320: b300 65bc d326 3b3e dc88 c4ba ef99 213e
00000330: a04c b0bd af8d 2abd 44a0 343d f168 5abb
00000340: 4dbc 803d 40dd 0cba a118 a6bc 75ac 9fbd
00000350: 3a25 263d 4db1 93bd 9bb5 6c3d 6c15 623d
00000360: 7fe6 e43d ae53 8cba 0ae5 123e 068d e6bc
00000370: 021b 6ebb dc24 afbd 9b0c 543d ecd3 b2bd
00000380: 10f1 4d3c 220f 9ebc 382d 503d bac5 973c
00000390: a95a 693d 335b d63c fc82 aa3c 00c8 b43c
000003a0: 9623 d2bc ccd7 1bbd b26c 97bc fedf efbc
000003b0: 1b22 e23b 6dcb c8bb dd50 6abd 0eb8 5f3d
000003c0: 7f16 e03c f85c 6a3d 9caa bfbc 8632 7f3d
000003d0: 2380 19bd 9b9d 88bd 3deb 61be e4d5 b33d
000003e0: b1f0 84be 9cd2 9f3d 76f3 653d e1a8 643e
000003f0: 0221 c6bd db16 743e dba2 89bd 6cff 7fbb

linear_layer2.bias f4 [2016]
0.12770541 -0.9340748 -0.24758118 0.8114556 0.47832614 -0.559398 -1.7051528 0.16170874
-0.6198525 0.7257237 0.275267 0.17890513 -1.1697264 0.8910469 -0.039839808 0.0026171675
1.4103245 -0.57336164 0.37796083 1.2779161 0.26185954 -1.1688707 -0.8723622 1.6037831
0.13309664 -0.7570157 -0.14203005 -0.14676285 0.5947513 -1.8830189 -0.7741079 0.82531035
1.1455812 0.057757955 -0.3323278 -1.6977657 0.17645872 1.4228469 0.42204964 -0.9210753
1.2776171 0.06746497 -0.55660594 0.83010185 -0.44734535 0.1439142 0.08531377 -0.49659672
0.48058215 -2.1062336 1.47916 -0.86263835 0.3159214 -0.8469936 -0.07427039 -1.0956066
0.47384837 0.042590305 0.084309615 -0.08849235 0.7626577 -1.430714 -0.89480144 1.5519936
-0.98321974 -0.2664675 -0.5472513 -0.7271278 0.9964049 0.6860586 2.2900348 -1.293276
-0.049644 -0.45464104 -1.1391056 0.5305401 0.32960653 -0.9488855 -1.8964715 0.6362435
1.2140641 -1.1407409 -0.009550233 -0.15030769 -0.41921777 -0.7837556 -1.0604228 -1.9979801
1.1347111 0.20814131 -0.8040217 -0.8525016 -0.9664429 -0.3530482 -0.124575295 0.5435493
1.7073259 0.97644913 0.35846084 -0.58997893 -0.08042959 0.4964451 0.67414004 -0.8753598
-0.8920228 0.6332584 -2.5778568 1.2867621 -0.73015034 0.15713394 0.28576678 -0.13730991
0.93058 -0.4542091 0.36538073 0.43482816 0.67730457 0.8730658 -1.5310212 -0.05311647
-2.0937781 -0.11061988 0.71171844 -1.0085834 0.22889188 1.8827568 -0.4493605 1.7694775
0.61396813 0.118774824 0.17060605 2.0373495 1.1807526 0.32036915 0.7444914 1.0485048
0.4445703 -1.9545045 -0.36355227 0.7352122 -0.4481933 -0.3080522 -1.1284324 0.700858
-1.3676383 -0.24680816 0.5564215 -0.21033229 0.21245441 0.0010941202 -1.7277293 0.15100707
-0.85802644 -0.32284948 -0.70847136 -1.1459248 0.5730697 0.084058836 -0.09115974 -0.89264965
0.98657334 -0.946522 0.35964403 -0.09671822 0.7448278 -0.814369 0.4290288 0.9205123
0.88816404 1.289413 -0.5946777 0.6442027 0.060229763 -0.8425303 -1.9096307 0.5230202
0.67017627 -1.510359 -1.5829672 0.7253314 -1.135473 -0.087566055 0.40412602 -0.9620767
-0.051983062 -1.2815256 1.3298172 -2.0489657 -1.3454196 0.37089115 0.01398464 -0.8578077
0.20202154 0.6060628 -0.47342157 1.1760333 -1.3710204 1.3281652 0.23700906 0.2489799
1.3307366 0.99965394 -0.7284351 -0.76729095 0.5295098 0.5072245 -1.1196991 0.42376533
-0.3739727 0.13263406 0.90344137 0.022683669 -1.3219117 1.2606105 -0.46331313 -0.7044061
-0.84870905 -0.65763533 0.7883546 -0.25249085 -1.3274935 0.41706422 -0.028475506 0.118111014
-0.7211531 -0.98387396 1.4272692 1.1486036 0.21394046 -0.6822067 -0.26233852 1.0731103
-1.9014015 0.574763 -1.1319455 -1.6467245 1.0088488 0.11231933 0.42705873 0.5585499
-1.2566473 1.3501759 0.71205175 -0.5292722 0.2581992 -0.46093124 0.38382638 -0.768071
-2.3709369 -0.88011986 1.1377573 -0.38362592 0.79344714 -0.093122594 0.8520852 -0.04784988
00000000: 35c5 023e 871f 6fbf ec85 7dbe 8ebb 4f3f
00000010: 2ae7 f43e b534 0fbf 7242 dabf fa96 253e
00000020: a7ae 1ebf 07c9 393f ccef 8c3e e832 373e
00000030: 98b9 95bf a61b 643f 112f 23bd c984 2b3b
00000040: 8385 b43f d4c7 12bf 1584 c13e c192 a33f
00000050: 7412 863e 8e9d 95bf 2153 5fbf c448 cd3f
00000060: 7c4a 083e c8cb 41bf 5370 11be 0049 16be
00000070: 9f41 183f c306 f1bf ef2b 46bf 8a47 533f
00000080: 68a2 923f 9b93 6c3d df26 aabe 6350 d9bf
00000090: 98b1 343e d91f b63f e416 d83e 97cb 6bbf
000000a0: f588 a33f 132b 8a3d ba7d 0ebf 8e81 543f
000000b0: 730a e5be 3e5e 133e fcb8 ae3d ed41 febe
000000c0: dd0e f63e 88cc 06c0 1d55 bd3f ded5 5cbf
000000d0: 73c0 a13e 93d4 58bf 131b 98bd d63c 8cbf
000000e0: 419c f23e 2c73 2e3d 85aa ac3d 7a3b b5bd
000000f0: 893d 433f a321 b7bf b511 65bf baa7 c63f
00000100: 4ab4 7bbf 6e6e 88be a918 0cbf 0c25 3abf
00000110: 6414 7f3f 89a1 2f3f ee8f 1240 118a a5bf
00000120: 8257 4bbd b6c6 e8be 36ce 91bf 7ad1 073f
00000130: 30c2 a83e 29ea 72bf 94bf f2bf dbe0 223f
00000140: 7466 9b3f cc03 92bf 9578 1cbc 42ea 19be
00000150: b6a3 d6be 35a4 48bf efbb 87bf d0bd ffbf
00000160: 373e 913f ff22 553e 5ed4 4dbf 8b3d 5abf
00000170: cd68 77bf bcc2 b4be 5521 ffbd 0c26 0b3f
00000180: a889 da3f 92f8 793f 2e88 b73e dc08 17bf
00000190: 45b8 a4bd 0d2e fe3e 7194 2c3f 9417 60bf
000001a0: 9b5b 64bf 391d 223f 9bfb 24c0 9fb4 a43f
000001b0: 22eb 3abf b8e7 203e 0650 923e f89a 0cbe
000001c0: 7e3a 6e3f 188e e8be 2f13 bb3e cca1 de3e
000001d0: d563 2d3f 3e81 5f3f 81f8 c3bf a890 59bd
000001e0: 7600 06c0 ad8c e2bd 2e33 363f 4319 81bf
000001f0: a262 6a3e 2dfe f03f 9412 e6be 3d7e e23f
00000200: 042d 1d3f 3740 f33d 5ab3 2e3e ef63 0240
00000210: e722 973f 6d07 a43e fd96 3e3f 6835 863f
00000220: b89e e33e 342d fabf 8623 babe de36 3c3f
00000230: 9879 e5be 05b9 9dbe 7970 90bf 6e6b 333f
00000240: c60e afbf 47bb 7cbe a471 0e3f 5961 57be
00000250: a68d 593e 9568 8f3a 3c26 ddbf 99a1 1a3e
00000260: 9fa7 5bbf 874c a5be 615e 35bf aaad 92bf
00000270: b2b4 123f 0a27 ac3d f5b1 babd b084 64bf
00000280: 1290 7c3f 444f 72bf 4323 b83e 3414 c6bd
00000290: 09ad 3e3f 7d7a 50bf aaa9 db3e b2a6 6b3f
000002a0: b85e 633f 7c0b a53f cc3c 18bf 78ea 243f
000002b0: 7cb3 763d 11b0 57bf c76e f4bf a7e4 053f
000002c0: ac90 2b3f 7253 c1bf ab9e cabf 52af 393f
000002d0: 2e57 91bf d555 b3bd 9be9 ce3e a94a 76bf
000002e0: 31ec 54bd 0809 a4bf 7337 aa3f 4122 03c0
000002f0: b636 acbf 72e5 bd3e d51f 653c 4999 5bbf
00000300: bcde 4e3e ef26 1b3f 5064 f2be 4288 963f
00000310: 997d afbf 5101 aa3f 81b2 723e 96f4 7e3e
00000320: 9455 aa3f 52e9 7f3f b97a 3abf 2e6d 44bf
00000330: f48d 073f 77d9 013f 4d52 8fbf c5f7 d83e
00000340: 5a79 bfbe 39d1 073e ef47 673f 1ad3 b93c
00000350: 6734 a9bf af5b a13f 6137 edbe f553 34bf
00000360: ff44 59bf ca5a 28bf 9bd1 493f 7b46 81be
00000370: 4feb a9bf 7189 d53e 7745 e9bc 30e4 f13d
00000380: 7d9d 38bf 2adf 7bbf c2b0 b63f 7105 933f
00000390: 3513 5b3e 19a5 2ebf 3c51 86be ae5b 893f
000003a0: 2061 f3bf ab23 133f 97e3 90bf dec7 d2bf
000003b0: f521 813f ad07 e63d 71a7 da3e 20fd 0e3f
000003c0: d2d9 a0bf 90d2 ac3f 0649 363f 627e 07bf
000003d0: af32 843e 2eff ebbe e484 c43e 4da0 44bf
000003e0: 6ebd 17c0 894f 61bf 08a2 913f 9e6a c4be
000003f0: 5a1f 4b3f 0fb7 bebd 4122 5a3f 3cfe 43bd
