model/Artificial_Data_LogF_True_epoch_20000_attention_net_u_artificial_Q_9_K_2_F_5_REG_L0_ACT_sigmoid_WD_000001_CV.model (torch_old, 51933 bytes, 6 tensors)

key_matrix f4 [9, 2]
000000 b8 e4 46 3f de 92 87 bf 57 96 c8 3d 0d df 3a bf
       0.7769275 -1.0591695 0.097943 -0.729966
000010 b4 97 b8 bf 3f bb 7d 3f c3 7f f6 bf 52 10 0c 3f
       -1.4421296 0.9911384 -1.925774 0.547124
000020 f3 4e 09 40 b7 38 aa bf e2 2c 3c 3f 58 91 f4 bf
       2.1454437 -1.3298558 0.73505986 -1.9106855
000030 ef 84 ef 3d 9e 24 84 be e9 37 30 3f 1c 8b 44 be
       0.11695277 -0.25809187 0.6883531 -0.19193691
000040 8d 7a 55 bf 3e 8c 84 3e
       -0.8339012 0.25888246

value_matrix f4 [2, 5]
000000 92 71 5c 40 13 c7 ca c0 4b 11 36 c0 98 b5 d3 40
       3.4444318 -6.336801 -2.8448055 6.615917
000010 83 15 de 3f b6 b0 13 40 f8 ae 90 bf e7 e0 9f c0
       1.7350315 2.3076606 -1.1303396 -4.996204
000020 df 43 e9 3e 23 a7 47 c0
       0.45559594 -3.1195762

linear_layer1.weight f4 [9, 64]
000000 6c d0 aa be 2d 35 18 bd c5 97 61 be f4 21 de 3d
       -0.33362138 -0.037160087 -0.22030552 0.1084632
000010 6c a9 a7 3d 78 ab 3e 3d 98 69 d0 bc 47 49 5b be
       0.081866115 0.046550244 -0.025440976 -0.21414672
000020 21 47 a3 3c f5 ea e0 bc 6d 92 a1 be fe 4d 42 bd
       0.019931378 -0.027455786 -0.31557027 -0.04743766
000030 ff 28 80 be a5 dd 83 3e d7 da f2 3b ac 1c f7 bc
       -0.25031278 0.2575504 0.0074113416 -0.030165039
000040 6e 5d e9 3d 9b a0 52 3e 1e 28 30 3b 3c 35 21 be
       0.113947734 0.20569079 0.002687938 -0.15742964
000050 c5 d9 40 3d cb 60 17 3e 49 4e b1 3d b3 58 34 be
       0.04708268 0.14783017 0.0865751 -0.17611961
000060 e1 b9 02 be 0e 26 2c be e3 da 48 be b6 84 ad bd
       -0.1276622 -0.16811392 -0.19614749 -0.08472578
000070 82 55 e4 3c 3d 2c 0d 3e b9 c0 03 be da 01 03 3e
       0.027872805 0.13786407 -0.12866487 0.12793675
000080 90 fb 1c 3e c8 76 6a 3d 56 f4 2a 3e 06 e2 9c 3d
       0.15330338 0.057242185 0.1669477 0.07660298
000090 b4 2d 10 3e fc 29 b3 3a 22 80 d6 bd 4e f5 1c be
       0.14079934 0.0013669129 -0.10473658 -0.15327951
0000a0 92 d7 ea 3d 67 d8 bf bd 66 3d 01 bd 8d 5f ed bd
       0.11466898 -0.09367447 -0.031552695 -0.115904905
0000b0 94 b8 80 3a b5 64 b7 ba 81 fe db 3d 8b 1f 01 3d
       0.0009820634 -0.0013991805 0.10741902 0.031524222
0000c0 7b ff 01 be e7 61 30 3d 08 e3 08 be 50 c9 8f bd
       -0.12695114 0.043062117 -0.13367856 -0.07020819
0000d0 ba 6f cd 3b c4 a0 1f 3e 2a 13 92 bd 35 13 07 3e
       0.0062694224 0.15588671 -0.071325615 0.1319092
0000e0 e5 50 ed 3d c9 39 1a be ec 60 88 bd 59 9a c0 3b
       0.11587695 -0.15061106 -0.066591114 0.0058777747
0000f0 e3 65 df 3d ef 08 47 bd f8 4b cd 3d 34 e6 0e 3e
       0.10908105 -0.048592504 0.100242555 0.13955003
000100 88 25 3b be b9 27 f0 3d 31 c5 e0 3d 78 62 28 3d
       -0.18276036 0.117263265 0.10975111 0.041109532
000110 48 3d 7d bd 18 c4 cc 3c 65 95 f3 3d e6 1e 1f be
       -0.06182602 0.024995849 0.11893729 -0.1553913
000120 d8 cd 67 be 88 7e a6 3e c1 a2 35 be 0d 8d 6c 3e
       -0.22637117 0.3251841 -0.17737867 0.23100682
000130 6d 8a 20 be ed fc 48 bd 38 ef aa 3d 23 5f 92 bc
       -0.15677805 -0.049069334 0.083464086 -0.01786763
000140 5c 4c 92 3c 59 04 3f be 3d 6c 50 bd 7a df b1 3d
       0.017858677 -0.18654002 -0.050884474 0.08685203
000150 87 c1 c2 3d ba 27 77 be 30 98 28 be f2 f0 5c be
       0.09509569 -0.24136248 -0.16464305 -0.21576288
000160 14 a7 95 3d 47 c8 4e 3e 12 6e 39 be c3 8f 92 3c
       0.07307258 0.20193587 -0.18108395 0.017890817
000170 c4 1e 73 bd e5 0f 4a 3e 51 72 66 3e 33 21 3f be
       -0.059355512 0.19732626 0.22504546 -0.18665008
000180 ad e1 87 3e 5d 34 90 bd 5f 14 fc bc a7 d8 d3 3d
       0.26539364 -0.070412375 -0.030771432 0.103440575
000190 8b 81 96 3d 6e 59 96 bd 10 38 e2 3d c5 f4 f8 3d
       0.07348927 -0.07341276 0.11045849 0.12156061
0001a0 3a ee d7 bd 81 70 bd 3d 72 d1 ce 3d 5a d7 f1 3d
       -0.10543485 0.09249974 0.10098542 0.11808653
0001b0 75 37 1f 3e 6e 26 f1 3d 19 c9 46 bd b9 d6 b5 bd
       0.15548499 0.11774908 -0.048531625 -0.08878846
0001c0 72 30 84 3d 7c e5 fc 3c 9b f3 54 be 65 1f 28 3d
       0.06454553 0.030871145 -0.20796053 0.041045565
0001d0 6e 96 24 3c 85 63 4c 3e ec d9 1a 3e 59 c5 94 3e
       0.010045631 0.19959839 0.15122193 0.29056814
0001e0 8f 53 96 be 4d 3b 68 3d 27 fa 68 3e af e6 6b 3d
       -0.29360625 0.05669718 0.22751676 0.057593044
0001f0 56 13 45 be 6d 9f 51 3e 01 d0 da 3d 1e ab ac be
       -0.19245657 0.20470972 0.10684205 -0.33724302
000200 f0 74 54 be 19 6a c7 be 8d d2 79 be 1e 05 8e be
       -0.20747733 -0.38948134 -0.24396725 -0.2773828
000210 eb 5f f6 bd 56 13 ee bc 6a 6a 76 be 3f 1d 93 be
       -0.12030014 -0.029061954 -0.24064031 -0.2873325
000220 e2 ca c2 bd aa 83 78 bc c2 e3 20 be 7f 34 78 be
       -0.09511353 -0.01516811 -0.15711883 -0.24238776
000230 cc ee ca be 02 11 17 be 22 0b 18 be 45 a5 08 be
       -0.39635313 -0.14752582 -0.14847997 -0.13344295
000240 98 f9 83 3d 57 b7 64 be 6a f1 88 be 1a b0 9c bd
       0.064440906 -0.22335564 -0.26746684 -0.07650776
000250 32 6b c8 be b4 8f aa be ab 21 80 be f6 34 e5 bd
       -0.39144284 -0.33312762 -0.25025687 -0.11191742
000260 85 82 46 be 53 61 58 bd 6b 12 ad be 98 7a 33 be
       -0.19385727 -0.05282719 -0.33803114 -0.17527235
000270 0d 7d 17 3c 01 dd 61 3d 69 b7 85 be 4c 71 6b be
       0.009246123 0.055142406 -0.26116493 -0.22992438
000280 e2 83 ec 3e ea 23 de 3e f6 8b 87 3e 80 2e 8f 3e
       0.4619437 0.43386775 0.2647397 0.27965164
000290 b5 f1 90 3e 0c 95 d7 3e 57 88 91 3e 23 2b 06 3e
       0.28309408 0.421059 0.28424332 0.13102393
0002a0 fe 35 5b 3e 84 59 61 3e 53 5a 89 3e 55 ae f7 3d
       0.21407315 0.22006804 0.26826724 0.12093798
0002b0 96 a6 01 3f 74 7f 89 3e a7 8a 16 3f 3c dd 23 3f
       0.50644815 0.26855052 0.58805317 0.6400945
0002c0 59 85 0c 3f 64 16 4d 3e 9b dc d6 3e f1 3d c4 3d
       0.5489097 0.20028073 0.41965184 0.09582127
0002d0 55 8b f6 3e 64 e1 ec 3e 8f 17 55 3e 2a 9b b6 3e
       0.48153177 0.4626571 0.20809768 0.35665256
0002e0 f4 9e e5 3e 23 3a 3f 3d bb 6d d4 3e bf c0 a6 3e
       0.44847834 0.046686303 0.41489968 0.3256893
0002f0 44 2b 8e 3e 73 f7 7b 3d 86 9a da 3e 31 d3 af 3e
       0.27767384 0.061515283 0.42696017 0.34340814
000300 3a 7a e3 3c 97 b5 4a 3e 0a 4f 78 3e 4b 61 73 3c
       0.027768243 0.19795834 0.24248901 0.014854739
000310 9a 30 ad 3e d4 01 35 3e 91 ca b7 3e 32 2d 80 bc
       0.33826143 0.17676479 0.35896733 -0.01564655
000320 a5 c3 35 3e b7 b7 9b 3e 76 46 07 3e 48 47 ca 3d
       0.17750414 0.304136 0.13210472 0.09876877
000330 03 90 c7 3d a8 b4 90 3e e1 f9 9a 3d 85 69 e6 3c
       0.09744265 0.2826283 0.07567192 0.028126488
000340 17 38 81 3d 3d 39 dd 3d 36 d9 45 3e 97 0f a5 3e
       0.063095264 0.10801933 0.1932114 0.32238457
000350 82 56 a1 3d 8c 1b 81 3e 23 34 bb 3e 72 33 6a 3e
       0.07877828 0.2521633 0.36563215 0.22871187
000360 1a f5 34 3e 7b 95 c8 3e f7 2e e9 3d 32 cd 11 3e
       0.17671624 0.39176545 0.11385911 0.14238432
000370 6e f7 99 3e 9e 14 fa 3e 21 17 11 3e 76 5c 99 3e
       0.30071586 0.48843855 0.14168979 0.29953355
000380 9c 2e 7a be eb 8e 5a be 1f c4 00 3c c8 68 0a bd
       -0.24431843 -0.21343581 0.007859259 -0.033791333
000390 75 d0 09 bd 35 11 a3 be 32 5d 9d be 0e ec 4c be
       -0.033646066 -0.31849065 -0.30735165 -0.20011923
0003a0 15 e0 e6 bd a0 2d a7 be 52 60 6d be 25 06 93 be
       -0.11273209 -0.32651997 -0.23181275 -0.28715625
0003b0 cb 71 40 be a8 e1 0e be c6 d3 8f be df cc 94 be
       -0.18793409 -0.13953269 -0.28091258 -0.29062554
0003c0 61 dd 57 be 0a 2a 8c be 4c 51 9e be 44 d5 68 be
       -0.21080543 -0.27375823 -0.309214 -0.22737604
0003d0 42 d2 9d be bb 8d 70 be a3 14 a5 be 09 7e ac bd
       -0.30824476 -0.23491566 -0.32242307 -0.08422477
0003e0 94 eb bc be 5a 96 85 be 3c d4 de be bc 5a 2c be
       -0.36898482 -0.26091272 -0.43521297 -0.16831487
0003f0 65 86 b0 bd 3b 53 88 bd 1a b5 84 bd ec 90 a0 be
       -0.08619384 -0.066565 -0.06479855 -0.31360567

linear_layer1.bias f4 [9]
000000 3d 20 8b 3f 6b 8a fe 3e ac 25 8d 3f 51 50 a0 3f
       1.0869213 0.4971498 1.1027122 1.2524511
000010 45 fb a2 bf f2 6c 43 bf 40 45 5f 3e 7b e0 6c 3e
       -1.2732931 -0.7633811 0.2180376 0.23132508
000020 80 a8 5f 3d
       0.054604053

linear_layer2.weight f4 [2016, 5]
000000 a6 e2 8e bd 05 38 be 3d d3 d8 cd bc f7 7c 18 be
       -0.069768235 0.09288029 -0.025127804 -0.1489142
000010 6f e9 e6 bd 72 30 cb bd 2d d2 59 3e 47 ce 0f bd
       -0.11274993 -0.099213496 0.21271582 -0.03510883
000020 0d 94 43 be fc 54 c0 bd fb cc 86 bd a4 fd 16 3e
       -0.19099446 -0.093912095 -0.06582066 0.14745194
000030 a9 08 0d be 1b 16 2c be fd 7d 0b be e3 d5 d8 bd
       -0.13772835 -0.16805308 -0.1362228 -0.10587671
000040 2c 2a 03 3e e1 b1 9b 3e 3c eb 69 bd 2a c0 49 3e
       0.12809056 0.30409148 -0.057109103 0.19702211
000050 33 ea 8a bd da 5b f6 3d c4 ca d8 bc 59 7c 24 be
       -0.06782951 0.12029238 -0.026463874 -0.1606306
000060 65 07 6c bd 9f a6 d1 bd 4e d8 2d 3e 78 66 bb 3d
       -0.05762424 -0.102368586 0.16977045 0.09150404
000070 bf 2b ba bd 11 a3 da bc dc 16 98 bc 55 7f 78 3e
       -0.09090375 -0.026689084 -0.018565588 0.24267323
000080 f0 5d 9c bd 6b 5d 98 be 11 b6 19 be c7 3a 41 bd
       -0.07635105 -0.29758772 -0.15010859 -0.047175195
000090 49 3a 68 3e a0 c1 2e bc ac d1 53 be 1c 48 12 be
       0.22678484 -0.010666281 -0.20685452 -0.1428532
0000a0 d9 d2 fa bd 29 34 a0 3e 13 4b 82 3d 44 9b 5d be
       -0.12247247 0.31289795 0.063619755 -0.2164126
0000b0 6d 0d df bd 8f a9 05 bd 81 5c 40 3e 6b 5e 95 bd
       -0.10891233 -0.032632407 0.18785287 -0.072933994
0000c0 02 6c 8a be b4 d3 63 be 88 42 22 bd c4 f3 3a 3e
       -0.27035528 -0.22248727 -0.03961423 0.18257052
0000d0 bf 86 82 3c a5 14 2d be 37 ce af bd ed 95 50 3d
       0.015933393 -0.16902407 -0.08584254 0.05092423
0000e0 70 76 51 3d 49 14 de bd 6f f8 fd bd e3 81 13 be
       0.05113834 -0.10843713 -0.124009006 -0.14405017
0000f0 b7 ac 95 bd cf 1e b0 3e b2 58 df bd 32 8d eb be
       -0.07308333 0.34398505 -0.10905589 -0.4600616
000100 c7 d8 6b be d9 00 12 be 71 ff 4d 3e 29 78 c2 3d
       -0.23031913 -0.14258136 0.20116974 0.09495575
000110 cc 22 56 be a1 06 aa bc 83 a1 40 3c fd a5 59 3e
       -0.20911711 -0.020755114 0.011757257 0.21254726
000120 ce 9e 76 be 6a a3 9b be 0b 0f 8d be 36 ba 8e bd
       -0.24084017 -0.30398113 -0.2755054 -0.06969111
000130 e7 ca 31 3e 65 91 bc 3d b8 00 4a be 09 e9 01 bc
       0.17362557 0.09207419 -0.19726837 -0.007929095
000140 3f 67 be bd b6 3d d2 3d f9 78 87 3d 57 46 38 be
       -0.092970364 0.10265677 0.066148706 -0.17995583
000150 02 0c 4a bd 20 fc 1c be aa a0 21 3e 16 fb 44 3e
       -0.049327858 -0.15330553 0.15783945 0.19236407
000160 4b 21 4f be 18 28 67 3d 9e 41 e7 bd 7f f9 12 3e
       -0.20227544 0.05643472 -0.11291812 0.14352988
000170 ce 63 73 3e 03 ee 37 be 32 0c db 3d 74 2b 57 3d
       0.23768541 -0.17961888 0.106956854 0.052531675
000180 29 01 6f 3e 6e 83 4c be 69 a6 92 be 2f 70 9f be
       0.23340286 -0.19972011 -0.28642586 -0.31140277
000190 d5 41 79 be 05 91 72 3e fa fc b3 3e 69 96 2a be
       -0.24341519 0.23688133 0.35153943 -0.1665894
0001a0 7f 78 0c 3e ec 37 5b 3d 35 eb c4 3d 5c ab 5a be
       0.1371784 0.053520128 0.09615175 -0.21354431
0001b0 86 b8 ed bd 02 8e 53 be 1e 31 57 bd 2e d2 f0 3d
       -0.11607461 -0.2065964 -0.052537076 0.117588386
0001c0 97 27 90 bd 65 ba 37 be 95 3c 28 be ac e7 19 be
       -0.07038801 -0.17942198 -0.1642936 -0.15029782
0001d0 77 be 62 3d 9d fe ad 3e ca e0 40 3c b2 09 5c 3e
       0.055357423 0.33983317 0.011772344 0.21488073
0001e0 53 99 f6 3d 7c 03 8e 3d 5f 81 9d be e4 6c cc bd
       0.12040963 0.06934258 -0.30762765 -0.09981707
0001f0 d9 f4 61 be 4d 74 63 be 26 59 d7 3d b8 d2 c0 3e
       -0.22066058 -0.22212334 0.105150506 0.37660766
000200 92 1c 49 bd 83 0a 69 3e c7 1b b2 bd 02 c2 39 3e
       -0.049099512 0.22757916 -0.08696704 0.18140414
000210 52 9d 73 3b ca 34 fd bd 43 06 6b bd d3 33 3f be
       0.0037172628 -0.12363584 -0.05737902 -0.18672113
000220 a7 6f 90 3e 04 af 65 3e 9d 83 8b be b5 db 3a 3d
       0.28210184 0.22430044 -0.2724885 0.045619685
000230 e7 99 fd bc ae af 91 bd aa 02 69 3e 0e 76 e4 3c
       -0.030957175 -0.07113586 0.22754923 0.027888324
000240 b6 e7 43 3e c3 96 dd bc a4 6d 61 3e f6 09 9f 3b
       0.1913136 -0.027049428 0.22014481 0.0048534824
000250 aa 0a 6d be f6 7c 00 be 3e 58 87 be c6 1c 79 3e
       -0.231486 -0.12547669 -0.2643451 0.24327382
000260 a4 3c d4 3e 99 9c ee bd 2c 6c e4 3d e3 52 0f be
       0.41452515 -0.116509624 0.11153445 -0.13996463
000270 a9 70 1f 3e 5a b8 f4 3d 9b 7a 23 be 8d 11 bd ba
       0.1557032 0.11949225 -0.15964739 -0.0014424786
000280 e4 a5 60 bd 7d 56 4c 3d b6 e7 81 3c aa c1 aa bc
       -0.054845706 0.04988717 0.015857559 -0.0208443
000290 4b d9 b9 bc 50 ff 4d bd f0 41 8e 3d b7 ae 98 3c
       -0.022686621 -0.050292313 0.0694617 0.018637998
0002a0 d7 2e bd bd 73 63 e3 ba cd 61 3b bc d4 e4 5a 3d
       -0.092374496 -0.0017348364 -0.011436892 0.053440884
0002b0 75 bc 44 bc 53 19 13 bd e8 cb 16 bd d0 df 16 3e
       -0.012007822 -0.035912823 -0.036815554 0.14733815
0002c0 d4 be d7 bd d8 30 f6 bd 45 94 3c 3e a4 4d c5 3c
       -0.105344445 -0.12021035 0.18415935 0.024084873
0002d0 10 8f 86 3c 4e 44 9d bd 31 e7 5f bd 57 3d 5c 3d
       0.01642564 -0.07679044 -0.05466384 0.053769436
0002e0 0b ad 87 bc 52 21 52 3d 4b a0 24 be 06 79 af bd
       -0.016562006 0.051301308 -0.16076772 -0.08568005
0002f0 3d 39 15 3e 4c ec f7 bc de 6c 09 3d 9e 39 80 bc
       0.14572616 -0.030264042 0.03355109 -0.015652474
000300 25 cd 6c 3c f8 f2 6a 3d ba 6f cf bc ce 3b aa bd
       0.014453207 0.05736062 -0.02532183 -0.08312188
000310 ec 21 d7 3d cf 8c 94 3d 82 b9 d7 bd 0e e7 b0 bc
       0.10504517 0.072534196 -0.1053343 -0.02159455
000320 72 01 11 bd 2c d3 92 3d 56 6a dc 3d 51 de fd bd
       -0.03540177 0.07169184 0.107624695 -0.12395919
000330 f1 e4 c9 bc 3b fa 6b bc 73 52 2d 3d 22 b1 8c 3d
       -0.0246453 -0.014402921 0.042314958 0.06869723
000340 33 1b 9f bd 1a 9f 1d 3c a7 7d 60 bd 0c 98 f4 3c
       -0.0776886 0.009620452 -0.05480733 0.029857658
000350 73 93 b9 3b ff 02 d2 bd b4 2b 0e 3b 90 dd 0e 3e
       0.0056633293 -0.10254478 0.002169353 0.13951707
000360 7b dc 03 be 7c 4f 9e bd 34 b2 02 3e 28 56 51 3d
       -0.12877075 -0.07730004 0.12763292 0.051107556
000370 ae 98 a2 3c 1a 00 59 bd ca 6b 1e bd e4 db 4c 3d
       0.019848194 -0.052978612 -0.038677014 0.05001439
000380 87 88 d5 3c cf 8f 81 3d d0 55 10 bd 47 c8 e1 ba
       0.026066078 0.063262574 -0.035238087 -0.0017225825
000390 90 9d 43 3d ff 87 50 3d d5 3b 36 bd 39 5f 33 3e
       0.047757685 0.050910946 -0.044490654 0.17516793
0003a0 30 65 81 3d 06 e7 18 be 34 67 2b 3d 96 67 dc 3c
       0.06318128 -0.14931878 0.04184647 0.026904862
0003b0 1c a0 21 bd eb 94 2d bd 6f 95 8a 3d 70 4a ed bc
       -0.039459333 -0.042378347 0.067667834 -0.028966159
0003c0 bb 89 20 bd b9 ec 83 3c 0e 85 a3 bb f2 aa 7c 3d
       -0.03919385 0.01610409 -0.0049902266 0.061686464
0003d0 f0 47 fe bc 06 70 f6 3b b5 b7 64 3d d3 e3 be 3d
       -0.031040162 0.0075206785 0.05583926 0.09320798
0003e0 14 6d 8c bd a4 66 97 bb e2 9a 76 3d 8a bb 7f bd
       -0.068567425 -0.00462039 0.0602063 -0.06243471
0003f0 91 e8 4f bd 82 97 0b 3e a8 c7 22 bd bb 71 0d 3d
       -0.050758902 0.13632014 -0.03974119 0.03453229

linear_layer2.bias f4 [2016]
000000 fe d5 9f be f0 e8 2c 3f 66 12 f5 be 03 d9 ce 3e
       -0.3121795 0.67542934 -0.478656 0.40399942
000010 f9 72 69 bf 70 eb 8e 3e bf b9 a2 3e 31 ca 3a 3f
       -0.9119106 0.27914 0.31782338 0.7296477
000020 76 26 8e 3f 1a 4b c6 3e 48 34 ab 3e e3 d8 a3 bf
       1.1105487 0.38729173 0.33438325 -1.2800564
000030 03 90 b8 3e 5a f5 49 bf 10 62 9e be c7 94 e8 3e
       0.36047372 -0.7889 -0.3093419 0.45426008
000040 a9 93 f1 3e 7c f9 3d be 73 30 c7 be 44 71 f2 be
       0.47182968 -0.18552202 -0.3890415 -0.4735204
000050 45 db 82 3f a0 f4 ae bf 05 76 2f bd 7c d7 26 bf
       1.0223166 -1.3668404 -0.04283716 -0.65172553
000060 91 93 01 c0 a8 0a f7 3e 4d 4d 03 bf e8 ab f0 3f
       -2.0246317 0.48250318 -0.51289827 1.8802462
000070 1d 60 0c c0 9d 5b 08 bd db 56 2e 3f c9 52 a4 3f
       -2.1933663 -0.033290494 0.6810128 1.2837764
000080 74 c2 4d 3d 57 66 a8 3e 06 c0 40 3e 23 14 da bf
       0.050234273 0.3289058 0.18823251 -1.7037395
000090 67 e0 34 bf ea 51 ce bf 06 6c c7 be 6d 79 87 3f
       -0.7065491 -1.6118748 -0.38949603 1.0583931
0000a0 21 54 90 3f 84 bd 9c 3e d4 02 cf 3e a1 8d be bf
       1.1275674 0.3061334 0.40431845 -1.4886972
0000b0 68 d7 51 bf 66 58 a5 be d8 f4 86 3f 33 31 43 bf
       -0.8196931 -0.32294005 1.054347 -0.7624695
0000c0 c6 de a1 be 19 2c 0a 3f e3 fd 9c bf fb 90 2a bd
       -0.31615275 0.5397354 -1.226498 -0.04164217
0000d0 cd bf 0b 3e b7 38 13 bf 4a 2c 40 be 73 f5 1f bf
       0.13647385 -0.57508415 -0.18766895 -0.624839
0000e0 79 60 f8 bf 86 7f 43 3e 9d f9 1e bf 6d a7 48 bf
       -1.9404441 0.19091615 -0.6209963 -0.7838047
0000f0 f3 a8 4e 3f 6a 3c de bf c9 ef 11 3e 97 ab 11 3f
       0.80726546 -1.7362187 0.14251627 0.5690245
000100 8c 56 cf 3e ae 3b 99 be 54 28 5d bf 50 fe c4 bf
       0.40495718 -0.29928344 -0.8638966 -1.539011
000110 d3 08 12 be de 4e 5f 3e b6 bc 07 3f 64 dd f0 bf
       -0.14261179 0.21807429 0.53022325 -1.8817563
000120 56 8e ba 3f 85 2b f8 3f f8 d5 f4 bf ed 30 8b 3f
       1.4574687 1.9388281 -1.9127798 1.0874306
000130 86 44 56 bf 82 79 3f 3f 34 ee df bf 41 a2 93 3f
       -0.8369831 0.7479478 -1.7494569 1.1533891
000140 be 7d 20 3f 9f 8c cc be 90 bf c4 be e2 47 8c 3d
       0.6269187 -0.39951035 -0.384274 0.06849648
000150 bd f5 38 3f 83 ff f5 3f 63 ad 11 bf d9 cd 3d bd
       0.72249967 1.9218601 -0.5690519 -0.04633889
000160 4a cb 66 3f 16 00 53 3e c0 bb 37 3f 66 95 bc bd
       0.90153944 0.20605502 0.7177086 -0.09208183
000170 4f 6c 0e 3f b3 bb c1 be 4e b3 48 3f 92 ee 03 3e
       0.55634016 -0.37838516 0.783986 0.12883976
000180 8d 98 84 bf 21 5f 1c bf a5 18 87 bf ca be c7 3f
       -1.0359055 -0.61082655 -1.0554396 1.5605099
000190 10 bf d8 3c 8a 90 8d 3f 94 ae 59 3f 96 34 29 bf
       0.026458293 1.1059735 0.8503201 -0.66095865
0001a0 1d e2 7e 3f 4b 29 9b 3f 64 a3 c4 3e 94 78 5e bf
       0.9956377 1.2121977 0.38405907 -0.8690274
0001b0 78 f3 0f 3f 38 48 c3 bf 1c 50 e5 3d b4 c5 63 3f
       0.5623088 -1.5256414 0.1119692 0.88973546
0001c0 05 b6 22 3f 20 49 eb 3f 76 86 56 3f 07 2f 15 3f
       0.6355899 1.8381691 0.8379892 0.58274883
0001d0 f9 2e 6c 3f d9 f0 9a 3c 52 c3 69 3e e1 ce b7 be
       0.92259175 0.018913673 0.22828415 -0.35900024
0001e0 35 dd 87 3f 75 51 9a be 53 08 12 3f e0 1f 02 40
       1.0614382 -0.30140272 0.5704395 2.0331955
0001f0 79 de 79 3d 76 2e 08 3f 9e ed 55 bf 8b 58 40 bd
       0.061003182 0.53195894 -0.835657 -0.04695944
000200 cb 39 81 bb de 53 51 3f d9 aa 3a be c7 bc 6b bf
       -0.003943657 0.81768596 -0.18229236 -0.92084926
000210 72 3a 19 bc 31 47 80 3d fd 8d a2 bf cb 82 02 c0
       -0.009352313 0.06263579 -1.2699581 -2.039233
000220 90 ae 62 bf cd b1 90 bf 0a b7 a6 3f 6f 0e fa 3e
       -0.8854761 -1.130426 1.3024609 0.48839137
000230 5c bb c4 bf 12 95 ac bf 8a a0 15 bf 12 a7 5c 3e
       -1.5369678 -1.3482993 -0.5844809 0.21548107
000240 e7 ca 81 bd 31 41 d5 bf c2 10 07 bf cd 74 76 bf
       -0.06337529 -1.666052 -0.52759945 -0.96271974
000250 6b a5 8a bf 21 36 dd 3f d9 8d b5 3e 76 4d 04 bf
       -1.0831732 1.7282144 0.35459784 -0.51680696
000260 95 26 78 be fb 2d 06 c0 ca e4 4b 3d 1c 3d 4c bf
       -0.24233468 -2.0965564 0.049778737 -0.79780746
000270 aa 06 a7 3f 47 b3 5a 3f 2c 82 bd 3d 21 da aa 3c
       1.3048909 0.85429806 0.09253344 0.020855965
000280 c1 93 e0 3f 38 7a b3 be be 2c 3b c0 95 93 84 bf
       1.7545091 -0.35054183 -2.9246058 -1.0357538
000290 f8 e1 5e 3f 93 d1 bf bf 49 65 8d 3f 12 c7 e1 3f
       0.8706355 -1.4985832 1.1046535 1.7638876
0002a0 ad 54 6e bf 5d 65 7e 3e 96 86 98 3f 4d 51 42 bf
       -0.93097955 0.24843355 1.1916072 -0.75905305
0002b0 2a a9 e8 bf cb ec db 3e 74 e1 4c 3f dd 6f 82 bf
       -1.8176625 0.42954096 0.80031514 -1.0190388
0002c0 c3 a5 13 3f 0f 1d ac 3e f9 19 8a 3f 3d 4e 1e 3f
       0.5767481 0.3361592 1.0789176 0.6183813
0002d0 30 af 77 bf b4 fd 3b 3f d4 02 39 3f 77 fd 17 3e
       -0.9675169 0.73433995 0.7226994 0.14842783
0002e0 54 12 c6 3f e9 94 46 be 3d db e2 bf 7f 55 96 bd
       1.5474343 -0.19392742 -1.7723156 -0.07340526
0002f0 36 de 2d bf eb f0 22 be 58 82 a6 3f 50 f0 94 bf
       -0.6791719 -0.15912215 1.3008528 -1.1635838
000300 8a 83 e6 be 6d 5e cb bf e7 02 06 bf 07 7f c0 3f
       -0.4502223 -1.5888191 -0.5234818 1.5038766
000310 5b e3 f7 bf e0 2a 71 3f 06 74 db bf 81 a0 d9 3e
       -1.9366258 0.9420605 -1.7144783 0.42505267
000320 51 08 12 3f fb 4d 71 3d a3 95 82 bf 61 57 7a bf
       0.5704394 0.05891226 -1.0201916 -0.9778958
000330 e7 18 2c bf 4c da 66 bf 7e 1a 9d 3f e6 47 24 be
       -0.672255 -0.90176845 1.227371 -0.16043052
000340 96 06 ad 3e 86 d1 67 3f a5 b9 06 3f 43 9f 0f 40
       0.33794087 0.9055408 0.5262702 2.2440956
000350 c0 ed 0a 40 1b 3a c0 3f 59 7b 0c 40 06 0a 87 3e
       2.170761 1.5017732 2.1950285 0.26374835
000360 c1 31 bb be c7 c3 5c 3d 0b b5 89 3d 37 14 94 bd
       -0.36561397 0.053897645 0.06723984 -0.07230418
000370 26 a6 8d 3f 0f 4d d6 bb ef 17 4f bf 59 74 6f bf
       1.106633 -0.006539948 -0.80895895 -0.9353691
000380 ae d4 49 3f 93 7a 2c bf e3 38 25 bf 05 1c 5b bd
       0.7884015 -0.67374533 -0.6453993 -0.05349352
000390 08 e9 3a bf b2 73 6c 3f f6 07 00 be 4a 54 81 3f
       -0.7301183 0.9236404 -0.12503037 1.0103848
0003a0 2d b9 00 bf c3 7b e3 3f f5 77 b5 be 1f f6 71 bf
       -0.50282556 1.7772144 -0.35443082 -0.94516176
0003b0 a9 59 30 be 33 26 d6 bd 3e 7c b9 3e 79 10 11 3e
       -0.17221703 -0.10456505 0.36227602 0.1416644
0003c0 be 86 5f be 21 d6 23 bf 6b 35 eb 3f d3 61 79 bf
       -0.21828744 -0.6399861 1.8375677 -0.9741489
0003d0 1e 85 c5 3f 86 6e cb 3f 23 7a c6 3d ef a5 d7 bf
       1.5431249 1.5893104 0.096912645 -1.6847514
0003e0 0f df 64 3d 0e a6 00 3e 19 fc 2d 3e 06 7c aa be
       0.055876788 0.12563345 0.16990699 -0.33297747
0003f0 30 15 13 be fa ff 43 bc 28 e6 c5 3e 36 11 d0 3e
       -0.14363551 -0.011962885 0.38652158 0.4063813
