model/Artificial_Data_LogF_True_epoch_6000_attention_net_u_artificial_Q_9_K_2_F_5_REG_L0_ACT_sigmoid_WD_000001_CV.model (torch_old, 51933 bytes, 6 tensors)

key_matrix f4 [9, 2]
0.13046528 -0.42361972 -2.0612547 -0.046800956 0.4426466 0.665635 0.16848353 -0.25850508
0.4299543 -0.6485765 -2.39383 0.9594523 0.4142058 -0.58871657 -1.2559552 -0.9018035
-0.57329226 0.48358816
00000000: b198 053e afe4 d8be 99eb 03c0 5cb2 3fbd
00000010: 93a2 e23e 0e67 2a3f f286 2c3e c75a 84be
00000020: f822 dc3e 1c09 26bf 8334 19c0 aa9e 753f
00000030: c812 d43e 21b6 16bf 24c3 a0bf 98dc 66bf
00000040: 48c3 12bf de98 f73e

value_matrix f4 [2, 5]
-3.668969 -1.8329875 2.3181543 -2.7221205 -0.42021868 3.9301171 -3.3720703 5.593549
-7.7899437 1.2233388
00000000: 63d0 6ac0 569f eabf a45c 1440 3937 2ec0
00000010: e726 d7be 0a87 7b40 00d0 57c0 5afe b240
00000020: 3847 f9c0 5e96 9c3f

linear_layer1.weight f4 [9, 64]
-0.06902216 0.103205346 0.009649905 -0.10975479 0.06645044 0.20564994 0.18595633 -0.0957271
0.06238627 -0.003915876 0.2962611 -0.119138815 0.23820056 0.12687008 -0.1469903 0.007742432
-0.10155851 -0.063239716 0.19257525 0.2448478 0.19532248 0.18759261 0.1349622 0.10334702
-0.24564484 -0.06723127 0.1917187 0.098210014 0.029555462 0.25479668 -0.16885267 -0.121153444
0.05848598 -0.19751285 -0.2847273 -0.025155412 0.14827125 -0.0016930231 -0.27822626 0.102639705
0.088565245 0.07975804 0.0022072913 0.10267601 -0.333539 0.14405473 0.19414209 -0.24673155
-0.12864655 0.15687364 -0.06745507 -0.20426476 -0.18284698 -0.00068325555 -0.2253265 0.011135632
-0.18913536 0.17048135 0.055220675 -0.28213736 0.032997247 -0.058492362 -0.28261405 -0.14328066
0.004449598 0.1322978 -0.041852448 0.17361085 0.2869424 0.30303958 0.05610339 0.036351066
0.25620607 0.00769647 0.09875518 0.32204401 0.12010477 0.0645615 0.019794336 0.30437738
0.13019411 -0.07082236 -0.069537975 0.056415655 0.19060561 0.19023694 0.12417319 0.15184873
-0.0021015974 0.121241175 0.16256756 0.23319195 0.24196213 -0.09115242 -0.022283036 0.17672616
-0.3881834 -0.25619623 -0.4987686 -0.56666875 -0.36961964 -0.44693714 -0.518644 -0.32377124
-0.47552258 -0.44527063 -0.6415725 -0.24457984 -0.56297493 -0.46338132 -0.34963253 -0.6366485
-0.5461173 -0.74614805 -0.29372078 -0.28253102 -0.17154428 -0.6281619 -0.62309366 -0.42293927
-0.24687544 -0.5008091 -0.4441511 -0.3709815 -0.31902558 -0.27325705 -0.22849485 -0.6777691
0.04234968 0.23041269 -0.046748687 0.24238937 -0.23410816 -0.041055113 0.19139707 0.13875973
-0.14584593 0.21827339 -0.1949545 -0.15221103 0.20645952 -0.12785137 -0.24484335 0.08525113
0.1534963 -0.06713253 0.11228678 0.32528812 -0.0036398135 0.20423889 0.20497236 -0.0050503216
-0.21287188 -0.04449214 -0.02267036 -0.13507572 -0.010553677 -0.23240107 0.109329924 0.031839784
0.08273506 0.21786122 -0.2826492 -0.02928943 0.27380767 -0.23778276 0.120867275 0.17035662
-0.2122829 0.14086373 0.055410035 0.16469492 -0.04371756 0.12690003 0.24290957 0.17247061
0.13518699 0.052054033 0.11171287 0.09630652 -0.15879215 -0.040299777 0.14210184 -0.13060378
0.2063057 -0.1512286 -0.05632254 0.078816965 0.2460866 0.02292534 0.1681552 0.18074587
0.040030677 -0.07232402 -0.16702265 -0.04592627 0.110603824 -0.15917619 -0.09016348 0.18218963
0.16186991 0.32360095 0.2773771 0.090151966 -0.27345815 0.05280501 -0.136952 0.06599224
-0.18733387 -0.038953 -0.22684523 0.16543475 0.04674563 -0.13465802 0.20406881 0.1699991
0.20049296 0.14676867 -0.06882961 0.2215725 0.15236808 0.019464748 0.060713615 0.09680994
0.16762725 0.14096822 -0.17412601 4.043576e-05 -0.08772377 -0.29522756 -0.08946748 -0.043223783
-0.119631395 -0.23911211 -0.24989058 -0.14019884 0.16352665 -0.10058187 -0.2011923 -0.3037101
-0.16126612 0.09333307 -0.3240356 -0.31408817 0.18504347 -0.2857323 0.086353876 -0.10398165
-0.13730809 -0.14669381 -0.09648703 -0.036176484 -0.14209273 -0.29566053 0.124128714 -0.31061327
00000000: 7d5b 8dbd 535d d33d a31a 1e3c 1fc7 e0bd
00000010: 2b17 883d e695 523e 566b 3e3e 920c c4bd
00000020: bf88 7f3d c050 80bb 89af 973e 0dff f3bd
00000030: d9ea 733e 3bea 013e a084 16be 3ab4 fd3b
00000040: e8fd cfbd d383 81bd 7232 453e 62b9 7a3e
00000050: 9e02 483e 4718 403e 8833 0a3e 9aa7 d33d
00000060: 528a 7bbe 8cb0 89bd e851 443e 5522 c93d
00000070: 4c1e f23c b674 823e b7e7 2cbe 4c1f f8bd
00000080: ff8e 6f3d cf40 4abe c7c7 91be b912 cebc
00000090: 6bd4 173e 6ee8 ddba ac73 8ebe c434 d23d
000000a0: b261 b53d 2f58 a33d 34a8 103b cd47 d23d
000000b0: a0c5 aabe 1583 133e 2fcd 463e 32a7 7cbe
000000c0: ecbb 03be 7ca3 203e e225 8abd c82a 51be
000000d0: 3d3c 3bbe 811c 33ba fdbb 66be 3a72 363c
000000e0: b3ac 41be aa92 2e3e 132f 623d 4f74 90be
000000f0: 1f28 073d b095 6fbd cab2 90be 2ab8 12be
00000100: efcd 913b 1379 073e 796d 2bbd 0bc7 313e
00000110: 1dea 923e 0128 9b3e abcc 653d dbe4 143d
00000120: 712d 833e ab32 fc3b 2840 ca3d f4e2 a43e
00000130: 7df9 f53d d238 843d bb27 a23c 5ad7 9b3e
00000140: 9b51 053e 500b 91bd ed69 8ebd 1a14 673d
00000150: 1e2e 433e 79cd 423e 834e fe3d 3c7e 1b3e
00000160: f4ba 09bb 4b4d f83d 1c78 263e dfc9 6e3e
00000170: ecc4 773e 1fae babd ea8a b6bc b4f7 343e
00000180: f9bf c6be 272c 83be 995e ffbe 3411 11bf
00000190: c93e bdbe f2d4 e4be dac5 04bf 58c5 a5be
000001a0: b277 f3be 83fa e3be 183e 24bf 2373 7abe
000001b0: 201f 10bf 5140 edbe 0903 b3be 65fb 22bf
000001c0: 58ce 0bbf 8f03 3fbf 9262 96be e8a7 90be
000001d0: 4ea9 2fbe 38cf 20bf 1183 1fbf 7f8b d8be
000001e0: eacc 7cbe 0635 00bf c667 e3be 4af1 bdbe
000001f0: 5257 a3be 59e8 8bbe 8efa 69be 4782 2dbf
00000200: dc76 2d3d 4ef1 6b3e 8d7b 3fbd eb34 783e
00000210: 0dba 6fbe 6829 28bd 98fd 433e 0817 0e3e
00000220: a358 15be 0f83 5f3e 27a2 47be 35dd 1bbe
00000230: 206a 533e 78eb 02be 37b8 7abe 2598 ae3d
00000240: 222e 1d3e c87c 89bd 9cf6 e53d 2a8c a63e
00000250: f089 6ebb 0024 513e 46e4 513e 2b7d a5bb
00000260: 16fb 59be 643d 36bd 31b7 b9bc 4a51 0abe
00000270: 54e9 2cbc 8cfa 6dbe 5ee8 df3d 6f6a 023d
00000280: 0071 a93d 0317 5f3e 65b7 90be 63f0 efbc
00000290: 8530 8c3e 537d 73be 4389 f73d f771 2e3e
000002a0: b060 59be 953e 103e a2f5 623d c9a5 283e
000002b0: 2f11 33bd 15f2 013e 49bd 783e 239c 303e
000002c0: 756e 0a3e 9c36 553d b8c9 e43d 5a3c c53d
000002d0: 699a 22be 6111 25bd 2583 113e ffbc 05be
000002e0: cd41 533e acdb 1abe 77b2 66bd ca6a a13d
000002f0: 20fe 7b3e eccd bb3c e030 2c3e 7215 393e
00000300: 35f7 233d 9e1e 94bd fc07 2bbe 2f1d 3cbd
00000310: 4284 e23d 15ff 22be a1a7 b8bd eb8f 3a3e
00000320: 3ac1 253e 06af a53e 5f04 8e3e 98a1 b83d
00000330: b502 8cbe 114a 583d 253d 0cbe f126 873d
00000340: 73d4 3fbe 2e8d 1fbd 1e4a 68be ba67 293e
00000350: 5978 3f3d cbe3 09be 6af7 503e 3e14 2e3e
00000360: 074e 4d3e 874a 163e 8af6 8cbd e7e3 623e
00000370: 6106 1c3e 8974 9f3c d7ae 783d 4a44 c63d
00000380: 7aa6 2b3e f959 103e 174e 32be 9199 2938
00000390: 85a8 b3bd 1128 97be ba3a b7bd 6c0b 31bd
000003a0: 4e01 f5bd ced9 74be 51e3 7fbe 4990 0fbe
000003b0: 8873 273e defd cdbd 5b05 4ebe e47f 9bbe
000003c0: f222 25be 6925 bf3d ffe7 a5be 2ad0 a0be
000003d0: 097c 3d3e 814b 92be 4dda b03d 55f4 d4bd
000003e0: 7e9a 0cbe e736 16be fe9a c5bd cb2d 14bd
000003f0: c280 11be d160 97be 3237 fe3d b408 9fbe

linear_layer1.bias f4 [9]
0.5839031 -0.617504 -0.1089625 0.32283965 0.11807514 -1.0236931 -0.06823869 -0.4189135
-1.1257683
00000000: ac7a 153f be14 1ebf bb27 dfbd 3d4b a53e
00000010: 61d1 f13d 6008 83bf bac0 8bbd d57b d6be
00000020: 2d19 90bf

linear_layer2.weight f4 [2016, 5]
-0.094342016 0.10666795 -0.1197367 0.24246226 0.021318922 -0.16698612 0.10040414 -0.16833302
0.19220665 -0.01601728 -0.23386638 0.06638249 -0.053384677 0.18831827 -0.0022687716 0.16124678
0.06706564 -0.09599 0.06280375 -0.03248008 0.0254285 0.14852802 -0.18046016 0.3000875
-0.048164524 -0.06900268 0.06118702 -0.12484191 0.17869902 -0.008962795 -0.43623707 -0.034669273
-0.041565374 0.05561712 -0.13833492 -0.23873736 0.018878723 -0.07881479 0.16798271 -0.07141111
-0.31743374 0.037389755 -0.09772623 0.1001189 -0.035768494 -0.474884 0.0001842298 -0.0023858768
0.10238561 -0.06603744 -0.25326908 0.0145028485 -0.06621243 0.113173865 -0.0038517383 -0.23993482
0.03786644 -0.010928301 0.0065579223 -0.06587788 -0.41300008 0.031665713 -0.22454718 0.32061416
-0.14379802 -0.104086064 0.1254232 -0.19313139 0.24358591 -0.014205512 -0.43891263 -0.0015839223
-0.064737774 0.18544368 -0.029879855 -0.074250475 0.0856725 -0.12471795 0.1118166 -0.034254976
-0.0935251 0.01719313 -0.13961442 0.102832794 -0.081252955 0.015383182 0.1801717 -0.27977902
0.41041574 -0.048073787 0.13857505 0.13160607 -0.13816479 0.27772182 0.029252736 -0.31941432
-0.0011583333 -0.11868453 0.21215706 -0.033807635 0.09129715 0.15270792 -0.24944712 0.25990576
0.011596511 -0.13455194 0.062339947 -0.15889177 0.18070832 -0.02002047 -0.33829564 -0.056480553
0.048081614 -0.03422757 -0.06800322 0.5331946 0.27274647 -0.2888074 0.30054972 0.07904811
-0.36559406 -0.11922246 0.07347419 -0.051897895 -0.09235432 0.17747052 0.08548462 -0.020135315
0.060023624 0.028026732 0.03912244 0.12072817 -0.25717402 0.27561942 -0.06978817 -0.22437201
0.06496778 -0.08780318 0.102702945 -0.08227651 0.45820007 0.1925587 -0.2414844 0.22519104
-0.0011706185 -0.1519019 0.1028398 -0.25343105 0.30553895 -0.011460784 0.01360132 0.12516683
-0.11212373 0.11286824 -0.030843047 -0.03462038 0.056171283 -0.100376375 0.109945804 -0.06437861
0.050876148 0.023344208 -0.021832554 0.022787489 0.03806167 -0.034967538 0.03828799 -0.06784935
0.11207216 -0.005622293 -0.035073537 -0.018440207 0.0017676336 0.0008440349 -0.0140921185 -0.047814813
0.085799955 -0.160627 0.24410553 -0.033624817 -0.025647225 -0.07416039 -0.007883867 -0.08684113
0.058987524 0.093371145 -0.11898913 0.16284937 -0.19594263 0.008096823 -0.002393058 0.014806282
-0.119185515 0.11065787 0.032864716 0.08037272 -0.19432315 0.21336249 -0.34602728 0.06745185
0.048479572 0.0018242738 0.029217457 -0.06747988 0.022390006 0.07728252 -0.022702066 0.09608191
-0.15564229 0.0022522535 -0.104200594 0.12864801 -0.21161997 0.2776211 -0.025615556 0.036957186
-0.034830008 0.16490336 -0.15803722 0.0792314 -0.00839589 -0.044896122 0.101868436 -0.15508799
0.03955268 -0.04540397 -0.0021416077 -0.028677301 0.06220776 -0.044006936 0.057023436 -0.14594935
0.18255557 -0.2687246 0.0018246847 -0.07390715 0.088670984 -0.06281676 0.054111578 -0.045079507
-0.06190509 0.15310511 -0.21334997 0.19771278 -0.039220754 -0.014189755 -0.06876122 0.047334556
-0.00725682 0.021819733 -0.07866473 0.026659187 -0.07416879 0.1006318 -0.046640795 0.047355548
00000000: 6336 c1bd ba74 da3d 8438 f5bd 0748 783e
00000010: 05a5 ae3c 69fe 2abe b0a0 cd3d 7e5f 2cbe
00000020: d2d1 443e ac36 83bc ab7a 6fbe 8bf3 873d
00000030: e4a9 5abd 81d6 403e acaf 14bb e01d 253e
00000040: b659 893d 6896 c4bd 419f 803d d509 05bd
00000050: 6e4f d03c bb17 183e 8cca 38be 12a5 993e
00000060: 2a48 45bd 4751 8dbd 3e9f 7a3d 1ead ffbd
00000070: e0fc 363e b0d8 12bc 775a dfbe 5e01 0ebd
00000080: 7440 2abd c7ce 633d aba7 0dbe 9177 74be
00000090: 8da7 9a3c a669 a1bd a903 2c3e fd3f 92bd
000000a0: ad86 a2be 0026 193d b124 c8bd 230b cd3d
000000b0: fc81 12bd ff23 f3be cf2d 4139 5f5c 1cbb
000000c0: 8caf d13d a33e 87bd 7cac 81be 5b9d 6d3c
000000d0: 629a 87bd b3c7 e73d 726d 7cbb 79b1 75be
000000e0: d719 1b3d 9e0c 33bc d7e3 d63b fbea 86bd
000000f0: bf74 d3be e8b3 013d b2ef 65be 8a27 a43e
00000100: ca3f 13be 132b d5bd f06e 003e 3cc4 45be
00000110: 966e 793e 3cbe 68bc 28b9 e0be 9d9b cfba
00000120: 3d95 84bd f3e4 3d3e 99c6 f4bc a210 98bd
00000130: 1075 af3d 206c ffbd 1a00 e53d f24e 0cbd
00000140: 168a bfbd 9bd8 8c3c 15f7 0ebe 009a d23d
00000150: f367 a6bd be09 7c3c ee7e 383e 323f 8fbe
00000160: 0322 d23e 05e9 44bd 9ee6 0d3e bec3 063e
00000170: 127b 0dbe 8e31 8e3e 6fa3 ef3c 468a a3be
00000180: 37d3 97ba e010 f3bd b33f 593e e079 0abd
00000190: 00fa ba3d 775f 1c3e 116f 7fbe 5e12 853e
000001a0: 4bff 3d3c fcc7 09be 2c58 7f3d 86b4 22be
000001b0: 9a0b 393e f801 a4bc 1635 adbe 2758 67bd
000001c0: 3af1 443d 3532 0cbd 4645 8bbd 717f 083f
000001d0: 6da5 8b3e 90de 93be a7e1 993e fae3 a13d
000001e0: 252f bbbe e82a f4bd a379 963d e392 54bd
000001f0: 4324 bdbd d5ba 353e 8f12 af3d d1f2 a4bc
00000200: 55db 753d 5198 e53c da3e 203d 5540 f73d
00000210: 50ac 83be fd1d 8d3e 1aed 8ebd c7c1 65be
00000220: d40d 853d 27d2 b3bd ec55 d23d 9680 a8bd
00000230: 3399 ea3e 1c2e 453e b047 77be 7b98 663e
00000240: 706f 99ba 2c8c 1bbe ac9d d23d b7c1 81be
00000250: 9a6f 9c3e 03c6 3bbc 12d8 5e3c bc2b 003e
00000260: 20a1 e5bd 7727 e73d 8faa fcbc 19ce 0dbd
00000270: dc13 663d 2192 cdbd 442b e13d efd8 83bd
00000280: 8263 503d 5a3c bf3c 2fda b2bc d4ac ba3c
00000290: 8ee6 1b3d 1f3a 0fbd ded3 1c3d 9af4 8abd
000002a0: 1786 e53d 363b b8bb 45a9 0fbd eb0f 97bc
000002b0: f1af e73a 3942 5d3a a1e2 66bc 77d9 43bd
000002c0: e3b7 af3d 677b 24be cdf6 793e 2dba 09bd
000002d0: 211a d2bc 67e1 97bd 562b 01bc c3d9 b1bd
000002e0: e79c 713d 5f39 bf3d 93b0 f3bd fcc1 263e
000002f0: 2fa5 48be 89a8 043c dad4 1cbb 0c96 723c
00000300: 8917 f4bd 98a0 e23d 279d 063d 749a a43d
00000310: a6fc 46be b27b 5a3e 7d2a b1be 3224 8a3d
00000320: 8492 463d 791c ef3a 7359 ef3c e432 8abd
00000330: 3f6b b73c 4c46 9e3d aff9 b9bc 98c6 c43d
00000340: b160 1fbe 8b9a 133b 1f67 d5bd 4ebc 033e
00000350: e8b2 58be 5a24 8e3e b7d7 d1bc 6b60 173d
00000360: e9a9 0ebd 6ddc 283e 82d4 21be 1244 a23d
00000370: ea8e 09bc ffe4 37bd 66a0 d03d 63cf 1ebe
00000380: fe01 223d 83f9 39bd 375a 0cbb a9ec eabc
00000390: 90cd 7e3d 9e40 34bd 6891 693d bf73 15be
000003a0: d9ef 3a3e 4596 89be 422a ef3a a25c 97bd
000003b0: 2299 b53d 13a6 80bd 1aa4 5d3d 4aa5 38bd
000003c0: 3190 7dbd 96c7 1c3e 6a78 5abe 3875 4a3e
000003d0: f1a5 20bd 257c 68bc afd2 8cbd e1e1 413d
000003e0: 9eca edbb 4cbf b23c f91a a1bd 5e64 da3c
000003f0: cee5 97bd 0c18 ce3d 6b0a 3fbd e4f7 413d

linear_layer2.bias f4 [2016]
0.88145953 1.028333 0.2068163 -1.0122578 0.7106503 0.4110654 -0.93399835 0.32582358
-0.42705673 -0.30112535 -0.1077353 -1.0065343 0.32983014 -0.56778425 0.074119195 -0.27719834
0.09156801 1.5175912 -0.5932615 0.038714446 0.24959408 0.67802703 -1.5265267 0.6507359
-1.8890169 -1.7711229 0.9472087 -0.4891515 -0.09556958 1.2840512 -1.6898464 0.5198597
-0.053844657 0.4594412 -0.05322198 1.6276518 -0.6102109 -1.8404106 0.7601726 -2.5150592
-0.2192753 -1.3178272 2.0020127 -1.4545878 -1.5026984 0.28518385 -2.258628 0.3714103
1.5670968 -0.51721936 0.36126176 -0.24277227 -0.327056 -0.45360252 1.3491539 -1.3329973
-0.72194815 0.69550854 -0.77764267 -0.1942633 -0.9820665 -0.5077087 0.99346334 -1.3901201
0.20383228 0.18572858 0.109837085 0.46893775 -0.68709797 -0.15664157 1.766453 -1.1286174
1.3317316 1.4615825 -0.25517666 -1.2927941 -0.13844854 -0.74685484 0.07260442 1.9802542
0.6367012 -0.33794287 0.5609416 -2.016739 -1.1057658 2.1510878 -1.8058174 -0.7204022
0.12483789 -0.5332043 0.3314016 -1.329758 0.54967195 -0.73742306 0.61981356 -1.2040608
-0.07826545 -0.273862 -0.9859869 0.31111965 0.5066952 1.0031552 0.009931242 -1.6264825
0.7899944 0.19254728 -0.41271994 2.1507542 -2.3300443 1.6921303 -1.2988802 0.21694036
-0.68922514 -0.71149105 -2.437043 -1.058863 -1.6215874 2.7565093 -0.4229016 0.22714956
-1.1038973 0.11441474 0.37715724 0.21824355 -1.4327114 -1.0529394 -0.22102343 0.27113393
1.7011794 -1.092586 -0.038717512 0.03428519 1.2952474 0.3389538 -0.10685053 -0.53096366
0.8226482 0.52084893 -0.48278633 -0.57870954 -0.48640803 0.5113183 1.8298032 -2.167114
0.83377856 -0.72775966 -0.7838719 0.5592238 0.6419414 -0.9562632 -0.28582314 -0.6631859
-0.4972276 -0.89200896 0.048609562 -0.7061711 -0.14776452 0.029795755 -1.8942459 -0.24309531
0.08117358 -0.9193378 -1.4753448 -0.26626912 -0.3666083 2.5546684 -1.0665249 -0.029082146
-1.2708324 1.7576928 -0.17740971 -1.1193159 -0.28634185 -0.88141936 0.72282815 -1.1131607
-0.33437762 0.2837028 -1.0847517 0.60728246 1.8770305 1.4418209 0.99463266 -0.22243178
0.5014273 -1.4456003 1.1385555 0.23529065 -0.28991517 0.47703075 -1.1874572 -0.22943416
0.63176674 -0.21305725 -0.7316775 0.6776757 0.20941214 0.7236743 -0.064894244 -1.2011869
-0.5001385 1.2932855 -0.3337415 0.028537605 -0.8259501 0.7530695 -0.38908198 -0.18663573
-0.18954542 -1.867047 0.7765224 1.1681607 1.9791403 1.5470574 1.6482491 0.6370491
0.28255695 -0.23789306 1.3617982 -0.33452436 -0.68553334 -0.13813992 0.22327755 0.73418385
0.035340596 1.572259 1.0757179 1.5036486 0.2026217 0.18414669 2.1323228 0.82171893
0.54417104 -0.53205913 -0.0051693944 2.732283 -0.43298447 0.26435307 -1.8755456 0.9110884
1.6136578 0.14681531 -0.6715435 1.3083364 -0.70663214 -0.52823675 -0.35350424 0.40188834
1.1418487 0.49530995 -0.7862041 -0.6357351 0.86741203 0.024118252 -1.3854493 0.25232518
00000000: 55a7 613f 6aa0 833f a7c7 533e aa91 81bf
00000010: 2eed 353f 2a77 d23e 841a 6fbf 59d2 a63e
00000020: 2ea7 dabe 1a2d 9abe 53a4 dcbd 1ed6 80bf
00000030: 7fdf a83e 4f5a 11bf cecb 973d f1ec 8dbe
00000040: 0288 bb3d 6e40 c23f fcdf 17bf 0a93 1e3d
00000050: 9795 7f3e 2e93 2d3f 3a65 c3bf a196 263f
00000060: 4ecb f1bf 28b4 e2bf 457c 723f 1172 fabe
00000070: fcb9 c3bd ca5b a43f e34c d8bf 8615 053f
00000080: 378c 5cbd e13b eb3e 4aff 59bd e556 d03f
00000090: c836 1cbf 9392 ebbf ac9a 423f bbf6 20c0
000000a0: b489 60be 90ae a8bf fa20 0040 ef2f babf
000000b0: 6c58 c0bf 9e03 923e 5c8d 10c0 7e29 be3e
000000c0: a196 c83f 7d68 04bf 4df7 b83e 4b99 78be
000000d0: e273 a7be 973e e8be 13b1 ac3f a89f aabf
000000e0: 98d1 38bf d90c 323f 9713 47bf f5ec 46be
000000f0: b668 7bbf 33f9 01bf 9d53 7e3f 75ef b1bf
00000100: 69b9 503e a22f 3e3e 44f2 e03d 9c18 f03e
00000110: a7e5 2fbf a666 20be 221b e23f 8976 90bf
00000120: 2e76 aa3f 2315 bb3f 84a6 82be 477a a5bf
00000130: 74c5 0dbe e131 3fbf a0b1 943d f878 fd3f
00000140: dafe 223f d906 adbe de99 0f3f 4012 01c0
00000150: bc89 8dbf 6cab 0940 0625 e7bf 476c 38bf
00000160: 02ab ff3d 1480 08bf 78ad a93e 8335 aabf
00000170: 4db7 0c3f c2c7 3cbf 1aac 1e3f aa1e 9abf
00000180: a349 a0bd a437 8cbe a369 7cbf 134b 9f3e
00000190: c7b6 013f 6467 803f a6b6 223c 9430 d0bf
000001a0: 133d 4a3f 1d2b 453e 0750 d3be f5a5 0940
000001b0: 721f 15c0 ba97 d83f b541 a6bf 9d25 5e3e
000001c0: 0f71 30bf 4724 36bf 83f8 1bc0 d388 87bf
000001d0: 2d90 cfbf a66a 3040 8f86 d8be e599 683e
000001e0: 824c 8dbf 4652 ea3d c11a c13e 3d7b 5f3e
000001f0: 1663 b7bf b8c6 86bf f753 62be 11d2 8a3e
00000200: 3fc0 d93f dcd9 8bbf 4196 1ebd a16e 0c3d
00000210: abca a53f 5a8b ad3e 73d4 dabd 3ced 07bf
00000220: 1399 523f 5b56 053f c52f f7be 4f26 14bf
00000230: 790a f9be c2e5 023f fe36 ea3f ffb1 0ac0
00000240: 8372 553f 754e 3abf d4ab 48bf 4a29 0f3f
00000250: 4656 243f aacd 74bf 6957 92be 8dc6 29bf
00000260: 9e94 febe b35a 64bf d21a 473d a1c7 34bf
00000270: 954f 17be 3a16 f43c a676 f2bf faed 78be
00000280: 553e a63d b959 6bbf 19d8 bcbf 6d54 88be
00000290: 15b4 bbbe b07f 2340 e383 88bf ae3d eebc
000002a0: a3aa a2bf 14fc e03f e4aa 35be be45 8fbf
000002b0: 669b 92be b3a4 61bf 440b 393f 0d7c 8ebf
000002c0: 8b33 abbe 7e41 913e 25d9 8abf dd76 1b3f
000002d0: 8942 f03f 968d b83f 3fa0 7e3f 28c5 63be
000002e0: 8a5d 003f 6e09 b9bf 30bc 913f 08f0 703e
000002f0: c36f 94be 603d f43e 99fe 97bf caf0 6abe
00000300: 77bb 213f ae2b 5abe 374f 3bbf 287c 2d3f
00000310: 2370 563e b842 393f 46e7 84bd 7ec0 99bf
00000320: 1409 00bf 618a a53f 2ae0 aabe b2c7 e93c
00000330: 7771 53bf 2ac9 403f c135 c7be 701d 3fbe
00000340: 3218 42be 65fb eebf 2cca 463f 4a86 953f
00000350: 7854 fd3f fa05 c63f d4f9 d23f a615 233f
00000360: 4eab 903e 3d9a 73be 674f ae3f c746 abbe
00000370: 1d7f 2fbf 8d74 0dbe dfa2 643e 79f3 3b3f
00000380: 4dc1 103d c83f c93f 20b1 893f 8f77 c03f
00000390: 107c 4f3e f390 3c3e fa77 0840 2c5c 523f
000003a0: cb4e 0b3f 0735 08bf 0664 a9bb badd 2e40
000003b0: 24b0 ddbe 4959 873e e111 f0bf 173d 693f
000003c0: 578c ce3f c156 163e 46ea 2bbf 9177 a73f
000003d0: d8e5 34bf 863a 07bf 82fe b4be 4fc4 cd3e
000003e0: 1928 923f 4499 fd3e ac44 49bf 89bf 22bf
000003f0: b70e 5e3f a493 c53c 6756 b1bf c430 813e
