model/Artificial_Data_6000_epoch_100_attention_net_u_artificial_Q_9_K_6_F_5_REG_L2_ACT_sigmoid_WD_00001_CV.model (torch_old, 52157 bytes, 6 tensors)

key_matrix f4 [9, 6]
0	0xbfcf467b	-1.6193384
1	0xbec79cea	-0.38986903
2	0xbc78bc49	-0.015181609
3	0x3f096231	0.53665453
4	0x3fdc6793	1.7219108
5	0xbfc6fe31	-1.5546323
6	0xbecf8996	-0.40534657
7	0xbe893f36	-0.2680604
8	0xbf166310	-0.5874491
9	0xbe944a8c	-0.28963125
10	0x3fdd5728	1.7292223
11	0xbdd5f77d	-0.10447595
12	0x3f8f3518	1.1188078
13	0x3f4457e7	0.7669663
14	0xbf08475a	-0.53233874
15	0x3f075162	0.52858555
16	0xc03ab2e7	-2.9171693
17	0x3f034f07	0.5129246
18	0xbe71fe29	-0.2363211
19	0xbeb4f6af	-0.35344455
20	0x3d220b10	0.03956133
21	0xba93b081	-0.0011267812
22	0xbdbf2011	-0.09332288
23	0x3fb76ad3	1.4329475
24	0xbf860648	-1.0470667
25	0xbe35f8dc	-0.17770714
26	0xbd02441c	-0.031803235
27	0xbe770ed4	-0.2412675
28	0xbd913492	-0.07090105
29	0x3eda47ce	0.42632908
30	0xbf3115b1	-0.69173723
31	0x3e79eea6	0.24407443
32	0x3f584986	0.8448719
33	0xbf215f07	-0.63035625
34	0x3eeefc7d	0.46677008
35	0x3e55bf40	0.20873737
36	0xbf40558c	-0.75130534
37	0x3f1d80d7	0.6152472
38	0xbf2f7797	-0.68541855
39	0x3f2f6ed9	0.68528515
40	0x3fe7726a	1.8081791
41	0x3fca1ecd	1.579065
42	0xbf25d856	-0.6478323
43	0xbfcd3605	-1.603211
44	0xbd8fbdb5	-0.070186056
45	0x3e964eb0	0.2935691
46	0x3f8cff37	1.1015385
47	0x3f4d070c	0.8008888
48	0xbefb851f	-0.49125
49	0x3f1f81c7	0.623074
50	0x3e01ed23	0.12688117
51	0x3faa864e	1.3322237
52	0x3ebe1543	0.37125596
53	0xbfa6c484	-1.3028722

value_matrix f4 [6, 5]
0	0xbf0df8b5	-0.5545762
1	0x3e8bb817	0.27288887
2	0x3f7ce5ba	0.98788035
3	0x3f44458d	0.76668626
4	0x3f69270b	0.910752
5	0x3f240c43	0.6408121
6	0xbf4d6299	-0.80228573
7	0x3f20b3af	0.62774175
8	0x400f79d3	2.2418106
9	0x3f83be90	1.029253
10	0xbfa6e49c	-1.3038516
11	0x400ce428	2.2014256
12	0xbf6922e6	-0.91068876
13	0xbf838017	-1.0273465
14	0x4000bfa3	2.0116966
15	0xbf75ca4b	-0.960118
16	0xbe9f9ccc	-0.31174314
17	0xbe194599	-0.14967956
18	0x40153633	2.331433
19	0xbe512cdb	-0.20427267
20	0x40b04b49	5.50919
21	0x4061b2dd	3.526542
22	0x409ee701	4.9656987
23	0x3dc9204e	0.09820615
24	0xc0e080ea	-7.0157366
25	0xbe1d8a00	-0.15384674
26	0xbf99e8cb	-1.2024168
27	0xbfef7bf2	-1.87097
28	0x3f87fe26	1.0624435
29	0x3ef6d7f8	0.48211646

linear_layer1.weight f4 [9, 64]
0	0xbe0e9d4c	-0.13927191
1	0x3d940ce2	0.0722902
2	0x398d7697	0.00026981972
3	0x3dde23c2	0.10846664
4	0xbc1bd0ff	-0.009510278
5	0x3e034a51	0.12821318
6	0xbe83cd00	-0.2574234
7	0xbdbda33b	-0.09259649
8	0xbddecfa6	-0.108794495
9	0x3e1e5546	0.15462217
10	0x3d1a36f6	0.03765007
11	0xbe42a4af	-0.19008134
12	0x3e173574	0.14766484
13	0x3d81ebec	0.06343827
14	0x3e05ffae	0.13085815
15	0x3bdaa440	0.006672412
16	0xbd0ec3ef	-0.034854826
17	0x3d7900cb	0.06079177
18	0xbda32ec1	-0.07967902
19	0xbd4ef59d	-0.050527204
20	0x3dbee943	0.09321835
21	0xbd46d63c	-0.048544154
22	0x3ddc61f5	0.10760871
23	0xbde3e400	-0.11127472
24	0xbe566ba1	-0.20939495
25	0xbd04d552	-0.03243
26	0xbe1e73ea	-0.15473905
27	0x3e016fbb	0.12640278
28	0x3d951fec	0.07281479
29	0xbd91bd0b	-0.07116135
30	0xbd81ced3	-0.06338277
31	0xbe7cae88	-0.24675953
32	0x3de2a673	0.11066904
33	0x3e509449	0.20369066
34	0xbbf2a574	-0.0074049775
35	0x3d0589a4	0.032601967
36	0x3d8b8c63	0.06813886
37	0xbd38e7d1	-0.045142952
38	0xbca1415e	-0.01968449
39	0x3d7ebeac	0.062193558
40	0x3cb32a67	0.021870805
41	0x3e760890	0.24026704
42	0x3dc57ff5	0.096435465
43	0x3de38822	0.1110995
44	0x3e14f733	0.14547424
45	0xbe033ac1	-0.12815382
46	0x3e800e15	0.25010744
47	0x3d4d9bee	0.050197534
48	0xbcf01f74	-0.029311873
49	0xbdc73173	-0.097262286
50	0x3df3f74c	0.119124025
51	0xbd8d6a46	-0.06905036
52	0xbe2c18b1	-0.16806294
53	0x3e576cbc	0.21037573
54	0x3d40653a	0.046971537
55	0x3dc3fb2f	0.09569394
56	0x3c4d417c	0.01252782
57	0xbd0423f7	-0.03226086
58	0x3c806ce1	0.015676918
59	0x3e8dc3fb	0.27688584
60	0x3e670d30	0.22563624
61	0x3da0f8d3	0.078599595
62	0x3e3989ae	0.18118927
63	0xbe01969f	-0.12655114
64	0x3db6c9f2	0.08925237
65	0xbdf737d7	-0.120711975
66	0xbd6565dd	-0.056005348
67	0xbdcbfde8	-0.09960538
68	0x3ddbb2c3	0.107274555
69	0xbd67f3ec	-0.056629106
70	0xbc75a8a7	-0.014993823
71	0x3d3807c8	0.044929296
72	0x3d30fbbf	0.043208834
73	0xbe426427	-0.18983518
74	0xbe84d53c	-0.25943935
75	0x3c961a20	0.018323004
76	0xbe324f5f	-0.1741309
77	0x3da1c201	0.078983314
78	0xbd8bd6a2	-0.06828047
79	0xbe6cfcac	-0.23143262
80	0xbe0b4d64	-0.13603741
81	0x3bdb7f5f	0.0066985334
82	0xbdf5d830	-0.12004125
83	0x3da5491f	0.08070587
84	0xbe18c2ef	-0.14918111
85	0xbdfbf4e2	-0.12302567
86	0xbe92bcc7	-0.2865965
87	0x3db150e3	0.08658006
88	0x3d23a3e9	0.03995124
89	0xbdc513ac	-0.09622893
90	0x3e3c78d0	0.18405461
91	0xbda9ec3d	-0.08297012
92	0xbd86efe8	-0.06588727
93	0x3d2606ee	0.040533952
94	0x3dc18fff	0.09451293
95	0x3d5b5ed2	0.053557225
96	0xbcbf43a0	-0.023347676
97	0xbda396b8	-0.07987732
98	0x3e5a2afb	0.21305458
99	0x3d13e1bb	0.036103945
100	0x3e2a8b3b	0.16654675
101	0x3d572140	0.052521944
102	0x3e0f3a27	0.13987027
103	0xbe01eb03	-0.12687306
104	0x3d94c05d	0.07263253
105	0xbc7a7753	-0.015287238
106	0x3b7b6b2c	0.003836344
107	0x3d948a81	0.0725298
108	0xbd0b8989	-0.03406671
109	0x3d5750f0	0.052567422
110	0xbc33a832	-0.010965394
111	0x3dedf1c3	0.11618378
112	0x3dbc01e4	0.09180048
113	0x3e93cb3e	0.28866
114	0xbd5fe265	-0.054659266
115	0x3de8ccd6	0.11367194
116	0x3e366352	0.17811325
117	0x3d970e27	0.07375746
118	0xbd276164	-0.040864363
119	0x3db27f86	0.087157294
120	0x3b3dc9bb	0.0028959352
121	0x3e5e8f90	0.21734452
122	0x3cefc9c1	0.029271008
123	0xbd398925	-0.045296807
124	0x3d3de886	0.04636433
125	0x3dec0b10	0.115255475
126	0x3d84e41f	0.06488823
127	0x3e3bdfaf	0.18347047
128	0xbe0f737f	-0.14008902
129	0xbe83bc8b	-0.25729784
130	0xbe9387cb	-0.2881454
131	0xbeabff0c	-0.33593023
132	0xbe8cee29	-0.27525452
133	0xbea32baa	-0.3186925
134	0xbec52022	-0.38501078
135	0xbe869591	-0.26285985
136	0xbe8cbcd5	-0.27487817
137	0xbe63f08d	-0.22259732
138	0xbeaf3f26	-0.34227866
139	0xbeb8f3f7	-0.3612363
140	0xbe8b314a	-0.27186042
141	0xbe60cc73	-0.21952991
142	0xbe389af0	-0.18027854
143	0xbe98c7ab	-0.29839835
144	0xbebe1c09	-0.37130764
145	0xbe4506d5	-0.19240887
146	0xbea0678b	-0.31328997
147	0xbe3d4938	-0.18484962
148	0xbe3fba2d	-0.18723364
149	0xbeae4e92	-0.3404432
150	0xbe9aef1f	-0.3026056
151	0xbe8e3148	-0.27771974
152	0xbe628949	-0.22122683
153	0xbe9928ef	-0.29914042
154	0xbe43d610	-0.19124627
155	0xbe5cd0bc	-0.21564001
156	0xbe2d6a1d	-0.1693501
157	0xbe5cbeeb	-0.21557204
158	0xbe139b22	-0.14414647
159	0xbe74b788	-0.23898137
160	0x3f12ddcc	0.57369685
161	0x3f056095	0.521005
162	0x3eeba248	0.46022248
163	0x3f16bb82	0.58879864
164	0x3f037408	0.51348925
165	0x3f0ad72c	0.54234576
166	0x3eee9162	0.46595293
167	0x3f26dc58	0.6517997
168	0x3ef7de7b	0.48411927
169	0x3f18f2a1	0.5974522
170	0x3ee27694	0.44231093
171	0x3f177466	0.59161985
172	0x3ef1abc5	0.47201362
173	0x3f0fb061	0.5612851
174	0x3f0d7fa6	0.552729
175	0x3ef3f41c	0.47647178
176	0x3f13984b	0.57654256
177	0x3f1daf25	0.61595374
178	0x3f05193a	0.5199162
179	0x3ef82c45	0.48471275
180	0x3ef2f85a	0.47455102
181	0x3f35a682	0.70957196
182	0x3f157be8	0.5839219
183	0x3eb62411	0.3557439
184	0x3f0793e0	0.52960014
185	0x3f1e82d6	0.6191839
186	0x3f1059ea	0.563872
187	0x3f262410	0.64898777
188	0x3f0fca85	0.56168395
189	0x3f1a2191	0.6020747
190	0x3f30d6a0	0.6907749
191	0x3ec019b8	0.37519622
192	0x3e61e42f	0.22059701
193	0x3e329fb7	0.17443739
194	0x3e12ecf7	0.14348207
195	0x3e490edd	0.19634576
196	0x3e5fa118	0.21838796
197	0x3e5a483d	0.21316619
198	0x3e1d4436	0.15358052
199	0xbde2d0ef	-0.11075007
200	0x3b84eb89	0.0040563983
201	0xbd911c3f	-0.07085466
202	0xbd64fc6a	-0.055904783
203	0xbd9e7325	-0.07736806
204	0x3e1d3fff	0.15356444
205	0xbded9e9b	-0.11602517
206	0xbda9d02e	-0.0829166
207	0xbcc04dea	-0.023474652
208	0x3b8a02dd	0.004211767
209	0xbe2442dd	-0.16041131
210	0xbe2ce72c	-0.1688506
211	0xbe62ac45	-0.22136028
212	0xbe034ad9	-0.12821521
213	0xbd95d1eb	-0.07315429
214	0xbe379194	-0.17926627
215	0x3d247d86	0.04015877
216	0xbe48095a	-0.19534817
217	0x3a4746e6	0.0007601812
218	0xbde8cc5a	-0.11367102
219	0xbdf35c73	-0.11882868
220	0x3e23bff2	0.1599119
221	0x3e198447	0.14991866
222	0x3e206448	0.15663254
223	0x3e63aef6	0.22234711
224	0xbcad351c	-0.021143489
225	0x3dde2862	0.10847546
226	0x3dad30d8	0.08456582
227	0x3e326654	0.17421848
228	0xbd28b94c	-0.041192338
229	0xbd2ca288	-0.04214719
230	0x3db8adeb	0.09017547
231	0x3de36ff1	0.111053355
232	0xbe5cfe02	-0.21581271
233	0xbd4ff401	-0.05076981
234	0xbe1fbe32	-0.15599898
235	0xbd050523	-0.032475602
236	0xbd21eba8	-0.03953138
237	0xbd8c32f8	-0.06845659
238	0x3ddbc88d	0.107316114
239	0x3ca22286	0.019791853
240	0xbd349f61	-0.044097308
241	0xbd2ecf1c	-0.042677984
242	0xbc513355	-0.012768586
243	0x3d96f204	0.073703796
244	0xbdece282	-0.115666404
245	0x3e480227	0.19532071
246	0xbd66a1d2	-0.056306668
247	0xbe123812	-0.14279202
248	0xbd9cee7a	-0.07662673
249	0xbe4a597f	-0.19760703
250	0xbe2ba1c3	-0.16760926
251	0x3d4a8bdf	0.049449798
252	0xbcb91fa5	-0.022598097
253	0xbe153507	-0.1457101
254	0x3e00ced9	0.12578906
255	0xbd4429d6	-0.04789146

linear_layer1.bias f4 [9]
0	0x3f9906ac	1.1955161
1	0x3f2ae7f8	0.66760206
2	0x3f8853c7	1.0650567
3	0xbfc079f6	-1.503722
4	0x3f38cbd5	0.72186023
5	0x3e131279	0.14362516
6	0x3fa9c62d	1.3263603
7	0x3e660246	0.22461805
8	0x3fa2e469	1.2725955

linear_layer2.weight f4 [2016, 5]
0	0xbd168a44	-0.036752954
1	0xbd57274a	-0.052527703
2	0xbcf5d5af	-0.030009119
3	0x3d44b1b1	0.048021022
4	0x3d7e154d	0.062032033
5	0xbe378538	-0.17921913
6	0xbdbaca5e	-0.0912063
7	0xbe2f8471	-0.17140366
8	0xbce23658	-0.027613804
9	0x3e786cbe	0.24260232
10	0xbd3db253	-0.04631264
11	0xbd9d310a	-0.07675369
12	0xbd5883a6	-0.052859925
13	0x3bdd35cb	0.0067507974
14	0x3d9c5fe1	0.07635475
15	0xbdc564bf	-0.096383564
16	0xbda73de9	-0.08166105
17	0xbdb2ae2f	-0.08724629
18	0x3d027964	0.03185405
19	0x3db9ff14	0.090818554
20	0xbe82ca5d	-0.25545016
21	0xbe3de1f6	-0.18543229
22	0xbe44d89d	-0.19223256
23	0xbd1b6597	-0.03793868
24	0x3e6f23e9	0.23353542
25	0xbdeb324b	-0.11484202
26	0xbe0e49f7	-0.13895403
27	0xbe30a0a3	-0.17248778
28	0xbd9d329b	-0.07675668
29	0x3e4cf257	0.2001432
30	0xbe00501b	-0.12530558
31	0xbd1c3480	-0.038136005
32	0xbd486ed8	-0.048933834
33	0xbdc0ef04	-0.094205886
34	0x3e069292	0.1314185
35	0xbd64b0d5	-0.055832703
36	0xbd6c3973	-0.057671975
37	0x3c24808a	0.010040412
38	0x3daa610b	0.08319291
39	0x3c102818	0.008798622
40	0xbe27313a	-0.16327372
41	0xbde012b5	-0.10941068
42	0xbe087be8	-0.13328516
43	0xbd5414fc	-0.051777825
44	0x3e4cd6e6	0.20003852
45	0xbe0df260	-0.1386199
46	0xbd19c9e0	-0.03754604
47	0xbddf302c	-0.1089786
48	0xbdb26606	-0.08710866
49	0x3e4f58b6	0.20248684
50	0xbe4add58	-0.19810998
51	0xbdc3a757	-0.09553402
52	0xbe3e5468	-0.18586886
53	0x3cb266d6	0.021777552
54	0x3e7f4ae0	0.24930906
55	0xbc76c0a7	-0.01506058
56	0x3c5c74fe	0.0134556275
57	0xbd5d695a	-0.05405555
58	0x3e29454a	0.16530338
59	0xbd5333c3	-0.051563036
60	0xbdaf08da	-0.0854661
61	0xbdac8117	-0.084230594
62	0xbd313f88	-0.04327348
63	0xbd4bc483	-0.049747955
64	0x3dcf3285	0.10117058
65	0xbe83b749	-0.25725773
66	0xbe3c390a	-0.18381134
67	0xbe60f75d	-0.21969362
68	0xbdb5a727	-0.088697724
69	0x3eaf93f1	0.34292558
70	0xbdf76cec	-0.12081322
71	0xbddcba51	-0.107777245
72	0xbde549e5	-0.11195735
73	0x3d660198	0.056153864
74	0x3d9f048c	0.07764539
75	0xbe1031f0	-0.1408155
76	0xbd62dfbf	-0.055389162
77	0xbe072c20	-0.13200426
78	0xbcd1814b	-0.025574347
79	0x3e71e1c5	0.2362128
80	0xbe14c009	-0.1452638
81	0xbcd68a09	-0.026188867
82	0xbd886f57	-0.066618614
83	0x3cc907ad	0.024539793
84	0x3dbd1486	0.0923243
85	0xbe8068c6	-0.25079936
86	0xbe5071e7	-0.2035595
87	0xbe867a3c	-0.26265132
88	0x3db90a01	0.09035111
89	0x3e933d5f	0.2875776
90	0xbd2d6ca2	-0.04233993
91	0xbd6eb8e8	-0.05828181
92	0xbdd339fb	-0.10313793
93	0x3c8c3af5	0.017117957
94	0x3da23f5a	0.079222396
95	0xbdf2fdf5	-0.11864845
96	0xbe15d74a	-0.14632908
97	0xbe426108	-0.18982327
98	0xbcc2f87f	-0.023800133
99	0x3e2d1a89	0.16904654
100	0xbdafe365	-0.08588294
101	0xbd77e0b1	-0.060517017
102	0xbe0e0fec	-0.13873261
103	0x3db6ec05	0.08931736
104	0x3e194937	0.14969335
105	0xbe3125a4	-0.17299515
106	0xbe0a4981	-0.13504602
107	0xbe1900f0	-0.14941764
108	0x3d4689b6	0.048471175
109	0x3e379d6a	0.17931142
110	0xbdf41094	-0.119172245
111	0xbe161859	-0.14657725
112	0xbdfcddf3	-0.12347021
113	0xbda712e4	-0.081579
114	0x3e44f4ac	0.1923396
115	0xbdfaa136	-0.1223778
116	0xbd95adc1	-0.073085316
117	0xbe25d098	-0.16192853
118	0x3cccdb8a	0.025007028
119	0x3e2782b2	0.1635845
120	0xbdf17dca	-0.117915705
121	0xbd224b34	-0.0396225
122	0xbe08fdc3	-0.13378052
123	0x3be69d07	0.007037762
124	0x3e1c336d	0.15253992
125	0xbe3bc3dc	-0.18336433
126	0xbdce3372	-0.10068406
127	0xbe26aad1	-0.16276099
128	0xbd59bdb7	-0.05315944
129	0x3e4e7106	0.20160303
130	0xbd48ffb4	-0.049071983
131	0xbb766e3c	-0.0037602326
132	0xbc876528	-0.016527727
133	0xbc8facc7	-0.017538441
134	0x3d03b6e1	0.03215683
135	0xbdbf9527	-0.093546204
136	0xbc4b1f96	-0.012397667
137	0xbd07dc5e	-0.033169143
138	0xbb1d4f7e	-0.002400368
139	0x3db05015	0.086090244
140	0xbd6a0dec	-0.057142183
141	0xbc9e953e	-0.019358274
142	0xbdef0214	-0.11670318
143	0xbd15ade7	-0.0365428
144	0x3d8d06b1	0.06886042
145	0xbdd2aab9	-0.10286469
146	0xbdc46f43	-0.09591534
147	0xbda96126	-0.08270483
148	0x3dd14eac	0.102200836
149	0x3da80e1e	0.08205818
150	0xbdd0eac5	-0.10201029
151	0xbde27cde	-0.11058973
152	0xbd9d1c2c	-0.07671389
153	0x3c1d7ab7	0.009611777
154	0x3dd081c0	0.10180998
155	0xbde0143d	-0.1094136
156	0xbd4b1da9	-0.049588833
157	0xbe290fba	-0.16509905
158	0x3c043a9c	0.008070614
159	0x3e0cf4ab	0.13765208
160	0x3ce55589	0.027994888
161	0x3daf4923	0.085588716
162	0x3d0154c3	0.031574976
163	0x3c9b94cf	0.018991856
164	0xbdc91a7e	-0.09819506
165	0xbe25e71a	-0.1620144
166	0xbe0243f1	-0.1272123
167	0xbe4dd53a	-0.2010087
168	0x3d0fc962	0.035104163
169	0x3e82fbd6	0.2558276
170	0x3ca544fc	0.020174496
171	0x3cc77779	0.024348961
172	0xbcf4adb1	-0.029867979
173	0x3d21610b	0.039399188
174	0xbc31480a	-0.010820398
175	0xbc27460e	-0.010209573
176	0xbb5fb454	-0.0034134584
177	0xbbf6325f	-0.007513329
178	0x3d3080f3	0.043091726
179	0x3d9dd66b	0.077069126
180	0xbda2e7cd	-0.07954369
181	0xbd869582	-0.06571485
182	0xbdcecf15	-0.100980915
183	0xbccae943	-0.024769431
184	0x3dee29b3	0.11629047
185	0x3dbf34bd	0.09336231
186	0x3c1e8f63	0.009677741
187	0x3d9634fa	0.07334323
188	0x3b9c9125	0.0047780448
189	0xbd9f1e4f	-0.07769453
190	0xbde78a36	-0.113056585
191	0xbd9a1ada	-0.07524653
192	0xbdc17c45	-0.09447531
193	0xbc9d1204	-0.01917363
194	0x3daa13d9	0.08304567
195	0x3db70213	0.089359425
196	0x3ccc982f	0.02497491
197	0x3d850478	0.06494993
198	0x3cb79842	0.02241147
199	0xbdb647dc	-0.08900425
200	0x3cc7b3bb	0.024377694
201	0x3d1a5d3f	0.037686583
202	0x3cb991d5	0.022652546
203	0x3d2ad317	0.041705217
204	0x3ca8c346	0.020600926
205	0xbe671dc3	-0.22569947
206	0xbe1751aa	-0.14777246
207	0xbe3ed7ea	-0.18637052
208	0xbd230efa	-0.039809205
209	0x3e86f4b6	0.26358575
210	0xbce71b6a	-0.028211314
211	0xbd4845ae	-0.048894577
212	0x3cbd9038	0.023140058
213	0xbd13ae6b	-0.03605501
214	0xbbe57955	-0.0070029893
215	0x3d1b3f42	0.037902124
216	0x3dad064a	0.08448465
217	0x3dc8b780	0.09800625
218	0x3bf03bfa	0.0073313685
219	0xbdde8fc3	-0.10867264
220	0xbd42ce09	-0.04755977
221	0x3bfa8b62	0.0076460103
222	0x3c5bc358	0.013413273
223	0xbceab9a1	-0.028652968
224	0x3d7625fb	0.060094815
225	0xbbd6106f	-0.0065327208
226	0x3baf07a5	0.0053414875
227	0x3caf0f35	0.021369556
228	0xbcc1ea5c	-0.023671322
229	0xbd10fc92	-0.03539712
230	0xbca2d227	-0.0198756
231	0xbda89de7	-0.082332425
232	0xbd8b01db	-0.06787463
233	0x3d24c187	0.040223625
234	0x3d18462c	0.037176296
235	0xbc96e2f2	-0.018418763
236	0xbc62756f	-0.013821944
237	0x3b15a81e	0.0022835801
238	0x3d214609	0.03937343
239	0xbd27079a	-0.040778734
240	0x3dcdd30c	0.100500196
241	0x3d98d5c6	0.07462649
242	0x3c4d68cb	0.012537192
243	0xbbb4286e	-0.0054979837
244	0xbd5b129f	-0.053484555
245	0x3d19f27b	0.037584763
246	0x3ca9e817	0.020740552
247	0x3d0d6a08	0.034524947
248	0xbcc34b37	-0.023839576
249	0x3c1ff91e	0.009763984
250	0x3c27aeb0	0.01023452
251	0xbd6d9182	-0.058000095
252	0xbd07ffdf	-0.033203002
253	0x3d3163e5	0.043308157
254	0x3d531c70	0.051540792
255	0xbd996dd6	-0.07491653

linear_layer2.bias f4 [2016]
0	0xbf4096e9	-0.7523027
1	0x3fd24785	1.6428076
2	0xbf994bfe	-1.1976316
3	0xbf0cdd27	-0.5502495
4	0x3fa7491b	1.3069185
5	0x3f675762	0.9036771
6	0x3cf4f113	0.02990011
7	0xbfa6c235	-1.3028017
8	0x3e0db205	0.1383744
9	0x3f194aff	0.5988006
10	0x3fb3c7e3	1.4045376
11	0xc01f83fd	-2.492431
12	0xbf8eda6b	-1.1160406
13	0xbea09679	-0.31364802
14	0xbea38906	-0.31940478
15	0x3efdce4e	0.4957146
16	0x3d0b62b8	0.034029692
17	0x3e5c116a	0.21491018
18	0xbf360d6f	-0.7111425
19	0x3f81d92c	1.0144401
20	0xbeff9c05	-0.4992372
21	0x3ead9d57	0.33909103
22	0x3f81d7ae	1.0143945
23	0x3f50428e	0.81351554
24	0x3f048bb7	0.5177569
25	0x3fa5120c	1.2896132
26	0xbf9c0a62	-1.2190669
27	0xbf95b2d4	-1.1695199
28	0xbf53696b	-0.8258273
29	0xbf6e200f	-0.9301767
30	0xbea783b9	-0.32717684
31	0x3fa29b77	1.2703694
32	0xbf69631f	-0.9116687
33	0x3fec30c8	1.8452387
34	0xbddabdac	-0.10680708
35	0x3db67f8f	0.089110486
36	0x3f79d078	0.97583723
37	0xbf82a351	-1.020609
38	0x3f82623e	1.0186231
39	0xbf39033a	-0.7227055
40	0xbe631d5a	-0.22179165
41	0x400d4a0b	2.2076442
42	0x3e40a50f	0.18812965
43	0xbf91deaf	-1.1396083
44	0x3eedd7ce	0.46453708
45	0xbea0924b	-0.31361613
46	0x3efee632	0.49785
47	0xbeadbf59	-0.3393505
48	0xbf28e818	-0.65979147
49	0xbef73d0c	-0.48288763
50	0x3daf4e42	0.08559848
51	0x3f024f1b	0.50901955
52	0xbfa51e27	-1.2899827
53	0xbf6930aa	-0.9108988
54	0x3f876c56	1.0579937
55	0x3ee30103	0.4433671
56	0xbfaa72f8	-1.3316336
57	0x3eab1965	0.33417812
58	0x3efe059f	0.49613664
59	0x3fe72861	1.8059198
60	0x3e7352d4	0.23762065
61	0xbfbaef6a	-1.4604313
62	0x3f455b6d	0.7709263
63	0x3eb79a5b	0.3585995
64	0x3edd4b54	0.43221533
65	0xbf3e2191	-0.7426997
66	0xbea43416	-0.32070988
67	0x3fd09355	1.6294962
68	0x3cbaba14	0.022793807
69	0x3ed6d85c	0.41961944
70	0xbfc23d9d	-1.5175053
71	0x3e827bff	0.25485227
72	0xbea46072	-0.32104832
73	0x3ec4104e	0.3829369
74	0x3f9108b3	1.133078
75	0xbfed376d	-1.853254
76	0xbfb46dea	-1.4096043
77	0x3efa88a4	0.48932374
78	0xbf4a0746	-0.7891735
79	0xbf127376	-0.5720743
80	0xbf34fe32	-0.7070037
81	0x3f90aada	1.130214
82	0xbeb618fb	-0.35565934
83	0xbe8d47e1	-0.27593902
84	0xbfca5bd1	-1.580927
85	0x3f2b4844	0.66907144
86	0xbdd907d6	-0.10597198
87	0xbe5fdddd	-0.21861978
88	0xbfdbf2d9	-1.7183486
89	0xbeb1e94d	-0.34748307
90	0xbe936e1b	-0.2879494
91	0xbe8477e1	-0.2587271
92	0x400999f9	2.1500227
93	0x3fa7d83e	1.3112867
94	0x3ecbec2c	0.39828622
95	0x3f11aa8e	0.5690087
96	0xbe5be05a	-0.21472302
97	0x3fdc8484	1.722794
98	0x3edcb691	0.43108037
99	0xbf0af91d	-0.54286367
100	0x3e447c8c	0.19188136
101	0x3ec9bec4	0.39403355
102	0xbf09f14b	-0.5388381
103	0x3e3f618e	0.18689558
104	0x3dfbd3d1	0.1229626
105	0xbf21ca5c	-0.631994
106	0xbef593c3	-0.47964296
107	0xbf8167ce	-1.0109804
108	0x3eda71fc	0.42665088
109	0x3f071cc8	0.5277829
110	0x3f0104dd	0.50398046
111	0x3f046fac	0.517329
112	0x3e4e4a90	0.20145631
113	0xbd1051e3	-0.035234343
114	0x3f1aa73a	0.6041142
115	0xbf2f4419	-0.68463284
116	0xbfa66624	-1.2999921
117	0x3faf25f7	1.3683461
118	0xbfc3e0c3	-1.5302967
119	0xbf534905	-0.82533294
120	0xbf279c74	-0.65473104
121	0x3edbc34f	0.42922446
122	0xbfc9ff6d	-1.5781075
123	0x3e9d922e	0.3077559
124	0x3f864343	1.0489277
125	0xbf7ef06e	-0.99585617
126	0x4036412a	2.8477273
127	0xc000162f	-2.001354
128	0xbf3d1f83	-0.7387621
129	0x3d935c0a	0.071952894
130	0x3f10df93	0.5659115
131	0xbf183f1b	-0.5947129
132	0x3fba275e	1.4543264
133	0x3f135d8f	0.57564634
134	0x3ba35f2c	0.0049857106
135	0xbff94844	-1.9475179
136	0xbfab9259	-1.3404037
137	0xbfa80ef6	-1.3129566
138	0xbf3589bb	-0.70913285
139	0x40134043	2.3007972
140	0xbe6ee779	-0.23330487
141	0x3e9b44b2	0.30325848
142	0x3e89d224	0.26918137
143	0xbf3b17d1	-0.73083216
144	0xbe819362	-0.25307757
145	0xbf7c7429	-0.98614746
146	0xc00129ca	-2.0181756
147	0xbf063a2c	-0.52432513
148	0xbe9853fa	-0.2975157
149	0xbf5055f1	-0.81381136
150	0x3f943c0e	1.1580827
151	0x3ed32d78	0.41245627
152	0x3f08f904	0.5350497
153	0xbede5a3b	-0.43428215
154	0xbf793a75	-0.97354823
155	0x3db5810f	0.088625066
156	0xbdc8fa5c	-0.09813377
157	0x3f34ec03	0.70672625
158	0xbec44c33	-0.38339385
159	0x3f198d77	0.59981483
160	0x3fb2b598	1.3961668
161	0xbff13a03	-1.8845829
162	0xbea023df	-0.31277367
163	0x3f765a14	0.962312
164	0x3f4d4909	0.8018957
165	0xc0100981	-2.25058
166	0x3f7979ba	0.97451365
167	0xbfa03c40	-1.2518387
168	0xbf8933ee	-1.0718973
169	0x3f8111d2	1.0083563
170	0xbf9e2959	-1.2356368
171	0xbfa9bc70	-1.3260632
172	0xbf7bb44a	-0.98321974
173	0x3ef891e3	0.48548803
174	0x3f3e7fa5	0.7441352
175	0xbfe7a8fe	-1.8098447
176	0xbf8d0391	-1.1016713
177	0x3e6cb67d	0.23116489
178	0x3faec282	1.3653109
179	0xbe44d4dd	-0.19221826
180	0x3f6560d8	0.89600897
181	0xbd21591b	-0.03939162
182	0x3fbb8ae3	1.465176
183	0x3e7adb71	0.24497773
184	0xbea2f071	-0.31824067
185	0xc009d6aa	-2.153727
186	0xbfd67685	-1.6754919
187	0xbfaa64eb	-1.3312048
188	0xbe9525a5	-0.29130283
189	0xbd1e6996	-0.038674913
190	0x3f123bfa	0.57122767
191	0x3ee97011	0.45593312
192	0x3f92d2ff	1.1470641
193	0x3fcf1f84	1.6181493
194	0x3dee79f8	0.116443574
195	0xbf625102	-0.8840486
196	0x3fec68a3	1.8469433
197	0xbdff7ec4	-0.124753505
198	0x3f72c10c	0.94825816
199	0xbd96b346	-0.073584124
200	0x3f19db18	0.60099936
201	0x3da88e0c	0.08230218
202	0xbebbfa53	-0.3671442
203	0x3c8642ca	0.01638927
204	0xbf43f4c1	-0.7654534
205	0xbd441fbc	-0.047881827
206	0x3f0fc0c2	0.561535
207	0x3f8c2d20	1.0951271
208	0x3fea8d0d	1.8324295
209	0x3f4fb106	0.8112949
210	0xbf7bea09	-0.98403984
211	0xbe592cd1	-0.21208502
212	0x3f9306c9	1.1486446
213	0x3d095660	0.03352964
214	0x3f806b69	1.0032779
215	0xbf263ec7	-0.6493954
216	0xbf992937	-1.1965703
217	0xbe3a6f94	-0.18206626
218	0x3f33f1c3	0.70290774
219	0x3eca6fec	0.39538515
220	0xbf40ff20	-0.7538929
221	0xbf8f65e1	-1.1202966
222	0x3fc70de3	1.5551113
223	0x3f31da12	0.69473374
224	0x3f05b0bc	0.522228
225	0x3fc1ef9a	1.5151246
226	0x3e45b58f	0.1930754
227	0xbea3424d	-0.3188652
228	0x3ba5704c	0.005048787
229	0x3f580aec	0.84391665
230	0xbf6fab4f	-0.9362077
231	0x3e22a23c	0.158822
232	0x3fe01570	1.7506542
233	0xbf93ee8a	-1.1557171
234	0x3ed2b5c4	0.411543
235	0xbda8b091	-0.08236802
236	0x3fa1af73	1.2631668
237	0x3fa9c324	1.3262677
238	0x3d55fd2d	0.0522434
239	0x3fd5890b	1.6682447
240	0xbec03d7e	-0.37546915
241	0x3fd8ce61	1.6937982
242	0x3e8bb12a	0.27283603
243	0xbf2a7e55	-0.6659902
244	0xbed3f0b5	-0.41394582
245	0xbed5fe26	-0.41795462
246	0xbf887e8f	-1.0663623
247	0x3f893f48	1.0722437
248	0x3dba1c57	0.09087437
249	0x3f20c5f3	0.62802047
250	0xbed52ab7	-0.4163415
251	0x3f29a534	0.66267705
252	0xbde8e569	-0.113718815
253	0xbede86fa	-0.43462354
254	0x3f2d3d70	0.6767187
255	0xbc8bf343	-0.01708377
