model/Artificial_Data_6000_LogF_True_epoch_100_attention_net_u_artificial_Q_9_K_2_F_5_REG_L0_ACT_sigmoid_WD_000001_CV.model (torch_old, 51933 bytes, 6 tensors)

key_matrix f4 [9, 2]
0.18792516 0.7414882 0.22380464 1.7189143 -0.57781535 -0.8143907 -0.8416629 0.13589324
-0.77970695 -0.9073131 -0.6656888 -1.6793852 2.3315022 -1.8871256 1.0096889 0.7983697
1.1245341 1.0587643
00000000: 746f 403e 2cd2 3d3f 0b2d 653e 6205 dc3f
00000010: b5eb 13bf e97b 50bf 3877 57bf 9927 0b3e
00000020: e09a 47bf ac45 68bf 956a 2abf 18f6 d6bf
00000030: 5537 1540 558d f1bf 7c3d 813f f561 4c3f
00000040: bcf0 8f3f 9785 873f

value_matrix f4 [2, 5]
1.189137 4.6025453 -1.3965474 8.363635 -4.839716 1.2631209 4.8941827 -0.63196445
1.6224542 1.9096786
00000000: a435 983f 0d48 9340 11c2 b2bf 73d1 0541
00000010: f4de 9ac0 f2ad a13f 259d 9c40 6cc8 21bf
00000020: 94ac cf3f 5970 f43f

linear_layer1.weight f4 [9, 64]
0.14021295 0.27298063 0.113900445 0.15401971 0.1034012 0.19476058 0.018810293 -0.18061657
-0.15075424 -0.023429925 -0.120797515 -0.041907474 -0.0948791 0.1367949 0.061149437 0.1132376
-0.005689108 0.13758993 -0.039985165 -0.116944045 -0.18390739 -0.2378976 0.024819436 -0.23544975
-0.119519874 0.13597767 0.026587572 0.08654879 0.21895508 0.060391977 0.123757094 0.24283251
0.12006228 -0.25285277 -0.25430372 0.26315567 0.016045686 -0.21684045 -0.020235129 0.058302768
-0.17168665 -0.28404984 0.08982321 -0.2780263 0.08970959 0.19589959 0.22906262 -0.23890087
0.1266931 0.19018488 0.072497845 -0.17730671 -0.23014268 0.16550696 -0.19971824 0.10726227
0.23409908 0.22575541 0.008975172 0.07535977 -0.04023406 -0.29412055 0.24287276 0.169318
-0.030251088 0.11103472 -0.011622661 0.29507148 0.32479697 0.08539717 0.16145131 0.30559316
0.11754817 0.22224379 0.09479448 0.13465005 0.2599662 0.2860889 0.1128323 0.28900707
-0.16933769 0.024879185 -0.04055006 0.07443236 0.107202396 -0.0762272 0.2864163 0.11773895
0.06643713 0.039947122 0.13248526 0.21113141 -0.27005297 -0.1551603 0.11992939 0.17136952
-0.16548906 0.016964117 0.14572491 0.14086145 0.04679983 -0.13066508 -0.06874367 -0.06565664
0.08837946 0.1761159 -0.25816432 -0.03410404 0.15061228 0.008307417 0.085279495 -0.04167647
-0.083125964 0.13312274 0.08103559 0.1070742 0.10863071 0.078990385 0.108642325 -0.12709239
-0.18092656 -0.15752454 -0.11273303 0.08697869 -0.16019371 0.1897296 -0.011343036 -0.021780496
0.09091825 0.009323549 0.1340645 0.25945908 0.14090309 -0.18947433 0.06777355 0.0068128733
0.048215304 -0.15277983 -0.22763596 -0.20116273 0.012539046 0.2735222 -0.16910946 0.2422162
-0.2390978 0.23234835 -0.1128973 -0.10430338 -0.18436 -0.2137349 0.15768789 -0.22247969
-0.07292909 0.08547143 -0.14690153 0.24173178 -0.061395615 -0.16168408 0.05778079 0.23387714
-0.11343214 0.17453554 -0.054671865 -0.013148507 0.044548113 -0.058225457 0.0013564675 -0.2963342
-0.03728182 -0.08959597 -0.22149329 0.194748 -0.18565008 0.07965724 0.15269756 0.004003734
0.032404557 0.24193716 0.094816074 0.0915845 -0.11993273 -0.15560447 0.08785823 -0.079528645
0.18715282 0.050814234 0.20411773 0.10517635 -0.26989993 -0.10856799 0.026865793 0.03332229
-0.22592308 -0.14108865 0.17951982 0.13035634 -0.06298826 0.023165634 0.30137768 0.13392252
0.32459953 0.09025126 0.21762036 0.007296332 0.1007124 0.2016817 0.26532418 -0.05089867
0.083661735 -0.22270018 -0.12884013 -0.23181866 0.18799952 -0.0019686904 -0.027582515 0.25858408
-0.016316937 -0.19336326 -0.08609549 0.025017524 -0.047243502 -0.1353433 0.117982015 0.029528031
-0.010633015 0.1745429 0.21116868 -0.2385403 0.02388042 0.22288108 -0.04508096 -0.17511976
-0.24262287 0.19626756 -0.030142251 0.019922446 -0.21726471 0.18417381 -0.009622734 0.13143536
-0.16820689 -0.058870886 -0.17781346 0.14004508 -0.18522477 -0.27631864 0.065628886 0.10886153
0.17945603 -0.005349158 0.184278 -0.24038678 0.23253098 0.03376634 -0.05978193 0.055887256
00000000: fc93 0f3e 1ec4 8b3e a344 e93d 58b7 1d3e
00000010: 02c4 d33d 516f 473e 0b18 9a3c 8df3 38be
00000020: 525f 1abe 1df0 bfbc b064 f7bd 2ca7 2bbd
00000030: f94f c2bd f613 0c3e d577 7a3d 1de9 e73d
00000040: b26b babb 60e4 0c3e 7cc7 23bd 5c80 efbd
00000050: 3852 3cbe 6e9b 73be 2152 cb3c bd19 71be
00000060: d6c6 f4bd bb3d 0b3e 2ece d93c 7e40 b13d
00000070: c335 603e 945d 773d 5c74 fd3d 16a9 783e
00000080: 36e3 f53d eb75 81be 1934 82be 57bc 863e
00000090: 3e72 833c 6c0b 5ebe 24c4 a5bc e2ce 6e3d
000000a0: a0ce 2fbe fb6e 91be 3bf5 b73d 7759 8ebe
000000b0: a9b9 b73d e799 483e 648f 6a3e 6ea2 74be
000000c0: d6bb 013e d3bf 423e c079 943d e48f 35be
000000d0: 86aa 6bbe a87a 293e f082 4cbe 52ac db3d
000000e0: abb7 6f3e 6d2c 673e 9a0c 133c 3956 9a3d
000000f0: 78cc 24bd f896 96be a3b3 783e b361 2d3e
00000100: 21d1 f7bc 2c66 e33d f96c 3ebc 9c13 973e
00000110: ca4b a63e b6e4 ae3d 7e53 253e b576 9c3e
00000120: 18bd f03d e093 633e 9c23 c23d b4e1 093e
00000130: 4a1a 853e 3f7a 923e 9f14 e73d bcf8 933e
00000140: dc66 2dbe 6fcf cb3c d217 26bd fe6f 983d
00000150: ee8c db3d 021d 9cbd 28a5 923e 1e21 f13d
00000160: 3110 883d 989f 233d 37aa 073e d532 583e
00000170: 6244 8abe 57e2 1ebe 8a9d f53d 7e7b 2f3e
00000180: f775 29be 55f8 8a3c e938 153e fc3d 103e
00000190: 2eb1 3f3d 11cd 05be 7bc9 8cbd fd76 86bd
000001a0: 4a00 b53d ba57 343e 1d2e 84be aeb0 0bbd
000001b0: 1b3a 1a3e d51b 083c 04a7 ae3d f2b4 2abd
000001c0: f23d aabd 5451 083e fdf5 a53d b849 db3d
000001d0: c779 de3d b6c5 a13d de7f de3d 8224 02be
000001e0: d044 39be 1d4e 21be 93e0 e6bd e221 b23d
000001f0: d209 24be 7a48 423e 24d8 39bc 036d b2bc
00000200: 5933 ba3d cdc1 183c 3448 093e d2d7 843e
00000210: e648 103e 8f05 42be dccc 8a3d 863e df3b
00000220: 697d 453d 5172 1cbe 6719 69be 9afd 4dbe
00000230: 9270 4d3c 1a0b 8c3e 082b 2dbe 8607 783e
00000240: 0ed6 74be baec 6d3e b336 e7bd 039d d5bd
00000250: dec8 3cbe 52dd 5abe ef78 213e b7d1 63be
00000260: d95b 95bd a50b af3d 5b6d 16be 8988 773e
00000270: f879 7bbd 8390 25be 8dab 6c3d 7d7d 6f3e
00000280: 1c4f e8bd 72b9 323e 9bef 5fbd d66c 57bc
00000290: 1578 363d d17d 6ebd 7fcb b13a 1eb9 97be
000002a0: d2b4 18bd 187e b7bd 23cf 62be 056c 473e
000002b0: 0e1b 3ebe 5623 a33d c05c 1c3e c131 833b
000002c0: a4ba 043d 60be 773e ee2e c23d a890 bb3d
000002d0: 4b9f f5bd c756 1fbe 04ef b33d eadf a2bd
000002e0: fda4 3f3e 9622 503d 3d04 513e b366 d73d
000002f0: 5330 8abe e558 debd a715 dc3c f47c 083d
00000300: 6158 67be 8b79 10be 0bd4 373e 227c 053e
00000310: fdff 80bd dbc5 bd3c 2d4e 9a3e fc22 093e
00000320: e931 a63e a7d5 b83d dfd7 5e3e 1216 ef3b
00000330: 4e42 ce3d a685 4e3e 92d8 873e 207b 50bd
00000340: d856 ab3d 840b 64be abee 03be df61 6dbe
00000350: f282 403e 2505 01bb baf4 e1bc 2265 843e
00000360: 19ab 85bc 0501 46be d552 b0bd 8df1 cc3c
00000370: 6782 41bd 6f97 0abe 8ea0 f13d c5e4 f13c
00000380: 1936 2ebc 60bb 323e 9a3c 583e e943 74be
00000390: dfa0 c33c f03a 643e d0a6 38bd 9852 33be
000003a0: 2172 78be 5dfa 483e e2ec f6bc 6634 a33c
000003b0: a47a 5ebe 0f98 3c3e aca8 1dbc fe96 063e
000003c0: 6d3e 2cbe 9922 71bd bb14 36be fa67 0f3e
000003d0: 90ab 3dbe a379 8dbe 7068 863d cbf2 de3d
000003e0: 52c3 373e fd47 afbb 5fb3 3c3e f427 76be
000003f0: 9a1c 6e3e 934e 0a3d e6dd 74bd 09ea 643d

linear_layer1.bias f4 [9]
-1.3294537 1.3476932 -0.015603314 1.3248981 -1.4279222 1.3008837 -1.3592725 -0.9594601
-0.5412605
00000000: 8a2b aabf 3681 ac3f 0ba5 7fbc 4396 a93f
00000010: 28c6 b6bf 5b83 a63f a4fc adbf 2d9f 75bf
00000020: 0c90 0abf

linear_layer2.weight f4 [2016, 5]
-0.04712778 -0.077720165 0.06761384 -0.14369558 0.09180575 -0.060032886 -0.09638563 0.039960787
-0.19580312 0.18941744 -0.05758283 -0.25632337 0.025104199 -0.2729533 0.024889983 -0.045440435
-0.15030037 -0.001435019 -0.17430265 0.035026994 0.0434821 0.11005176 -0.042312473 -0.04009882
0.15828621 -0.08189814 -0.1843414 0.06639524 -0.15655081 0.07339232 -0.029815406 -0.2673801
0.07371824 -0.09159668 -0.06667396 -0.04341882 -0.070218615 0.0012341804 -0.15504186 0.08141682
-0.046257094 -0.24800998 0.07545278 -0.2699957 0.075295046 -0.0033435742 -0.16943477 0.006966093
0.026287843 -0.12604037 0.052966084 0.16208474 -0.046885848 -0.11424461 0.19280449 0.02799458
-0.050311033 -0.010267182 -0.3438723 0.26038742 -0.0765493 -0.31761882 0.08954427 -0.15495989
-0.05486103 -0.15796694 -0.44299495 0.076587416 -0.33475593 -0.0030359272 0.049368422 0.075420156
0.007043713 -0.19588456 0.28057507 -0.06307489 -0.28089944 0.02454801 -0.21243052 0.0068661263
-0.039391734 -0.0013380803 -0.014149007 -0.11992233 0.104316674 -0.012567091 -0.18691064 0.1088631
-0.42866573 0.2964786 -0.00094793184 -0.19754331 -0.011340735 -0.20062567 0.023039017 -0.057781965
-0.038781773 0.028427765 -0.1492029 0.06475881 0.026355855 0.024265548 0.015839923 -0.23694596
0.28894994 -0.044222277 0.037132997 0.06284175 -0.26898617 0.30449167 -0.035140656 -0.26694822
0.09010071 -0.24603575 -0.05444807 0.017904103 -0.032106046 0.01609628 -0.14924523 0.14300597
-0.006095575 0.06722457 -0.031745393 -0.11521611 0.14836021 -0.08813324 -0.20770846 0.035937134
-0.12609206 -0.0947421 -0.060337547 -0.09636323 0.06678635 -0.10971693 0.054928523 -0.018230967
-0.20834559 0.029639656 -0.3258181 0.080493435 -0.04625032 -0.2797695 0.04716099 -0.2355775
0.036617257 0.034508213 0.07484252 0.067284085 -0.17816901 0.17741597 0.032955915 -0.026157616
-0.004396158 -0.2076715 0.18155843 0.016336106 -0.11661867 0.041710306 -0.10589147 0.035129514
0.046257965 0.02020388 0.024033666 0.09752967 -0.017350439 0.03197602 -0.077027634 -0.012090439
-0.019008722 0.042524815 -0.047549464 -0.05822951 -0.03967101 -0.060786985 0.010467444 -0.0132997455
-0.11286592 -0.004727666 -0.24127789 0.13051842 0.034815773 0.01935025 0.0031786107 0.048871636
-0.02832918 -0.045455877 -0.16882958 0.031414654 -0.12824596 0.057929996 0.06534231 0.014072851
0.030986099 0.08511556 -0.03975317 0.057552375 0.10881821 -0.06916144 0.2549641 -0.107632935
0.067464694 0.13845722 -0.034150075 0.14850669 -0.06563879 -0.051052935 -0.12340577 0.07665882
-0.19014499 0.04212297 0.03501498 0.06721455 -0.015788537 0.1709129 -0.07787642 -0.009801701
0.08465796 -0.021010946 0.06307168 -0.0038695054 0.04428742 0.13681124 -0.098751545 0.2160909
-0.17653185 -0.016402662 -0.050291322 0.0051533543 -0.11690511 0.06835886 -0.04598222 -0.11501839
0.093745425 -0.19655012 0.13700254 -0.01018811 0.1033504 -0.08031988 0.13837282 -0.04960933
-0.059711985 -0.081648365 -0.020373268 -0.10841448 0.09953294 -0.010549163 -0.15074857 0.023847573
-0.14959253 0.12495899 0.041337322 -0.039556332 0.05703013 -0.057871804 0.059455283 0.0017976175
00000000: 0f09 41bd c02b 9fbd 2079 8a3d ef24 13be
00000010: a704 bc3d 0be5 75bd d465 c5bd ecad 233d
00000020: 9d80 48be a5f6 413e f9db 6bbd d13c 83be
00000030: 52a7 cd3c 89c0 8bbe 14e6 cb3c c01f 3abd
00000040: 57e8 19be 3f17 bcba 657c 32be 7778 0f3d
00000050: 491a 323d d162 e13d d84f 2dbd a93e 24bd
00000060: c815 223e 36ba a7bd fec3 3cbe 3afa 873d
00000070: db4e 20be b64e 963d 703f f4bc 0be6 88be
00000080: 97f9 963d 0a97 bbbd 5b8c 88bd efd7 31bd
00000090: c7ce 8fbd 39c4 a13a 4bc3 1ebe ddbd a63d
000000a0: 1478 3dbd 54f6 7dbe fd86 9a3d e03c 8abe
000000b0: 4a34 9a3d de1f 5bbb 4f80 2dbe d343 e43b
000000c0: 9a59 d73c ba10 01be f7f2 583d 8bf9 253e
000000d0: 600b 40bd 14f9 e9bd 8a6e 453e e454 e53c
000000e0: f112 4ebd af37 28bc 0810 b0be 8051 853e
000000f0: e1c5 9cbd ef9e a2be fc62 b73d cead 1ebe
00000100: f6b5 60bd 16c2 21be 3cd0 e2be ddd9 9c3d
00000110: 2165 abbe 68f6 46bb 8b36 4a3d e275 9a3d
00000120: f2ce e63b f695 48be 89a7 8f3e 682d 81bd
00000130: 0dd2 8fbe e918 c93c 6387 59be 3efd e03b
00000140: 3a59 21bd 8662 afba 3dd1 67bc d799 f5bd
00000150: fba3 d53d 33e6 4dbc 8165 3fbe 9ef3 de3d
00000160: 137a dbbe 0bcc 973e a17e 78ba cb48 4abe
00000170: 7dce 39bc d170 4dbe 52bc bc3c c8ac 6cbd
00000180: a3d9 1ebd 58e1 e83c a5c8 18be 44a0 843d
00000190: 3ce8 d73c 8bc8 c63c bac2 813c f6a1 72be
000001a0: 3ff1 933e 6b22 35bd c518 183d 2db3 803d
000001b0: 8eb8 89be 55e6 9b3e a6ef 0fbd 70ad 88be
000001c0: b986 b83d ccf0 7bbe f004 5fbd a0ab 923c
000001d0: a181 03bd 59dc 833c bed3 18be 2870 123e
000001e0: 64bd c7bb 09ad 893d 7507 02bd 6df6 ebbd
000001f0: bdeb 173e 337f b4bd 87b1 54be d132 133d
00000200: 471e 01be 2508 c2bd 8124 77bd 165a c5bd
00000210: 48c7 883d 45b3 e0bd bbfc 603d 1c59 95bc
00000220: 8c58 55be ddce f23c a1d1 a6be bed9 a43d
00000230: fa70 3dbd f33d 8fbe e22b 413d 3a3b 71be
00000240: fafb 153d 7c58 0d3d 0947 993d 3dcc 893d
00000250: f071 36be 88ac 353e c8fc 063d 7f48 d6bc
00000260: a50d 90bb d6a7 54be 74ea 393e 4cd3 853c
00000270: c5d5 eebd 6dd8 2a3d a1dd d8bd f7e3 0f3d
00000280: fe78 3d3d 9b82 a53c 40e2 c43c a3bd c73d
00000290: 8222 8ebc 4af9 023d aac0 9dbd fa16 46bc
000002a0: 2eb8 9bbc 802e 2e3d 3ac3 42bd 1182 6ebd
000002b0: 127e 22bd c6fb 78bd a47f 2b3c 2de7 59bc
000002c0: 3f26 e7bd 89ea 9abb 8d11 77be 9fa6 053e
000002d0: fc9a 0e3d 6a84 9e3c 3d50 503b a02d 483d
000002e0: 9912 e8bc f12f 3abd a9e1 2cbe a7ac 003d
000002f0: e952 03be 0148 6d3d 30d2 853d d191 663c
00000300: 8fd6 fd3c 1151 ae3d 38d4 22bd 0abc 6b3d
00000310: 15dc de3d 83a4 8dbd a88a 823e a86e dcbd
00000320: ee2a 8a3d bbc7 0d3e f3e0 0bbd 2312 183e
00000330: a16d 86bd e21c 51bd 2abc fcbd 4dff 9c3d
00000340: 5eb5 42be 2389 2c3d de6b 0f3d c8a7 893d
00000350: f656 81bc cb03 2f3e ac7d 9fbd 5097 20bc
00000360: 2761 ad3d 261f acbc ba2b 813d 8797 7dbb
00000370: ba66 353d 3f18 0c3e 403e cabd ef46 5d3e
00000380: c4c4 34be e05e 86bc 46fe 4dbd 78dd a83b
00000390: f26b efbd bbff 8b3d da57 3cbd c38e ebbd
000003a0: 9afd bf3d 6f44 49be 654a 0c3e 08ec 26bc
000003b0: 60a9 d33d c07e a4bd 9bb1 0d3e 2733 4bbd
000003c0: 8e94 74bd 4237 a7bd d7e5 a6bc 6908 debd
000003d0: edd7 cb3d 66d6 2cbc d55d 1abe fc5b c33c
000003e0: c92e 19be 80ea ff3d 5351 293d d205 22bd
000003f0: 6d98 693d fc0a 6dbd 6287 733d 099e eb3a

linear_layer2.bias f4 [2016]
0.28778467 1.054806 1.0033131 0.0076905643 -2.3350303 0.4862703 0.13892153 0.058652386
0.8255016 -1.6077621 -1.3627766 1.1248755 0.054345004 -0.24789163 -0.13854055 0.70433956
-0.25348988 0.85719496 0.44301385 -0.1502591 0.0731015 0.42240015 1.3417025 0.14057435
-0.5811761 -0.020658514 -0.1561735 1.334213 1.1810741 -0.8698191 0.1707576 0.92346114
-0.71830624 0.13047753 0.5127367 1.2741245 -0.39208117 1.1204547 -0.42330617 -1.5616144
-1.405256 1.2364434 -0.9566741 -0.8206745 -1.5454086 0.5708671 1.4782465 -1.3017485
0.85063106 1.0187498 0.19114654 -0.24366753 0.5658848 -0.18986356 -0.92995834 1.0940057
0.34401754 -0.3416944 -0.27086127 -0.69235003 1.3631594 -0.522112 0.84415895 1.2824006
-0.07167535 0.88351923 1.7680362 -0.1290398 -0.84295803 0.5055524 -0.26834765 -0.6278471
0.7956212 1.3112448 0.49894103 0.4806071 0.1335326 1.0973691 -0.5954706 0.62519413
-0.7316464 -0.8732271 1.3899766 -1.2142752 -0.33778864 -1.5116509 1.5171387 1.0549695
-0.722177 0.74477243 0.21624355 0.5405298 -1.5773973 -0.69012195 1.2204899 0.68899524
0.5068913 0.4208649 -0.6306866 0.5414904 0.432424 -0.48175585 1.2319893 0.6604451
-1.1047478 -0.7242644 -0.93505687 -0.20160325 1.1391742 1.2696792 -0.2671479 -0.5845161
-0.18972029 1.1096563 -1.3457847 1.5976417 0.724209 -0.31917155 1.4950125 0.19810118
1.8400367 -0.41977268 -0.33283493 0.4510589 0.023789229 -0.4368469 -0.28827175 0.97982854
-1.2814639 0.59922004 -1.946169 1.3524326 1.1490095 -2.0217764 -0.8579341 0.9627954
0.26461792 1.1492217 -0.97518766 -0.46694294 0.13160792 0.33694923 -2.0455608 1.5558076
0.968419 1.8883476 -0.1611805 -0.7968719 0.032308307 -0.084336676 0.6136943 0.06077726
-0.5284808 0.1387006 -2.3125138 0.2511241 1.6007718 -2.8553808 -1.0401863 0.8176689
1.3997319 -0.10085097 0.1837939 0.70087373 1.7451519 -0.10328234 2.8141317 -2.4965932
-0.05504424 -0.13206397 0.8400751 0.82705975 0.24854952 1.345184 0.30184 0.923136
-0.21925874 0.11754085 2.3355474 0.52786124 1.557135 2.4578874 -0.5822918 0.87654644
-0.53365815 0.41873205 1.6903417 -0.8677079 0.7828816 1.3240281 0.8766029 1.7695493
1.1252745 -0.33316994 1.5546072 0.32850766 0.7218678 -0.5660005 1.962384 0.11190471
1.3737926 0.9901165 -0.024187224 0.49453536 0.9285896 0.43804297 -0.73878884 -0.6991121
-1.1923733 -0.62268835 0.15698661 -0.27144226 0.20781964 0.4357994 0.8470626 0.3893541
1.0367892 -0.15987158 0.7157665 0.5550938 1.1327119 -1.4532163 -0.48587897 1.1601648
-0.54266167 0.39273044 1.2414795 -0.041240852 -0.10191946 0.38847896 1.3769556 -0.59520924
0.47285646 0.35537452 0.09961923 -0.19535935 1.0391889 0.096633375 0.731239 -0.26555347
0.72552645 -0.32214823 0.388526 1.744797 -1.3814443 0.6775291 1.0045588 1.1081735
-0.5661417 -1.1293668 -0.13625953 0.24428189 -0.72439575 -0.7327225 -1.2738734 -0.17627141
00000000: 8358 933e e203 873f 906c 803f 2101 fc3b
00000010: 2371 15c0 6cf8 f83e 7241 0e3e 7c3d 703d
00000020: 1354 533f 26cb cdbf 776f aebf ecfb 8f3f
00000030: de98 5e3d 4ed7 7dbe 93dd 0dbe 994f 343f
00000040: 6dc9 81be 2171 5b3f b6d2 e23e 86dd 19be
00000050: 3db6 953d d544 d83e e8bc ab3f b9f2 0f3e
00000060: f5c7 14bf 0b3c a9bc f2eb 1fbe 7ec7 aa3f
00000070: 702d 973f 77ac 5ebf 15db 2e3e f367 6c3f
00000080: ebe2 37bf e79b 053e b642 033f 8316 a33f
00000090: ddbe c8be 0f6b 8f3f 96bb d8be fbe2 c7bf
000000a0: 6edf b3bf c743 9e3f 98e8 74bf b917 52bf
000000b0: f3cf c5bf 5924 123f 2e37 bd3f b29f a6bf
000000c0: f5c2 593f 6566 823f ebbb 433e fb83 79be
000000d0: d4dd 103f 986b 42be c011 6ebf 6108 8c3f
000000e0: 1123 b03e 92f2 aebe 54ae 8abe da3d 31bf
000000f0: 027c ae3f 22a9 05bf cd1a 583f b425 a43f
00000100: 87ca 92bd 512e 623f 034f e23f 0223 04be
00000110: 19cc 57bf e26b 013f dd64 89be 96ba 20bf
00000120: d5ad 4b3f dfd6 a73f 3375 ff3e 2212 f63e
00000130: c5bc 083e 9776 8c3f c370 18bf b90c 203f
00000140: 2e4d 3bbf d08b 5fbf c1ea b13f 5f6d 9bbf
00000150: a2f2 acbe c77d c1bf 9a31 c23f 3e09 873f
00000160: 98e0 38bf 68a9 3e3f f36e 5d3e 2960 0a3f
00000170: 28e8 c9bf d5ab 30bf 0339 9c3f fe61 303f
00000180: a1c3 013f 9b7b d73e ad74 21bf 1d9f 0a3f
00000190: ae66 dd3e b4a8 f6be d3b1 9d3f ee12 293f
000001a0: 6068 8dbf 6469 39bf e35f 6fbf 1571 4ebe
000001b0: 76d0 913f d984 a23f 9cc7 88be d9a2 15bf
000001c0: 0946 42be 3809 8e3f ac42 acbf 867f cc3f
000001d0: c365 393f 746a a3be 925c bf3f 09db 4a3e
000001e0: 5386 eb3f 72ec d6be 5769 aabe 31f1 e63e
000001f0: a1e1 c23c 66aa dfbe 5b98 93be 0bd6 7a3f
00000200: 0207 a4bf 7c66 193f 111c f9bf 831c ad3f
00000210: be12 933f c964 01c0 92a1 5bbf c279 763f
00000220: 007c 873e b219 933f e6a5 79bf 2513 efbe
00000230: 3ac4 063e 9c84 ac3e 78ea 02c0 b424 c73f
00000240: 4fea 773f 60b5 f13f 800c 25be ccff 4bbf
00000250: b755 043d b5b8 acbd 121b 1d3f 94f1 783d
00000260: 854a 07bf 8807 0e3e 3a00 14c0 5793 803e
00000270: 17e6 cc3f 8fbe 36c0 d324 85bf c052 513f
00000280: 6a2a b33f f48a cebd 7834 3c3e 766c 333f
00000290: 2361 df3f b185 d3bd bc1a 3440 2fc8 1fc0
000002a0: 1276 61bd c73b 07be 290f 573f 30ba 533f
000002b0: c483 7e3e fd2e ac3f c68a 9a3e a452 6c3f
000002c0: 5d85 60be 42b9 f03d 9c79 1540 ea21 073f
000002d0: 3350 c73f 074e 1d40 1311 15bf 5965 603f
000002e0: d29d 08bf 0c64 d63e 1e5d d83f 1b22 5ebf
000002f0: ee6a 483f c179 a93f 0c69 603f 9780 e23f
00000300: ff08 903f 4095 aabe 5efd c63f 2832 a83e
00000310: 54cc 383f 69e5 10bf 662f fb3f 4c2e e53d
00000320: 70d8 af3f 4678 7d3f 4924 c6bc bd33 fd3e
00000330: 0cb8 6d3f 2b47 e03e 4421 3dbf 03f9 32bf
00000340: b09f 98bf 8168 1fbf 19c1 203e 7bfa 8abe
00000350: acce 543e 1921 df3e 18d9 583f 6c59 c73e
00000360: 82b5 843f 60b5 23be 793c 373f a11a 0e3f
00000370: b4fc 903f fe02 babf 21c5 f8be 4880 943f
00000380: e0eb 0abf f713 c93e cde8 9e3f 2bec 28bd
00000390: 26bb d0bd b7e6 c63e 1540 b03f a25f 18bf
000003a0: 3e1a f23e a6f3 b53e 2b05 cc3d 480c 48be
000003b0: 2404 853f b8e7 c53d 7b32 3b3f a0f6 87be
000003c0: 1abc 393f 9df0 a4be e1ec c63e 8255 df3f
000003d0: 2bd3 b0bf 8c72 2d3f 6295 803f a1d8 8d3f
000003e0: aaee 10bf 178f 90bf 9e87 0bbe 0825 7a3e
000003f0: 0072 39bf b493 3bbf 490e a3bf 7e80 34be
