model/Artificial_Data_LogF_True_epoch_20000_attention_net_u_artificial_Q_9_K_3_F_5_REG_L0_ACT_sigmoid_WD_000001_CV.model (torch_old, 51989 bytes, 6 tensors)

key_matrix f4 [9, 3]
0	0x3f00a8df	0.50257677
1	0x3f9bc11c	1.2168307
2	0xbf5020b0	-0.8129988
3	0x3d86f05e	0.06588815
4	0xbdb9e390	-0.09076607
5	0xbfc423b7	-1.5323399
6	0x3c839367	0.016061498
7	0x3e5283c0	0.20558071
8	0xbe1e5938	-0.15463722
9	0xbfe7bfde	-1.8105428
10	0x4034aaba	2.8229203
11	0xbfa2d440	-1.2721024
12	0x40250c6a	2.5788827
13	0x3f8b9274	1.0904069
14	0x3d5cf26e	0.053942136
15	0xbf9f819e	-1.2461431
16	0xbf624993	-0.88393515
17	0xbd95559e	-0.07291721
18	0x400b35d1	2.1751597
19	0x3ef4b5f1	0.4779506
20	0xbe052525	-0.13002451
21	0x3fbe663d	1.4874951
22	0xbf4d9d62	-0.8031827
23	0x3e8a2677	0.2698247
24	0x3eaf5908	0.34247613
25	0xbf8d0309	-1.1016551
26	0xbf09d02a	-0.5383326

value_matrix f4 [3, 5]
0	0xc0b30010	-5.5937576
1	0x4001dd58	2.0291348
2	0xbfb5b739	-1.419654
3	0xbf469cea	-0.7758318
4	0xbfc3dc7e	-1.5301664
5	0xbf41bd9e	-0.7567996
6	0x3fce98ce	1.6140382
7	0xc096c9c6	-4.7121305
8	0xbff7026d	-1.9297615
9	0xc1141064	-9.254002
10	0xbfc2215f	-1.5166434
11	0xbec38263	-0.38185415
12	0xbf38b416	-0.7214979
13	0xbd7833fa	-0.060596444
14	0x3d34fb11	0.044184748

linear_layer1.weight f4 [9, 64]
0	0xbe253917	-0.1613506
1	0xbcb24852	-0.021763
2	0xbcb13216	-0.021630328
3	0x3d892e2d	0.066982605
4	0xbb8bf3b2	-0.004270994
5	0xbe2c121e	-0.16803786
6	0xbc4b9c47	-0.012427396
7	0xbdc3cca7	-0.09560519
8	0xbe3060aa	-0.17224374
9	0x3dc25441	0.094887264
10	0xbeab67b4	-0.33477557
11	0xbd843842	-0.06456043
12	0xbb784605	-0.0037883532
13	0xbbdc203e	-0.0067177108
14	0x3dfe5983	0.12419417
15	0x3ca9a6df	0.020709453
16	0x3cdd3821	0.027004303
17	0x3ca32777	0.01991628
18	0xbe359f55	-0.17736562
19	0xbe34ad06	-0.17644128
20	0xbe91afa1	-0.28454307
21	0x3a7e4e30	0.0009700982
22	0x3e33fc50	0.17576718
23	0xbe3d58f8	-0.1849097
24	0xbcb13d53	-0.021635687
25	0xbeb7307d	-0.3577918
26	0x3dde08c7	0.10841518
27	0xbe01fe5d	-0.12694688
28	0x3d37122e	0.044695072
29	0x3cfcf731	0.030879589
30	0xbe0b9d0c	-0.13634127
31	0xbcc64650	-0.02420345
32	0x3e206237	0.15662466
33	0xbe58d9ae	-0.21176788
34	0xbe314295	-0.17310555
35	0xbe726a4a	-0.23673359
36	0xbef25625	-0.47331348
37	0xbdc96ff4	-0.098358065
38	0x3d351b1d	0.04421531
39	0x3ca481f1	0.020081492
40	0x3dc36319	0.09540386
41	0xbe89e96a	-0.26935893
42	0x3e1411f9	0.14459981
43	0x3e6888a1	0.2270837
44	0x3e6aacad	0.22917433
45	0xbd2fb020	-0.042892575
46	0x3e902064	0.28149712
47	0x3e96ed42	0.29477888
48	0xbb819348	-0.003954325
49	0xbdcbd2f7	-0.09952348
50	0xbe884cd3	-0.26621112
51	0x3e37cdd3	0.1794961
52	0x3e66e7eb	0.22549407
53	0x3d85b46c	0.06528553
54	0x3d50aeca	0.05094794
55	0x3d713169	0.05888501
56	0xbe21c5d4	-0.15798122
57	0x3d5fff87	0.05468705
58	0xbe3c7499	-0.18403853
59	0x3deaf9bc	0.11473414
60	0xbe7f06d6	-0.24904951
61	0x3ebbae22	0.3665629
62	0x3e983c79	0.29733637
63	0x3e8c570c	0.27410161
64	0x3d3ab124	0.04557909
65	0x3d50a7a9	0.050941143
66	0x3df46958	0.11934155
67	0xbc5fbd5c	-0.013655987
68	0x3e721cc2	0.23643783
69	0x3db7364c	0.08945903
70	0xbd3083ec	-0.04309456
71	0xbe3c5f7c	-0.183958
72	0xbc15485a	-0.009111488
73	0xbd0444e6	-0.03229227
74	0x3e36ca83	0.1785069
75	0x3e1c6a50	0.1527493
76	0xbe376a3b	-0.17911617
77	0x3ebe92a0	0.3722124
78	0xbd58e5a9	-0.052953396
79	0x3dd5ceef	0.1043986
80	0xbda76530	-0.08173597
81	0xbd15f263	-0.03660811
82	0x3d803ffd	0.06262205
83	0x3bb51636	0.0055263294
84	0xbbf93515	-0.007605205
85	0xbca6dc98	-0.02036886
86	0xbda8d6bc	-0.08244082
87	0x3e6b5305	0.22980888
88	0xbe4961fd	-0.19666286
89	0x3ddf381d	0.10899375
90	0xbe2f89b6	-0.17142376
91	0x3e9ffd25	0.3124782
92	0xbd253d5d	-0.040341724
93	0xbe3801e5	-0.17969473
94	0xbdfd5b95	-0.123709835
95	0xbcb53d1f	-0.022123871
96	0x3e663b78	0.22483623
97	0x3d0ab38d	0.03386264
98	0xbe272895	-0.16324075
99	0xbd9a7166	-0.0754116
100	0x3e4d3155	0.2003835
101	0x3dad09f9	0.08449168
102	0xbbf951e6	-0.00760864
103	0x3e52b4c8	0.20576775
104	0xbe45397c	-0.1926021
105	0xbe4f18a1	-0.20224239
106	0xbe09f227	-0.1347128
107	0xbdf1ddb0	-0.11809862
108	0xbdeaf03c	-0.11471602
109	0x3e4ece2d	0.20195837
110	0xbb885e4a	-0.0041616308
111	0x3e05272c	0.13003224
112	0xbda15d2b	-0.078790985
113	0xbe6afac9	-0.2294723
114	0xbdaa66c4	-0.08320382
115	0xbe5c7494	-0.21528846
116	0x3e40d68e	0.18831846
117	0x3d0483b1	0.032352153
118	0xbd0cbe5d	-0.034361232
119	0xbd3e835c	-0.046511993
120	0xbe864815	-0.2622687
121	0x3e0ded76	0.13860115
122	0x3e3f162c	0.18660802
123	0x3e7bea2d	0.2460105
124	0x3e416450	0.18885922
125	0x3e972ef7	0.2952802
126	0xbdf612a7	-0.120152764
127	0x3e18300a	0.14862075
128	0x3d2bd36d	0.04194968
129	0xbda4a3df	-0.080390684
130	0x3b33b5d0	0.00274216
131	0xbe1e876c	-0.15481347
132	0xbe660b02	-0.22465137
133	0xbd6b950c	-0.05751519
134	0xbddcf1cd	-0.10788307
135	0xbe31127e	-0.1729221
136	0x3e3e8138	0.1860398
137	0xbe9e179f	-0.30877396
138	0xbe887b9d	-0.2665681
139	0x3e806c14	0.25082457
140	0x3e68ddb4	0.22740823
141	0x3db6cf2a	0.08926232
142	0xbe366643	-0.17812447
143	0xbec3b74f	-0.3822579
144	0x3d881518	0.06644648
145	0xbe410253	-0.18848543
146	0x3d842f90	0.06454384
147	0xbd9b1c9a	-0.07573815
148	0x3df76e0a	0.12081535
149	0xbe971a1d	-0.2951211
150	0xbdecc274	-0.115605265
151	0xbe93a9c9	-0.28840473
152	0x3e09c02c	0.13452214
153	0x3db9a1ea	0.09064086
154	0x3e901d3a	0.28147298
155	0x3e32255e	0.17397067
156	0xbe15c2a1	-0.14625026
157	0xbe839ee1	-0.25707152
158	0x3e1b9c91	0.15196444
159	0x3e6c4a12	0.2307513
160	0xbe890bc6	-0.26766795
161	0x3e0958c8	0.13412774
162	0x3e8237f1	0.25433305
163	0x3d101df4	0.035184816
164	0x3dba7035	0.09103433
165	0x3dcce39f	0.10004353
166	0x3de68d82	0.11257459
167	0x3da37922	0.079820886
168	0x3e9e19a6	0.30878943
169	0x3e34fa26	0.17673549
170	0xbd8691dd	-0.0657079
171	0x3dae99b6	0.08525412
172	0xbdb69ea3	-0.08916976
173	0x3de45183	0.111483596
174	0xbe800cc1	-0.2500973
175	0xbbedc4e9	-0.0072561395
176	0x3de7f974	0.11326876
177	0xbe050b2d	-0.12992544
178	0x3e436c00	0.19084167
179	0xbe2664ec	-0.16249436
180	0x3deec308	0.11658293
181	0xbe298130	-0.16553187
182	0x3d82e1da	0.06390734
183	0x3da065cf	0.078319184
184	0xbdbc6d3b	-0.092005216
185	0xbddbba31	-0.107288726
186	0x3cf1ec78	0.029531702
187	0xbe16a942	-0.14713004
188	0x3e6619ba	0.22470751
189	0xbe1337cc	-0.14376754
190	0xbe4a4cfc	-0.1975593
191	0xbe47afec	-0.19500703
192	0x3e8cabef	0.27474925
193	0x3f08aa97	0.533853
194	0x3e8fc446	0.28079432
195	0x3eadc0ec	0.3393625
196	0x3ebe4c2a	0.37167484
197	0x3e6afb3d	0.22947402
198	0x3ef15481	0.47134784
199	0x3ed218cb	0.4103454
200	0x3ec49c9a	0.38400728
201	0x3e974601	0.29545596
202	0x3f04a7f2	0.51818764
203	0x3eeede7a	0.4665411
204	0x3ef7aee0	0.48375607
205	0x3f0ed952	0.55800354
206	0x3ec04a87	0.3755686
207	0x3ec689fd	0.38777152
208	0x3ea591b1	0.32337716
209	0x3ebfcd67	0.37461397
210	0x3e93341a	0.28750688
211	0x3eaa85eb	0.33305296
212	0x3e649530	0.22322536
213	0x3edbce13	0.4293066
214	0x3efc9a9a	0.49336702
215	0x3ef9f405	0.48818985
216	0x3e8abdfc	0.27098072
217	0x3ee48fe2	0.44641024
218	0x3ee502b9	0.4472864
219	0x3ed7256e	0.42020744
220	0x3ebbd37e	0.36684793
221	0x3ec75f30	0.3893981
222	0x3edae5fa	0.42753583
223	0x3ea6d0e2	0.3258124
224	0xbf6d093e	-0.9259223
225	0xbee84c9d	-0.4537095
226	0xbf45ff1b	-0.77342385
227	0xbf0c2eed	-0.54759103
228	0xbf14ff83	-0.5820238
229	0xbf66bdd2	-0.9013339
230	0xbef04705	-0.46929184
231	0xbf24cd75	-0.64376
232	0xbeeb3317	-0.45937416
233	0xbeed2d06	-0.46323413
234	0xbe5812ef	-0.21100973
235	0xbf2f85da	-0.68563616
236	0xbf467d09	-0.7753454
237	0xbf16c7f7	-0.5889887
238	0xbf423b72	-0.75871956
239	0xbf24f21a	-0.6443192
240	0xbf26768d	-0.65024644
241	0xbefc8da2	-0.49326807
242	0xbf2142d6	-0.6299261
243	0xbf325af4	-0.69670033
244	0xbf32cacb	-0.6984069
245	0xbf61d0d2	-0.8820926
246	0xbf063be7	-0.52435154
247	0xbef96500	-0.4870987
248	0xbf652a6f	-0.89517874
249	0xbf445118	-0.7668624
250	0xbf0fef6e	-0.56224716
251	0xbedf6cfb	-0.43637833
252	0xbec55ee5	-0.3854896
253	0xbf21d59f	-0.63216585
254	0xbf212ab7	-0.629558
255	0xbf51e552	-0.8199054

linear_layer1.bias f4 [9]
0	0x3ede8168	0.43458104
1	0xbf3dba83	-0.7411272
2	0x3ee3b9b3	0.44477615
3	0xbfcb15d6	-1.5866039
4	0x3f22861c	0.63485885
5	0x3f674ffe	0.90356433
6	0xc00092ce	-2.0089602
7	0xbf9f2449	-1.2432948
8	0xc029d30a	-2.6535058

linear_layer2.weight f4 [2016, 5]
0	0x3bfbfad3	0.0076898127
1	0x3bb4fbe4	0.0055231918
2	0x3e123be5	0.1428066
3	0x3db9ab39	0.09065861
4	0x3e45d3bc	0.19319052
5	0xbca288d8	-0.019840643
6	0xbdc1a2d5	-0.09454886
7	0x3e08f000	0.13372803
8	0x3d838cde	0.06423353
9	0x3e94741e	0.2899484
10	0xbe68422c	-0.22681493
11	0xbbb8b38a	-0.005636637
12	0x3d3231bb	0.043504458
13	0xbcd4e690	-0.025988847
14	0x3e53f332	0.2069824
15	0x3eae2ce9	0.3401864
16	0xbe061bd2	-0.1309655
17	0x3dc24229	0.09485275
18	0x3d7f28dc	0.062294826
19	0x3dd91364	0.105994016
20	0x3e0ddf3f	0.13854693
21	0xbda5d940	-0.08098078
22	0x3e042141	0.1290331
23	0x3d7772db	0.06041227
24	0x3e8d27b1	0.27569345
25	0x3d5f38b1	0.054497425
26	0xbdcf8dc5	-0.10134462
27	0x3df2ee54	0.11861864
28	0x3d84c2dc	0.06482479
29	0x3e7af56d	0.24507685
30	0xbe39fbd6	-0.18162474
31	0x3c3b2535	0.011422445
32	0x3daedcac	0.085381836
33	0x3d7484a6	0.059696816
34	0x3eb76194	0.35816634
35	0xbc9d3d45	-0.019194255
36	0x3a1553e3	0.0005696399
37	0x3e2b0249	0.1670009
38	0x3d3f48c8	0.04670027
39	0x3ea16180	0.315197
40	0xbd805dd2	-0.06267895
41	0x3cb9fc3f	0.022703288
42	0x3df894ad	0.12137733
43	0x3d4c7d5c	0.04992424
44	0x3eae0003	0.33984384
45	0xbe03361b	-0.12813608
46	0x3c3e34f6	0.011609307
47	0x3dd4cddd	0.10390828
48	0x3dd99999	0.106249996
49	0x3eb39c90	0.35080385
50	0xbd76fa38	-0.06029722
51	0xbc56cdb9	-0.013110572
52	0x3da45b7f	0.08025264
53	0x3c34054a	0.010987589
54	0x3e6bebaa	0.23039117
55	0x3d0f9d22	0.035061963
56	0xbd0983be	-0.033572905
57	0x3df42ce2	0.11922623
58	0x3d86f8c4	0.06590417
59	0x3e4fadc7	0.20281135
60	0xbf0cb99d	-0.54970723
61	0x3e22e84c	0.15908927
62	0x3db3aebf	0.087735645
63	0x3cd4c4de	0.02597278
64	0x3ebd5aa4	0.36983216
65	0x3b8d7fe1	0.004318223
66	0xbda8b0e0	-0.08236861
67	0x3db66f10	0.08907902
68	0x3dc69331	0.09696043
69	0x3e84d1e0	0.25941372
70	0xbe9a326d	-0.30116597
71	0x3c002be5	0.007822965
72	0x3e27b57b	0.16377823
73	0x3ce49a87	0.027905716
74	0x3ead5cf4	0.3385998
75	0xbe4f194d	-0.20224495
76	0x3db50b2b	0.08840021
77	0x3d929625	0.07157544
78	0xbd0291b0	-0.03187722
79	0x3de16497	0.11005514
80	0xbe12fd02	-0.14354327
81	0x3c067294	0.0082060285
82	0x3dbb4591	0.09144128
83	0x3c0c3e03	0.008559707
84	0x3dda59b5	0.106616415
85	0x3e765572	0.24056032
86	0xbdf19aa1	-0.11797071
87	0x3e389383	0.18025021
88	0x3da8cb22	0.082418695
89	0x3e7f4bb6	0.24931225
90	0x3e994315	0.29933992
91	0xbdf8fa03	-0.12157061
92	0x3e38e75f	0.18057011
93	0x3d29b69d	0.04143392
94	0x3e6155fc	0.22005457
95	0xbe6bd637	-0.23030935
96	0xbd2b266e	-0.041784696
97	0x3e62d3e8	0.22151148
98	0x3d67abb6	0.05656024
99	0x3ec4c9ec	0.38435304
100	0x3d954e12	0.07290281
101	0xbdd36829	-0.10322601
102	0x3d94736a	0.07248576
103	0x3d823a68	0.06358796
104	0x3e167a2f	0.14695047
105	0xbe0b437d	-0.13599963
106	0xbcfb7c90	-0.030699044
107	0x3d8cd571	0.06876648
108	0x3d80f683	0.062970184
109	0x3e505600	0.20345306
110	0x3d25641e	0.040378682
111	0xbcf5b186	-0.029991876
112	0x3e04ba97	0.12961803
113	0x3d7375d8	0.059438556
114	0x3e9cf13c	0.30652797
115	0x3ecbecbb	0.3982905
116	0xbdd39367	-0.10330849
117	0x3d3277c4	0.04357125
118	0x3d8f26a4	0.06989792
119	0x3d17045c	0.03686939
120	0xbdbb6293	-0.09149661
121	0x3b639f15	0.0034732271
122	0x3e1232af	0.14277147
123	0x3d9c9cde	0.076471075
124	0x3e4c5b20	0.19956636
125	0x3e9608d8	0.29303622
126	0xbdae8a58	-0.08522481
127	0x3d716733	0.05893631
128	0x3da3fdc6	0.08007388
129	0x3d29448f	0.04132515
130	0x3dbf7989	0.09349353
131	0xbd44cf2d	-0.04804914
132	0x3ddf1d70	0.10894287
133	0x3d93551c	0.07193968
134	0x3e872c29	0.2640088
135	0x3e14e91c	0.14542049
136	0xbd4c6799	-0.049903486
137	0x3e2ef391	0.170851
138	0x3e015e03	0.12633519
139	0x3eaa4183	0.33253106
140	0x3f074411	0.52838236
141	0xbe0ef2ed	-0.13959856
142	0x3d85acab	0.065270744
143	0x3bc880cd	0.00611887
144	0x3d50045e	0.050785415
145	0xbe2302ba	-0.15919009
146	0x3da220a5	0.07916383
147	0x3d9c19d3	0.07622113
148	0x3c12ffbc	0.008972105
149	0x3e8a0ddd	0.26963702
150	0x3e2c2a6e	0.1681306
151	0xbdea73c5	-0.114478625
152	0x3e18a8da	0.14908162
153	0x3d3bee9d	0.045881856
154	0x3e10183a	0.14071742
155	0x3d719db1	0.058988277
156	0x3c0f00c5	0.008728211
157	0x3d2d3f54	0.042296723
158	0x3d3a563e	0.045492403
159	0x3e3b91e1	0.18317367
160	0xbd47abc9	-0.04874781
161	0x3d59653a	0.053075053
162	0xbddae958	-0.10689038
163	0x3ce60d24	0.028082438
164	0xbda627aa	-0.08113034
165	0x3d034fc4	0.032058492
166	0xbdaae2c9	-0.08344037
167	0x3e129d19	0.1431774
168	0x3d8f5cd7	0.0700013
169	0x3e52a5e3	0.20571093
170	0x3cccc669	0.024996953
171	0xbb2aadfa	-0.002604364
172	0x3dbe8e6f	0.09304511
173	0x3d692085	0.05691578
174	0x3dd9d2e3	0.106359266
175	0xbc5ecb92	-0.01359834
176	0x3d1e1e7e	0.0386033
177	0xbd849ef5	-0.06475631
178	0xbd3bf317	-0.045886125
179	0xbd5db89a	-0.054131128
180	0x3cd3151e	0.025766905
181	0x3c88cb40	0.01669848
182	0xbdadda14	-0.08488861
183	0x3cbd247c	0.023088686
184	0xbc8e6e88	-0.01738669
185	0xbd2654d3	-0.04060824
186	0xbbb2f386	-0.005461159
187	0xbd3a4063	-0.04547156
188	0xbcf23f80	-0.029571295
189	0x3d327748	0.043570787
190	0x3cd957c2	0.026531104
191	0xbdc52352	-0.096258774
192	0x3df4ce94	0.11953464
193	0x3d7cfaf7	0.061762776
194	0x3e31b694	0.17354804
195	0xbd030b82	-0.031993397
196	0x3d8a3128	0.06747657
197	0xbd224c5e	-0.03962361
198	0xbd4c4f84	-0.04988052
199	0xbe036c8f	-0.1283438
200	0x3bcda939	0.0062762764
201	0xbc934aad	-0.017979944
202	0x3cf2f2b4	0.029656745
203	0xbccff4c0	-0.02538526
204	0x3d5b3756	0.05351957
205	0x3cb487ba	0.022037376
206	0xbb1b8478	-0.002373008
207	0x3d3b2abb	0.045695048
208	0xbc709c87	-0.0146857565
209	0x3b9c2c5d	0.0047660307
210	0xbd74d77e	-0.059775822
211	0x3d5145f3	0.0510921
212	0xbd5a95fb	-0.05336569
213	0xbd83f0f9	-0.06442446
214	0xbdb9f922	-0.090807214
215	0x3d8a7506	0.06760602
216	0x3ca6b0bb	0.020347944
217	0x3dcea502	0.100900665
218	0x3d6f9138	0.0584881
219	0x3e326bdb	0.17423956
220	0x3cc87e56	0.024474304
221	0x3ba6312a	0.005071779
222	0xbc595550	-0.013264969
223	0x3d22baf8	0.03972909
224	0x3bb6ba11	0.00557638
225	0x3cc8b8f2	0.024502251
226	0x3c450860	0.012025923
227	0xbc6c3038	-0.014415793
228	0x3cdca663	0.026934808
229	0x3d62c6a8	0.055365235
230	0x3d1cf1da	0.038316585
231	0xbd5f4467	-0.054508593
232	0x3dc11398	0.09427565
233	0x3d8f164c	0.06986675
234	0x3d6e939d	0.058246244
235	0x3d270afd	0.040781964
236	0xbdce9e1a	-0.10088749
237	0x3db4e8dd	0.08833478
238	0x3da6d4c2	0.08146049
239	0x3e90ffd8	0.28320193
240	0xbc4fe949	-0.012689897
241	0xbce224ee	-0.0276055
242	0xbbcb384c	-0.0062017795
243	0xbc504a6f	-0.012713059
244	0xbcf5f96f	-0.030026166
245	0x3dab996e	0.08378874
246	0xbd5c259a	-0.053746797
247	0x3da4cfbe	0.08047436
248	0x3db5f2d9	0.0888421
249	0x3e64ed25	0.22356088
250	0x3e03042f	0.12794565
251	0xbc8a34dd	-0.01687091
252	0x3dfbfaa5	0.12303666
253	0x3d405d1b	0.046963792
254	0x3ea04998	0.31306148
255	0xbcea9262	-0.028634254

linear_layer2.bias f4 [2016]
0	0x3ea9f840	0.33197212
1	0x3f9610ba	1.1723855
2	0xbf40be71	-0.7529059
3	0x3eb22f08	0.34801507
4	0x3eef8af7	0.4678571
5	0x3f79cdd4	0.97579694
6	0x3e8c6f30	0.2742858
7	0x3f9fc4c4	1.2481923
8	0x3f0c4ffb	0.5480954
9	0x3f5c3929	0.8602472
10	0x3e373829	0.17892517
11	0x3ed36151	0.41285184
12	0xc007c90f	-2.1216466
13	0xbf95671e	-1.1672094
14	0x3e4a271d	0.19741483
15	0xbfc29a9a	-1.5203431
16	0xbf31fbbc	-0.6952474
17	0x3e21c91d	0.15799375
18	0x3b0371d7	0.0020056868
19	0x3f571a18	0.8402419
20	0xbf949452	-1.1607764
21	0xbdba3f40	-0.09094095
22	0x3faa8d6b	1.3324407
23	0xbf5a60fe	-0.8530425
24	0x3ea149b2	0.31501538
25	0xbf41e201	-0.7573548
26	0x3e9ae48a	0.30252486
27	0x3fabb9d3	1.3416084
28	0xbf03f031	-0.5153838
29	0xbf3bedba	-0.73409617
30	0xbf92055b	-1.1407884
31	0x3f20de08	0.6283879
32	0xbf8bd962	-1.0925715
33	0x3f8e43ec	1.1114478
34	0x3f4c4e70	0.79807186
35	0xbf205a69	-0.62637955
36	0xbe62a352	-0.22132614
37	0xbecc04ea	-0.398475
38	0x3f8c06d1	1.093958
39	0xbf570ec0	-0.8400688
40	0x3ed330d5	0.41248193
41	0xbe159cc2	-0.1461058
42	0xbf75dfb7	-0.96044487
43	0x3f722ce9	0.9459978
44	0xbe83a9f1	-0.25715593
45	0x3e8338a0	0.2562914
46	0x3f08bd79	0.5341411
47	0x3fbe2719	1.4855682
48	0xbec5459a	-0.38529664
49	0x3fb1339e	1.3843877
50	0x3fdc3c96	1.7205989
51	0xbf0b3b07	-0.54386944
52	0xbfe99fd2	-1.8251898
53	0xbfbebba0	-1.4901009
54	0x3e6edbd1	0.23326041
55	0x3ffe129d	1.984943
56	0x3fe8ce89	1.818803
57	0x3d613114	0.054978445
58	0x3fa7b28f	1.3101367
59	0xbe877ef9	-0.2646406
60	0x3f09fca9	0.53901154
61	0x3f639d9b	0.8891236
62	0xbf9f3433	-1.2437805
63	0x3eeb8102	0.45996863
64	0xbea59b43	-0.32345018
65	0xbae0b50a	-0.0017143798
66	0xbf2f4c19	-0.6847549
67	0x3ed5b986	0.41743106
68	0xbe91c33b	-0.28469262
69	0xc0123e2b	-2.2850444
70	0x3f4ae80a	0.79260314
71	0xbfc59491	-1.5435964
72	0xbf8f9a8c	-1.1219039
73	0xbe0eece4	-0.13957554
74	0xbf1d7643	-0.6150858
75	0x3e89b786	0.2689783
76	0x3f071acb	0.5277526
77	0x3ee9ad39	0.4563997
78	0xbf822f7e	-1.0170743
79	0xbe8c7ce3	-0.2743903
80	0xbf3a9e3a	-0.72897685
81	0xbfe1cb22	-1.7640116
82	0x3edd7367	0.43252108
83	0x3f87a94a	1.0598538
84	0xbed4c898	-0.4155929
85	0x3f2f2ff3	0.6843254
86	0xbe9fe018	-0.31225657
87	0x3f792639	0.9732395
88	0x3eb40648	0.35161042
89	0xbf3a8c43	-0.7287027
90	0x3eca6695	0.3953139
91	0xbf6932e2	-0.91093266
92	0x3f33dc3b	0.7025792
93	0x3fc55396	1.5416133
94	0x3dc3d49f	0.09562039
95	0x3f3bf3bd	0.7341879
96	0x3f4ba8c0	0.7955437
97	0xbfac3b5b	-1.3455614
98	0x3f36eb60	0.71452904
99	0xbf884958	-1.0647383
100	0xbf74f2ae	-0.956828
101	0xbf89e83d	-1.0773998
102	0x3f3458b9	0.7044788
103	0x3e4d1556	0.2002767
104	0xbf1a2bbd	-0.6022299
105	0xbf85faf3	-1.0467209
106	0x3fadf75e	1.3591115
107	0xbf12a0f4	-0.57276845
108	0x3e08a533	0.13344269
109	0xbea3f031	-0.3201919
110	0xbf772d16	-0.9655317
111	0xbf4eb350	-0.8074236
112	0x3f8e770e	1.1130083
113	0x3ea50b93	0.32235393
114	0xbe628d9e	-0.22124335
115	0x3f13e5a8	0.577723
116	0xbe66dd0a	-0.22545257
117	0x3ead0be7	0.33798143
118	0xbf01a1d9	-0.50637585
119	0xbf8da34c	-1.1065459
120	0xbd98526a	-0.07437594
121	0x3e9e47cb	0.3091415
122	0x3b3b0d10	0.0028541721
123	0x3f5baf5b	0.85814446
124	0x3f8705da	1.0548661
125	0xbf591b8c	-0.8480766
126	0x3e1c05da	0.15236607
127	0xbe9a8d83	-0.3018609
128	0x3f88c497	1.0684994
129	0xbfc640ef	-1.5488566
130	0xbfc1fee9	-1.5155917
131	0xbfac5e01	-1.3466188
132	0x3f20ca8f	0.6280908
133	0xbcabc0e7	-0.020966006
134	0xbe8a0c32	-0.2696243
135	0xbf83b24f	-1.028879
136	0x3f6f2a76	0.93424165
137	0x3f5fac53	0.8737232
138	0xbf647a63	-0.8924925
139	0xbffc42e2	-1.9707911
140	0xbf7938b1	-0.9735213
141	0xbfc69298	-1.5513487
142	0x3d9a6dac	0.075404495
143	0xbcd381a4	-0.025818653
144	0x3f401e2f	0.75046057
145	0x3e567c96	0.20945963
146	0x3e8ad841	0.27118114
147	0xbf24db03	-0.64396685
148	0xbde52fd0	-0.1119076
149	0x3f14fd2c	0.5819881
150	0xbda6f20c	-0.081516355
151	0xbfd16bce	-1.6361024
152	0x3f17ed83	0.5934679
153	0x3d346269	0.044039164
154	0xbf889256	-1.0669658
155	0x3f993479	1.1969138
156	0xbf089be0	-0.53362846
157	0xbfbcbc55	-1.4744974
158	0xbe307412	-0.17231777
159	0x3f320c37	0.6954989
160	0xbf23f90e	-0.640519
161	0xbf09a78a	-0.5377127
162	0xbf2062f1	-0.6265097
163	0xc00259f0	-2.0367393
164	0xbe494d99	-0.19658507
165	0x4002f363	2.0461051
166	0xbcbddbd0	-0.023176104
167	0x3f275131	0.65358263
168	0x3f034f35	0.51292735
169	0x3fd2d299	1.6470519
170	0x3cb70910	0.022343189
171	0xbef2ed39	-0.47446612
172	0xbded7cd3	-0.11596074
173	0xbeec8d9e	-0.46201795
174	0x3f4ae653	0.79257697
175	0xbed06661	-0.4070311
176	0x3f9b5606	1.2135627
177	0x3f8c1b1f	1.0945777
178	0x3f41cca3	0.75702876
179	0x3f99ae48	1.2006311
180	0xbea0e910	-0.31427813
181	0x3ecdf7a5	0.40228
182	0xbfe20e0d	-1.7660538
183	0xbfb85449	-1.4400722
184	0x3d7d07b4	0.061774924
185	0x3f1f25ae	0.6216687
186	0xbe9c9c09	-0.30587795
187	0xbe745b76	-0.23863015
188	0x3e467efb	0.19384377
189	0xbf13d11a	-0.5774094
190	0x3e1937ae	0.14962646
191	0xbf9e716f	-1.2378367
192	0x3eb4b940	0.35297585
193	0xbfd508af	-1.6643275
194	0x3fce2522	1.6105082
195	0xbf8cbbaa	-1.099477
196	0xbf0141e6	-0.5049118
197	0xc019f827	-2.405771
198	0xbfb4143a	-1.4068673
199	0xbcd1012d	-0.025513256
200	0x3fd41f21	1.6572
201	0xbf7a21a1	-0.97707564
202	0x3e444523	0.19166999
203	0x3effffdc	0.49999893
204	0x3f1d80da	0.61524737
205	0x3deda3c2	0.116035
206	0xbef51e23	-0.47874555
207	0xbe84dbcf	-0.2594895
208	0x3faf5f83	1.3701023
209	0x3f0c54f2	0.54817116
210	0x3fd3e33e	1.6553724
211	0x3f2a9529	0.6663385
212	0xbef2db3f	-0.47432896
213	0xbf88c6a4	-1.068562
214	0x3eb1d690	0.3473401
215	0x3f206fb9	0.62670475
216	0xbf899275	-1.074782
217	0xbf6bc7a5	-0.9210151
218	0x3ed66395	0.4187285
219	0x3f785a3b	0.9701268
220	0xbf48e2e0	-0.78471184
221	0x3e31ff94	0.17382652
222	0x3f258856	0.6466116
223	0xbfc28aca	-1.5198605
224	0xbeece64c	-0.46269453
225	0x3ecfb221	0.4056559
226	0xbda2542e	-0.07926212
227	0xbc4569b3	-0.012049126
228	0xbe901934	-0.28144228
229	0xbf39482e	-0.7237576
230	0xbe06ae48	-0.1315242
231	0x3df74fe7	0.12075787
232	0xbf8a128d	-1.0786911
233	0xbc22a745	-0.0099275755
234	0xbed7fff4	-0.42187464
235	0x3f56256e	0.83650863
236	0xbfa1c5ad	-1.2638451
237	0xbfc639e8	-1.5486422
238	0xbed4593f	-0.4147434
239	0xbf79ec58	-0.97626257
240	0xbe697ca3	-0.22801451
241	0xbefd679d	-0.49493113
242	0xbfbb03c8	-1.4610529
243	0x3d8ef6bc	0.069806546
244	0x3d003fb3	0.03131075
245	0xbd70bdb5	-0.05877467
246	0xbf9a54c5	-1.205712
247	0x3fb39e60	1.4032707
248	0x3ee0e70e	0.4392628
249	0x3f4d93f3	0.8030388
250	0x3e90b770	0.28264952
251	0x3dcfa20d	0.101383306
252	0x3d5f080d	0.054451037
253	0x3f9aa88b	1.2082685
254	0xc015b75c	-2.3393164
255	0xbf2e1d11	-0.680131
