model/Artificial_Data_6000_LogF_True_epoch_200_attention_net_u_artificial_Q_9_K_2_F_5_REG_L0_ACT_sigmoid_WD_000001_CV.model (torch_old, 51933 bytes, 6 tensors)

key_matrix f4 [9, 2]
0	0x3fb84dac	1.4398704
1	0xbd23089e	-0.03980314
2	0xbe12a6c6	-0.14321432
3	0x3f1a5972	0.6029273
4	0x3f8e61ea	1.1123631
5	0x3f9c0cf6	1.2191455
6	0x3f8864cf	1.0655764
7	0xbe848a58	-0.25886798
8	0x3d8df101	0.069307335
9	0x3f6d556d	0.92708474
10	0x3f1b36ac	0.606303
11	0x3edf6030	0.43628073
12	0xbeb54d72	-0.3541065
13	0xbf21bc98	-0.63178396
14	0xbfeff694	-1.8747125
15	0x3eb86ad7	0.36019012
16	0x3ecb828f	0.39748046
17	0xc08a41c1	-4.3205266

value_matrix f4 [2, 5]
0	0xc0c5dc68	-6.183155
1	0x4069a78b	3.650851
2	0xc08e2ff3	-4.443353
3	0xc06c0ff7	-3.6884744
4	0xc0c16bcf	-6.04441
5	0xc0772c26	-3.8620696
6	0xc054a2b7	-3.3224313
7	0x3ef9ae3b	0.4876574
8	0x4041af3b	3.0263202
9	0xc01e4f8a	-2.4736047

linear_layer1.weight f4 [9, 64]
0	0xbd712168	-0.05886975
1	0x3ccd3fab	0.025054773
2	0xbd90c3cf	-0.070685975
3	0x3d0d129f	0.034441587
4	0xbe7a3d1f	-0.24437378
5	0xbd3d9f38	-0.04629442
6	0xbcee590c	-0.029095195
7	0x3de1152d	0.10990367
8	0xbe830ffd	-0.25598136
9	0xbc2b614e	-0.010460211
10	0xbd996c74	-0.07491389
11	0x3e054686	0.13015184
12	0xbeae4ceb	-0.3404306
13	0xbe24f375	-0.16108496
14	0xbe29e51a	-0.16591302
15	0x3da28d4c	0.079371065
16	0xbe102542	-0.14076713
17	0xbd727dc0	-0.059201956
18	0x3dde9519	0.10868282
19	0x3e0bbc2f	0.13646005
20	0x3e10df78	0.14147747
21	0xbe2d9c9a	-0.1695427
22	0x3d8e1822	0.06938197
23	0xbdbb7d1a	-0.091547206
24	0x3d4861d9	0.04892144
25	0x3cc98819	0.02460103
26	0xbd80147d	-0.06253908
27	0xbd0f1299	-0.034929845
28	0xbd90067d	-0.070324875
29	0xbc444b81	-0.011980892
30	0x3d786f97	0.060653295
31	0xbe32331a	-0.17402306
32	0x3dd4ce62	0.10390927
33	0x3eac58c0	0.3366146
34	0xbe461991	-0.1934569
35	0x3ce5efc9	0.02806844
36	0x3e2df0a0	0.16986322
37	0x3e577e2b	0.21044223
38	0xbcc10676	-0.023562651
39	0xbdc019a1	-0.09379888
40	0x3df51338	0.11966556
41	0x3d1c18f6	0.038109742
42	0xbe802067	-0.2502472
43	0xbcbc25ed	-0.022967303
44	0x3de9848d	0.11402235
45	0x3d5e0205	0.054201145
46	0x3e8ca233	0.27467498
47	0xbd41b457	-0.047291126
48	0x3e715fd2	0.23571709
49	0xbb036f86	-0.0020055487
50	0x3e1ab754	0.15108997
51	0x3e1ce5fe	0.1532211
52	0x3eca135c	0.39467895
53	0x3e45a892	0.19302586
54	0x3c8d10d8	0.017219946
55	0x3cefe299	0.029282855
56	0x3d0a49bc	0.033761725
57	0xbd9846da	-0.07435389
58	0x3d73d10c	0.059525535
59	0x3df3b1d5	0.11899153
60	0x3e61dc17	0.22056614
61	0x3e508277	0.20362268
62	0xbd3894b8	-0.045063704
63	0xbdd236e7	-0.10264378
64	0xbd79c84a	-0.060982026
65	0x3dd5e7cd	0.10444603
66	0xbe5475be	-0.2074804
67	0xbe2cd50a	-0.16878143
68	0x3d338f17	0.043837633
69	0xbe19e6ad	-0.15029402
70	0x3e944fb5	0.28967062
71	0xbc968a2d	-0.018376434
72	0xbe429c1b	-0.19004862
73	0xbe47ef63	-0.19524913
74	0x3e4af0e2	0.19818452
75	0x3d8ac5e2	0.067760244
76	0xbe1aeb73	-0.15128879
77	0x3c8c6059	0.017135786
78	0xbe86a03f	-0.26294133
79	0xbdd2fc26	-0.10302
80	0x3e827e60	0.2548704
81	0xbe235d74	-0.15953618
82	0x3dea428b	0.11438473
83	0xbdd2d711	-0.10294927
84	0xbb1977d5	-0.0023417373
85	0x3e2e4a29	0.17020477
86	0x3e86790f	0.26264235
87	0x3abb4492	0.0014287403
88	0x3db3375f	0.087507956
89	0x3dbd455a	0.092417434
90	0x3d2963e5	0.041355032
91	0xbe9f5447	-0.31118986
92	0x3e9966d7	0.29961273
93	0x3e1ec3be	0.15504357
94	0xbe05842a	-0.13038698
95	0xbdcf120c	-0.10110864
96	0xbe2c5d08	-0.16832364
97	0xbe3fba23	-0.1872335
98	0x3e4a7d47	0.19774352
99	0xbd981ada	-0.074269965
100	0x3e0b2248	0.13587296
101	0x3c1cd9a1	0.009573371
102	0xbe0a5d4f	-0.13512157
103	0x3e06a363	0.13148265
104	0xbcff91b9	-0.031197416
105	0xbde97966	-0.11400108
106	0xbe5a3c94	-0.21312171
107	0xbe5936b8	-0.2121228
108	0xbc232b92	-0.009959118
109	0x3e70f6fc	0.23531717
110	0x3d6fa622	0.058508046
111	0x3e50321f	0.2033162
112	0x3e817118	0.25281596
113	0xbea71cbd	-0.32639113
114	0x3db3e5fb	0.087841
115	0xbdcf0db2	-0.10110034
116	0xbdce324e	-0.100681886
117	0x3e63e273	0.22254352
118	0xbe5b04d9	-0.21388568
119	0x3e7821fa	0.24231711
120	0x3dc3ad17	0.09554499
121	0xbe5f8196	-0.21826777
122	0xbc68888b	-0.014192711
123	0xbea7ba96	-0.3275954
124	0x3cd55e7f	0.026046036
125	0xbdac8f04	-0.084257156
126	0x3e3f3cdf	0.18675564
127	0xbe094c40	-0.13407993
128	0xbe826e4c	-0.25474775
129	0x3e261c7f	0.16221808
130	0x3e79d815	0.24398835
131	0xbe24c932	-0.16092375
132	0x3e6b760a	0.22994247
133	0xbe81e677	-0.25371143
134	0x3e7bbaff	0.24583052
135	0x3e54fa77	0.2079867
136	0x3d2ea454	0.042637184
137	0xbe8bfeb0	-0.2734275
138	0x3e4deb37	0.20109259
139	0x3dca7234	0.09885064
140	0x3e232dbc	0.15935415
141	0xbc01006e	-0.007873638
142	0x3e6b81d5	0.22998746
143	0xbe057874	-0.1303423
144	0x3c9f3ec4	0.019439109
145	0xbe518531	-0.20460965
146	0x3dbd2b0b	0.092367254
147	0x3ba6a292	0.005085298
148	0x3e2df656	0.16988501
149	0xbe7993a1	-0.24372722
150	0xbe73eedb	-0.23821585
151	0x3cda8352	0.026673947
152	0x3e5c980c	0.21542376
153	0xbb911411	-0.004427441
154	0xbe8b3a82	-0.27193075
155	0x3e015c4d	0.12632866
156	0x3e06fb23	0.13181739
157	0x3e908815	0.28228822
158	0xbc1a8657	-0.009431443
159	0xbe6fbd52	-0.23412064
160	0xbe7a7db6	-0.24462017
161	0xbe5d6ac8	-0.21622765
162	0x3e0b29d3	0.13590173
163	0x3e0d9370	0.13825774
164	0xbdf67689	-0.120343275
165	0x3e89e2fc	0.26930988
166	0x3e04ba30	0.1296165
167	0x3d8ef999	0.06981201
168	0xbe5a3be2	-0.21311906
169	0xbe433f34	-0.19067079
170	0x3d7ef9be	0.06224989
171	0x3e531863	0.20614772
172	0x3c19cd0a	0.009387264
173	0x3e6b4549	0.22975649
174	0x3e6992b1	0.22809865
175	0xbe375075	-0.17901786
176	0x3d8b2013	0.06793227
177	0xbe74ec5c	-0.23918289
178	0x3e879b67	0.2648575
179	0x3cea9b47	0.028638495
180	0x3d63b993	0.0555969
181	0x3e43dfae	0.19128296
182	0xbe51410f	-0.20434974
183	0x3dbed480	0.09317875
184	0xbe983dcc	-0.29734647
185	0x3cc2ea18	0.023793265
186	0x3dd7509c	0.10513422
187	0xbb87eba4	-0.0041479636
188	0xbe820b60	-0.25399303
189	0xbe04f09b	-0.12982409
190	0xbd412217	-0.04715165
191	0xbd8a2fa1	-0.06747366
192	0x3dec2f3d	0.115324475
193	0xbe32d17d	-0.17462726
194	0xbe1b1b14	-0.15147048
195	0x3d2671be	0.040635817
196	0x3e611d5d	0.21983857
197	0xbdee9964	-0.11650351
198	0x3e085beb	0.13316314
199	0x3e4e3e18	0.20140874
200	0xbe3ba07a	-0.18322936
201	0x3e7e2be4	0.2482143
202	0xbde61c39	-0.11235852
203	0x3e37bc73	0.17942981
204	0xbe0a4689	-0.1350347
205	0xbe30a7b9	-0.17251481
206	0xbd27277a	-0.040809132
207	0x3dcf2cb2	0.10115947
208	0xbcf832ac	-0.0302976
209	0x3e074715	0.1321071
210	0x3dafb515	0.085794605
211	0xbc149c44	-0.00907046
212	0xbdca1cd3	-0.09868779
213	0x3e2c01b4	0.16797525
214	0x3d881fc8	0.06646687
215	0x3ead05e3	0.33793554
216	0xbe1e12e8	-0.154369
217	0x3e66c49c	0.22535938
218	0x3ea39bed	0.319549
219	0x3d846e1a	0.06466313
220	0x3d352fc1	0.044234995
221	0x3e92ed40	0.28696632
222	0xbdf57bcb	-0.11986502
223	0x3d6fb5f0	0.05852312
224	0xbdba0734	-0.09083405
225	0xbde2d793	-0.11076274
226	0xbd96d527	-0.07364874
227	0xbd898880	-0.067154884
228	0xbe7078a1	-0.23483516
229	0x3ccfbf84	0.025359876
230	0xbe8f50cc	-0.2799133
231	0xbe6eed8d	-0.23332806
232	0xbe235d44	-0.15953547
233	0xbeb6ed71	-0.35728028
234	0xbe97e5a5	-0.29667392
235	0xbe9ca3d4	-0.3059374
236	0x3d84caa1	0.06483961
237	0x3d0279b2	0.03185434
238	0xbdc9cf86	-0.09854035
239	0xbc2c02ee	-0.010498745
240	0xbdc2e689	-0.09516627
241	0xbd29f79d	-0.041495908
242	0xbdbf45bc	-0.09339473
243	0xbdd7a815	-0.10530106
244	0x3ce69b47	0.028150214
245	0xbe67c637	-0.22634207
246	0xbe6dbe95	-0.23217233
247	0xbe373e6f	-0.1789491
248	0xbcc1d724	-0.023662157
249	0xbe9127ec	-0.2835077
250	0xbdbc3755	-0.09190241
251	0x3d862e9d	0.065518595
252	0x3d060d38	0.03272745
253	0xbd9b111d	-0.075716235
254	0xbe8ae279	-0.2712591
255	0xbdeeeed8	-0.116666496

linear_layer1.bias f4 [9]
0	0xbf3ae1cd	-0.73000795
1	0x3e3d8362	0.1850715
2	0x3f729ce1	0.9477063
3	0xbfe6720c	-1.8003554
4	0x3f300f5c	0.68773437
5	0x3effc7e6	0.49957198
6	0x3f3ccce4	0.7375014
7	0xbdbf2ae5	-0.09334353
8	0xbfa9ae16	-1.3256252

linear_layer2.weight f4 [2016, 5]
0	0x3d82456e	0.06360899
1	0xbceffa4a	-0.029294152
2	0x3d8a4d9b	0.06753083
3	0x3d64d651	0.05586845
4	0x3d9c9635	0.07645837
5	0x3de9f14a	0.11422975
6	0xbe0fb989	-0.1403562
7	0x3d52bc16	0.051448904
8	0x3dd84eee	0.1056193
9	0x3ddda998	0.10823363
10	0x3ec2af82	0.38024527
11	0x3df35244	0.11880925
12	0x3df863f0	0.121284366
13	0xbda238e7	-0.079210095
14	0x3ea717cc	0.32635343
15	0x3e37b4e1	0.17940094
16	0x3c9824ef	0.018572299
17	0x3c8516bd	0.016246194
18	0x3c41a693	0.0118195
19	0x3dee5433	0.116371535
20	0x3bdb9dac	0.0067021456
21	0xbe12c02a	-0.14331117
22	0x3dc15952	0.094408646
23	0x3d93bb5f	0.072134726
24	0x3db3fa0a	0.087879255
25	0x3c5ab917	0.013349793
26	0xbd3bbbe0	-0.04583347
27	0x3d7d13fb	0.061786633
28	0xbbf2ed12	-0.007413515
29	0x3d9c4c03	0.076316856
30	0x3e45eae5	0.19327886
31	0x3dad1296	0.084508106
32	0xbd2e3bd4	-0.042537525
33	0xbdcc267a	-0.09968276
34	0x3da0e21e	0.078556284
35	0x3d0d4622	0.034490712
36	0xbd753c1c	-0.059871778
37	0x3d341051	0.043960873
38	0x3dd9d665	0.10636596
39	0x3da02443	0.078194164
40	0x3e84d492	0.25943428
41	0x3d95d86b	0.07316669
42	0x3884c665	6.331204e-05
43	0xbc5b90e9	-0.0134012485
44	0x3e485b38	0.19566047
45	0x3ed3f54f	0.41398093
46	0x3e9b0416	0.30276555
47	0xbcd23862	-0.025661651
48	0xbe8fedcf	-0.2811112
49	0x3e81f1db	0.25379834
50	0xbd9247ae	-0.07142578
51	0xbe57759f	-0.21040963
52	0x3e1d06ae	0.1533458
53	0x3e4593c9	0.19294657
54	0x3d2814c6	0.041035436
55	0x3d634aab	0.05549113
56	0xbe953c70	-0.29147673
57	0x3de2ac19	0.11067981
58	0x3e5946ba	0.21218386
59	0x3d21d5f5	0.039510686
60	0x3e737ba8	0.2377764
61	0x3e0c7b5f	0.13718937
62	0x3d2f80a1	0.04284728
63	0xbe28a767	-0.16470109
64	0x3e43bcf7	0.19115053
65	0x3f0c361e	0.54770076
66	0x3e6f017c	0.2334041
67	0x3dd5cf1b	0.10439893
68	0xbe5fc372	-0.218519
69	0x3ee05991	0.43818334
70	0xbe06f02c	-0.13177556
71	0xbe7fe926	-0.24991283
72	0x3e2c2b9a	0.16813508
73	0x3e8a7ddd	0.2704915
74	0xbdcf1c41	-0.10112811
75	0x3e5c957e	0.21541402
76	0x3dcd72b1	0.10031641
77	0x3c99649b	0.01872473
78	0xbc76a742	-0.015054526
79	0x3db29c80	0.08721256
80	0x3ecd4c1f	0.40097138
81	0xbc685de2	-0.01418254
82	0x3db83d7e	0.08996104
83	0xbd1f828c	-0.03894286
84	0x3e8464dd	0.25858203
85	0x3ecfa315	0.4055411
86	0xbdd78a81	-0.105244644
87	0x3e5f1fbb	0.21789448
88	0x3e079caa	0.13243356
89	0x3ea1e6ad	0.31621304
90	0x3ec5a664	0.38603508
91	0x3d9e2822	0.077224985
92	0x3dde1e86	0.10845666
93	0xbe11f3dd	-0.14253183
94	0x3ea30d2f	0.31845996
95	0x3db8b918	0.09019679
96	0xbce8947a	-0.028391112
97	0x3dd5bdb9	0.10436577
98	0x3d2dfcd8	0.04247746
99	0x3e04200c	0.1290285
100	0xbdee292a	-0.11628945
101	0xbe8cc70b	-0.27495608
102	0x3e1fbf5e	0.15600345
103	0x3e8d756d	0.2762865
104	0xbca8fc5e	-0.02062815
105	0xbd0db84d	-0.03459959
106	0xbe77b13e	-0.24188706
107	0x3e243acd	0.16038056
108	0x3e98a2b9	0.29811648
109	0x3cde10ab	0.027107557
110	0x3e8b117b	0.27161774
111	0x3e2df789	0.16988958
112	0x3d6d6e30	0.05796641
113	0xbdc97477	-0.09836667
114	0x3e717aae	0.23581955
115	0x3e320821	0.17385913
116	0xbd70c6d6	-0.058783375
117	0x3d7287c5	0.05921151
118	0x3d96b85c	0.073593825
119	0x3e0a9a61	0.13535453
120	0x3e69a983	0.2281857
121	0xbd3ac421	-0.0455972
122	0x3dfb9609	0.12284476
123	0x3c9260d3	0.017868435
124	0x3e3448cf	0.176059
125	0xbdc7ed4b	-0.09762057
126	0x3c9c7a90	0.019101411
127	0xbd5a0419	-0.053226564
128	0x3bae22aa	0.005314191
129	0xbc6eb521	-0.014569552
130	0x3e7888e0	0.24270964
131	0x3c82aac2	0.015950564
132	0x3c3811fb	0.011234756
133	0xbcb6bb25	-0.022306034
134	0x3e040a91	0.12894656
135	0x3ea427be	0.3206157
136	0x3bb46816	0.005505572
137	0x3db6e5dd	0.08930562
138	0x3b9ad6f6	0.0047253324
139	0x3e833ad0	0.25630808
140	0x3e693d96	0.227774
141	0x3db7dba1	0.08977438
142	0x3dc4206e	0.09576498
143	0xbd2a0534	-0.04150887
144	0x3e55f9dc	0.20896095
145	0x3d6e9e0f	0.058256205
146	0xbe136662	-0.14394525
147	0x3e31beb2	0.173579
148	0x3e4bff43	0.19921593
149	0x3dc3b576	0.09556095
150	0xbd6c3f1d	-0.057677377
151	0xbe7d8616	-0.24758181
152	0x3d9402dd	0.07227109
153	0x3e4da994	0.2008422
154	0xbd79d28b	-0.060991805
155	0xbe4787eb	-0.19485442
156	0x3d5f9991	0.05458981
157	0xbd972cc3	-0.073815845
158	0xbd573cd3	-0.05254824
159	0xbde10e7b	-0.1098909
160	0x3e3ac8fe	0.18240735
161	0xbdb11053	-0.08645692
162	0x3e1967db	0.14981024
163	0x3d92e134	0.0717186
164	0x3e4955f9	0.19661702
165	0xbddc000e	-0.10742198
166	0xbc22b297	-0.009930274
167	0xbb8f1e9d	-0.004367663
168	0xbdb867b7	-0.09004157
169	0xbd2ca982	-0.042153843
170	0xbdf7d26e	-0.12100683
171	0x3d859522	0.065225855
172	0xbd47b66b	-0.04875795
173	0xbbbc27aa	-0.005742033
174	0xbdc2a341	-0.095037945
175	0xbd8b4180	-0.067996025
176	0x3c7cb495	0.0154239135
177	0xbcb410e3	-0.021980708
178	0x3c457f2e	0.012054248
179	0xbbcf7732	-0.006331348
180	0x3d57e9d7	0.05271324
181	0xbc877c54	-0.016538776
182	0xbc92049f	-0.01782447
183	0x3c6b3170	0.014355049
184	0x3c84d08a	0.01621272
185	0x3da1624e	0.07880078
186	0x3c1afcd7	0.009459696
187	0x3bc513d1	0.006014325
188	0xbca727b4	-0.020404674
189	0x3ad79a04	0.0016449098
190	0x3ddb0767	0.10694771
191	0xbd3b0349	-0.04565743
192	0x3dbd7616	0.09251039
193	0x3c659539	0.014012628
194	0x3d058dc0	0.032605886
195	0xbe2a337c	-0.16621202
196	0x3d32992e	0.043603115
197	0xbe324bbb	-0.17411701
198	0xbdc8190b	-0.097704016
199	0xbe1e6166	-0.15466842
200	0xbdfdf3de	-0.124000296
201	0x3934728e	0.00017208813
202	0xbdc8c68c	-0.09803495
203	0x3b4be3ec	0.0031111194
204	0xbd8b2121	-0.06793428
205	0x3cfeb305	0.031091223
206	0xbcf972ac	-0.030450188
207	0x3d6814af	0.05666035
208	0x3cdd3463	0.027002519
209	0x3d0db633	0.034597587
210	0xbddfd443	-0.109291576
211	0x3cc6ada8	0.024252728
212	0xbdee0a6a	-0.1162308
213	0xbda9190b	-0.0825673
214	0xbe2aaccb	-0.16667478
215	0xbd9bde84	-0.07610801
216	0x3d0c8cbd	0.034313906
217	0xba81329e	-0.0009857004
218	0xbaba21ec	-0.0014200783
219	0x3c49c220	0.012314349
220	0x3d8aa0a4	0.06768921
221	0xbd3dc57c	-0.046330914
222	0x3d9a160f	0.075237386
223	0x3da035c0	0.07822752
224	0x3df8c274	0.12146464
225	0xbe013e07	-0.12621318
226	0x3d81b2cb	0.0633293
227	0xbd8172f7	-0.06320756
228	0xbda337df	-0.07969641
229	0xbdc70df8	-0.09719461
230	0x3dd4554b	0.10367831
231	0xbcfaa340	-0.030595422
232	0x3cb52540	0.022112489
233	0x3d234974	0.039864972
234	0x3d7c85ef	0.061651167
235	0x3d66a479	0.056309197
236	0xbd86d18c	-0.06582937
237	0x3d842a54	0.06453386
238	0xbba999bb	-0.005175797
239	0x3cad94ed	0.021189177
240	0x3dde73b4	0.10861912
241	0xbd3c91a2	-0.046037324
242	0x3d656804	0.0560074
243	0x3db1a2e1	0.08673645
244	0x3dae7ee6	0.08520298
245	0x3b99a596	0.004688929
246	0x3d5d5d9f	0.054044362
247	0x3cc4f545	0.024042735
248	0xbd194d63	-0.037427317
249	0xbd96df37	-0.073667936
250	0xbe374677	-0.17897974
251	0x3d6a3767	0.057181742
252	0xbda71665	-0.08158568
253	0xbdc00655	-0.09376208
254	0xbdc98570	-0.09839904
255	0x3d32a661	0.043615703

linear_layer2.bias f4 [2016]
0	0xbe84058e	-0.25785488
1	0x3f15ea70	0.5856085
2	0x3fd58c51	1.6683446
3	0xbeb2a90b	-0.34894595
4	0xbf8a2a0c	-1.0794082
5	0xbf89b602	-1.0758669
6	0xbf3cc226	-0.73733747
7	0xbee0a1ff	-0.43873593
8	0xbe95d0ce	-0.29260868
9	0x3eba9c51	0.36447385
10	0xbef3e162	-0.4763289
11	0xbd5d3472	-0.054005094
12	0xbf380bc5	-0.7189296
13	0xbe05f42f	-0.1308143
14	0xbfb09bf3	-1.3797592
15	0xbf3433e1	-0.7039166
16	0x402443f2	2.566647
17	0x3fb18f2a	1.3871815
18	0x3ff141c3	1.8848194
19	0x3df61c77	0.12017148
20	0xbf971d30	-1.1805782
21	0xbeed6611	-0.46366933
22	0x3f4e291a	0.80531466
23	0x3f4c2601	0.7974549
24	0x3fb1936f	1.3873118
25	0xc025df73	-2.5917633
26	0x3eb70e39	0.3575304
27	0x3faf120a	1.367738
28	0x3eef76f6	0.46770447
29	0x3d076901	0.033059124
30	0xbf9650ac	-1.1743369
31	0xbfb5cbb0	-1.4202785
32	0x3fbf70b3	1.4956268
33	0xbf6c4cac	-0.9230449
34	0xbf7830cb	-0.9694945
35	0xbf17b6c8	-0.5926328
36	0x3e4f2586	0.20229158
37	0x3e2310cd	0.15924378
38	0x3f400ea0	0.75022316
39	0xbfbac673	-1.4591812
40	0xbf872c36	-1.0560367
41	0x3e0d75b8	0.13814437
42	0xbf97b247	-1.1851281
43	0xbef816d7	-0.48454925
44	0x3f751720	0.9573841
45	0xbf90c1c0	-1.1309128
46	0x3f3e59c3	0.74355716
47	0x3e2fff0f	0.17187141
48	0x3f5207d1	0.82043177
49	0xbef86389	-0.4851344
50	0xbfbf3351	-1.4937536
51	0xbe19abb2	-0.15006903
52	0x3f22135a	0.6331078
53	0xbf7583b0	-0.95904064
54	0xbfd885e7	-1.6915864
55	0xbeefc845	-0.4683248
56	0x3f996799	1.198474
57	0x3f0adb8d	0.5424126
58	0xbfbb2a30	-1.462225
59	0x3f6b38d1	0.9188357
60	0x3edf58ab	0.43622336
61	0x3d19d9a6	0.03756108
62	0x3e81e4fe	0.2537002
63	0x3fe8609c	1.8154483
64	0xbf263a5e	-0.6493281
65	0xbea48aa1	-0.32137015
66	0x3f0faa59	0.56119305
67	0x3d00747d	0.031361092
68	0x3f8b1bc0	1.0867844
69	0xbfa98b3c	-1.3245616
70	0x3f64b9c9	0.89345986
71	0xbf116b23	-0.568041
72	0xbeedb02f	-0.4642348
73	0x3fe8315a	1.8140061
74	0xbf20cb80	-0.62810516
75	0xbf0ddc34	-0.5541413
76	0xbf60ba50	-0.8778429
77	0x3d7a6776	0.061133824
78	0x3e4259c9	0.18979563
79	0x3f3e1507	0.74250835
80	0xbf232878	-0.63733625
81	0xbf93aac1	-1.1536485
82	0x3d799592	0.060933657
83	0xbfdf3d45	-1.7440573
84	0x3dfce106	0.12347607
85	0xbf11a58e	-0.5689324
86	0xbf3c1fd8	-0.7348609
87	0x3e6a7352	0.22895554
88	0x3fb2a4b3	1.3956512
89	0x3f5fda15	0.8744214
90	0xbe270173	-0.16309147
91	0x3fc4adc1	1.5365525
92	0xbec22f16	-0.3792655
93	0xbf766909	-0.9625402
94	0x3ed93547	0.4242346
95	0x3e6d2108	0.23157132
96	0xbdb133c1	-0.086524494
97	0xbf91f9ca	-1.1404355
98	0xbf3103d7	-0.69146484
99	0xbe188c2f	-0.14897226
100	0xbe4f9d6c	-0.20274895
101	0xbfbbd727	-1.4675034
102	0x3f2303dd	0.6367777
103	0xbf52a4ba	-0.822826
104	0x3ff44cba	1.9085915
105	0x3f412212	0.7544261
106	0xbd64ba6c	-0.05584185
107	0x3fcd3f36	1.6034915
108	0x3f125cd5	0.571729
109	0xbf5f37b2	-0.8719436
110	0x3f700411	0.93756205
111	0x3fb4f00d	1.4135758
112	0x3e9aaf6b	0.30211958
113	0x3ea4dcdd	0.32199755
114	0xbf8fda52	-1.1238501
115	0x3f53ce2e	0.8273648
116	0xbeb8e95a	-0.36115533
117	0x3f88c970	1.0686474
118	0xbc06790a	-0.008207569
119	0xbfac2a02	-1.345032
120	0x3f911769	1.1335269
121	0xbe5815aa	-0.21102014
122	0xbe89be5f	-0.26903054
123	0x3f9b6d7b	1.2142786
124	0xbf8cf8c3	-1.1013416
125	0x3fb7a9e8	1.4348726
126	0xbf1d1ecd	-0.61375123
127	0xbfab654b	-1.3390287
128	0xbf552511	-0.83259684
129	0x3f8b3676	1.0875995
130	0x3eac1515	0.33609834
131	0xbf9d26f7	-1.2277516
132	0xbee09501	-0.4386368
133	0x3eb43363	0.35195455
134	0xbfc2adf0	-1.5209332
135	0xbca6a6d6	-0.020343225
136	0xbf81c2bf	-1.0137557
137	0xbef28ef4	-0.4737469
138	0x3f42da86	0.7611469
139	0x3ea5bf9c	0.3237275
140	0xbe8d9e6c	-0.2765993
141	0xbf705e23	-0.9389364
142	0xbfa78b7c	-1.3089442
143	0x3f09bc51	0.53802973
144	0xbec13459	-0.3773525
145	0xbf781f3a	-0.9692265
146	0x3f3f1beb	0.74651974
147	0xbf92a03c	-1.145515
148	0xbf13d8d4	-0.5775273
149	0xbe024491	-0.12721469
150	0x3eb485ad	0.35258237
151	0xbf322ae0	-0.6959667
152	0xbf6a2e6c	-0.91477084
153	0xbea6c7f8	-0.3257444
154	0xbf588d27	-0.8459038
155	0x3f6865f0	0.90780544
156	0xbf3dfe76	-0.742164
157	0x3d0f042e	0.034916095
158	0xbd80cd29	-0.06289131
159	0x3fd562d5	1.6670786
160	0x3f1f54fa	0.6223904
161	0xbf3303c2	-0.6992761
162	0xbf1b5798	-0.6068053
163	0x3f609bef	0.87737936
164	0x3ec5ee1e	0.38658231
165	0x3f383b4e	0.7196549
166	0xbeddb709	-0.43303707
167	0x3f695ecb	0.9116027
168	0x3f66e31a	0.9019028
169	0xbe39363f	-0.180871
170	0xbcdc6166	-0.026901912
171	0x400cc07f	2.199249
172	0x3f00051b	0.5000779
173	0xbfe076d9	-1.753627
174	0xbf502562	-0.8130704
175	0x3e20a6c7	0.1568862
176	0x3f7c956b	0.98665494
177	0xc00f7777	-2.2416666
178	0x3d08fe01	0.033445362
179	0xbf7976fa	-0.9744717
180	0x3da81599	0.082072444
181	0x40229c0e	2.5407748
182	0x3eb2eba2	0.349454
183	0xbf0ae880	-0.54261017
184	0x400c4f9f	2.1923597
185	0x3e4ccab2	0.19999197
186	0xbf780b04	-0.9689181
187	0xbf81caea	-1.014005
188	0xbd36928d	-0.044573355
189	0x3f86b1c2	1.0522997
190	0xbdce6f0f	-0.100797765
191	0x3f257d8f	0.6464471
192	0xbf81deb3	-1.0146087
193	0xbf45750a	-0.7713171
194	0x3f7b6a7b	0.9820935
195	0x3fa997fd	1.3249508
196	0xbfb955c9	-1.4479305
197	0x3eb9ac67	0.36264345
198	0xbe42b964	-0.19016033
199	0xbccfd129	-0.02536829
200	0x3f836662	1.026562
201	0x40195dcd	2.3963501
202	0xbd1b5f38	-0.037932605
203	0x3df38f24	0.11892536
204	0x3f2890f9	0.6584621
205	0xbfb0de34	-1.3817811
206	0x3e8b9194	0.27259505
207	0x3f9dc9b6	1.2327182
208	0x3f17ebb0	0.59344006
209	0x3eb3da79	0.3512762
210	0x3f7e7570	0.99397945
211	0x3da9efb1	0.08297671
212	0xbe67490f	-0.22586463
213	0xbf5bdd5e	-0.85884655
214	0x3f372b9f	0.71550936
215	0xbf728eaa	-0.9474894
216	0xbe52f181	-0.20599939
217	0xbef8088d	-0.48444024
218	0x3edd3409	0.43203762
219	0x3f648244	0.8926127
220	0x3f4fa5ab	0.81112164
221	0xc0016822	-2.0219808
222	0x3f7bf57c	0.98421454
223	0x3fae2a7d	1.3606716
224	0xbefc0568	-0.49222875
225	0xbf7ae348	-0.98003054
226	0x3ebfb7bd	0.3744487
227	0xbe963ecd	-0.29344788
228	0x3f209e82	0.62741864
229	0x3ecf3a6a	0.40474254
230	0x3daf77c0	0.085677624
231	0xbef249d4	-0.4732195
232	0x3ea329a4	0.31867707
233	0x3d3473eb	0.04405586
234	0x3ed0a5a2	0.40751368
235	0xbf49e9da	-0.78872454
236	0xbd7c0166	-0.06152477
237	0xbe95b408	-0.29238915
238	0x3f2b2da4	0.6686652
239	0xbf6dc156	-0.9287313
240	0x3d9e599a	0.07731934
241	0x3c905ba7	0.017621828
242	0xbe845fae	-0.25854248
243	0x3fc31a5a	1.5242417
244	0x3f61618c	0.8803947
245	0xbe299aee	-0.16563007
246	0xbf32f57f	-0.6990585
247	0x3f201fb4	0.62548375
248	0x3f58a0f1	0.8462058
249	0x3f015f1d	0.50535756
250	0x3fa9b977	1.3259724
251	0x3e115707	0.14193355
252	0x3d3aca8f	0.04560333
253	0x3e3dddad	0.18541594
254	0xbe9244c6	-0.28568095
255	0xbf8996c8	-1.074914
