model/Artificial_Data_LogF_True_epoch_5000_attention_net_u_artificial_Q_9_K_6_F_5_REG_L0_ACT_sigmoid_WD_000001_CV.model (torch_old, 52157 bytes, 6 tensors)

key_matrix f4 [9, 6]
0	0xbf0eba51	-0.55753046
1	0x3fa8830b	1.3164991
2	0x3e362f9b	0.17791598
3	0x3fea81c3	1.832085
4	0xbff6232c	-1.9229484
5	0xbf3f4e7d	-0.7472914
6	0x3ee29e7f	0.44261548
7	0x3d1fd8fe	0.0390253
8	0x3faaf390	1.3355579
9	0xbf16dded	-0.5893238
10	0xbe842fa7	-0.25817606
11	0x3e4cf025	0.20013483
12	0xbf888e2b	-1.0668386
13	0xbf3983c9	-0.72466713
14	0x4001d50b	2.028628
15	0xbf87c50f	-1.0607013
16	0x3faf26f2	1.368376
17	0xbf521ab8	-0.8207202
18	0x3f6fc696	0.93662393
19	0x3de18c39	0.110130735
20	0xbf565f02	-0.8373872
21	0xbdd8d6ca	-0.10587843
22	0x3f3c0f67	0.73461
23	0xbf504650	-0.8135729
24	0x3f82f0b9	1.0229713
25	0x40191867	2.3921144
26	0x3fc70ce9	1.5550815
27	0x3f1e8bd2	0.619321
28	0x3f27f9dd	0.65615636
29	0xbf5f7dda	-0.8730141
30	0xbfc7a46b	-1.5597051
31	0xbe8b5bf1	-0.27218583
32	0x3f01a065	0.5063537
33	0xbe843ef6	-0.25829285
34	0x3cb5c636	0.02218924
35	0x3d7d733f	0.061877485
36	0x3f63af24	0.8893912
37	0x3fb19dab	1.3876241
38	0x3ae30d42	0.0017322677
39	0x3fec5d49	1.8465968
40	0x3eb9af7c	0.36266696
41	0xc016334e	-2.3468814
42	0xbe854f5a	-0.26037103
43	0xbe764c9e	-0.24052665
44	0x4028a728	2.6352024
45	0xbf1051cd	-0.5637482
46	0x3cafc261	0.021454992
47	0xbec4da31	-0.38447717
48	0xbf8a7eb2	-1.0819914
49	0xbfeffb9b	-1.8748659
50	0x3f62aeac	0.8854778
51	0xbfb05832	-1.3776915
52	0xbebb926c	-0.3663515
53	0xbf46dc7c	-0.7768018

value_matrix f4 [6, 5]
0	0xc002584d	-2.0366395
1	0xc036b2b7	-2.854658
2	0xbf5b8e81	-0.8576432
3	0xbfaefcc3	-1.3670887
4	0x3fa4314b	1.2827543
5	0xbf1df782	-0.6170579
6	0x3fc3700c	1.5268569
7	0x3e327202	0.17426303
8	0x405bf2af	3.4366872
9	0x3f3b2e32	0.73117363
10	0x40073b8d	2.1130097
11	0xc0a21bf1	-5.065911
12	0xc0790bda	-3.8913484
13	0xbf3c77c0	-0.73620224
14	0x40b36405	5.6059594
15	0xbfc3f934	-1.5310426
16	0xbf6c4db0	-0.9230604
17	0x3f4c90d4	0.7990849
18	0xbf663827	-0.8992943
19	0xbfaaf69c	-1.3356509
20	0x3fb32a63	1.399731
21	0xbec493ba	-0.38393956
22	0xbfe946fb	-1.8224787
23	0x3f8d38f2	1.1033003
24	0x3fac6399	1.3467895
25	0xbf13a706	-0.5767673
26	0xbfdbac80	-1.7162018
27	0x3e05e4c7	0.13075553
28	0x3f810442	1.0079424
29	0xbf9534dc	-1.1656756

linear_layer1.weight f4 [9, 64]
0	0x3cf33f1f	0.029693184
1	0xbe77392e	-0.24142906
2	0xbe57df18	-0.21081197
3	0xbe837b2d	-0.25679913
4	0x3e216ad7	0.15763412
5	0x3e3fb32d	0.18720694
6	0xbe581698	-0.21102369
7	0xbe830196	-0.25587147
8	0x3e064dd9	0.13115634
9	0x3d17e3c9	0.037082467
10	0x3dfbf05c	0.12301704
11	0x3dc27498	0.09494895
12	0xbdf6b3e1	-0.12046028
13	0x3dba0fe7	0.090850644
14	0xbe55e196	-0.20886835
15	0x3d9b4e54	0.07583299
16	0xbe411fa5	-0.18859728
17	0x3e143541	0.1447344
18	0x3e6f3b32	0.23362425
19	0xbcdf2de9	-0.027243571
20	0x3e86ebbc	0.26351726
21	0xbd8c8634	-0.06861535
22	0x3dd3cca0	0.103417635
23	0x3d775f2e	0.060393505
24	0xbe480fd1	-0.19537283
25	0x3e4fb1c8	0.20282662
26	0xbe02a575	-0.1275843
27	0xbe4bb058	-0.19891489
28	0xbb84bba2	-0.004050688
29	0xbe83f61f	-0.25773713
30	0xbe5abe6a	-0.213617
31	0xbe82bb65	-0.25533596
32	0xbe1c2a01	-0.15250398
33	0x3e22a60b	0.15883653
34	0x3de0dc74	0.10979548
35	0x3e21c848	0.15799057
36	0x3d8cf294	0.068822056
37	0x3e5d0794	0.21584922
38	0xbd4c1f8e	-0.04983478
39	0xbe7570b9	-0.23968782
40	0x3e31c334	0.1735962
41	0xbc9c5595	-0.019083777
42	0x3e70f9b5	0.23532756
43	0xbe5d733a	-0.21625987
44	0x3d2e237f	0.04251432
45	0xbe1d39be	-0.15354058
46	0x3d820d2d	0.06350169
47	0x3d402441	0.046909574
48	0x3d2f84eb	0.04285137
49	0xbe88a69f	-0.26689622
50	0xbdaca525	-0.08429936
51	0x3d729573	0.059224557
52	0xbe8dd0df	-0.27698418
53	0x3e0fae90	0.14031434
54	0xbe337c0a	-0.17527786
55	0x3df55c23	0.11980464
56	0xbd798a37	-0.060922828
57	0xbe5740f9	-0.21020879
58	0xbd7738ca	-0.060356893
59	0xbd798cf3	-0.060925435
60	0xbe62da74	-0.22153646
61	0xbc876dcf	-0.016531853
62	0x3e3346c7	0.17507468
63	0x3d9e2331	0.07721556
64	0x3df6582f	0.120285384
65	0x3e9f5160	0.31116772
66	0x3e2138d6	0.15744337
67	0x3e41376f	0.18868802
68	0x3ead19d4	0.33808768
69	0x3e419c8f	0.18907379
70	0x3ea8a237	0.3293626
71	0x3e446fbe	0.19183251
72	0xbe3a4bdd	-0.18193002
73	0xbe006d3d	-0.12541671
74	0xbe088068	-0.13330233
75	0xbe6f11f5	-0.23346694
76	0x3e93dee9	0.28881004
77	0x3e589e97	0.21154247
78	0xbd0a7a5c	-0.033808097
79	0x3ece14ec	0.40250337
80	0x3eaca3d0	0.3371873
81	0x3d49aa6d	0.049234796
82	0x3e907bda	0.2821949
83	0x3e761c48	0.24034226
84	0xbd2c6f4d	-0.042098332
85	0x3e8741c3	0.2641736
86	0x3ea9e932	0.33185726
87	0x3e768f3c	0.24078077
88	0x3e1b9e01	0.15196992
89	0x3e8a10b3	0.26965865
90	0x3d917081	0.071015365
91	0x3e25c015	0.16186555
92	0xbd82f6ae	-0.06394707
93	0xbd45f32a	-0.048327602
94	0xbcd58814	-0.026065864
95	0x3e0bbeb2	0.13646963
96	0x3c76dc04	0.015067104
97	0xbd773c29	-0.060360108
98	0x3e06a1bf	0.13147639
99	0xbdab52ca	-0.083654
100	0xbded4bdf	-0.11586737
101	0x3dfea4b7	0.124337606
102	0xbea14d7f	-0.31504437
103	0xbe497ac0	-0.19675732
104	0x3c8f083f	0.017459987
105	0xbe0d69de	-0.13809916
106	0x3e003c4f	0.12523006
107	0x3e2b282c	0.16714543
108	0xbe690f3d	-0.22759719
109	0xbdf49c97	-0.1194393
110	0x3e5c545f	0.2151656
111	0xbdc32049	-0.09527642
112	0xbdeb561d	-0.11491034
113	0xbd607e48	-0.05480793
114	0x3cd32f90	0.025779516
115	0x3e2f854c	0.17140692
116	0xbe325da0	-0.17418528
117	0x3e6539ce	0.22385332
118	0xbe8b2006	-0.2717287
119	0x3dbd3e1d	0.09240363
120	0xbe83991a	-0.25702745
121	0xbe5df489	-0.21675314
122	0x3d875de1	0.06609703
123	0xbe84715b	-0.25867733
124	0xbcf4e235	-0.02989302
125	0x3df31487	0.1186915
126	0x3e44e24e	0.19226953
127	0xbe6e46da	-0.23269215
128	0x3e8e3734	0.27776492
129	0x3be8fcba	0.0071102055
130	0x3ecbc697	0.3979995
131	0x3d280995	0.041024763
132	0x3ea5a05f	0.32348916
133	0x3e440ab6	0.19144711
134	0x3ea4613b	0.3210543
135	0x3e9bd62b	0.30436835
136	0x3e89397a	0.26801664
137	0x3e27ecee	0.16398975
138	0x3e01bacb	0.12668912
139	0x3d823a0c	0.06358728
140	0xbd8e9bb2	-0.0696329
141	0x3e918959	0.284251
142	0x3e9b0a49	0.30281284
143	0x3eda1b7a	0.42599088
144	0x3e350edc	0.1768145
145	0x3e2bbcf7	0.16771303
146	0x3e240122	0.16016057
147	0x3e5947c5	0.21218784
148	0xbd4b4af5	-0.04963203
149	0x3e05dd5a	0.1307272
150	0x3d762bd3	0.060100388
151	0x3e879200	0.26478577
152	0x3d94abe4	0.07259348
153	0x3b5b0bdf	0.0033423824
154	0x3e88f8dd	0.26752368
155	0x3e745c45	0.23863323
156	0x3ed64217	0.41847298
157	0x3dad9790	0.08476174
158	0x3e111b58	0.14170587
159	0x3dd1d2de	0.10245298
160	0xbe803f7f	-0.25048444
161	0xbb15fdc6	-0.0022886856
162	0x3d5d7839	0.05406973
163	0x3c6b0844	0.014345232
164	0xbd5c5469	-0.053791437
165	0xbd38ca2d	-0.045114685
166	0x3e36d70c	0.17855471
167	0xbe3441d0	-0.1760323
168	0x3d84ba4b	0.06480845
169	0x3dafcc4c	0.085838884
170	0xbd45ba75	-0.048273522
171	0xba9dbfc8	-0.0012035305
172	0xbdfc1e8b	-0.12310513
173	0x3d4f63b3	0.05063219
174	0xbec025c1	-0.37528804
175	0xbe4d985d	-0.20077653
176	0x3d01bee6	0.031676196
177	0xbe201e24	-0.15636498
178	0x3d350de3	0.044202697
179	0xbf079099	-0.52955014
180	0x3d95c665	0.073132314
181	0xbe170f59	-0.14751948
182	0xbcc877a8	-0.024471119
183	0xbe900202	-0.28126532
184	0xbe570260	-0.20997
185	0xbe9b01b8	-0.3027475
186	0xbe0467c8	-0.12930214
187	0xbe30496d	-0.1721551
188	0x3b2022a5	0.0024434712
189	0x3cdc3922	0.026882712
190	0xbe0ef607	-0.1396104
191	0xbe05273e	-0.13003251
192	0xbe1e4abc	-0.15458196
193	0xbe95b4bc	-0.29239452
194	0xbce58cad	-0.028021181
195	0xbab767b1	-0.0013992694
196	0x3e44cac9	0.19217981
197	0x3e731d75	0.23741706
198	0x3e52dba5	0.205916
199	0xbe4a1c4f	-0.19737361
200	0xbe79ccaf	-0.24394487
201	0xbe68f481	-0.22749521
202	0x3e37d55b	0.17952482
203	0x3e741086	0.23834428
204	0xbd7b552a	-0.061360516
205	0xbda927dc	-0.08259556
206	0xbe6e0694	-0.23244697
207	0x3e1ab91f	0.1510968
208	0x3dcd1f39	0.10015721
209	0xbe87b7e1	-0.26507476
210	0xbe18790e	-0.14889929
211	0x3bbdc11f	0.005790844
212	0xbca5eafb	-0.020253649
213	0x3d99794b	0.07493838
214	0xbd82a149	-0.06378419
215	0x3dc36ecc	0.09542617
216	0xbdfba17e	-0.122866616
217	0xbe59dedf	-0.21276425
218	0xbe291fbb	-0.1651601
219	0x3e0dfcd8	0.13865983
220	0xbdb5d8ef	-0.088792674
221	0x3e3bfcbc	0.1835813
222	0xbe2214da	-0.15828267
223	0x3e1afb7b	0.15134995
224	0xbcfe8384	-0.03106857
225	0x3e26792f	0.16257165
226	0xbe67b1b4	-0.22626382
227	0xbe554d30	-0.20830226
228	0x3dd6a9b7	0.10481589
229	0x3e13e9f0	0.14444709
230	0x3e80715b	0.25086483
231	0x3e607222	0.21918538
232	0xbd9a7ec6	-0.07543711
233	0xbd8ffa71	-0.0703019
234	0x3e7166c3	0.23574357
235	0x3e98adc8	0.29820085
236	0xbe560412	-0.2089999
237	0x3e871152	0.26380402
238	0xbe362b99	-0.17790069
239	0xbdcbdbc2	-0.09954025
240	0x3ddbb385	0.107276
241	0x3e8a7480	0.27042007
242	0xbe580b9d	-0.2109818
243	0x3ea1c048	0.3159201
244	0xbdb50d6d	-0.088404514
245	0xbcc89b05	-0.024487982
246	0xbd63f36e	-0.055652075
247	0xbb9a586e	-0.0047102487
248	0x3cbfb6b0	0.023402542
249	0xbe17b4bd	-0.1481504
250	0x3d83fe28	0.06444961
251	0xbe52e752	-0.20596054
252	0x3e72ae99	0.23699416
253	0xbe40abe4	-0.18815571
254	0xbe6e012d	-0.23242636
255	0xbd7f109d	-0.062271703

linear_layer1.bias f4 [9]
0	0x40130375	2.297086
1	0xbf8bdfae	-1.0927637
2	0x3f47ff9c	0.78124404
3	0x3fcdc987	1.6077126
4	0xbf058f55	-0.5217183
5	0x3e32d88e	0.17465422
6	0xbf12feb1	-0.5741988
7	0x3f886cbb	1.0658182
8	0x3f6146df	0.87998766

linear_layer2.weight f4 [2016, 5]
0	0xbbbaa20e	-0.005695588
1	0xbd929c32	-0.07158698
2	0xbd8ce17b	-0.068789445
3	0x3d14856d	0.036260057
4	0x3bb7b130	0.005605839
5	0xbd1b0335	-0.037844855
6	0x3d5cba94	0.053888872
7	0x3d86933f	0.06571054
8	0x3d683527	0.056691315
9	0xbdf96f29	-0.12179405
10	0xbd78ef49	-0.060775075
11	0x3d94855b	0.07251998
12	0x3c6aa001	0.0143203745
13	0x3d066767	0.032813456
14	0xbd8fedf3	-0.07027807
15	0xbd22b848	-0.039726526
16	0xbace860e	-0.0015756504
17	0xbb30b11d	-0.0026961036
18	0x3d12a8e8	0.035805613
19	0xbd3da9b1	-0.04630441
20	0xbb4a41e5	-0.003086203
21	0x3dfa1a27	0.122120194
22	0x3cfab4d6	0.030603807
23	0x3d4f7b04	0.050654426
24	0xbe02e6a7	-0.127833
25	0x3ca15538	0.019693956
26	0xbc94fa1b	-0.018185666
27	0xbb9b8f65	-0.0047473186
28	0x3d07a820	0.03311932
29	0x3d15367a	0.036428906
30	0xbe0b61c9	-0.13611521
31	0x3e4fe666	0.20302734
32	0x3e2eb84a	0.17062488
33	0x3d36d16a	0.044633307
34	0xbe91ba61	-0.28462508
35	0xbd1f8b27	-0.038951065
36	0x3d8877b7	0.06663459
37	0x3de031a9	0.10946972
38	0xba562351	-0.00081687147
39	0xbd54a2b1	-0.051912967
40	0xbc86aad8	-0.016438887
41	0x3e0b3fcd	0.13598557
42	0x3caaa159	0.02082889
43	0xbc327791	-0.010892765
44	0xbde57d7b	-0.11205574
45	0x3c287e3b	0.010284002
46	0x3d8f6817	0.070022754
47	0x3bc9ffbe	0.00616452
48	0x3cd1d03b	0.025611987
49	0x3bd81058	0.006593745
50	0xbd81e49c	-0.06342432
51	0x3e2a0529	0.16603531
52	0x3de9a87f	0.11409091
53	0x3bc54111	0.0060197194
54	0xbe4d1b48	-0.20029938
55	0xbd4bc30d	-0.04974656
56	0x3cf2b5d1	0.029627712
57	0x3d09f216	0.033678137
58	0xbbfc250e	-0.007694847
59	0xbd4be29a	-0.04977665
60	0xbe10737d	-0.14106555
61	0x3e72f38e	0.23725721
62	0x3e5867b5	0.21133311
63	0x3d689bb7	0.056789126
64	0xbeb667f5	-0.35626188
65	0xbd11ec62	-0.035625823
66	0x3da0e216	0.078556225
67	0x3d8b05b4	0.06788197
68	0xbc86af00	-0.016440868
69	0xbd34d397	-0.0441471
70	0xbd891c36	-0.06694834
71	0x3dcd94cc	0.100381464
72	0x3de7ed9c	0.11324617
73	0xbd419aba	-0.0472667
74	0xbe19c017	-0.15014683
75	0xbd310224	-0.043214932
76	0x3b7a4b45	0.0038191837
77	0x3d989c08	0.074516356
78	0xbd2d3385	-0.04228546
79	0xbd342f56	-0.043990456
80	0x3c8f4622	0.017489497
81	0xbbc6629a	-0.0060542347
82	0x3d2f4cdd	0.042797912
83	0xbbdd59f5	-0.0067551085
84	0xbc3ffd0d	-0.011718047
85	0xbd83e34b	-0.06439837
86	0x3d9b8ae9	0.075948544
87	0x3db60c1e	0.0888903
88	0x3d39dce1	0.045376662
89	0xbd8d5b4e	-0.069021806
90	0xbd266429	-0.040622864
91	0x3c9cd2de	0.019143518
92	0x3d94a55d	0.07258103
93	0x3d379103	0.04481603
94	0xbd82c101	-0.06384469
95	0xbd26b343	-0.0406983
96	0x3e0229b0	0.12711215
97	0x3d46ce00	0.0485363
98	0xbc5c9af5	-0.013464679
99	0xbdeaf66e	-0.11472784
100	0xbd295ea1	-0.04135001
101	0x3e115694	0.14193183
102	0x3dbe7557	0.092997245
103	0xbc7bdab3	-0.015371966
104	0xbe5dda23	-0.21665244
105	0xbd5cdb80	-0.05392027
106	0x3cd9cbd0	0.026586443
107	0x3d8bdf8b	0.06829747
108	0x3cd178af	0.025570242
109	0xbd623700	-0.055228233
110	0xbdf81027	-0.12112456
111	0x3e6aa73d	0.22915359
112	0x3e3a7194	0.18207389
113	0xbcfb219c	-0.030655675
114	0xbe77ee3e	-0.24211976
115	0xbd0cfc6a	-0.03442041
116	0xbce0a590	-0.027422696
117	0xbd06b54d	-0.032887746
118	0xbd44081b	-0.047859292
119	0xbd4bb60a	-0.049734153
120	0xbdc012bf	-0.093785755
121	0x3ddafa5b	0.10692283
122	0x3da18707	0.078870825
123	0x3cfea628	0.031085089
124	0xbdb3cabe	-0.087789044
125	0xbd2d7e2d	-0.04235666
126	0x3e7fd94b	0.24985234
127	0x3e42d5cb	0.19026868
128	0xbcd9c198	-0.02658157
129	0xbe68341a	-0.22676125
130	0xbd60e6e2	-0.054907687
131	0x3d05a9c8	0.03263262
132	0x3a8d769f	0.0010792798
133	0x3d294205	0.041322727
134	0x3c9b9ed8	0.018996641
135	0x3c012a36	0.007883599
136	0x3cf64efe	0.030066963
137	0x3cb243c3	0.021760827
138	0x3cf0a34a	0.029374737
139	0xba90a61c	-0.0011035833
140	0xbd437596	-0.04771956
141	0x3e4eeca9	0.20207466
142	0x3dca368e	0.09873687
143	0xbd0870f0	-0.03331083
144	0xbe6c8742	-0.23098472
145	0xbd80c432	-0.06287421
146	0x3e4d8228	0.20069182
147	0x3e2164bf	0.15761088
148	0x3c8994b0	0.016794533
149	0xbe06f2e5	-0.13178594
150	0x3c4c9790	0.012487307
151	0x3c39f4b0	0.011349842
152	0xbb82770d	-0.003981477
153	0xbc2c35b8	-0.010510854
154	0xbd8f0c40	-0.069847584
155	0xbc8bf4fa	-0.017084587
156	0x3ba479f1	0.0050194194
157	0xbbc4c40c	-0.006004816
158	0xbd66db60	-0.056361556
159	0x3d00b5ec	0.031423494
160	0xbd0314bd	-0.0320022
161	0x3bf56279	0.0074885455
162	0x3c020d70	0.007937774
163	0xbd03470d	-0.03205018
164	0xbd20d6b4	-0.039267257
165	0xbc88fcfc	-0.016722195
166	0xbde8e8dd	-0.1137254
167	0xbce36b2f	-0.02776107
168	0x3c0174e4	0.007901404
169	0x3d49a4c9	0.049229417
170	0xbd1f9782	-0.03896285
171	0x3c9f8464	0.019472308
172	0x3c06fd2b	0.008239071
173	0x3c73cbc4	0.0148801245
174	0xbd92a023	-0.0715945
175	0xbc99e1cc	-0.018784426
176	0x3dabee69	0.083950825
177	0x3d737294	0.059435442
178	0x3c7b6a97	0.015345237
179	0xbc0ddda0	-0.008658797
180	0x3d235266	0.039873503
181	0xbb5e3635	-0.0033906822
182	0x3d2544d2	0.040348835
183	0x3b99bdbb	0.004691807
184	0x3c93cb45	0.018041262
185	0xbca7ef6a	-0.020499904
186	0xbd3982a5	-0.045290608
187	0xbc970ece	-0.018439677
188	0x38c11400	9.2066824e-05
189	0x3c7a5df8	0.015281193
190	0x3c8cbdf3	0.017180419
191	0x3caf80d2	0.021423731
192	0x3d8a3a86	0.06749444
193	0x3cc8e363	0.024522489
194	0xbdf04c7b	-0.117333375
195	0x3d9dfafc	0.07713887
196	0xbd85bc7f	-0.065300934
197	0xbd996043	-0.074890636
198	0x3cd24e71	0.02567217
199	0x3df269e2	0.11836602
200	0x3ccf8874	0.02533362
201	0xbd5b0cfa	-0.053479172
202	0x3d0a9d60	0.03384149
203	0xbb667980	-0.0035167634
204	0xbc0e2790	-0.008676425
205	0xbbe5701e	-0.007001891
206	0xbe1fc471	-0.1560228
207	0xbdf99742	-0.12187053
208	0x3be8f7bd	0.007109611
209	0x3db3d583	0.087809585
210	0xbca141f3	-0.019684767
211	0xbd858674	-0.065197855
212	0xbdba85bb	-0.09107538
213	0xbd52712f	-0.05137747
214	0x3db4dddc	0.08831379
215	0x3c843b51	0.016141566
216	0xbdbf0fdd	-0.093291976
217	0xbdb121d8	-0.08649033
218	0x3ba81f0a	0.0051306533
219	0x3d50c3a4	0.050967827
220	0xbd84322c	-0.06454882
221	0x3d60c4d6	0.054875217
222	0x3c91525c	0.017739467
223	0x3d6a93ae	0.057269745
224	0xbdee1a0b	-0.11626061
225	0x3d7856a0	0.060629487
226	0xbd8b132f	-0.06790768
227	0xbd42531a	-0.047442533
228	0x3ce67c5b	0.02813547
229	0x3db7b222	0.08969523
230	0xbc5ac6d8	-0.013353072
231	0xbd860c9c	-0.06545374
232	0xbdcc49db	-0.09975024
233	0xbd834574	-0.064097315
234	0x3d71eec8	0.05906561
235	0x3cfed8e6	0.031109285
236	0x3cfc105c	0.03076952
237	0x3bf10926	0.007355827
238	0xbc0809f2	-0.008303152
239	0xbda10e13	-0.078640126
240	0xbba27b0c	-0.004958516
241	0x3bdf1a80	0.006808579
242	0x3d499ba7	0.049220707
243	0x3ca19628	0.01972492
244	0xbd007791	-0.031364027
245	0x3d1c1cd1	0.03811342
246	0xbe19a0b7	-0.15002714
247	0xbdd7119f	-0.10501408
248	0xbd832e31	-0.06405295
249	0x3e34bea1	0.17650844
250	0x3db6eb68	0.08931619
251	0xbe1e1c13	-0.15440397
252	0xbdf33ad6	-0.118764564
253	0xba56e46f	-0.00081974914
254	0x3e493a3d	0.19651122
255	0x3da7ff7d	0.082030274

linear_layer2.bias f4 [2016]
0	0xbfd4a63d	-1.6613232
1	0x3e727555	0.23677571
2	0x3e6d626a	0.23182073
3	0x3cdd43da	0.027009893
4	0x3f6df4dd	0.92951757
5	0xbf8550b3	-1.0415252
6	0x4017475f	2.3637311
7	0xbf35579d	-0.7083681
8	0x3ef9f7dc	0.48821914
9	0xbf6107d6	-0.8790258
10	0x3f852df0	1.0404644
11	0xbe107801	-0.14108278
12	0x3f08129b	0.5315339
13	0xbfa00c6f	-1.2503794
14	0xbd72a15d	-0.05923592
15	0xbf24d874	-0.6439278
16	0xbf3711a1	-0.71511275
17	0x3f127908	0.5721593
18	0xbf538406	-0.82623327
19	0x3f05ad29	0.52217346
20	0x3fb35126	1.400914
21	0xbf04e614	-0.5191357
22	0x3f3f611a	0.7475754
23	0xbf1354a4	-0.57551026
24	0x3f21595d	0.6302698
25	0x3e9f89fe	0.31159967
26	0xbf01007c	-0.50391364
27	0xbfac21e7	-1.3447846
28	0xbd822204	-0.06354144
29	0xbd897484	-0.06711677
30	0xbf4376d5	-0.763532
31	0xbd06af26	-0.03288188
32	0x3edbbb10	0.42916155
33	0xbf43dab8	-0.76505613
34	0x3f3bc9b5	0.73354656
35	0x3f4f35af	0.8094129
36	0x3d9a7467	0.07541733
37	0x3f297e01	0.6620789
38	0x3f7d2c43	0.98895663
39	0xbfadc34b	-1.3575224
40	0xbd11f744	-0.0356362
41	0xbfc18f6d	-1.5121895
42	0xbf8c1f91	-1.0947133
43	0xbf6a20db	-0.91456383
44	0x3f9afbc6	1.2108085
45	0xbf79cbc0	-0.9757652
46	0xbf791b11	-0.97306925
47	0x3f276a6b	0.65396756
48	0x3ee54e41	0.44786265
49	0xc00b2322	-2.1740193
50	0xc01ac8c1	-2.418503
51	0xc010dd17	-2.2634943
52	0x3eabae08	0.33531213
53	0x3fe968ef	1.8235148
54	0x3f665de9	0.89987046
55	0x3f64ac62	0.89325535
56	0xbfd6c4ee	-1.6778848
57	0x3f4c76bc	0.79868674
58	0xbe8cd0ee	-0.2750315
59	0x3e2292b7	0.1587628
60	0x3d6ebae3	0.058283698
61	0xbf5749f5	-0.84097224
62	0x3f976c21	1.1829873
63	0x3ffc2003	1.9697269
64	0xbee2657a	-0.44218045
65	0x3faa6886	1.3313148
66	0x3fa80f73	1.3129715
67	0xbf6ad5c0	-0.91732407
68	0x3fa7cb45	1.3108908
69	0x3eb067cc	0.3445419
70	0x3f0a1fa0	0.53954506
71	0x3f573fde	0.8408183
72	0x3f84a988	1.0364237
73	0x3d9642d7	0.073369674
74	0x3e382d8a	0.17986122
75	0xbf9ef572	-1.2418654
76	0x3dd31ba2	0.10308005
77	0x3e4ea99c	0.20181888
78	0xbf21c513	-0.63191336
79	0xbefb2a57	-0.4905574
80	0x3e997a75	0.2997624
81	0x3e6bc51b	0.23024409
82	0x3f2e2947	0.68031734
83	0xbf0c2d22	-0.5475637
84	0xbf29a1e2	-0.6626264
85	0xbf3951bd	-0.7239035
86	0x4006237e	2.0959163
87	0xbf780ee7	-0.9689774
88	0x3ed552d3	0.41664752
89	0x3fa6cdf6	1.3031604
90	0x3f840a6f	1.0315684
91	0x3f39a970	0.72524166
92	0xbeafce08	-0.34336877
93	0x400bc326	2.183786
94	0xbe9f130b	-0.31069216
95	0x3eddb6d9	0.43303564
96	0x3f245d91	0.6420527
97	0xbf520a67	-0.8204712
98	0x3d9dd093	0.07705798
99	0xbcc52d15	-0.024069348
100	0x3d286283	0.041109573
101	0x3fcca3fa	1.5987542
102	0x3f389ebc	0.7211721
103	0x3e407fe8	0.18798792
104	0xbf91b348	-1.1382837
105	0x3fa864e5	1.315579
106	0x3fed0dba	1.8519814
107	0xbffc260c	-1.9699111
108	0x3fcf900a	1.6215832
109	0xbec25f0b	-0.37963137
110	0xbec406e7	-0.38286516
111	0x3f6451ef	0.8918752
112	0x3fdea0de	1.7392843
113	0x3e4ed1a6	0.20197162
114	0x40064096	2.097692
115	0x3e59dff2	0.21276835
116	0x3f036d44	0.513386
117	0x3e628f58	0.22124994
118	0xbec75c97	-0.38937828
119	0xbf1fd267	-0.62430423
120	0xbf909ee2	-1.1298487
121	0x3f4b2159	0.7934776
122	0xbec16446	-0.37771815
123	0x3d9de67f	0.07709979
124	0xbff079d1	-1.8787175
125	0xbf9f6a00	-1.2454224
126	0xbf1f2d66	-0.6217865
127	0xbe520f00	-0.20513535
128	0xbab2c6df	-0.001363959
129	0xbe1cf465	-0.15327604
130	0xbf930305	-1.1485296
131	0x3e14c7d6	0.14529356
132	0xbf3d3d47	-0.73921627
133	0x3e5bcf21	0.21465732
134	0xbf1cb738	-0.6121707
135	0x3f794f89	0.97386986
136	0x3ee5ffe3	0.4492179
137	0xbf7450a9	-0.9543558
138	0xbdc9e90d	-0.09858904
139	0xbd54dfd8	-0.051971287
140	0xbf4ffc37	-0.81244224
141	0x3f8295aa	1.0201924
142	0x3e8d4a5f	0.27595803
143	0x3f28e057	0.65967315
144	0x3f4cbd64	0.7997649
145	0xbe752bcb	-0.23942487
146	0x3ea83ae1	0.3285742
147	0xbf8bd573	-1.0924515
148	0x3f42ed2d	0.7614315
149	0xc00568f5	-2.084531
150	0xbfa86a0b	-1.3157362
151	0x3f409fa4	0.7524359
152	0x3fd5a58a	1.6691144
153	0x3f1a959c	0.60384536
154	0x3fc20fd9	1.5161086
155	0x3fc574a2	1.5426219
156	0xbf75da09	-0.9603582
157	0x3f8926c5	1.0714957
158	0x3f808b77	1.0042561
159	0x3fa29226	1.2700851
160	0xbd09bc0c	-0.0336266
161	0x3fc53064	1.5405393
162	0x3f3c5bbb	0.7357747
163	0xbe80950a	-0.25113708
164	0xbdb1c05d	-0.086792685
165	0xbfb26c67	-1.3939332
166	0xbdd76e4f	-0.105190866
167	0x3e173aed	0.14768572
168	0xbfcbf72e	-1.5934808
169	0x401121a4	2.2676783
170	0x3e34e2cb	0.1766464
171	0x3e8d408f	0.27588317
172	0x3f7f7041	0.9978066
173	0x3fd7dcbe	1.686424
174	0x403e4b2f	2.9733388
175	0x3f6e1ddb	0.93014306
176	0x3f70752c	0.9392879
177	0x3fcecfbb	1.6157144
178	0x3e05fb1a	0.13084069
179	0x3f23189c	0.63709426
180	0xbfbdfdc9	-1.4843074
181	0xbe7882c8	-0.24268639
182	0xbfb56bbd	-1.4173504
183	0x3fdcf7c0	1.7263107
184	0xbf9e8f62	-1.2387507
185	0xc00a1509	-2.157534
186	0x3e8b7fd5	0.27245966
187	0xbf577dc0	-0.84176254
188	0xbfa42ede	-1.2826803
189	0xc00c4818	-2.1919003
190	0xbf6f38ab	-0.93445843
191	0xbccea31f	-0.025224267
192	0xbe511d3c	-0.20421308
193	0x3edc2762	0.42998797
194	0xbf0529d1	-0.5201693
195	0x3e572663	0.21010737
196	0x3e4aee00	0.19817352
197	0xbf9a93b4	-1.2076325
198	0x3fa1bdab	1.2636007
199	0xc02a773f	-2.6635282
200	0xbf8b6a3a	-1.0891793
201	0xbfbf63e6	-1.4952362
202	0xbf248652	-0.64267457
203	0xbf0dbea6	-0.5536903
204	0x3ec23b43	0.37935838
205	0xbe85149d	-0.2599229
206	0xc010aef7	-2.260679
207	0x3eae4a20	0.34040928
208	0x3f22111e	0.6330737
209	0xbf8e8430	-1.113409
210	0xc0184ce9	-2.3796942
211	0x3e6fe6f2	0.23427942
212	0xbe588031	-0.21142651
213	0xbecec937	-0.4038789
214	0xbea070d5	-0.31336084
215	0xbe2ac10b	-0.16675203
216	0x4000c6b1	2.0121272
217	0xbbb28373	-0.005447799
218	0xbf218657	-0.6309561
219	0xbedb2bbb	-0.428068
220	0x3ecbc64f	0.39799735
221	0x3f5b43f2	0.8565055
222	0x3e41e65f	0.18935536
223	0xbf1f3bc5	-0.62200576
224	0xbf379938	-0.7171817
225	0xbfb48bc2	-1.4105151
226	0xbed069a2	-0.4070559
227	0xbfbc6814	-1.4719262
228	0xbe646962	-0.22305825
229	0x3f88abfb	1.0677484
230	0x3f7a9e32	0.97897637
231	0xbfc22a64	-1.5169187
232	0x3eab4e0e	0.33457989
233	0x3e29be30	0.16576457
234	0x3fc130a1	1.5092965
235	0x3f313932	0.692279
236	0xbe1f2751	-0.15542342
237	0x3f4b35df	0.79379076
238	0x3f4533c6	0.77032125
239	0xbf60c756	-0.8780416
240	0x3f1f2fbf	0.6218223
241	0x3f86ef44	1.0541768
242	0xbfda399f	-1.7048835
243	0x3fe4f069	1.7885867
244	0xbe014064	-0.1262222
245	0x3fa23607	1.2672738
246	0x3f18601f	0.5952167
247	0xbf46281f	-0.7740497
248	0xbe641c08	-0.22276318
249	0xbf6dabef	-0.92840475
250	0xbf85cade	-1.0452535
251	0xc035fdfb	-2.8436267
252	0xbec5b527	-0.3861477
253	0x3e2c2fb9	0.1681508
254	0x3e92ac59	0.28647116
255	0x3fa074c0	1.2535629
