model/attention_net_u_artificial_Q_9_K_6_F_5_REG_L1_ACT_sigmoid_WD_00001_CV.model (torch_old, 52157 bytes, 6 tensors)

key_matrix f4 [9, 6]
-0.51248693 0.4982198 0.4339662 1.46974 0.57010704 0.6031735 -0.52789646 -0.16539879
-9.329349e-07 -1.0369328 0.76573503 -0.47333938 -4.8580866e-08 -0.67337686 -2.2466218 2.8878894
1.8139991e-07 -0.5544987 -1.7275878 -0.6052089 -0.4978844 1.610345 -1.5127591e-06 0.4719788
-0.14366132 -5.1730115e-07 1.8408616 0.074574396 0.026393859 2.40287e-07 -4.3713356e-07 -7.6668664e-07
5.1683236e-07 1.7765938 4.6472817e-09 0.0940328 2.169541e-07 0.45546454 0.3105994 1.2304761
-0.14571682 -0.9965014 -0.36172295 -0.37844327 0.5965467 -0.5596769 -0.58249307 0.22346668
0.67736316 -0.8518739 0.14472358 1.5981457e-06 -0.78559285 -0.074089736
00000000: 5832 03bf aa16 ff3e d130 de3e 7120 bc3f
00000010: 89f2 113f 9469 1a3f 3924 07bf 4d5e 29be
00000020: cc6e 7ab5 37ba 84bf 3607 443f 8a59 f2be
00000030: 3aa7 50b3 6d62 2cbf a7c8 0fc0 2ed3 3840
00000040: d4c6 4234 a0f3 0dbf 9921 ddbf f8ee 1abf
00000050: b4ea febe c91f ce3f 020a cbb5 35a7 f13e
00000060: f41b 13be aadc 0ab5 5aa1 eb3f 76ba 983d
00000070: ef37 d83c cb00 8134 2eaf eab4 4ece 4db5
00000080: 73bc 0a35 6d67 e33f ecad 9f31 4594 c03d
00000090: e4f3 6834 a632 e93e e206 9f3e 3e80 9d3f
000000a0: ca36 15be b71a 7fbf c033 b9be 51c3 c1be
000000b0: 49b7 183f fc46 0fbf 441e 15bf 73d4 643e
000000c0: ac67 2d3f 6814 5abf 6b32 143e de7f d635
000000d0: 9d1c 49bf 5cbc 97bd

value_matrix f4 [6, 5]
0.8207412 -4.9082547e-07 7.378065e-08 -0.17974246 -8.556323e-07 -2.644334e-08 -1.8694088 5.8541315e-07
-0.32656777 1.1140114 -0.38817918 -7.165688e-08 1.0070432 -4.181793e-07 0.16639555 0.19765544
-0.6779591 11.291491 2.4199426 4.836462 1.3751435 1.3127576 1.4454463 0.11226615
0.17898646 -1.8004329e-07 3.6941037e-07 3.7967578e-07 -1.1304579e-06 0.09987338
00000000: 181c 523f 45c1 03b5 5771 9e33 680e 38be
00000010: 9bae 65b5 8525 e3b2 ca48 efbf 4925 1d35
00000020: e433 a7be ed97 8e3f 6cbf c6be c9e1 99b3
00000030: cbe6 803f 2082 e0b4 9863 2a3e 3066 4a3e
00000040: ba8e 2dbf f2a9 3441 57e0 1a40 4cc4 9a40
00000050: b404 b03f 7108 a83f 6204 b93f cceb e53d
00000060: 3a48 373e ec51 41b4 6053 c634 3ed6 cb34
00000070: 3dba 97b5 6a8a cc3d

linear_layer1.weight f4 [9, 64]
-4.6172133e-07 -8.152059e-07 -7.6747136e-07 -3.634656e-07 7.348242e-07 4.5533199e-07 3.9357258e-07 -2.3100361e-07
-1.3582669e-06 -4.6070224e-07 -6.440239e-07 1.7845339e-06 -9.264364e-09 -1.5961891e-06 -1.6372945e-06 2.390806e-07
-1.246212e-07 1.2547548e-06 -7.6849255e-07 3.006785e-07 3.3618971e-07 -2.696531e-07 -1.8454638e-07 2.1176274e-07
8.9313943e-07 -3.3878808e-07 1.1169542e-06 -1.4084226e-06 2.1892573e-07 -2.6067752e-07 6.050364e-07 -1.5983651e-06
2.9901253e-07 -7.2844335e-07 7.270875e-07 3.5005434e-07 3.2426126e-07 4.2423764e-07 4.1503245e-07 5.22829e-07
-5.0038153e-07 -2.616828e-07 -3.3701062e-07 1.0765563e-06 2.22357e-07 3.672078e-07 -1.4717618e-06 -8.8697163e-07
-7.246257e-07 1.0451353e-06 6.8096523e-07 1.1829139e-06 -1.9832557e-07 8.7958625e-08 8.5204135e-07 8.8475207e-07
1.5605326e-07 2.132014e-07 -9.7824e-07 -1.2095014e-06 3.3241156e-07 -6.5891874e-07 3.959372e-07 -4.3182192e-07
-1.6156287e-06 -1.3606913e-06 -7.7949545e-07 -1.8592489e-07 -1.1138986e-06 -1.3565926e-07 -2.9708588e-08 9.380096e-07
4.9251065e-07 6.568632e-07 -4.2440863e-07 1.0423214e-06 1.3428794e-07 6.464981e-07 1.5032872e-06 -3.3896004e-07
7.298005e-08 -1.400783e-06 1.4281998e-06 -9.1763974e-07 1.2366293e-07 -1.4924838e-06 4.0985034e-07 2.2531427e-07
-7.5680055e-07 -8.878441e-07 -4.181072e-07 -1.4400991e-06 3.3249205e-07 -3.4965413e-07 -1.1686127e-06 6.342398e-07
-2.0034211e-07 -3.0696344e-07 6.4626005e-07 -2.1082403e-06 2.9785028e-07 -3.6458735e-07 7.806573e-07 1.3839242e-06
1.48409365e-08 -6.0303626e-07 9.5224743e-07 -1.0733155e-06 -1.3608451e-06 2.8354659e-08 -5.4064265e-07 1.417676e-06
2.0549844e-06 -2.8612865e-08 2.1326623e-07 4.4278394e-07 6.595887e-07 1.2712696e-06 1.1892002e-06 7.3517064e-08
-7.083379e-07 -2.0438682e-07 5.235269e-07 -5.3057556e-07 4.0527107e-07 2.57247e-07 4.1382e-07 -1.3830852e-06
-5.1600847e-07 7.2763527e-07 7.2414664e-08 -3.2673282e-07 -4.4853454e-08 1.2477959e-06 6.773176e-07 3.1970565e-08
2.138629e-06 3.218317e-07 9.151704e-08 -4.4096527e-07 5.1088205e-07 9.944482e-07 -8.59175e-07 -7.1624606e-07
6.6482795e-07 4.8075105e-07 -8.553952e-07 -6.055976e-07 8.8625754e-08 9.760305e-07 -2.3415467e-07 -1.2946189e-06
3.7556575e-07 -3.2039384e-07 -1.1611878e-06 3.1178206e-07 1.9644888e-06 4.042469e-07 8.686334e-08 4.858328e-07
-2.6527863e-07 -2.3188808e-07 2.5178346e-07 -3.4240948e-08 6.085291e-07 6.013644e-07 -6.461939e-07 7.4337555e-07
4.5117434e-07 2.9574963e-07 1.0842484e-06 -2.0058726e-06 -1.8599206e-08 -3.323611e-07 5.1154933e-07 -2.6467222e-07
-3.4593413e-07 1.5288855e-06 4.5193158e-08 2.4896428e-07 -7.2350736e-07 2.45391e-07 -1.364447e-06 4.639334e-07
1.0632945e-06 -1.238311e-07 -8.975192e-07 -5.4073777e-08 4.671501e-07 -1.9549788e-07 -1.7705419e-07 -5.714078e-07
-5.3384656e-07 -8.522277e-07 2.3917949e-07 1.5227079e-06 5.349923e-07 8.385397e-07 2.1416518e-07 -8.0194985e-07
-1.1688286e-06 2.5712947e-07 -1.0015042e-06 6.100193e-07 -8.5846125e-08 -4.3096372e-07 9.0045546e-08 -9.316765e-08
9.462922e-11 -3.6170368e-07 1.2813279e-06 -2.5800617e-07 2.2095012e-06 -5.8835578e-08 -9.368324e-08 6.2935595e-07
6.1009337e-07 1.601998e-07 -4.728398e-08 -7.4718014e-07 2.8560746e-07 1.2983812e-06 4.1143457e-07 1.3382486e-07
9.592862e-07 8.310038e-07 -1.2134073e-07 4.0499947e-07 4.107826e-07 1.0256321e-06 9.4179234e-07 -1.0868297e-07
6.4586715e-07 1.7911237e-06 1.6056578e-06 8.8632e-07 1.0951078e-06 -2.523455e-07 -3.853515e-07 1.5611971e-07
5.9003007e-08 -1.1510036e-06 9.1033394e-07 1.8458155e-07 -2.9155763e-07 -1.8721103e-07 1.1081721e-06 4.2402485e-07
1.2970547e-06 -4.897324e-07 1.4631357e-07 1.300929e-06 -3.7408225e-07 2.3523671e-07 -3.885882e-07 1.949291e-07
00000000: 7fe2 f7b4 86d4 5ab5 3b04 4eb5 5522 c3b4
00000010: bc40 4535 5a74 f434 344c d334 ca09 78b4
00000020: b24d b6b5 6f56 f7b4 fce0 2cb5 1e84 ef35
00000030: 1b29 1fb2 a43c d6b5 03c1 dbb5 fd5a 8034
00000040: 9dcf 05b4 0c69 a835 684a 4eb5 f06c a134
00000050: 907d b434 d7c4 90b4 b927 46b4 e660 6334
00000060: 13c0 6f35 aee2 b5b4 41ea 9535 0809 bdb5
00000070: d911 6b34 3ff3 8bb4 c969 2235 6887 d6b5
00000080: f887 a034 3f8a 43b5 132d 4335 1aef bb34
00000090: 2116 ae34 c7c2 e334 a0d1 de34 8958 0c35
000000a0: f551 06b5 697d 8cb4 63ee b4b4 317e 9035
000000b0: 07c1 6e34 a824 c534 5a89 c5b5 3a18 6eb5
000000c0: e683 42b5 9346 8c35 93cb 3635 9dc4 9e35
000000d0: 51f3 54b4 c4e3 bc33 d6b7 6435 b37f 6d35
000000e0: 988f 2734 5bec 6434 124c 83b5 2756 a2b5
000000f0: 4c76 b234 8de0 30b5 3291 d434 27d5 e7b4
00000100: 94d8 d8b5 ffa0 b6b5 853e 51b5 a5a2 47b4
00000110: 4481 95b5 bca9 11b4 e031 ffb2 87cb 7b35
00000120: 1335 0435 4c53 3035 47da e3b4 e4e5 8b35
00000130: ca30 1034 038b 2d35 8ec4 c935 50fa b5b4
00000140: 35b9 9c33 8a02 bcb5 92b0 bf35 b953 76b5
00000150: 35c8 0434 5a51 c8b5 6709 dc34 eaed 7134
00000160: f026 4bb5 2f54 6eb5 3778 e0b4 6e49 c1b5
00000170: 5c81 b234 19b8 bbb4 3ad9 9cb5 a140 2a35
00000180: 9f1d 57b4 bccc a4b4 a77a 2d35 4b7b 0db6
00000190: 3be8 9f34 81bc c3b4 5c8e 5135 46bf b935
000001a0: 21f7 7e32 56e0 21b5 f29d 7f35 d70e 90b5
000001b0: 48a6 b6b5 8e90 f332 ae20 11b5 fa46 be35
000001c0: 5de8 0936 5bc8 f5b2 2dfe 6434 c3b7 ed34
000001d0: 970e 3135 7ea0 aa35 9c9c 9f35 6fe0 9d33
000001e0: 9c24 3eb5 6c75 5bb4 7f88 0c35 e06c 0eb5
000001f0: 0894 d934 c21b 8a34 fd2a de34 72a2 b9b5
00000200: d583 0ab5 b752 4335 6282 9b33 d169 afb4
00000210: e5a4 40b3 f179 a735 e9d0 3535 0250 0933
00000220: 5e85 0f36 36c8 ac34 0688 c433 cebd ecb4
00000230: 8c23 0935 fb78 8535 0ea2 66b5 0e44 40b5
00000240: a176 3235 f60c 0135 4f9e 65b5 5a90 22b5
00000250: 8652 be33 2700 8335 f26b 7bb4 c4c2 adb5
00000260: 5da1 c934 9802 acb4 1cda 9bb5 0063 a734
00000270: a9d5 0336 4507 d934 a089 ba33 2d6a 0235
00000280: 9e6b 8eb4 e9fc 78b4 db2c 8734 5210 13b3
00000290: cd59 2335 726d 2135 1b76 2db5 618c 4735
000002a0: ee38 f234 85c7 9e34 7e86 9135 a19c 06b6
000002b0: 16c4 9fb2 5d6f b2b4 6751 0935 4618 8eb4
000002c0: d3b8 b9b4 1b34 cd35 671a 4233 64a9 8534
000002d0: 0c37 42b5 48be 8334 0b22 b7b5 8512 f934
000002e0: 85b6 8e35 6ff6 04b4 0ded 70b5 bf3e 68b3
000002f0: 9fcc fa34 0cea 51b4 491c 3eb4 d862 19b5
00000300: a84d 0fb5 a4c4 64b5 9468 8034 d85f cc35
00000310: 649c 0f35 0218 6135 47f5 6534 9345 57b5
00000320: a5e0 9cb5 9b0b 8a34 6c6b 86b5 35c0 2335
00000330: 685a b8b3 345f e7b4 105f c133 7513 c8b3
00000340: 8417 d02e 2d30 c2b4 17fa ab35 1984 8ab4
00000350: f146 1436 67b2 7cb3 e82e c9b3 03f1 2835
00000360: 4cc5 2335 6303 2c34 4915 4bb3 d491 48b5
00000370: 9755 9934 0a44 ae35 23e3 dc34 7fb1 0f34
00000380: d3c0 8035 2512 5f35 e349 02b4 b46e d934
00000390: 8889 dc34 73a8 8935 7acf 7c35 1865 e9b3
000003a0: a75f 2d35 8b66 f035 fb81 d735 72eb 6d35
000003b0: 9efb 9235 1a7a 87b4 4fe2 ceb4 dca1 2734
000003c0: 7e6a 7d33 2f7c 9ab5 ac5d 7435 6431 4634
000003d0: 6087 9cb4 2d04 49b4 81bc 9435 88a5 e334
000003e0: 7616 ae35 2776 03b5 5e1a 1d34 949b ae35
000003f0: 79d5 c8b4 6095 7c34 289f d0b4 b44d 5134

linear_layer1.bias f4 [9]
8.3422833e-07 -1.291562 0.8029262 0.67171204 1.8512036e-07 -4.7007313e-07 1.4470752 -1.1368566
1.578359e-06
00000000: bcef 5f35 e751 a5bf 928c 4d3f 52f5 2b3f
00000010: 7fc5 4634 5c5e fcb4 c339 b93f 8484 91bf
00000020: 01d8 d335

linear_layer2.weight f4 [2016, 5]
-6.457949e-09 7.6669835e-08 -0.044897836 -7.8441616e-08 -2.1966184e-06 -5.4905075e-07 2.5375584e-07 -0.28346124
1.193766e-07 -0.010068806 -1.1450586e-06 2.1465522e-07 -0.077233955 -1.1348517e-06 8.0718013e-07 -1.0575905e-06
-7.692437e-07 -0.06369637 -1.9747197e-06 -3.6343517e-06 -5.461805e-07 -1.0526811e-06 0.035741776 5.2205615e-07
1.1333177e-06 9.697786e-07 2.5298098e-07 -0.06136452 -3.4543386e-06 -9.134814e-06 -3.81434e-07 1.6848397e-06
-0.050226033 -3.4927712e-06 -4.6062396e-06 -1.2259499e-06 -7.446304e-07 -0.23738383 1.3071863e-06 -0.012513997
4.0624863e-07 8.2462655e-08 -0.18194835 8.6977155e-07 2.1862231e-06 -8.8467505e-07 -1.5235238e-06 -0.18446407
-9.12276e-09 2.1568044e-06 1.640574e-07 2.5104603e-07 -0.093688495 -7.241207e-07 -1.2852755e-06 9.869941e-07
-8.93842e-07 -0.18116899 -5.014342e-07 1.793678e-06 2.3014371e-07 4.2981264e-07 0.0037033374 4.8685877e-07
-1.9818008e-06 8.6636527e-07 9.298903e-07 -0.21935326 5.5315513e-07 -7.066016e-07 -1.9838207e-07 1.248098e-06
-0.01830721 -9.454087e-07 -1.0242112e-06 -8.615938e-07 1.2239493e-06 -0.16086623 -4.0371242e-07 -2.9666421e-06
4.5604972e-07 1.77281e-06 -0.204683 -1.1554702e-06 3.48071e-06 2.5948404e-07 -1.9766228e-06 -0.24367918
5.8920136e-07 1.6978082e-06 1.40907e-06 1.6164968e-07 -0.05047208 1.6949839e-06 -2.487575e-06 7.965377e-07
-3.952566e-07 -0.037164304 3.1647102e-07 -1.1242556e-06 5.010773e-07 -8.4491205e-07 -0.06135391 -5.3018525e-08
-6.328693e-06 -1.3997801e-06 8.4972544e-07 0.024608742 -6.7676064e-07 4.5617918e-07 -1.0380385e-06 -8.191094e-07
-0.1589138 2.755624e-07 5.1524416e-06 3.5787076e-07 2.5928804e-07 -0.09070908 -4.852138e-07 3.174055e-06
5.81387e-07 -5.709087e-07 -0.09269831 3.700499e-07 -1.4917954e-06 -1.0237616e-06 -5.6076e-07 -0.090625666
-2.70119e-06 -4.2330976e-06 -2.4997615e-07 -2.685227e-07 -0.11467285 -1.7242998e-06 -1.7098669e-06 -1.867713e-07
6.5998057e-07 -0.04758305 -1.6693031e-06 2.2597471e-06 -3.512543e-07 2.0190787e-06 -0.07793445 -1.8219633e-07
-3.3025105e-06 -4.6462876e-07 6.0723966e-07 -0.048121303 -1.1937934e-06 -1.40465245e-05 -1.2542831e-07 -9.0823437e-07
-0.053071998 2.7572867e-07 8.879918e-07 6.8092135e-07 1.4970736e-07 0.021056164 1.4384511e-06 4.3165087e-06
3.4875396e-07 -1.1761502e-06 0.10157235 4.053539e-06 5.7228453e-06 -7.842187e-08 6.680559e-07 -3.3901404e-09
-2.1846125e-09 2.3948082e-06 2.7293245e-07 -9.109237e-07 -0.037871107 -4.6256187e-07 -4.52816e-06 -2.0279224e-06
-3.8994065e-07 0.047461487 1.3427859e-06 -1.9943598e-06 -4.1608874e-07 -1.3086943e-06 0.05682373 7.509998e-07
1.479968e-07 1.3365292e-07 -9.282939e-07 0.023105273 3.9919482e-07 -2.3981781e-06 -2.8730537e-07 -2.9122916e-07
0.111366905 1.5021395e-06 3.5628887e-07 -4.7648834e-07 -5.623856e-07 -0.00021686427 -1.9109655e-06 -6.7409487e-06
3.5315782e-07 -1.7483679e-07 0.0023265171 4.73707e-08 9.3725043e-07 -4.9345115e-08 -8.687988e-07 0.041813716
4.9811473e-07 1.1051137e-06 -1.513661e-06 -5.3254576e-07 -0.06994222 3.9002188e-07 -2.2398438e-06 8.4732096e-07
-5.513489e-07 0.016223002 -1.17046056e-07 -1.7631262e-06 -1.8254302e-07 -1.7253466e-08 -0.005283379 1.2063946e-06
-3.4304937e-06 2.0750301e-06 -2.3550116e-07 0.014218281 -2.425393e-06 -1.9731829e-06 5.3600104e-07 -8.920375e-07
0.03796124 2.7400176e-06 7.97556e-06 1.0768233e-06 1.0157263e-06 -0.028317291 6.0222895e-08 6.3491603e-09
1.0929579e-06 -1.7676726e-07 -0.015665531 1.9794281e-06 -1.1901701e-06 -5.1892977e-07 -3.760574e-07 0.17796038
1.6348158e-06 0.0038293016 -6.6532033e-07 -6.622843e-07 -0.082455024 1.2672078e-06 2.1588935e-06 -4.4864206e-07
00000000: b8e4 ddb1 b0a5 a433 cbe6 37bd bc73 a8b3
00000010: 9e69 13b6 7b62 13b5 f03b 8834 d521 91be
00000020: fd2d 0034 a2f7 24bc eaaf 99b5 fa7b 6634
00000030: d62c 9ebd 3551 98b5 ffac 5835 88f2 8db5
00000040: 067e 4eb5 3e73 82bd 6d85 04b6 b0e5 73b6
00000050: 3d9d 12b5 d949 8db5 f865 123d 6d23 0c35
00000060: 801c 9835 5729 8235 71d1 8734 5d59 7bbd
00000070: 16d1 67b6 ba41 19b7 e4c7 ccb4 a722 e235
00000080: d0b9 4dbd 5a65 6ab6 4c8f 9ab6 518b a4b5
00000090: 9de2 47b5 bf14 73be 9472 af35 8207 4dbc
000000a0: 631a da34 5316 b133 ab50 3abe 3f7a 6935
000000b0: 07b7 1236 687a 6db5 e17b ccb5 26e4 3cbe
000000c0: 53ba 1cb2 9ebd 1036 c127 3034 81c7 8634
000000d0: c1df bfbd 3261 42b5 bb81 acb5 dc78 8435
000000e0: 5bf0 6fb5 5d84 39be 4c9a 06b5 4fbe f035
000000f0: 6c1d 7734 00c1 e634 b1b3 723b aeb0 0235
00000100: 14ff 04b6 2b90 6835 939d 7935 249e 60be
00000110: 887c 1435 4bad 3db5 d902 55b4 5284 a735
00000120: 01f9 95bc fec7 7db5 a177 89b5 4648 67b5
00000130: 9446 a435 1eba 24be d0bd d8b4 8616 47b6
00000140: ffd6 f434 4af1 ed35 6c98 51be a715 9bb5
00000150: 2496 6936 374f 8b34 1fa6 04b6 0987 79be
00000160: 9c29 1e35 3fe0 e335 471f bd35 ed91 2d34
00000170: d0bb 4ebd 347f e335 37f0 26b6 a7d1 5535
00000180: a733 d4b4 9939 18bd 72e7 a934 21e5 96b5
00000190: c581 0635 eacd 62b5 3d4e 7bbd 7cb6 63b3
000001a0: 0f5b d4b6 14e0 bbb5 b018 6435 4698 c93c
000001b0: a3aa 35b5 cae8 f434 bb52 8bb5 c5e0 5bb5
000001c0: 4dba 22be 02f1 9334 23e3 ac36 6221 c034
000001d0: 4734 8b34 afc5 b9bd a33f 02b5 da01 5536
000001e0: 9c10 1c35 8c40 19b5 9dd8 bdbd 45ab c634
000001f0: b339 c8b5 2e68 89b5 2287 16b5 f399 b9bd
00000200: 1746 35b6 080a 8eb6 7634 86b4 7b29 90b4
00000210: 99d9 eabd 7d6e e7b5 947e e5b5 4e8b 48b4
00000220: 8529 3135 72e6 42bd d10c e0b5 29a6 1736
00000230: 0694 bcb4 827f 0736 199c 9fbd bfa1 43b4
00000240: b3a0 5db6 1772 f9b4 3101 2335 d81a 45bd
00000250: 6e3a a0b5 5da9 6bb7 79ad 06b4 64cd 73b5
00000260: 0662 59bd dc07 9434 555e 6e35 8fc8 3635
00000270: 3fbf 2034 fa7d ac3c ce10 c135 87d6 9036
00000280: 613c bb34 37dc 9db5 2a05 d03d a303 8836
00000290: de06 c036 e168 a8b3 7454 3335 fbf7 68b1
000002a0: 1c20 16b1 7eb6 2036 8d87 9234 3386 74b5
000002b0: bc1e 1bbd 0556 f8b4 99f0 97b6 7117 08b6
000002c0: 0959 d1b4 fa66 423d c639 b435 d7d6 05b6
000002d0: cd62 dfb4 65a6 afb5 00c0 683d 5098 4935
000002e0: 0de9 1e34 3c82 0f34 df2f 79b5 4547 bd3c
000002f0: eb50 d634 63f0 20b6 f33e 9ab4 3b5a 9cb4
00000300: 5514 e43d 1f9d c935 f847 bf34 0fd0 ffb4
00000310: d8f6 16b5 0f66 63b9 233e 00b6 4f30 e2b6
00000320: a499 bd34 c5ba 3bb4 7b78 183b a374 4b33
00000330: 5c97 7b35 87ef 53b3 6637 69b5 dc44 2b3d
00000340: 2fb6 0535 6b53 9435 ff28 cbb5 44f4 0eb5
00000350: de3d 8fbd 3364 d134 3950 16b6 7473 6335
00000360: 6800 14b5 1ae6 843c c05a fbb3 8ea4 ecb5
00000370: 0b01 44b4 c634 94b2 3220 adbb 67eb a135
00000380: 6f37 66b6 bf40 0b36 11de 7cb4 cbf3 683c
00000390: efc3 22b6 066b 04b6 b6e1 0f35 5a74 6fb5
000003a0: 3f7d 1b3d 25e1 3736 c5ce 0537 5e87 9035
000003b0: 1754 8835 aaf9 e7bc e353 8133 ce27 da31
000003c0: bfb1 9235 6acd 3db4 0055 80bc 51d6 0436
000003d0: efbd 9fb5 954c 0bb5 efe4 c9b4 3f3b 363e
000003e0: d86b db35 05f5 7a3b 7798 32b5 d5c7 31b5
000003f0: 2ede a8bd ee14 aa35 82e1 1036 e5dc f0b4

linear_layer2.bias f4 [2016]
6.4172525e-07 1.8356032 -0.14991125 -3.551324e-07 -1.1072423 -0.83724886 -6.402943e-07 1.5994182
-0.23123756 0.032037135 0.46462473 3.504415e-07 -0.9748521 1.242068 -0.83717775 1.3708447e-07
1.337526 0.24041267 -0.14313324 3.7717882e-07 6.176913e-07 -1.017387 0.23902424 -0.11447642
-5.4000657e-07 -0.09342179 1.4970736e-06 -9.2858016e-07 0.13936181 4.546167e-07 0.02002255 -0.087776154
-1.184012 -1.212526e-06 0.5506688 -0.15200597 -1.1841994e-06 2.9382017e-08 -0.7131501 -2.7794636e-06
2.606282e-07 -0.41659254 1.329075 9.80106e-07 0.5871051 0.29233563 1.4487782e-06 0.7703192
0.49036264 -1.785806 1.5034235 4.7195735e-07 -0.28102624 0.13464637 -1.5999226e-06 0.25274867
0.4475327 7.6107347e-07 0.3930543 -0.4679238 0.08323182 1.2513784 1.2969723e-06 -1.8490817e-07
1.2773316e-06 -3.2236485e-07 -0.09420487 -1.4627041 -0.5992621 -0.10648974 -1.542028e-06 -4.6186773e-07
0.021047771 0.37919378 -8.712182e-07 5.919771e-08 9.817703e-07 -0.52010685 5.4630846e-07 0.082211725
-0.28665018 3.6559538e-08 -0.5565531 1.8245856e-06 -1.2003433 -0.73735344 -0.64455587 -0.08244507
-8.2479147e-07 0.14059322 -0.40540692 -0.3171401 0.026694559 0.37044206 0.15502994 -0.6320697
1.5950634 0.30532518 7.4413174e-07 0.1279783 -3.1412293e-07 1.3126713 6.668912e-07 -4.159749e-07
-6.846418e-09 -5.1428333e-07 0.7647577 -1.0189204 -0.0055432636 0.70919603 9.195557e-07 -4.6415093e-07
0.22636877 -0.68397033 0.62599844 0.6105947 1.0653179 0.6046847 6.3322346e-07 -0.12658928
-0.21190824 1.8893026e-06 0.6128564 -1.0943057e-06 1.8238709 1.5955532e-06 5.671846e-07 -1.5710682
8.1662485e-08 0.88851833 -0.13918766 -0.22885963 -0.42678252 4.835733e-07 -1.2251992e-06 -1.2786427
-1.7887643e-07 -3.408467e-07 0.26041102 -0.87188905 1.0948528 -6.299719e-07 -0.15447667 0.93703675
0.4464603 4.5508241e-07 -1.2089186 -0.23389532 -4.781566e-07 2.5449884e-07 -0.06770855 -0.59810585
-0.9739914 -4.2069308e-07 -0.91889685 0.17624953 0.39672947 -0.12154911 0.015570188 2.2917247e-06
-2.592823e-07 1.2853369 0.40359905 4.552956e-07 5.706844e-07 -1.0555469e-06 -3.3215488e-07 6.791252e-07
7.211329e-07 1.17093386e-07 0.5127557 0.38890675 0.14930448 7.121579e-07 8.191492e-07 -0.7180946
-0.91069937 9.666044e-07 -1.048217e-06 7.3109896e-07 -0.09628635 0.34653208 1.5560915 -0.38491318
0.10820404 0.8164359 1.4935586 1.541366 0.8411415 0.7635531 -3.186679e-07 -1.921378
-6.619818e-07 0.15955324 -0.45127633 5.141275e-07 -0.43786705 -0.080543056 -1.0896003e-06 -0.022368154
-0.0046011307 -1.433869e-07 0.137804 -0.2425683 0.93675244 -6.117504e-07 0.34587902 0.9915009
-0.5765361 -1.9029067e-06 -3.502022e-07 3.148086e-07 0.30082193 0.67918736 -0.49291414 0.20697466
-0.52834225 0.46747354 -1.2651757 9.0321794e-07 -0.7851978 -1.8686904e-06 -0.4197352 -0.77877766
0.15177226 -0.08770086 -0.8668112 -1.7745249e-07 -0.54268 1.2392135 1.7831079e-06 -0.5107334
2.1317896e-07 0.5131467 -0.122277156 3.6959383e-07 -2.3810756e-07 -1.0766505 -2.3617362e-07 0.5893659
1.4614603e-06 -8.456798e-09 0.83072454 0.8250143 1.2270581e-06 0.120818086 -1.2286922e-06 -4.500563e-06
-3.84568e-07 3.528191e-07 -0.065896444 -0.4779622 -6.7864624e-07 -6.4291605e-08 -0.2126091 -0.97713333
00000000: 0643 2c35 0cf5 ea3f 5682 19be 07a9 beb4
00000010: 1eba 8dbf f155 56bf b0e0 2bb5 bcb9 cc3f
00000020: 8ac9 6cbe 5f39 033d 4be3 ed3e 5024 bc34
00000030: e88f 79bf 16fc 9e3f 4851 56bf 7e31 1334
00000040: 0d34 ab3f bd2e 763e 8591 12be 107f ca34
00000050: 6ccf 2535 bd39 82bf c5c2 743e 9d72 eabd
00000060: f8f4 10b5 ec53 bfbd 0fef c835 8b43 79b5
00000070: ddb4 0e3e 0b12 f434 5506 a43c fcc3 b3bd
00000080: b58d 97bf 13be a2b5 a1f8 0c3f 74a7 1bbe
00000090: c8f0 9eb5 bd63 fc32 0191 36bf d286 3ab6
000000a0: 78ec 8b34 9e4b d5be 211f aa3f 308c 8335
000000b0: 854c 163f 04ad 953e a473 c235 a433 453f
000000c0: d010 fb3e 4a95 e4bf 2e70 c03f 5361 fd34
000000d0: ace2 8fbe bde0 093e ecbc d6b5 4668 813e
000000e0: 0223 e53e 924c 4c35 6a3e c93e b593 efbe
000000f0: 7275 aa3d 2b2d a03f a113 ae35 2c8b 46b4
00000100: c870 ab35 7d11 adb4 7cee c0bd e339 bbbf
00000110: 3e69 19bf 4b17 dabd aef7 ceb5 9ef6 f7b4
00000120: 606c ac3c b025 c23e a9dd 69b5 9240 7e33
00000130: 5fc5 8335 b925 05bf 08a6 1235 9f5e a83d
00000140: d0c3 92be a305 1d33 447a 0ebf 49e4 f435
00000150: d9a4 99bf 32c3 3cbf 9d01 25bf f6d8 a8bd
00000160: 3d67 5db5 abf7 0f3e 7f91 cfbe 3060 a2be
00000170: 8cae da3c 95aa bd3e 2bc0 1e3e 52cf 21bf
00000180: 0a2b cc3f 9553 9c3e 58c0 4735 be0c 033e
00000190: baa4 a8b4 9d05 a83f 6a04 3335 2853 dfb4
000001a0: bb3d ebb1 480d 0ab5 29c7 433f fc6b 82bf
000001b0: 44a4 b5bb df8d 353f 63d7 7635 6b30 f9b4
000001c0: 37cd 673e ae18 2fbf 6f41 203f ef4f 1c3f
000001d0: 565c 883f 9ecc 1a3f c9fa 2935 9fa0 01be
000001e0: 79fe 58be f193 fd35 28e4 1c3f 0fe0 92b5
000001f0: 9a74 e93f ca26 d635 a140 1835 c318 c9bf
00000200: 6d5e af33 f075 633f 3687 0ebe 2e5a 6abe
00000210: 3d83 dabe e7ce 0135 8671 a4b5 90aa a3bf
00000220: 2e11 40b4 9dfd b6b4 9854 853e 1f34 5fbf
00000230: 2324 8c3f 571b 29b5 222f 1ebe a4e1 6f3f
00000240: 7296 e43e 0d52 f434 d8bd 9abf 4182 6fbe
00000250: ac5a 00b5 0ea2 8834 c8aa 8abd 771d 19bf
00000260: 8057 79bf 9edb e1b4 d33c 6bbf c27a 343e
00000270: 2020 cb3e bdee f8bd 1a1a 7f3c 88cb 1936
00000280: 7d33 8bb4 eb85 a43f 89a4 ce3e 5a6f f434
00000290: 2231 1935 51ac 8db5 0553 b2b4 214d 3635
000002a0: e093 4135 c574 fb33 f543 033f c91e c73e
000002b0: 46e3 183e 1e2b 3f35 81e3 5b35 0cd5 37bf
000002c0: 9823 69bf 46bc 8135 76b0 8cb5 bd40 4435
000002d0: c731 c5bd a76c b13e 022e c73f 5713 c5be
000002e0: 149a dd3d f101 513f ee2c bf3f 7b4b c53f
000002f0: 0d55 573f 3778 433f 6215 abb4 b7ef f5bf
00000300: 0bb3 31b5 ed61 233e b10d e7be 9302 0a35
00000310: 1c30 e0be c2f3 a4bd 623e 92b5 6b3d b7bc
00000320: 15c5 96bb e4f5 19b4 7e1c 0d3e d363 78be
00000330: 02cf 6f3f 2b37 24b5 0e17 b13e 01d3 7d3f
00000340: df97 13bf 6067 ffb5 6d03 bcb4 f702 a934
00000350: 5505 9a3e 39df 2d3f 3e5f fcbe 2af1 533e
00000360: 7041 07bf b158 ef3e 47f1 a1bf aa74 7235
00000370: b902 49bf b7cf fab5 88e7 d6be f95d 47bf
00000380: 306a 1b3e 829c b3bd 57e7 5dbf c589 3eb4
00000390: 14ed 0abf 8c9e 9e3f 1f53 ef35 6dbf 02bf
000003a0: 30e6 6434 955d 033f 726c fabd 976c c634
000003b0: 82aa 7fb4 afcf 89bf e996 7db4 afe0 163f
000003c0: 6527 c435 6449 11b2 5daa 543f 2334 533f
000003d0: 65b1 a435 796f f73d 8be9 a4b5 8b03 97b6
000003e0: a076 ceb4 166b bd34 b7f4 86bd 76b7 f4be
000003f0: 372c 36b5 af10 8ab3 33b6 59be 6925 7abf
