model/attention_net_u_artificial_Q_9_K_6_F_5_REG_L0_ACT_sigmoid_WD_00002_CV.model (torch_old, 52157 bytes, 6 tensors)

key_matrix f4 [9, 6]
000000 bc d7 f8 bf 99 40 1a 3e eb 88 7e bf da 24 8e be
       -1.9440837 0.15063705 -0.9942767 -0.2776249
000010 cc 11 f1 3f e9 87 92 bf 87 f7 66 bf 9a 77 5f 3e
       1.8833556 -1.1447726 -0.90221447 0.21822968
000020 cf 9f 61 be 58 de e6 bf a1 4c ae 3d 33 3b 15 bf
       -0.22033618 -1.8036604 0.085107096 -0.58293456
000030 63 78 5c bd 5e 16 2a 3f 7c 89 51 3f c2 0e 0c 40
       -0.053825747 0.6644038 0.8185041 2.1884007
000040 6b c5 8f bf 04 85 fb 3e d6 1f ae 3f 4e 39 03 bf
       -1.1232122 0.4912492 1.3603466 -0.51259315
000050 2f 70 d0 bf 67 30 88 bf bc 11 b6 3f e2 b7 b9 3d
       -1.6284236 -1.0639771 1.4224162 0.09068276
000060 be 70 24 be 3d 62 5e 3d bf f8 d4 bf f5 98 b6 be
       -0.16058633 0.054292906 -1.6638411 -0.35663572
000070 00 66 bd be 45 8a af bf 52 32 1a bf 5d dc 4f 3f
       -0.36991882 -1.3714072 -0.6023303 0.8119562
000080 22 0a 93 bf c4 3a 24 c0 f8 2d 49 3f 2a 6c d5 3d
       -1.1487467 -2.5660868 0.7858577 0.10421021
000090 f1 f2 62 3f 91 bc 77 3e be c5 a7 3e 93 e4 11 bf
       0.8865195 0.24193026 0.32768053 -0.569894
0000a0 6c 10 1e 3f 41 31 a4 3d 09 7b bf bf 68 29 5b 40
       0.6174381 0.08017207 -1.4959422 3.4244022
0000b0 ed 11 2f bf 53 2c 5f 3f 6c 49 c7 bf 14 40 ee bf
       -0.6838673 0.8717701 -1.5569282 -1.8613305
0000c0 83 60 b0 bf 63 40 4b 3f 1b 0c 37 3f 1d 37 18 40
       -1.3779453 0.7939512 0.71502846 2.3783638
0000d0 5a f2 f3 be af 6b 80 be
       -0.47645837 -0.25082156

value_matrix f4 [6, 5]
000000 e9 9c e4 3d 92 af 25 3f 6c 24 b0 3d 56 19 da 3e
       0.11162741 0.64721024 0.08600697 0.42597455
000010 9d 67 e3 bf f4 ba f4 c0 7f 31 91 3f 5a 2a 71 3f
       -1.7765995 -7.6478214 1.134323 0.9420525
000020 3c 48 ee bf e1 87 e9 c0 cb f1 4e bd c6 e9 88 bf
       -1.8615794 -7.297837 -0.05052356 -1.0696342
000030 8f 29 c8 3d 71 49 8e 3e b6 08 89 3e de f7 1c 3f
       0.09773552 0.27790406 0.26764458 0.61315715
000040 ae 5b 67 3f d4 e7 39 3e c2 b0 7c 3f cf c4 22 bf
       0.9037427 0.18154842 0.9870721 -0.63581556
000050 76 fd 29 bd 26 5f 3b 3f b1 8d 0c c0 e3 4f 7e c0
       -0.041501485 0.7319206 -2.1961482 -3.973626
000060 9c 5b f8 bf 5f de 27 3f cc 56 f7 be 23 95 a7 3c
       -1.9402957 0.65573686 -0.48308408 0.020456856
000070 86 1e b0 be 64 2c 0e be
       -0.34398288 -0.13884121

linear_layer1.weight f4 [9, 64]
000000 e4 79 68 3e 0e 27 04 3e 5e 10 3d 3d ef 19 5d 3d
       0.22702748 0.12905523 0.046158187 0.05397981
000010 09 98 1c be bc 19 07 3e 11 9c 5e bd bb 60 ff 3d
       -0.15292372 0.1319341 -0.054348055 0.12469622
000020 a8 e2 57 3e 5e a0 0f 3e 81 4b 82 3e d7 72 01 be
       0.21082556 0.14026019 0.2544823 -0.12641464
000030 fd ee 56 3d 84 24 c4 bd 5a d0 0f be e1 8a df 3d
       0.05247401 -0.09577277 -0.14044324 0.10915161
000040 aa 6d 39 be a9 c1 42 3e 3b 97 99 bc 24 09 34 3e
       -0.1810824 0.19019188 -0.01874887 0.17581612
000050 1b 9c 53 3e 52 bd b6 3d 1c 45 a1 3e c4 d8 df bd
       0.20665018 0.08922829 0.3149804 -0.10930017
000060 f7 18 38 be 69 76 77 3d 32 59 de ba 91 77 5e bc
       -0.17978273 0.06041566 -0.0016963838 -0.013578312
000070 84 ba ef 3d 44 0e ed bd e8 00 58 be c8 53 56 3e
       0.11705497 -0.115749866 -0.21094096 0.20930398
000080 ee 08 87 3e 68 80 13 be 41 07 35 bc 4f e2 79 3e
       0.26374 -0.14404452 -0.011049093 0.24402736
000090 14 c2 04 be 03 d3 3a 3e e8 c3 0f be f5 ea 47 3e
       -0.1296466 0.18244557 -0.14039576 0.19523223
0000a0 2d d5 91 3b 30 ea 89 3e 38 f5 a9 3e e6 c4 50 3e
       0.0044504614 0.26936483 0.331949 0.20387611
0000b0 1e cd 8b 3e ad 95 59 3e 05 b2 2f 3e d6 9c 20 3e
       0.2730493 0.21248503 0.17157753 0.15684828
0000c0 49 8c d6 3d ca 91 e0 bd e8 88 82 3d a7 dd 81 3e
       0.10475976 -0.10965307 0.06373769 0.2536442
0000d0 40 97 a9 3d f7 d0 33 3e b5 9f e5 bd 6a c4 87 3e
       0.08280802 0.17560183 -0.11212102 0.2651704
0000e0 d1 ec 62 3d 62 62 57 3e d0 ef 22 be 43 23 74 3e
       0.055401627 0.21033624 -0.15911794 0.23841576
0000f0 77 dc e7 3c e6 cb a6 bd 67 40 61 3e 7e f3 8a bb
       0.028303368 -0.08144359 0.21997224 -0.0042404523
000100 fa 78 41 be de 6e cd 3b ea e2 48 be 14 f8 76 3e
       -0.18893805 0.00626932 -0.19617811 0.24118072
000110 95 f7 19 be fd 31 37 bd 6f f0 d7 3d f3 8c c4 3d
       -0.15035851 -0.044725407 0.10543906 0.095971964
000120 64 a9 f6 bd c4 71 96 3e 43 a9 97 bd d2 64 ab bd
       -0.120440274 0.2938367 -0.07405331 -0.08368839
000130 91 cd 1d be e7 5d 80 3e 00 dc 28 b7 49 c9 a2 3c
       -0.15410449 0.25071642 -1.0064803e-05 0.01987137
000140 3a 05 28 3e c2 af 3c be 36 7a 8d 3e 51 fc 3e 3e
       0.16408244 -0.18426421 0.27632302 0.18650939
000150 8a 08 0b 3c b1 f8 87 3e 54 7c 4f 3e 86 2f b0 3a
       0.008485923 0.26556924 0.20262271 0.0013441897
000160 65 28 18 bd 58 40 28 3e 1c d6 00 be d4 f4 72 3e
       -0.0371479 0.16430795 -0.12581676 0.23726207
000170 70 32 46 be fb 8c 51 be 0e 2e 8f 3e e0 6d 4a 3e
       -0.19355178 -0.20463936 0.27964824 0.19768476
000180 3f 9b e9 3d fc 9e 73 3e 18 7b a5 bd 3e 67 c4 3d
       0.11406564 0.23791116 -0.08080119 0.095900044
000190 a0 49 2e be 45 94 26 3e a1 25 2b 3e b2 eb 04 be
       -0.17020273 0.16267498 0.16713573 -0.12980536
0001a0 92 cd 46 3e 2b db 39 3e 65 26 e3 bd 2b 31 41 be
       0.19414356 0.18150012 -0.110913076 -0.18866412
0001b0 aa 6c 9e 3e 06 d8 5c 3e d0 e5 26 be 67 17 1d 3e
       0.3094228 0.21566781 -0.16298604 0.15340959
0001c0 22 8f 3c 3e 25 05 98 3d 8a b9 24 be aa 02 8a 3e
       0.18413976 0.07422856 -0.16086403 0.26955158
0001d0 5e 06 46 be 61 03 7e 3e 45 a6 c4 3d 4c 33 f8 bc
       -0.19338366 0.24805976 0.09602026 -0.030297898
0001e0 98 10 71 be 3f a1 55 bd 49 09 7d 3e 64 72 62 3d
       -0.23541486 -0.05215573 0.24710573 0.055284873
0001f0 22 61 cf bd 67 e1 ff ba 16 1d 5b 3e f5 94 87 3e
       -0.101259485 -0.0019522131 0.21397814 0.26480833
000200 23 26 95 3d 3c b9 b0 be fe 7e 05 be 33 83 11 be
       0.072826646 -0.34516323 -0.13036725 -0.14210205
000210 3f 70 a4 3c 8a 0d 10 bd bc 0f b7 be 2c c1 6f be
       0.020073054 -0.03516916 -0.35754192 -0.23413533
000220 44 27 14 be 84 43 82 be 1a db df bb 44 f8 21 be
       -0.14468104 -0.25442135 -0.006831539 -0.15817362
000230 a9 48 c4 be 67 09 9e be 4b 65 9e bd d0 81 43 be
       -0.38336685 -0.30866548 -0.07734164 -0.19092488
000240 96 ee d6 be 0c 35 97 bd 35 83 11 be 7d 65 b6 bd
       -0.41978902 -0.07383165 -0.14210208 -0.08906076
000250 55 fd 39 be d5 54 bc 3c af f9 ba be 97 f0 be be
       -0.18163045 0.02298967 -0.36518618 -0.3729293
000260 a0 6e c6 be c4 64 fb bb 66 ad c3 be 77 01 db 3d
       -0.38756275 -0.0076719243 -0.3821823 0.10693639
000270 b3 f5 8d be 08 8d 6f be e7 e5 56 be 69 c5 9e be
       -0.27726516 -0.23393643 -0.20986138 -0.31009987
000280 a2 0f 84 3e 2b a3 01 be e3 ec 04 be 9f 48 b4 3b
       0.25793177 -0.126599 -0.1298099 0.005501821
000290 b0 4c 17 bc 72 aa 76 3e 23 8e 32 bd b1 31 f5 3c
       -0.009234592 0.24088457 -0.043592583 0.029930921
0002a0 bc 07 13 3b 82 7e 4d bc cb 95 33 3e 25 81 70 3e
       0.002243503 -0.012542369 0.1753761 0.23486765
0002b0 c0 58 6e 3d 18 62 96 3c b9 9e 63 3e ce 5c 71 3e
       0.058190107 0.018357322 0.22228517 0.23570558
0002c0 53 76 7a 3e 10 25 08 3e 8b f2 a5 3e 81 10 14 3e
       0.244592 0.13295388 0.32411608 0.1445942
0002d0 a6 95 60 bd 85 6f 7d bd c1 15 8d 3d cd 7d d5 3d
       -0.054830216 -0.06187393 0.06888915 0.10424385
0002e0 90 95 cd 3d 74 96 b2 3d a0 65 e0 bd c4 73 98 3c
       0.100382924 0.08720103 -0.109568834 0.018609889
0002f0 de 0f 3f bd 4e 16 30 3d 34 4f 94 3e 16 96 1f 3e
       -0.04664599 0.04299002 0.28966677 0.15584597
000300 5e 34 d4 bd 0b 14 82 3d a4 85 79 bd be 7d 50 3e
       -0.10361551 0.06351479 -0.060918465 0.20360467
000310 c5 ec 92 3e 19 9d 41 3e 09 76 27 3d c1 f6 2e 3d
       0.28696266 0.18907584 0.04088405 0.04271579
000320 5c 1b 43 bc 77 c6 2e bd ae 49 33 bc a0 f6 89 3e
       -0.011908378 -0.04266974 -0.01094286 0.26945972
000330 f3 60 8a 3d db f8 52 3e 86 cf 6a bc e0 29 7f 3e
       0.06756773 0.20602743 -0.014331704 0.24918318
000340 23 25 a8 bd db b8 71 3e dd 9f 60 3e 40 3f f9 3d
       -0.08210208 0.23605673 0.21935983 0.12170267
000350 24 17 a8 bc 65 90 fb 3d 3c 7b 82 3d 39 64 7e 3d
       -0.020518847 0.122834004 0.06371161 0.0621073
000360 da 34 13 3e 74 2d e1 3d a5 ef 20 be e9 09 78 3e
       0.1437563 0.109949976 -0.15716417 0.2422253
000370 bd 8e 60 3d c7 34 07 3c 2d 45 11 bd 48 15 e9 3d
       0.054823626 0.008252329 -0.03546636 0.11381012
000380 04 5a 0c 3e d8 7d fd bd e3 ca 7e be d6 09 44 be
       0.13706213 -0.123775184 -0.24882083 -0.19144377
000390 3a 8f ad 3c b2 17 fa 3d 93 a7 a0 bc 1c 0f 38 bd
       0.02118646 0.12211551 -0.019611156 -0.044936284
0003a0 7c 4d d2 3c 96 98 32 be f6 35 b6 3d 76 b0 3d 3e
       0.025671713 -0.1744102 0.08897011 0.18524346
0003b0 27 1a 03 3e 27 9b 60 be e8 ed 80 bd 23 23 31 3e
       0.12802945 -0.21934186 -0.06295377 0.1729856
0003c0 a6 01 0d 3d a9 23 93 3e e2 04 02 3e 18 6e 36 be
       0.0344254 0.28738144 0.12697175 -0.17815435
0003d0 36 51 57 3b b4 70 44 bd d7 c3 36 3d 50 b5 36 3e
       0.0032854802 -0.047959045 0.04462036 0.17842603
0003e0 2f 8f 0b bd 3d e1 0b be 5b f8 3e be 26 d5 bb bd
       -0.034072097 -0.1366014 -0.18649428 -0.09171514
0003f0 22 9e 23 3d 28 7e 3c 3e 43 67 76 bc 85 a8 58 3d
       0.03994573 0.184075 -0.015039268 0.052895088

linear_layer1.bias f4 [9]
000000 84 24 1a 3f f1 9a 72 3e e2 bb 38 bf 1f 2a f4 be
       0.6021197 0.23691918 -0.72161686 -0.47688386
000010 d8 26 89 3f 6c 3c 1a 40 01 ab e6 3f 06 52 b1 bf
       1.0714979 2.4099379 1.8020936 -1.3853157
000020 e8 4c 2e bf
       -0.680861

linear_layer2.weight f4 [2016, 5]
000000 05 ad 0e 3e 47 e0 00 bd 13 b4 6f 3d 1a 51 21 3e
       0.13933189 -0.031463888 0.05852134 0.15753594
000010 fb ff 65 3e 53 aa 42 3e 3e 9f f3 bc 0e d5 50 bd
       0.2246093 0.19010286 -0.029739019 -0.050984435
000020 12 6f 99 bd e2 89 49 3d 13 c6 09 3e 8a 9c 89 bd
       -0.07491888 0.04920376 0.13454466 -0.067193106
000030 f4 b4 f8 bb 7a 54 37 3e 25 22 5c 3e a4 2e 0b 3e
       -0.0075899307 0.17903319 0.214974 0.1359201
000040 37 d1 9e bc 3e b7 ea 3c cd ed c8 3d 23 1b 0b 3e
       -0.01938687 0.02865183 0.09810982 0.1358457
000050 cb 52 25 3e 1c f9 02 3d 17 a4 91 bd 54 f1 94 bc
       0.16144864 0.03197585 -0.07111376 -0.01818148
000060 17 25 20 3e e0 c0 2a 3e 4e fe 13 bd 2e 3e b1 3d
       0.15639149 0.16675138 -0.036131196 0.08654438
000070 83 30 2b 3e 83 8f 88 3e 87 9b 52 3d 6f 5d 0f bd
       0.16717725 0.2667199 0.051417854 -0.035001215
000080 a1 c5 cc 3d 9e 35 34 3e b7 e8 09 3e b2 d7 52 3e
       0.09998632 0.17598578 0.1346768 0.20590094
000090 6d a4 3b bb d6 df d2 bc 1b c2 c5 3d 91 4f 3c 3e
       -0.002863194 -0.025741499 0.09656163 0.18389727
0000a0 b4 9d 1f 3e 21 16 59 bd 30 58 07 3d b4 f7 46 3e
       0.15587503 -0.05299962 0.033043087 0.19430429
0000b0 31 03 4c 3e eb cf 3b 3d 23 53 e3 bd 49 8b 26 3e
       0.19923092 0.045852583 -0.110998414 0.1626407
0000c0 79 35 d6 3e 7c 70 76 3e a9 0f 26 3e a7 5a 2d 3d
       0.4183767 0.24066347 0.16216911 0.04232278
0000d0 69 40 27 be 24 6a 65 be 9f aa ca bc 98 dd 20 3e
       -0.16333164 -0.2240377 -0.024739562 0.15709531
0000e0 ee ef d6 3b f9 26 2b be 07 11 24 be d1 48 fa 3d
       0.0065593636 -0.16714086 -0.1602212 0.1222092
0000f0 00 09 0c 3d 3e 66 69 bd 2d 70 ef 3d c2 b9 17 3e
       0.03418827 -0.05698227 0.11691318 0.14816955
000100 d1 77 9a 3d 4d 4f 47 3e 41 81 5a bd 5a 47 cf 3d
       0.075423844 0.19463845 -0.053345922 0.10121031
000110 77 1e 8c 3e 8f b6 7b 3e d6 75 6d 3e a6 59 44 3c
       0.27366993 0.2458136 0.23189482 0.0119842645
000120 4b ce 76 bd f3 c6 17 ba 36 fc 78 3e 28 18 da 3d
       -0.06025533 -0.00057898386 0.24314961 0.10649139
000130 58 8d d5 bd ce dd 91 3d dd 29 3a 3e fe 41 54 3e
       -0.1042735 0.07122384 0.18180032 0.20728299
000140 ad 68 67 3d 5a cb 9c 3c 72 0f 08 be 53 f1 0a be
       0.05649631 0.019139934 -0.13287142 -0.1356862
000150 6e f4 61 bd 72 ea c7 3e f5 06 92 bd c7 0c 52 bd
       -0.055164747 0.39046055 -0.07130233 -0.051281717
000160 ec f6 13 3d c2 6b a6 3e 34 18 14 3e a1 5d 87 3a
       0.036124155 0.32504088 0.14462358 0.0010327586
000170 3b 88 ad 3d 51 80 4f 3e 94 aa 62 3e cd 12 8e 3d
       0.084732495 0.20263793 0.22135383 0.0693718
000180 52 09 79 3b b7 68 b5 bd 99 17 99 bd 05 09 c7 bc
       0.003799994 -0.088578634 -0.07475204 -0.024296293
000190 84 20 3c 3e 9b 1c bd bc fe 01 46 be ca c8 07 be
       0.18371779 -0.02308493 -0.19336697 -0.13260189
0001a0 5c a7 80 3d d6 d4 80 3e 92 3d 10 3d 7c 91 de bd
       0.06281921 0.2516238 0.035214968 -0.10867593
0001b0 1d 17 f6 bd b4 c5 25 3e 2c aa c8 3d 40 58 5b bd
       -0.12016127 0.16188699 0.09798083 -0.05355096
0001c0 02 48 32 3d b7 38 3a 3e 47 07 96 3d cb 73 a7 3d
       0.043525703 0.18185697 0.07325607 0.08176383
0001d0 02 10 65 bd 3c c9 80 bd 00 c0 d8 bb c0 5c 9f 3d
       -0.05592347 -0.062883824 -0.006614685 0.077813625
0001e0 cc 19 11 3e 7b cb 13 bd ca ad 82 bd cf f8 4c bd
       0.14169997 -0.036082726 -0.06380804 -0.05004197
0001f0 a8 df ff 3d 82 cf 14 3d 3d 54 7b bd ca 11 f3 3d
       0.12493831 0.036330707 -0.061359633 0.11868627
000200 49 3f ac 3d 51 e5 ea 3d 1a 94 28 3e 80 ac d1 bc
       0.08410508 0.1146952 0.16462746 -0.02559495
000210 09 62 58 3d d2 63 3b 3e 76 88 1e 3e 6d a2 08 3e
       0.05282787 0.18299797 0.15481743 0.1334321
000220 61 cd ec 3c 57 43 64 bd b2 b2 15 bd d2 0d 7c 3b
       0.028906526 -0.055728283 -0.03654737 0.0038460386
000230 6e db 00 3e 43 76 d0 bc 2b 1b 39 3d 91 1a 30 3e
       0.12583706 -0.025447017 0.045191925 0.17197634
000240 9e a3 64 3e f6 51 89 3e 73 dc 38 bd 0e 0b 8d bd
       0.2232804 0.26820344 -0.04513211 -0.06886874
000250 8d 55 b0 bb 49 a7 71 3e 2c 10 29 3e 76 05 ac bc
       -0.005381292 0.2359897 0.16510075 -0.020998698
000260 52 c6 ae bd e2 ae 98 bc d0 ef 42 3e d9 ee a7 bd
       -0.0853392 -0.018638078 0.19036794 -0.081998535
000270 7d 45 6c 3d 5a cc 44 bc a9 dc 16 bd 5c fa 9f bb
       0.057683457 -0.012011612 -0.03683153 -0.00488214
000280 cd 86 85 bd 50 67 8c bb 69 c3 06 bd a5 5a 61 bd
       -0.06519852 -0.0042847767 -0.0329012 -0.055018086
000290 eb ff e3 bb c2 e6 6c 3e a8 21 8f bc a0 21 71 3c
       -0.006957998 0.23134902 -0.017472103 0.0147174895
0002a0 a7 7c a7 3d e6 4e 27 3e 3e 8b b0 3d 0f 99 af 3c
       0.081780724 0.16338691 0.08620308 0.021435289
0002b0 50 e6 08 bd ca 56 49 3d de 5d 11 3d f7 90 0b 3e
       -0.033422768 0.049155034 0.03548991 0.13629518
0002c0 de 5e 6a bc 2a c0 df bb ba f8 85 bb 68 e6 bf 3d
       -0.014304845 -0.0068283277 -0.0040884884 0.093701184
0002d0 c3 9b 52 bd d6 36 d6 3c 74 b9 75 3c 8c 26 05 bd
       -0.051418077 0.026149195 0.014997829 -0.032507464
0002e0 c0 0c a3 bd a9 e1 80 3e 1c c9 00 bd 85 c8 36 bd
       -0.07961416 0.25172165 -0.031441793 -0.044624824
0002f0 d0 3e d2 3d 44 9f 58 3e 53 95 6b 3d d9 fc 7d bd
       0.10265887 0.21154505 0.057515454 -0.062008712
000300 45 a0 1b 3d 1b 50 a7 3d fe 30 0e 3e 90 89 1b 3c
       0.03799464 0.08169576 0.13885877 0.009493247
000310 40 10 db 3b 1e eb 45 bc cc 18 82 bd 05 31 1c bd
       0.0066852868 -0.012079982 -0.06352386 -0.038132686
000320 9b 9e fe 3d d2 2e 04 3d f6 78 f5 b9 a0 94 83 3d
       0.12432595 0.032271214 -0.00046820164 0.06424832
000330 cc 42 ab 3d bc 31 20 3d 92 57 5a 3c 5c dc 94 bc
       0.0836235 0.03910993 0.013326542 -0.018171482
000340 34 fe 81 3d cb d9 1b bc 34 32 96 bb a0 1c b6 bb
       0.063473135 -0.009512375 -0.0045836214 -0.0055576116
000350 c2 68 b8 bc 19 80 3f 3d 10 7a 9d 3d 21 56 13 3e
       -0.02251089 0.046753023 0.07689297 0.14388324
000360 f1 8d 91 bd 5c 28 2a bd 20 04 89 3c ef 4f a7 3d
       -0.07107151 -0.041542396 0.0167256 0.08169543
000370 0e e4 86 bc c4 95 20 bd 9a 74 d7 3c 48 3a c2 3c
       -0.016466167 -0.039205328 0.026300717 0.023709431
000380 f9 c7 ce bd 6e 20 0c 3d bf 5f 2f ba 6a 46 95 bb
       -0.100967355 0.034210615 -0.00066899875 -0.004555513
000390 35 59 24 3b 68 0a f1 3c b0 ac 8e bd 2e af 4e 3c
       0.0025077586 0.029423907 -0.06966531 0.012615008
0003a0 bc 2e e1 bc 08 e7 8d bc b9 04 1a be ea 1b ae 3d
       -0.027488105 -0.017322078 -0.15040864 0.08501418
0003b0 92 0c a0 bb ef f3 41 3c 51 ca 51 3d a2 ef 8e 3d
       -0.004884311 0.011837943 0.051218335 0.069793
0003c0 ff 6b 39 be 83 8e 7e 3d 50 5a 0c 3d 7e 20 5c bd
       -0.18107603 0.06214763 0.034265816 -0.053741924
0003d0 b5 a1 15 be 3d 06 89 3d 3b 67 39 bc 71 ba 91 bb
       -0.14612468 0.06690643 -0.011316116 -0.0044472744
0003e0 39 9d 71 3d d6 44 d8 3c 3b 32 ae ba c8 c8 47 bd
       0.05898783 0.026400011 -0.0013290116 -0.048775464
0003f0 37 e5 24 bd ba 75 31 bd 77 ff 8c bd b1 1a 30 3d
       -0.04025766 -0.043325163 -0.068846636 0.042994205

linear_layer2.bias f4 [2016]
000000 5b 05 94 3f ae 14 03 be 51 e5 d9 3e a3 b6 f0 bd
       1.1564134 -0.12800857 0.42557767 -0.11753585
000010 ad f0 08 bf 51 e5 9f 3f d5 be 7f bd 16 a2 87 3f
       -0.5349224 1.2491857 -0.06243785 1.059634
000020 b8 f0 df 3d e6 63 82 3f b3 a0 c5 bf 1c 55 60 bf
       0.10934585 1.0186737 -1.5439667 -0.87629867
000030 50 84 bd bf fb 29 be bf 56 df 7b 3f 76 f6 8e 3e
       -1.4806004 -1.4856561 0.9838766 0.2792241
000040 e4 2b e0 bf 4a 0e 13 3f 55 61 4e 3f 04 7d c5 bf
       -1.7513394 0.5744368 0.80617267 -1.5428777
000050 76 b2 88 bf 55 64 8f bd 89 3e 55 bd 75 c3 eb be
       -1.0679462 -0.07001559 -0.05206159 -0.4604756
000060 e8 9e ea 3d 59 b4 05 bf e9 0c 3d 3f 23 0c bc bf
       0.1145609 -0.52228314 0.73847824 -1.4691204
000070 b0 21 1c 3f 64 3b 65 3f 23 0d a4 3e 92 e4 ec be
       0.60988903 0.8954375 0.32041273 -0.46268135
000080 81 fc 1d bf c1 9f a7 3f 3e 54 f5 3e 5e d5 06 3f
       -0.61713415 1.3095628 0.47915834 0.5266932
000090 29 e5 20 bf 6c 54 ce 3f 42 6b 84 3f 24 95 5c be
       -0.6284967 1.6119514 1.0345232 -0.21541268
0000a0 6e f3 44 3f a1 b2 35 3d d0 11 f6 3e f6 af 23 3f
       0.76933944 0.044359807 0.48060465 0.6394037
0000b0 29 ba 4c be d0 69 83 3d be d5 5a bf bd ae e8 3e
       -0.1999289 0.064166665 -0.85482395 0.45445815
0000c0 4b eb a6 bf c9 d0 1f 3e 1e 2e 1e bf 2c f2 0c be
       -1.3040556 0.15606989 -0.6178912 -0.13764256
0000d0 8a 0d 34 3f 4c 68 82 3f 11 69 9a bd f7 42 f8 3f
       0.7033316 1.0188079 -0.07539571 1.9395436
0000e0 ad d0 7f 3f f3 69 f0 be d2 dd 3b 3d ba ae 32 3e
       0.9992779 -0.46955833 0.04586584 0.17449465
0000f0 1b 6e 0f 3f f3 f7 ae be 93 25 7c bf 77 5b 87 bf
       0.5602738 -0.34173545 -0.98494834 -1.0574788
000100 79 d5 a0 bf 98 93 ae 3e cb 94 2f be ed fe 21 3f
       -1.2565147 0.3409698 -0.17146604 0.6327961
000110 b7 85 70 bf 82 fa 3c be 8d 19 94 3f d0 2e 06 be
       -0.9395403 -0.18454936 1.1570297 -0.13103795
000120 5c 1d 74 3f 2b cc 0a bf 0c 18 9b bd 81 72 82 be
       0.953573 -0.54217786 -0.07572946 -0.25477985
000130 dd 02 c8 3f 0f ec b7 3f 24 3c 80 bf 8e b9 6e bf
       1.5625874 1.4368914 -1.0018353 -0.93251884
000140 0a b0 6a 3e 56 1c 86 3f 73 3b 0d bf 69 a6 19 40
       0.22918716 1.0477397 -0.5516884 2.4007819
000150 6f 18 36 bf d8 78 7a be 6c 9c 68 3f 58 47 9b bf
       -0.7113103 -0.2446016 0.9086368 -1.2131147
000160 b3 ff 25 3f 6a ff 83 be 45 49 db bd 7f 79 2a bf
       0.6484329 -0.25780803 -0.107073344 -0.6659164
000170 48 fd c1 3f a7 72 16 3e 4f 3c 7b 3f 76 f7 57 3f
       1.515542 0.14692174 0.981389 0.8436197
000180 fb 88 4b 3f c7 c3 12 be d9 b4 83 bf ca 81 02 3f
       0.7950589 -0.14332496 -1.0289565 0.5097929
000190 0e cc 2c bf 8f cf f9 be e2 31 75 bf 01 6e de 3f
       -0.6749886 -0.48791167 -0.9577924 1.737732
0001a0 b1 03 af bf ae 46 03 bf 50 0d 99 bf 55 f8 5d bf
       -1.3673002 -0.51279724 -1.1957188 -0.8670705
0001b0 a9 fd 51 3e f5 67 90 3e f7 22 7f 3f 56 b2 50 3f
       0.2050692 0.28204313 0.9966273 0.8152212
0001c0 db f7 4b bf a0 91 1f 3f 31 c0 58 3f 5f ff 7f bf
       -0.7967507 0.6233158 0.8466826 -0.9999904
0001d0 a9 c2 12 bf 36 40 3b 3e 42 93 5a 3d ae 4b 23 3f
       -0.5732828 0.18286213 0.053363092 0.63787353
0001e0 1c 24 ba bf 28 9f 50 3f 9a 42 65 bf d2 d1 9d bf
       -1.454227 0.81492853 -0.8955475 -1.2329657
0001f0 e3 fe df bf 34 19 06 be be aa d1 3f 98 a3 ae bf
       -1.749966 -0.13095552 1.6380231 -1.3643675
000200 11 21 d0 3e 6a b4 b4 bf 9e f2 a3 3f 73 4d 74 be
       0.40650228 -1.4117558 1.2808416 -0.2385767
000210 43 c6 79 3f 26 89 8c 3f b3 f9 16 3e 6b 5f 57 bf
       0.9756815 1.0979354 0.1474369 -0.8412997
000220 5f 12 b9 be 79 39 d0 3c 28 90 8d bf d5 0b 5d be
       -0.3614683 0.02541803 -1.1059618 -0.21586545
000230 df d4 97 3f e5 d0 95 bf f5 7b 0b bf 6a ce f4 3e
       1.1861838 -1.1704375 -0.5448602 0.4781373
000240 b1 7e c1 3f 21 a1 1a 3f 7c cd fb bf 42 3f 09 40
       1.5116788 0.60402113 -1.9672084 2.144486
000250 20 3b 8e 3e 5a 2d 8b bf f9 d3 e2 3e fc 61 09 3d
       0.27779484 -1.0873215 0.44302347 0.03354071
000260 59 e0 21 bf cb cb a7 bd 67 53 16 be 63 2d 90 3f
       -0.6323295 -0.08193167 -0.14680253 1.1263851
000270 2f 47 7f 3e 64 72 d3 3f 0e b2 0c 40 e5 0f da 3e
       0.24929498 1.6519284 2.1983676 0.42590252
000280 5d ad c8 bf de bb 8f be 7d e5 57 3e 40 63 d3 3e
       -1.5677906 -0.2807302 0.21083637 0.4128666
000290 b7 e6 40 be 7d ae 40 3e 4e 8b 1c 3e a1 e4 b3 3f
       -0.1883801 0.18816562 0.15287516 1.4054147
0002a0 00 0f 1e c0 1e 08 19 3f cb 45 c1 bc aa b7 ba bd
       -2.4696655 0.5977801 -0.02359285 -0.091170624
0002b0 0c 72 38 be b3 28 9e bf ff 85 da bf 91 74 8b 3e
       -0.18012255 -1.235617 -1.7072142 0.2723737
0002c0 c3 7b e5 bd 35 13 50 bf 9f 3a 29 3f c0 34 86 bf
       -0.11205246 -0.8127931 0.66105074 -1.0484848
0002d0 04 8c 2d 3f 5e b8 a6 3e 6b 62 db 3f be 75 4f c0
       0.6779177 0.32562536 1.713941 -3.2415614
0002e0 13 86 18 c0 e2 7f 3c 3f e6 68 a3 be 8f f6 51 bd
       -2.3831832 0.73632634 -0.3191597 -0.051260527
0002f0 2c c6 8d bf 18 1e 19 40 29 56 f6 bd ae 72 8c 3e
       -1.1076102 2.3924618 -0.120281525 0.27431244
000300 35 a5 a6 bf f5 d5 9f 3f 55 d0 c4 3f ae ec 7e 3f
       -1.3019167 1.248717 1.5376078 0.99579895
000310 74 5f 4d 3f f9 38 48 3d b2 3f cf 3e bf 38 70 bf
       0.80223775 0.04888246 0.40478283 -0.9383659
000320 65 08 97 3f be 12 04 bf 38 0c 59 bf 4a 2e b3 be
       1.1799437 -0.515911 -0.8478427 -0.34996253
000330 21 fe 74 bc b6 9c d7 be e4 8b 33 3f 31 4e fd be
       -0.014953167 -0.42111748 0.7013533 -0.49473718
000340 3b f3 98 3f dc 4a 49 bf 46 94 b9 bf c4 fe 45 be
       1.1949228 -0.7862985 -1.4498374 -0.19335467
000350 e4 f8 36 3f 66 0d 39 3e ba 6c 6a bf 10 02 b4 3d
       0.71473527 0.18071517 -0.91572154 0.08789456
000360 64 5e 96 bf e5 1e f9 be 7d e8 86 bd ed 4b 29 40
       -1.1747556 -0.48656383 -0.06587312 2.6452591
000370 e9 de aa 3f 63 c8 4a bf 43 52 c8 be f9 ff 61 bf
       1.3349277 -0.79212016 -0.3912526 -0.8828121
000380 36 7e f0 3c 5b 99 56 3e 8c 72 49 bf a6 55 2d 3e
       0.029357057 0.20956938 -0.7869041 0.16927204
000390 a4 30 a1 3e fa 7a 8a 3f 37 53 b2 3d d9 02 5a be
       0.31482422 1.081878 0.08707278 -0.21290149
0003a0 af ad 8b 3f ae 92 79 3e e4 51 39 be 2b ab 2d 3f
       1.0912379 0.2437236 -0.18097645 0.67839307
0003b0 27 81 be bf 49 e2 8e 3e 10 15 b3 3e 34 43 fb bf
       -1.4883164 0.27907017 0.34977007 -1.9629884
0003c0 73 9e 53 bf 59 19 36 bf ac e0 83 3e 9d 52 a3 bf
       -0.8266365 -0.7113243 0.2575735 -1.2759587
0003d0 95 89 0d bd 13 f4 5f 3e 09 e5 08 3f c1 d5 23 3f
       -0.034555037 0.2187045 0.5347448 0.6399804
0003e0 79 b1 3b bf 44 55 4f bf d2 c1 21 40 a8 52 00 bf
       -0.73317677 -0.8098948 2.5274549 -0.50126123
0003f0 7f 44 cb bd 3a e0 eb bf af b9 b0 bf f9 b7 a1 3f
       -0.09925174 -1.8427804 -1.3806666 1.2634269
