model/attention_net_u_artificial_Q_9_K_6_F_5_REG_L1_ACT_sigmoid_WD_0001_CV.model (torch_old, 52157 bytes, 6 tensors)

key_matrix f4 [9, 6]
00000000: 7933 7336 bb4a 88b5 c21c 8e36 2a09 bdb6
00000010: e931 8536 463b b0b7 a1f6 c036 43a7 57b6
00000020: bca6 0a37 635b ee35 1cc7 2db7 5113 02b7
00000030: a7c1 2237 391a 6d36 4f99 5fb4 5346 9636
00000040: e601 4ab5 1098 1b37 f866 8eb6 07e8 3bb6
00000050: 98a9 6736 1b1e 4f36 6051 0f37 46a7 4c37
00000060: 1ed0 1735 e1c7 0936 ab38 6fb6 ba36 a2b5
00000070: 7c8f a937 3364 7a37 f749 9b35 ce16 b336
00000080: 85cc 8137 6613 7c35 50d4 9fb6 0b83 a536
00000090: a469 1bb7 f9de 73b6 7dc2 1bb6 14c7 85b6
000000a0: 30c3 29b6 64eb 00b7 c900 dab5 2bd2 e536
000000b0: 731b b3b6 e30d 5336 b54a 6fb7 c808 26b7
000000c0: 83a6 9cb7 649d f2b6 b81d 08b6 7e49 49b7
000000d0: 29ce 60b5 9ebb 80b5
3.6239783e-06 -1.0154539e-06 4.2352776e-06 -5.6337058e-06 3.969519e-06 -2.1008436e-05 5.7507573e-06 -3.2134856e-06
8.264262e-06 1.7758979e-06 -1.0357962e-05 -7.753101e-06 9.701041e-06 3.5331016e-06 -2.0824267e-07 4.478535e-06
-7.5253627e-07 9.274125e-06 -4.243917e-06 -2.800023e-06 3.45204e-06 3.0862927e-06 8.542411e-06 1.2198294e-05
5.6554734e-07 2.0530936e-06 -3.564676e-06 -1.2085868e-06 2.0213185e-05 1.4924491e-05 1.1569927e-06 5.3372705e-06
1.5473235e-05 9.3905544e-07 -4.7632857e-06 4.9326386e-06 -9.263316e-06 -3.633961e-06 -2.3210007e-06 -3.9868846e-06
-2.5296576e-06 -7.684201e-06 -1.6242494e-06 6.8491986e-06 -5.337811e-06 3.1449533e-06 -1.4262904e-05 -9.896416e-06
-1.8674187e-05 -7.2304847e-06 -2.0282878e-06 -1.1997645e-05 -8.3746505e-07 -9.591347e-07

value_matrix f4 [6, 5]
00000000: aa9e c534 ea74 fdb5 9b1d e836 dbce 20b7
00000010: de69 8c36 c131 bdb6 6401 c4b4 4fca 3136
00000020: 85ee a236 a8f7 1836 a437 c736 ff85 0cb7
00000030: e817 69b6 a5ee 9235 aad6 0fb7 d3d4 8a36
00000040: d1ad 33b6 0dc0 31b7 616a 6cb7 d682 97b6
00000050: 4d5a fb36 3aae 9b37 99cf 9b36 8030 b6b6
00000060: afcb 3035 7d94 eab6 49ae 02b4 8519 a236
00000070: 896a 0837 2e51 85b7
3.6809553e-07 -1.8883995e-06 6.9175853e-06 -9.5849055e-06 4.1846497e-06 -5.638431e-06 -3.6508857e-07 2.6492814e-06
4.8557436e-06 2.279392e-06 5.9371396e-06 -8.375849e-06 -3.473362e-06 1.0947302e-06 -8.573445e-06 4.1374965e-06
-2.6774253e-06 -1.0594737e-05 -1.4091464e-05 -4.515382e-06 7.4908953e-06 1.855857e-05 4.6435275e-06 -5.429669e-06
6.586151e-07 -6.9910297e-06 -1.2170598e-07 4.830947e-06 8.131036e-06 -1.5892638e-05

linear_layer1.weight f4 [9, 64]
00000000: 9c8f 0237 a2dd dcb6 f965 0a37 dd25 60b6
00000010: ee5d 0737 1647 e536 4c31 7036 5b7b c936
00000020: d075 17b7 8160 0d35 f0ac c0b5 1790 2c36
00000030: 017b 9c34 9a4c 28b7 2b76 7736 f383 8a36
00000040: ab01 a436 227a 0a37 b140 58b6 874d 11b7
00000050: f320 9336 703a 3ab5 2fcb 9b35 69d5 4b37
00000060: fd29 e9b6 a131 6137 d9d0 0537 68ed f336
00000070: 1811 0637 3f55 5636 71c3 6d34 642b f336
00000080: 67af acb5 fd4b a7b6 4d53 78b6 fa1b 9b36
00000090: 0ed5 44b7 40dd d3b6 323f 10b7 2aa0 e8b5
000000a0: d913 03b7 9433 e4b6 fbe8 08b6 b237 3d36
000000b0: e776 5337 37cb 0bb6 3917 c536 37e3 8336
000000c0: aed6 b636 46be a736 ce25 96b6 def2 da36
000000d0: 27d6 4b37 b0bc 4db6 949e 95b4 cce9 d0b6
000000e0: fe62 dbb5 66e9 1137 c4c4 0d36 0e50 dc35
000000f0: 796d 5036 cedc 9036 d9ef 9db5 3245 9ab6
00000100: 8e80 56b7 e1b3 c1b6 398d a636 f100 7636
00000110: a67e 2c37 2fd7 74b4 5456 0337 e207 6b37
00000120: a2a5 7336 12d0 ed36 1197 2cb7 b85c 22b7
00000130: dd0a fb36 7cff 8cb6 d5b0 9e35 64a0 69b4
00000140: 9b51 54b6 b8b7 d4b6 845c ae36 252a 0336
00000150: 5935 ddb6 da17 15b7 d8d7 9236 7b8d 6433
00000160: 43ec aab5 c366 9236 1f0e 1136 6e6c 3bb5
00000170: 97c0 b8b5 9e00 c635 9aa3 e4b4 be81 1837
00000180: 71cc fc35 a75a acb6 9a73 b335 a949 0437
00000190: 4199 38b6 2fea f836 f387 a4b6 f464 2ab6
000001a0: 262d 74b7 b702 c336 5e2e c236 c43e f7b6
000001b0: 5039 0536 f570 fd36 49d8 33b7 b8af df36
000001c0: deab d1b6 f714 1cb7 10ba d536 8199 70b7
000001d0: 60a3 0c37 dfdb 44b7 eeae 6c37 3861 c9b5
000001e0: 0b81 7436 1d04 b0b7 776f 88b6 b226 e435
000001f0: ad05 c335 cd59 5137 823f a6b6 b688 1337
00000200: 9cfa c3b6 3ba1 0636 3db4 6d35 509c 0135
00000210: ad9f 98b6 19d8 23b7 017e b5b6 92df ed36
00000220: 8ada 8033 cb40 a335 381c 1137 e3af 0e37
00000230: d418 c036 e280 66b5 9993 d735 f928 80b6
00000240: f974 5037 8140 4437 9ece 5336 0cec 2ab6
00000250: aa88 1cb5 21a4 1b36 f751 7337 e6fe fe36
00000260: 85e0 86b7 4bde 7237 f773 1c35 e412 85b6
00000270: 2be9 4e37 0369 0337 f507 8db6 5cc5 2537
00000280: cd0c 6436 89f4 55b6 9e99 6bb7 b3d7 6637
00000290: 06aa 6736 37a7 f536 96f8 ccb6 6abe 2237
000002a0: 56a3 3db6 1887 2db6 c079 86b4 b150 6fb6
000002b0: 0368 c3b6 109f ca35 18a7 6936 91d5 9635
000002c0: 7416 af37 dd3b b236 f352 af36 1bca 0336
000002d0: 48e6 bd36 169a ffb6 67a2 d936 1db3 88b6
000002e0: 0d15 d035 bafe 8cb6 2452 f236 4396 4937
000002f0: 7d01 c5b7 e607 1c37 2631 fbb5 1fd0 3cb6
00000300: da45 9236 a40f da36 e8e6 94b6 64e9 b735
00000310: a576 49b7 d074 d7b5 1015 d536 ce7f e636
00000320: 8907 86b6 cf5d 2c37 098e 87b6 3d1f 0db6
00000330: 71c5 d2b6 90f8 2936 1e62 84b5 c7dd b236
00000340: 7015 8a37 a391 9c36 53ab 4137 2173 f0b6
00000350: 7ba3 1837 9f1e 26b6 f012 8a37 af85 a735
00000360: a7fd fe36 1955 c2b6 dd5f 1537 438d 2a37
00000370: 579a f436 7ae4 b1b6 b0bd d136 153f 39b7
00000380: 81b1 8735 6ab4 64b7 e55d 4ab5 926b 5837
00000390: 7f85 a335 89a7 0637 dc6f bd36 d5e6 4bb7
000003a0: 408e f8b6 54a5 ebb6 90b5 4337 391f 01b7
000003b0: 935c a036 feaf 98b6 0d48 d735 000f 15b7
000003c0: 2929 a1b6 dc34 a6b6 334e 10b7 6e1c a6b6
000003d0: 1ca7 a636 62b1 ccb5 4112 1db6 ed6d 4a35
000003e0: 073d 05b7 934d 1c37 e6f3 9836 6592 b936
000003f0: c50e cfb6 41e8 a3b4 c00b 05b6 5c95 78b6
7.7820405e-06 -6.5823124e-06 8.249183e-06 -3.340064e-06 8.068497e-06 6.8330073e-06 3.5791481e-06 6.0046273e-06
-9.027732e-06 5.2667025e-07 -1.4355446e-06 2.5713869e-06 2.9146761e-07 -1.00314155e-05 3.687465e-06 4.1280814e-06
4.887775e-06 8.253877e-06 -3.2224164e-06 -8.660724e-06 4.384777e-06 -6.937544e-07 1.1607534e-06 1.2149431e-05
-6.948829e-06 1.34226e-05 7.976044e-06 7.269602e-06 7.991002e-06 3.1938105e-06 2.2143446e-07 7.2470157e-06
-1.2866047e-06 -4.985834e-06 -3.7003367e-06 4.622617e-06 -1.1732116e-05 -6.314047e-06 -8.597783e-06 -1.7331961e-06
-7.81283e-06 -6.800934e-06 -2.0401192e-06 2.8195614e-06 1.2604264e-05 -2.08309e-06 5.873761e-06 3.9305555e-06
5.4490147e-06 4.9991386e-06 -4.4747494e-06 6.5251797e-06 1.2149604e-05 -3.065721e-06 -2.7868793e-07 -6.2261006e-06
-1.6345582e-06 8.697016e-06 2.112517e-06 1.6414576e-06 3.1058137e-06 4.3172395e-06 -1.1767216e-06 -4.597613e-06
-1.2785325e-05 -5.772789e-06 4.963626e-06 3.6657405e-06 1.02814865e-05 -2.2802554e-07 7.828308e-06 1.4008927e-05
3.6306233e-06 7.087373e-06 -1.0287172e-05 -9.67754e-06 7.4816476e-06 -4.2020674e-06 1.1823382e-06 -2.1758166e-07
-3.1637962e-06 -6.33948e-06 5.1963743e-06 1.9545053e-06 -6.5925237e-06 -8.886645e-06 4.3762666e-06 5.3214062e-08
-1.2734748e-06 4.363102e-06 2.1614903e-06 -6.9820715e-07 -1.3765119e-06 1.4752329e-06 -4.2587345e-07 9.090114e-06
1.8834963e-06 -5.1365528e-06 1.3370184e-06 7.884963e-06 -2.7507342e-06 7.4182385e-06 -4.9034074e-06 -2.5390736e-06
-1.4554045e-05 5.811769e-06 5.7870484e-06 -7.3684805e-06 1.9851905e-06 7.5531375e-06 -1.0719589e-05 6.6663742e-06
-6.2486934e-06 -9.303206e-06 6.369555e-06 -1.4340855e-05 8.382689e-06 -1.1733703e-05 1.4107425e-05 -1.5003961e-06
3.6433946e-06 -2.098275e-05 -4.066092e-06 1.6998586e-06 1.4530284e-06 1.2478279e-05 -4.954579e-06 8.793713e-06
-5.8406276e-06 2.0061404e-06 8.855166e-07 4.828371e-07 -4.5485417e-06 -9.765871e-06 -5.408889e-06 7.0891774e-06
6.0002165e-08 1.2163304e-06 8.649244e-06 8.504811e-06 5.7249363e-06 -8.5869226e-07 1.6061705e-06 -3.819467e-06
1.2425001e-05 1.1697529e-05 3.1561717e-06 -2.5469371e-06 -5.83134e-07 2.3192335e-06 1.4503013e-05 7.599464e-06
-1.6078595e-05 1.4476081e-05 5.828328e-07 -3.965908e-06 1.23328455e-05 7.832658e-06 -4.203054e-06 9.880718e-06
3.3982099e-06 -3.1881812e-06 -1.4042858e-05 1.375929e-05 3.452065e-06 7.3210354e-06 -6.108613e-06 9.700287e-06
-2.8258269e-06 -2.5857644e-06 -2.504803e-07 -3.5660744e-06 -5.8235614e-06 1.5096466e-06 3.4816967e-06 1.1238027e-06
2.0872081e-05 5.3117824e-06 5.225063e-06 1.9638162e-06 5.659447e-06 -7.61753e-06 6.48601e-06 -4.0739674e-06
1.5503334e-06 -4.201979e-06 7.2217244e-06 1.2015519e-05 -2.3484923e-05 9.300164e-06 -1.8715261e-06 -2.8135325e-06
4.359271e-06 6.498727e-06 -4.4376247e-06 1.3702488e-06 -1.2008158e-05 -1.6052745e-06 6.3503467e-06 6.8694126e-06
-3.9943884e-06 1.027384e-05 -4.0398486e-06 -2.102882e-06 -6.281473e-06 2.5327645e-06 -9.863322e-07 5.3306317e-06
1.6460865e-05 4.6661166e-06 1.1543586e-05 -7.16596e-06 9.097969e-06 -2.4753751e-06 1.64597e-05 1.2481377e-06
7.599319e-06 -5.791557e-06 8.903412e-06 1.016568e-05 7.289734e-06 -5.3016092e-06 6.250768e-06 -1.1041547e-05
1.0109944e-06 -1.3631865e-05 -7.53875e-07 1.2899649e-05 1.2183299e-06 8.02603e-06 5.645661e-06 -1.2153488e-05
-7.407536e-06 -7.0227925e-06 1.1665179e-05 -7.696269e-06 4.7791486e-06 -4.550441e-06 1.6039718e-06 -8.8845845e-06
-4.8029656e-06 -4.953339e-06 -8.601276e-06 -4.950495e-06 4.9666396e-06 -1.525081e-06 -2.3405448e-06 7.5410827e-07
-7.941627e-06 9.316386e-06 4.5583465e-06 5.530472e-06 -6.1708e-06 -3.0530103e-07 -1.9825384e-06 -3.7041818e-06

linear_layer1.bias f4 [9]
00000000: 969f 34b7 db76 f836 9e38 8c36 b1d1 bcb6
00000010: 41ba a6b6 6d71 1537 30a3 30b6 786c 3cb4
00000020: 4a62 98b7
-1.0765993e-05 7.4048125e-06 4.1789162e-06 -5.627248e-06 -4.9688683e-06 8.907501e-06 -2.6321031e-06 -1.7548325e-07
-1.8165581e-05

linear_layer2.weight f4 [2016, 5]
00000000: 8d77 9836 6d70 a436 07b8 16b7 b5ac b336
00000010: 99c9 8f36 26d0 93b7 e54f 21b7 a80b 2437
00000020: edb1 ebb6 484b 96b7 2ecf b336 ad03 e735
00000030: f606 95b4 1f82 c436 f8a2 2235 25cc b436
00000040: bdfe 49b6 5dde bf32 37b3 8fb5 c85f 86b6
00000050: c3e1 0337 0037 9eb6 6f89 1736 9a1d df36
00000060: 02e5 da35 ee82 8235 8262 3637 dd2a 6db7
00000070: fdbf 8fb6 d446 59b6 963f 4637 b1c1 17b6
00000080: 8726 2e37 4243 6034 9517 0737 59a3 c4b4
00000090: 1df0 6e35 1202 ed35 db76 8636 7e46 0837
000000a0: 399b 9536 896f 8eb6 dc20 d8b5 47a3 11b7
000000b0: 6179 7eb6 9a33 a5b5 1a5c 93b6 a3cd f7b4
000000c0: 4ffe 8a36 328f 56b5 0f5a 3536 a54d e3b5
000000d0: 7553 0a36 0089 adb6 9e2a cc36 fadd 5ab7
000000e0: 8e49 fc34 f958 1637 eacd ddb6 9049 6cb5
000000f0: 3cbc 09b7 48b4 4c37 41ef a436 9d11 89b6
00000100: b16e dab6 29fd 5c37 0eca 3eb6 9a08 db36
00000110: f681 ca35 7cbf c1b1 b2c7 1db7 22ee 7736
00000120: a164 3ab5 f61e d633 f945 0237 c4f5 47b6
00000130: eba8 edb5 53c0 4736 ae41 7ab6 1355 13b7
00000140: 0231 20b6 4849 b436 9b3d 10b6 8d43 5136
00000150: 8bae 8bb5 919e 5836 2cad 0637 b4ec 8536
00000160: 6ef4 ccb6 1152 a4b5 1055 4037 d583 0836
00000170: 166b f535 aa3d fdb6 74cf 1f36 6dd6 dc36
00000180: d130 99b6 9799 0437 5b45 bbb5 a0a2 3237
00000190: a729 ab36 1bce c135 510b 21b6 cafa 68b6
000001a0: 160e 37b7 6857 4934 7de9 1f37 5075 b836
000001b0: 56e8 35b7 ff2a 4ab6 0772 1e37 a37b 07b7
000001c0: 23b6 cfb5 71ec 0837 20f2 f8b6 838f 02b7
000001d0: 8f22 e3b6 e306 d335 b621 f035 93d9 da36
000001e0: 08b1 2736 988f 1936 e706 2537 995b 3db7
000001f0: e744 2b36 a214 e736 26da 4335 359a 2ab7
00000200: 7383 33b7 c163 01b6 8d50 81b6 680a 5c36
00000210: 0e28 9c36 1bf3 acb6 e6f7 6937 85f0 edb6
00000220: ab84 9cb6 b0fa 0034 ce23 d736 2c2c 12b7
00000230: 14e4 d0b6 33fb 2737 aadc 26b7 4b2c 81b5
00000240: dcf4 ae36 7da4 6136 5027 22b6 005b 87b6
00000250: a5b3 5fb7 8efb 29b6 074e 4eb7 3bed 73b6
00000260: b171 b836 362d e835 b4f5 9936 6a9c efb6
00000270: cc29 a036 701a b4b4 d8c5 f833 2fd5 2cb5
00000280: d0b0 8936 2d4a abb5 029a 9b34 9875 1437
00000290: 7480 6fb6 d8de c9b6 f9ee c7b5 1279 0cb7
000002a0: e646 afb6 1b2a 2237 09cf 7337 8850 af35
000002b0: 5730 3337 a31e d0b5 48a7 e136 02dc cc35
000002c0: 3ccf 5d33 1eb0 2536 0882 aeb6 c044 2136
000002d0: d0c4 37b6 f08c d8b6 bba2 0d37 89f6 e8b3
000002e0: 9d1b 7336 b561 4c36 c3f0 2536 0992 13b6
000002f0: debb 2ab7 9994 a5b6 f268 e6b6 81dc 0136
00000300: e1ee f7b6 5082 85b6 3fef 7336 2af4 35b7
00000310: 75a6 5135 c3f1 e136 3a92 67b6 21f0 c436
00000320: a78c beb5 ca90 e736 c002 9636 7013 3c36
00000330: 2e81 f336 f2cc 6536 198a 63b6 6fce 1fb7
00000340: 6fd9 a436 80ab 09b7 e170 f935 323b 8837
00000350: 3b9a af35 26ff ee35 a247 bab4 2466 6735
00000360: 7d3b b9b4 a94b 2037 97f4 2437 d008 dcb4
00000370: 1fbf 1537 4fdb 61b4 76ac e2b6 9b7b d8b5
00000380: dc1e 9f36 ffa7 52b3 3088 fd36 fd48 2eb7
00000390: 996b 36b5 b03c d935 b7e5 03b6 3c76 e034
000003a0: 1757 93b4 9164 3036 c222 9436 71e8 ac35
000003b0: d47c 2a37 7667 7936 9669 1db7 6ad1 de34
000003c0: 455d 4935 bd4d d9b6 994f 65b6 3114 d336
000003d0: 16b5 23b6 111d b9b6 a7db 8e36 0235 95b6
000003e0: e98d f035 2472 ecb6 2471 ad36 83b0 3e36
000003f0: a9c8 b8b6 c651 95b5 c972 a536 f2ce 4834
4.5438705e-06 4.900669e-06 -8.983544e-06 5.3547215e-06 4.285201e-06 -1.7620692e-05 -9.61495e-06 9.777876e-06
-7.024259e-06 -1.7916449e-05 5.3587346e-06 1.7211911e-06 -2.7758477e-07 5.8564033e-06 6.0586854e-07 5.3881836e-06
-3.0099611e-06 2.2336446e-08 -1.0706489e-06 -4.0046616e-06 7.860773e-06 -4.71517e-06 2.258075e-06 6.649364e-06
1.6308916e-06 9.72386e-07 1.0870981e-05 -1.4136281e-05 -4.2840825e-06 -3.2376747e-06 1.1816524e-05 -2.2613497e-06
1.03801785e-05 2.0886094e-07 8.052118e-06 -3.6626696e-07 8.901132e-07 1.7658479e-06 4.007348e-06 8.122644e-06
4.4586163e-06 -4.244914e-06 -1.6102817e-06 -8.6806895e-06 -3.7919601e-06 -1.2308476e-06 -4.3916634e-06 -4.6156956e-07
4.142326e-06 -7.992959e-07 2.7023523e-06 -1.6935415e-06 2.061218e-06 -5.1717507e-06 6.084635e-06 -1.30454955e-05
4.6992176e-07 8.961412e-06 -6.610285e-06 -8.80239e-07 -8.209663e-06 1.22013225e-05 4.9154337e-06 -4.0849686e-06
-6.5097925e-06 1.3171965e-05 -2.8429818e-06 6.52771e-06 1.5087996e-06 -5.6388085e-09 -9.404424e-06 3.694448e-06
-6.9436834e-07 9.970783e-08 7.764896e-06 -2.9796365e-06 -1.7707038e-06 2.9765258e-06 -3.7291134e-06 -8.781691e-06
-2.3870384e-06 5.372949e-06 -2.1493531e-06 3.1182747e-06 -1.0407106e-06 3.2278806e-06 8.027342e-06 3.9912647e-06
-6.108129e-06 -1.2242837e-06 1.1463897e-05 2.0342316e-06 1.8285089e-06 -7.547166e-06 2.38136e-06 6.5814734e-06
-4.5654383e-06 7.9035735e-06 -1.3952771e-06 1.0647491e-05 5.101046e-06 1.4439605e-06 -2.3997457e-06 -3.4716672e-06
-1.091093e-05 1.8751382e-07 9.531502e-06 5.4972843e-06 -1.0842536e-05 -3.0125373e-06 9.444083e-06 -8.0754135e-06
-1.5475711e-06 8.1612825e-06 -7.419163e-06 -7.782018e-06 -6.7691503e-06 1.5722729e-06 1.7891205e-06 6.5222353e-06
2.4987985e-06 2.288236e-06 9.8363735e-06 -1.1286605e-05 2.5521092e-06 6.8867384e-06 7.296061e-07 -1.0168694e-05
-1.0699837e-05 -1.9280562e-06 -3.853877e-06 3.2788612e-06 4.6538253e-06 -5.1543007e-06 1.3945601e-05 -7.0911506e-06
-4.664607e-06 1.2012129e-07 6.4116675e-06 -8.712563e-06 -6.225435e-06 1.0012463e-05 -9.945748e-06 -9.62414e-07
5.2141095e-06 3.3623357e-06 -2.4162764e-06 -4.0339073e-06 -1.33336625e-05 -2.5329387e-06 -1.2296724e-05 -3.6347908e-06
5.4968627e-06 1.7298505e-06 4.588359e-06 -7.140964e-06 4.7732374e-06 -3.3546848e-07 1.15843875e-07 -6.4385216e-07
4.103502e-06 -1.2762081e-06 2.8983055e-07 8.848867e-06 -3.5688545e-06 -6.016209e-06 -1.4896206e-06 -8.372839e-06
-5.22366e-06 9.665756e-06 1.4532133e-05 1.3061954e-06 1.0680486e-05 -1.5506124e-06 6.7249966e-06 1.5263215e-06
5.164405e-08 2.468943e-06 -5.2007417e-06 2.4030887e-06 -2.7383685e-06 -6.453709e-06 8.442144e-06 -1.0848186e-07
3.6225895e-06 3.0455242e-06 2.4727058e-06 -2.198971e-06 -1.0176531e-05 -4.9346822e-06 -6.8667514e-06 1.9350848e-06
-7.388983e-06 -3.9788792e-06 3.6349081e-06 -1.084529e-05 7.8100794e-07 6.7336673e-06 -3.4506797e-06 5.86921e-06
-1.4197038e-06 6.901192e-06 4.4706685e-06 2.8025497e-06 7.257003e-06 3.4242953e-06 -3.390602e-06 -9.525203e-06
4.9128935e-06 -8.205767e-06 1.8584798e-06 1.6240028e-05 1.3083403e-06 1.780664e-06 -3.469732e-07 8.620284e-07
-3.450222e-07 9.554359e-06 9.83211e-06 -4.0984605e-07 8.925591e-06 -2.1034542e-07 -6.755402e-06 -1.6129228e-06
4.7421618e-06 -4.9047227e-08 7.555842e-06 -1.0388202e-05 -6.795686e-07 1.6185422e-06 -1.9654233e-06 4.1809278e-07
-2.744425e-07 2.628458e-06 4.41479e-06 1.2882648e-06 1.0161853e-05 3.7164114e-06 -9.382513e-06 4.150309e-07
7.501406e-07 -6.476154e-06 -3.416999e-06 6.2906406e-06 -2.4394299e-06 -5.5168134e-06 4.2575007e-06 -4.446717e-06
1.7922695e-06 -7.046636e-06 5.168973e-06 2.841495e-06 -5.5069872e-06 -1.1125164e-06 4.930746e-06 1.8701738e-07

linear_layer2.bias f4 [2016]
00000000: 168d 56b6 01f6 8736 9dc6 a137 b22a 0fb7
00000010: f47c 24b5 3df8 b0b7 d9bb 7737 afa8 dab6
00000020: e356 c1b7 948b 7db8 2c6f 1fb7 65d3 41b8
00000030: 79f1 1ab6 532c fd36 4e39 5635 f23d 6bb8
00000040: 5eed 1d37 525f e4b6 881d 0fb6 3699 8bb7
00000050: 6b1a efb6 9ca9 3037 f80f 9e35 3502 22b7
00000060: 359f 9536 4a43 b5b5 88b6 0a37 56e2 eab6
00000070: 9678 d0b4 cfe5 04b7 6233 2736 fd2c c5b6
00000080: 64cf e535 aaae 81b6 8399 4b36 a88a 0cb7
00000090: 5389 1238 3f85 33b6 2131 cb35 3847 e5b6
000000a0: 2087 e2b5 d2c2 4337 0f05 f136 bafb 5f37
000000b0: 59ce d135 bcde 0f37 feae f934 d0ec 6e36
000000c0: f48d c536 6edc 6bb6 c726 5db6 baf1 8b36
000000d0: 8da8 8334 6938 11b6 7751 8536 c4ec 5cb6
000000e0: b148 5e37 4635 0b36 99d9 25b7 a3e1 ed37
000000f0: f07b 86b6 9f1d 0a37 ad44 a336 c6d6 7bb6
00000100: cf1c 6236 2d94 c5b7 899a 16b7 3ee4 b136
00000110: c1dd 7436 453f 95b6 a9dd 03b6 df8f 81b7
00000120: 9666 68b6 3a10 3eb6 44d2 6b36 dfd2 9836
00000130: 6ae8 55b7 d873 d536 1fed 42b4 7c2b 9736
00000140: 7579 2e36 cf0c 3937 3975 19b6 6a4a ee36
00000150: 960e 9cb7 41aa d736 a2e4 4636 98be 12b6
00000160: 5290 4137 d5d4 1a37 8e68 cd36 353d 0b37
00000170: f8fc a934 9a16 a837 ec54 8f37 2e31 8037
00000180: a39b c3b5 76b8 60b3 9e19 3731 6fe4 7635
00000190: 8f5c 07b7 9511 8436 9804 efb4 70dd edb6
000001a0: d902 c836 7237 b136 38fd 58b6 5098 67b4
000001b0: cc0e 0b37 4147 7a37 7efd c337 14ee 3f36
000001c0: c995 08b5 ce9f 78b6 032c 78b4 c23e 4db4
000001d0: be8c 6436 e74a 9fb5 d203 a3b7 1f7d 73b6
000001e0: fd2f 68b5 c147 2838 41ae de36 be4a 5537
000001f0: 0620 8837 a487 c2b7 8ae1 ac36 9391 9fb5
00000200: 9195 d3b8 5698 ed36 f839 bf36 97e1 84b8
00000210: ef5c 07b7 0c64 7236 f54c 2db8 2a3a 0a37
00000220: 908f 86b5 c5a5 20b6 7f1a 0cb7 2b22 14b8
00000230: f5f3 0f37 7dc9 88b7 d6b9 7336 874c 90b6
00000240: 12ec 05b7 f858 9cb7 fdac 4ab6 ccce e7b7
00000250: db85 d836 bea4 2ab7 d18b f536 29dc 50b7
00000260: 2940 9235 912e 5bb7 fa0c a8b7 1f5f b735
00000270: 5093 c6b4 e364 44b6 7747 45b7 8659 2f36
00000280: 5822 8fb5 cf40 42b7 c30e 6d36 05c2 0537
00000290: a8bf 0837 ccbe 07b6 4e6d ceb6 1b3b 06b7
000002a0: b549 9e36 b4fa 7f35 e627 cbb5 f4ff bf36
000002b0: cd6d 3f35 7b63 8b36 a5c3 b336 a63f 0ab7
000002c0: a30d 54b7 3618 7235 de0f e535 5672 c737
000002d0: ee75 04b7 4a71 c0b6 643a 03b7 c247 b736
000002e0: 8db7 5f36 8bb6 b236 ea0c 7037 4920 ae36
000002f0: 09bb dc36 1723 fa36 9df9 0cb7 46a7 d4b7
00000300: ecf2 3fb6 ed6e b4b6 96ff 01b8 4cb6 81b8
00000310: db82 2636 85a9 2c38 c133 dfb6 1971 a1b6
00000320: f55b d0b6 310c d1b6 a66f 6a36 1d23 f6b6
00000330: 594d 2e37 bf1e a5b7 4951 6537 c8e9 0437
00000340: 971d 23b6 4319 1db7 68a5 63b6 d79a be36
00000350: 5cbf 04b7 0abb 4536 c781 3a37 d99c 0137
00000360: c57d 3336 3099 fab6 1cab 3a35 a020 8bb7
00000370: 8012 15b6 3f3e d9b6 80f2 9eb5 66a1 8736
00000380: c040 a0b6 3cca b1b7 d177 dd36 9dcf ed36
00000390: 117b e0b5 8eca 3db7 9e12 b236 49ec c9b6
000003a0: bd3a 5d36 47fc 6fb6 3dd1 ddb6 70ef 1336
000003b0: bdfb 2b37 2315 a133 088c 9eb6 33e9 f437
000003c0: 176f 8736 2b8e 46b7 a97b 5137 8773 0137
000003d0: a944 edb6 c1b2 8eb6 b0d4 a434 9258 e6b6
000003e0: dbcc 4036 30e3 48b6 fa1a a634 c015 3637
000003f0: e02e 6137 644e 8137 617b 47b7 0aab e436
-3.1970608e-06 4.051952e-06 1.9285182e-05 -8.533405e-06 -6.127659e-07 -2.109643e-05 1.4766084e-05 -6.5165436e-06
-2.3047853e-05 -6.0449893e-05 -9.503023e-06 -4.6211662e-05 -2.3088344e-06 7.5451476e-06 7.98046e-07 -5.6086057e-05
9.413196e-06 -6.8060262e-06 -2.132585e-06 -1.6641436e-05 -7.1258305e-06 1.0529908e-05 1.1776565e-06 -9.656466e-06
4.45908e-06 -1.3505135e-06 8.26794e-06 -7.0000924e-06 -3.8830757e-07 -7.92132e-06 2.4914848e-06 -5.876295e-06
1.7122188e-06 -3.864833e-06 3.0338713e-06 -8.376934e-06 3.4937006e-05 -2.6750638e-06 1.5138977e-06 -6.833023e-06
-1.6877639e-06 1.1668266e-05 7.1829486e-06 1.3350445e-05 1.5631769e-06 8.575324e-06 4.6507188e-07 3.5602607e-06
5.887583e-06 -3.5146036e-06 -3.2954138e-06 4.1706635e-06 2.4523288e-07 -2.1639519e-06 3.9731926e-06 -3.292037e-06
1.3249156e-05 2.0743623e-06 -9.88543e-06 2.8357672e-05 -4.0079394e-06 8.232338e-06 4.8657735e-06 -3.752693e-06
3.3693393e-06 -2.355323e-05 -8.976677e-06 5.301582e-06 3.648791e-06 -4.4479116e-06 -1.9649544e-06 -1.5444994e-05
-3.4630407e-06 -2.8321651e-06 3.514012e-06 4.5545016e-06 -1.2749902e-05 6.3613807e-06 -1.8153922e-07 4.505213e-06
2.5998718e-06 1.10298415e-05 -2.286701e-06 7.1016157e-06 -1.8603441e-05 6.4273195e-06 2.963738e-06 -2.1866636e-06
1.1537299e-05 9.228669e-06 6.121648e-06 8.2992965e-06 3.1662762e-07 2.0037685e-05 1.7086473e-05 1.528169e-05
-1.4573928e-06 -5.232183e-08 2.6644567e-09 9.1974556e-07 -8.0681775e-06 3.9359534e-06 -4.4520561e-07 -7.088929e-06
5.960796e-06 5.2814657e-06 -3.23339e-06 -2.1568962e-07 8.288491e-06 1.4917751e-05 2.3363853e-05 2.8599798e-06
-5.0881914e-07 -3.7047898e-06 -2.3112811e-07 -1.9114944e-07 3.405657e-06 -1.1868223e-06 -1.9432893e-05 -3.6282652e-06
-8.6496567e-07 4.0121147e-05 6.6364014e-06 1.2713192e-05 1.6227375e-05 -2.3189765e-05 5.1522557e-06 -1.1888791e-06
-0.00010089123 7.0808846e-06 5.698992e-06 -6.33627e-05 -8.068265e-06 3.6119045e-06 -4.1318086e-05 8.238983e-06
-1.002556e-06 -2.3938348e-06 -8.350819e-06 -3.531777e-05 8.580265e-06 -1.6306289e-05 3.6317992e-06 -4.3004434e-06
-7.982382e-06 -1.8638078e-05 -3.0201038e-06 -2.7633643e-05 6.4528845e-06 -1.0171147e-05 7.3178458e-06 -1.2449026e-05
1.0896521e-06 -1.3064259e-05 -2.0033203e-05 1.3662246e-06 -3.6987558e-07 -2.9265e-06 -1.1758754e-05 2.6129142e-06
-1.0664326e-06 -1.15783905e-05 3.5324344e-06 7.972591e-06 8.150855e-06 -2.0227626e-06 -6.152003e-06 -8.000784e-06
4.7173476e-06 9.5359724e-07 -1.5136291e-06 5.7220404e-06 7.1312826e-07 4.154104e-06 5.3573917e-06 -8.24026e-06
-1.263936e-05 9.0187257e-07 1.7066448e-06 2.377589e-05 -7.895271e-06 -5.7352345e-06 -7.821804e-06 5.4621787e-06
3.333643e-06 5.326064e-06 1.43081215e-05 5.1893626e-06 6.5782847e-06 7.4546656e-06 -8.402768e-06 -2.5350262e-05
-2.8602617e-06 -5.3773315e-06 -3.099403e-05 -6.185155e-05 2.4812095e-06 4.1165873e-05 -6.651943e-06 -4.81134e-06
-6.2095883e-06 -6.2301046e-06 3.4933705e-06 -7.335459e-06 1.0389217e-05 -1.968385e-05 1.3668389e-05 7.922245e-06
-2.4306116e-06 -9.363811e-06 -3.3921915e-06 5.680467e-06 -7.912367e-06 2.9464159e-06 1.111668e-05 7.725518e-06
2.6746286e-06 -7.468414e-06 6.9539396e-07 -1.6585283e-05 -2.2213499e-06 -6.4743504e-06 -1.1842494e-06 4.042103e-06
-4.7759095e-06 -2.1194217e-05 6.6002617e-06 7.08732e-06 -1.6725118e-06 -1.1312439e-05 5.3069807e-06 -6.017774e-06
3.2965756e-06 -3.576062e-06 -6.610672e-06 2.2044078e-06 1.0251007e-05 7.5009915e-08 -4.7250687e-06 2.9195658e-05
4.036246e-06 -1.1834821e-05 1.2486163e-05 7.7158975e-06 -7.0711435e-06 -4.2527395e-06 3.070213e-07 -6.864845e-06
2.872947e-06 -2.9934563e-06 3.0939538e-07 1.0853109e-05 1.3421959e-05 1.5414502e-05 -1.1890051e-05 6.814841e-06
