model/attention_net_u_artificial_Q_9_K_6_F_5_REG_L1_ACT_sigmoid_WD_0001_CV.model (torch_old, 52157 bytes, 6 tensors)

key_matrix f4 [9, 6]
000000 3b b7 26 b7 49 8a 86 36 34 3d f9 36 ab d6 14 b7
       -9.937033e-06 4.0096097e-06 7.4279033e-06 -8.871469e-06
000010 88 12 fb b6 ad 86 5b b6 8c a9 da b6 e4 e4 9d 36
       -7.4825402e-06 -3.2711935e-06 -6.516644e-06 4.705611e-06
000020 c9 21 0d 37 58 74 0f b7 ad b7 be b6 1d 53 4a b7
       8.412121e-06 -8.550553e-06 -5.683824e-06 -1.205949e-05
000030 86 92 59 36 e3 6b 82 b5 b6 67 96 b5 86 21 8d 35
       3.2420808e-06 -9.717154e-07 -1.1206055e-06 1.0515075e-06
000040 25 cc 28 36 08 01 86 b6 65 59 af 34 35 3c 10 36
       2.5152779e-06 -3.9936313e-06 3.2661333e-07 2.1492717e-06
000050 d5 8d 90 b6 3b 4e e8 36 dd 1b ae b6 99 00 b9 b6
       -4.308046e-06 6.923246e-06 -5.188848e-06 -5.513499e-06
000060 f4 4b d3 b6 0e 48 ab 36 a9 88 b1 36 e8 20 c4 b6
       -6.297132e-06 5.1045854e-06 5.2909204e-06 -5.845086e-06
000070 de 93 a0 36 74 f8 9c b7 d4 6d fd 36 cd fd 74 b5
       4.7855856e-06 -1.8712344e-05 7.5527732e-06 -9.126641e-07
000080 7c 0e 39 b6 0b 5f 51 36 86 24 84 37 31 e2 6e b6
       -2.757558e-06 3.119875e-06 1.5752634e-05 -3.5596424e-06
000090 73 ac 79 b7 16 a2 87 b6 51 1e 7b b7 2b e0 20 b7
       -1.4881708e-05 -4.042183e-06 -1.4967824e-05 -9.588936e-06
0000a0 47 29 cc 36 2d 51 51 b7 9f 32 80 36 59 a4 77 36
       6.084479e-06 -1.2476271e-05 3.8205903e-06 3.690153e-06
0000b0 b7 1d bc b6 29 50 00 b7 23 ff 09 37 53 bb 84 b4
       -5.606296e-06 -7.648058e-06 8.22524e-06 -2.4723212e-07
0000c0 ee 50 47 37 46 6f de b6 65 72 10 36 84 f1 d0 b5
       1.1880167e-05 -6.6290695e-06 2.1524258e-06 -1.5567498e-06
0000d0 fe c5 a3 b6 f9 ef 1e 36
       -4.880828e-06 2.3683517e-06

value_matrix f4 [6, 5]
000000 a8 49 5d b6 18 5c 53 36 1e 52 00 37 4a c4 fb 36
       -3.297444e-06 3.1495056e-06 7.648514e-06 7.503234e-06
000010 a3 00 81 b5 d5 21 71 b6 c1 df 47 b6 77 d0 f0 35
       -9.611434e-07 -3.5931491e-06 -2.9783553e-06 1.7942065e-06
000020 76 fb 23 36 3f a5 a4 b5 99 45 26 37 05 48 b3 b7
       2.4435262e-06 -1.2267045e-06 9.9105755e-06 -2.1372e-05
000030 47 9e 2d b4 ef 30 06 37 e0 b9 7b b6 6b 49 aa 35
       -1.6169462e-07 7.998416e-06 -3.7510108e-06 1.2687354e-06
000040 78 7e 95 36 b1 48 6f 35 a6 6f 38 b6 52 db e0 b6
       4.455269e-06 8.914022e-07 -2.7483125e-06 -6.7012525e-06
000050 c0 87 fa 36 11 97 06 b7 84 3b c0 b7 cb 63 b2 b6
       7.466384e-06 -8.022195e-06 -2.2915898e-05 -5.316431e-06
000060 63 e3 66 37 0a 72 dc 34 29 71 db b6 c2 7f 56 37
       1.3762011e-05 4.1061168e-07 -6.539882e-06 1.278514e-05
000070 39 d3 d7 36 c9 2c 8a 37
       6.432089e-06 1.6471737e-05

linear_layer1.weight f4 [9, 64]
000000 c5 d8 cd b6 f5 a4 c4 b4 a7 8e b3 b6 64 6c 98 36
       -6.1347114e-06 -3.6627867e-07 -5.3512226e-06 4.5425713e-06
000010 ce 75 60 36 cb ac 97 36 45 32 80 b6 8b 8b 90 b6
       3.3447172e-06 4.5202664e-06 -3.8205494e-06 -4.3077794e-06
000020 fa 76 4c 36 ca ba b2 36 7d 6f 5c 37 d8 63 6a b5
       3.0467622e-06 5.3265585e-06 1.313898e-05 -8.7317085e-07
000030 64 4e 42 b6 81 22 bc 36 0a 59 b9 b5 d0 fd d5 35
       -2.8953882e-06 5.6068534e-06 -1.3809488e-06 1.5943606e-06
000040 0b f2 77 b6 ec 97 dc 36 1d 7a 26 37 a8 d7 2a b6
       -3.6946756e-06 6.574197e-06 9.922803e-06 -2.5457502e-06
000050 f1 75 f8 b5 1f cb c1 b5 5d c1 07 b7 9c 93 9f b5
       -1.8511765e-06 -1.4438737e-06 -8.091648e-06 -1.1889383e-06
000060 41 61 70 b6 31 a5 20 b6 e2 38 5d b7 4f 4b e5 b6
       -3.5819396e-06 -2.3938012e-06 -1.3185871e-05 -6.833499e-06
000070 41 e4 bb b5 06 44 64 b6 0f 1a 60 b6 2b 85 ce b6
       -1.3999016e-06 -3.4014242e-06 -3.339377e-06 -6.154781e-06
000080 dd 41 b4 b6 d6 82 1f 37 3a 43 0b 37 85 17 3e 36
       -5.3720855e-06 9.507601e-06 8.300698e-06 2.8325896e-06
000090 4c 64 92 b6 d5 44 7a 36 87 be 87 35 a3 74 c1 36
       -4.362815e-06 3.7292968e-06 1.0113735e-06 5.7654265e-06
0000a0 a7 3a 8c b6 b3 64 01 36 60 a1 db 36 07 64 f6 b5
       -4.179153e-06 1.9281113e-06 6.545495e-06 -1.835754e-06
0000b0 1c 18 4c 37 58 a5 bc b6 f8 dd 08 36 7a e1 57 37
       1.2164961e-05 -5.622085e-06 2.0394782e-06 1.28674965e-05
0000c0 a9 7a 63 b7 0a a2 3e b7 2a f2 8e b6 64 a2 93 37
       -1.3558813e-05 -1.136261e-05 -4.2601214e-06 1.7599385e-05
0000d0 fd 32 ab b3 ee 54 03 36 6c d8 0e b6 bc 26 3f b5
       -7.972083e-08 1.9569957e-06 -2.1285623e-06 -7.120941e-07
0000e0 b4 da 71 36 0d 58 5d 36 9a 4e ce b6 b6 79 d2 b6
       3.60391e-06 3.2982819e-06 -6.148429e-06 -6.2726567e-06
0000f0 2f 45 7c 36 ed 30 82 37 d5 44 96 b5 45 70 3c b5
       3.7591196e-06 1.551999e-05 -1.1195904e-06 -7.019883e-07
000100 d1 ba 05 b6 96 30 5a b7 0a 4c fc 36 59 c4 0d 35
       -1.9927286e-06 -1.3005125e-05 7.5190374e-06 5.2812317e-07
000110 ee e4 08 37 ec 6e 0a 37 88 15 8a 34 c0 17 fd b3
       8.1595335e-06 8.251267e-06 2.572017e-07 -1.1785551e-07
000120 51 7a 05 b3 99 87 db 35 be 1f 86 b7 e9 9f b8 35
       -3.107772e-08 1.6356236e-06 -1.5988826e-05 1.3755608e-06
000130 2a be 09 b7 da 5d ae 35 b0 f2 27 b5 16 58 bf 35
       -8.210112e-06 1.2991325e-06 -6.2565505e-07 1.4256245e-06
000140 92 0c 4c b5 a1 26 25 b5 eb fd 3d b6 07 a4 14 b7
       -7.6014214e-07 -6.15235e-07 -2.8310994e-06 -8.859678e-06
000150 e3 02 d8 b6 3c 28 30 b7 87 63 21 37 ee de a7 b5
       -6.4376377e-06 -1.0499785e-05 9.619521e-06 -1.2507351e-06
000160 60 d5 4a 35 36 b7 ac b6 cf 6d dc b6 dd c6 96 34
       7.5561366e-07 -5.147328e-06 -6.5692943e-06 2.808437e-07
000170 a5 f9 b9 b4 9c 2c 7e 32 35 d3 b7 b6 77 e4 cb b6
       -3.4640576e-07 1.4794889e-08 -5.4784127e-06 -6.0764683e-06
000180 f2 54 e2 b4 5a c3 da b5 27 8b 22 37 fd b3 7f 36
       -4.2157586e-07 -1.629912e-06 9.688351e-06 3.8102728e-06
000190 88 48 f3 36 71 a3 01 37 0e 08 48 b7 82 d1 7a 36
       7.250408e-06 7.727053e-06 -1.1922804e-05 3.7374853e-06
0001a0 29 45 97 b6 a7 34 28 b6 3d 3d 4f b4 c9 3a f8 b5
       -4.508202e-06 -2.5064599e-06 -1.9300656e-07 -1.8494549e-06
0001b0 d0 c4 0d b7 4a a4 23 37 a2 08 6f b5 54 6f bd b6
       -8.450079e-06 9.753809e-06 -8.9047e-07 -5.6455992e-06
0001c0 61 57 26 b7 ba 11 16 37 81 5e 14 b6 39 21 27 35
       -9.9147155e-06 8.944824e-06 -2.2108727e-06 6.2260693e-07
0001d0 79 6e 20 b4 27 5c 54 b7 39 e3 1a 37 be aa 85 36
       -1.4941351e-07 -1.2657641e-05 9.23202e-06 3.983586e-06
0001e0 eb c9 d3 b6 ce 5a 64 b7 08 1a 31 34 2b f8 33 b7
       -6.3117964e-06 -1.3611001e-05 1.649388e-07 -1.07270125e-05
0001f0 61 98 87 36 81 ae 24 37 ab 36 41 b4 6f 9d 02 37
       4.0410528e-06 9.815792e-06 -1.7994414e-07 7.785259e-06
000200 60 c3 99 b5 81 ba f0 b5 60 5f 87 b7 62 5f 4f b6
       -1.145625e-06 -1.7935673e-06 -1.6137667e-05 -3.0900924e-06
000210 23 da c8 b6 e3 fa 15 b7 bf 90 7c b6 e6 90 dd b6
       -5.985859e-06 -8.939506e-06 -3.763518e-06 -6.6031816e-06
000220 04 7e 91 36 97 a8 32 b7 34 e4 c8 b6 0c 7d e2 36
       4.336007e-06 -1.064888e-05 -5.987031e-06 6.7498822e-06
000230 37 20 06 37 e0 f9 c4 36 a8 73 7b 35 05 df 71 36
       7.994523e-06 5.8703445e-06 9.367309e-07 3.6041613e-06
000240 f3 37 11 35 d3 81 8d 35 6e b4 c2 b6 18 0c ea 35
       5.4098126e-07 1.0543102e-06 -5.8026553e-06 1.7437878e-06
000250 92 00 f6 36 be 2c f0 36 8e a5 88 34 d9 29 91 37
       7.3314377e-06 7.157766e-06 2.545243e-07 1.7304834e-05
000260 b5 83 81 36 2b e8 2c 36 65 8d 5d 34 f6 c0 b9 b6
       3.8598323e-06 2.5765137e-06 2.0633668e-07 -5.5358933e-06
000270 54 bd 8b b6 cf 17 8f 36 61 f2 bb 36 3a c8 4d 36
       -4.1645635e-06 4.264504e-06 5.601251e-06 3.0663928e-06
000280 fa 31 a6 35 bc 88 85 b6 1a e2 71 36 35 6d 05 b6
       1.2382509e-06 -3.979627e-06 3.6043407e-06 -1.9882111e-06
000290 77 ae da 35 3e 24 c5 b6 19 d8 f6 b6 b8 dc 9d b6
       1.6293042e-06 -5.8752767e-06 -7.3565284e-06 -4.7046597e-06
0002a0 2c 62 df 35 a9 87 4e b7 b0 71 81 b6 b9 4e a2 b6
       1.6643367e-06 -1.2310143e-05 -3.8577346e-06 -4.8371408e-06
0002b0 3b fc 42 35 c4 91 cf b6 e4 7d 86 36 f8 b6 d9 b6
       7.2637675e-07 -6.18605e-06 4.008167e-06 -6.4884043e-06
0002c0 ad 0a 51 b7 27 3c 7b 36 78 17 f4 36 4b 09 82 32
       -1.2459856e-05 3.7436928e-06 7.274499e-06 1.5138218e-08
0002d0 7d 6f 51 b7 6c 03 75 36 ad 8f c4 b5 09 b8 36 b7
       -1.2483329e-05 3.6509837e-06 -1.4644953e-06 -1.0890894e-05
0002e0 4a 4c 1a 37 81 d7 04 b7 e6 55 3a b7 3e 8f d5 b5
       9.196878e-06 -7.917989e-06 -1.1106464e-05 -1.5911426e-06
0002f0 a9 a0 de b6 de 53 25 36 1b 22 3c b5 5c fe 84 b5
       -6.634819e-06 2.4635733e-06 -7.008509e-07 -9.908795e-07
000300 45 8b 61 37 f4 94 18 37 3f f2 5d 37 fe f7 13 b7
       1.3443471e-05 9.094587e-06 1.3229029e-05 -8.819623e-06
000310 d2 64 96 34 49 ae 32 b5 f0 38 57 b6 71 fa f2 36
       2.8013034e-07 -6.6563786e-07 -3.2070639e-06 7.2413172e-06
000320 a8 17 43 37 9f 24 aa 36 33 c6 78 b6 90 f3 13 b6
       1.1628414e-05 5.070658e-06 -3.7070247e-06 -2.204648e-06
000330 04 f3 00 b7 ab a8 1e b6 e9 80 ad 36 71 69 24 37
       -7.685976e-06 -2.3642012e-06 5.170809e-06 9.799712e-06
000340 1b 46 ca b6 7f 3f bc 36 5c ca 1e 37 c0 39 8e 36
       -6.0282305e-06 5.6102285e-06 9.464649e-06 4.2386528e-06
000350 85 ff 57 35 bf d5 b6 36 80 50 12 b7 25 ee 49 35
       8.046557e-07 5.448906e-06 -8.721021e-06 7.522488e-07
000360 d1 a9 5d b6 35 d1 0e b7 d7 50 72 b6 70 11 8c b6
       -3.3030412e-06 -8.512569e-06 -3.6107865e-06 -4.174355e-06
000370 c4 d2 a9 b6 c9 59 12 b7 5b d3 1a b7 87 5a 03 b7
       -5.061129e-06 -8.723183e-06 -9.228325e-06 -7.829286e-06
000380 aa 3d 4f b6 3e c9 57 b6 83 8b 89 b6 8b c0 92 36
       -3.0881297e-06 -3.2154635e-06 -4.0991595e-06 4.373554e-06
000390 14 ce 08 b6 58 ab 23 b6 e4 fc e8 b5 4a e0 9b b6
       -2.0385532e-06 -2.4388628e-06 -1.7358948e-06 -4.6454707e-06
0003a0 27 8e 80 b5 98 1d 81 36 45 71 66 35 58 2f b4 35
       -9.578115e-07 3.8479448e-06 8.5846506e-07 1.3424824e-06
0003b0 13 96 a2 b6 1c 3b fb 34 b3 a2 d3 b5 09 b0 48 b6
       -4.845447e-06 4.67954e-07 -1.5768077e-06 -2.9904788e-06
0003c0 a6 cd 34 b7 82 7f a1 35 0e 48 09 36 2e 47 92 b6
       -1.0776717e-05 1.2032544e-06 2.0456532e-06 -4.3594255e-06
0003d0 5a 08 68 37 49 e1 1b b7 6f 92 55 b5 47 39 2d b5
       1.3830222e-05 -9.291173e-06 -7.956177e-07 -6.453087e-07
0003e0 1f 02 d5 36 26 4b b3 36 dc 01 d3 36 ac 04 1d 35
       6.3481416e-06 5.343364e-06 6.2885065e-06 5.8493856e-07
0003f0 f6 2a 16 37 d9 e7 43 36 08 01 d0 b5 5c af 11 37
       8.950699e-06 2.9192217e-06 -1.5497508e-06 8.6835025e-06

linear_layer1.bias f4 [9]
000000 89 a0 cf 35 8f 06 4a 37 e1 51 de b5 39 f6 b5 b5
       1.5469424e-06 1.2041665e-05 -1.6564119e-06 -1.3557211e-06
000010 e0 8a 1f 36 af 69 76 35 94 38 cf 36 f3 9d 08 b6
       2.3773682e-06 9.179593e-07 6.1756673e-06 -2.0357518e-06
000020 24 b9 99 37
       1.8325234e-05

linear_layer2.weight f4 [2016, 5]
000000 b3 65 ef 36 b5 7a ae 36 bd 2d f2 b5 78 8b e7 b6
       7.1345944e-06 5.199889e-06 -1.8043717e-06 -6.9005728e-06
000010 42 fb 93 b6 09 50 a9 b3 b7 0d 18 37 96 4e fb 36
       -4.4101917e-06 -7.884234e-08 9.063099e-06 7.4895315e-06
000020 2c 43 13 b7 07 ac 1b 36 86 0d 74 b6 11 09 bf b6
       -8.777522e-06 2.3196933e-06 -3.6366705e-06 -5.693299e-06
000030 0f 53 14 37 2a 36 d9 35 87 a1 3b 36 bf e5 df 36
       8.840826e-06 1.6183524e-06 2.7959193e-06 6.672664e-06
000040 2b 0f 94 b6 f9 34 d3 36 6c 59 cf b6 e7 91 ed b6
       -4.4125095e-06 6.294457e-06 -6.179491e-06 -7.0801357e-06
000050 23 94 a9 36 74 2a 3e b6 da 45 73 36 d2 f7 56 36
       5.053838e-06 -2.8336917e-06 3.625048e-06 3.2032735e-06
000060 f4 10 ec 36 08 0a 57 36 e1 21 17 37 83 c1 88 36
       7.0353217e-06 3.2043336e-06 9.008189e-06 4.0756436e-06
000070 d9 d4 11 b7 1a 2d 04 b7 d4 4c 33 b6 d3 f8 f9 36
       -8.692231e-06 -7.878314e-06 -2.6717798e-06 7.449745e-06
000080 bd 47 ed 36 6e 37 88 b6 3c 1b 90 b5 7d dd 0a 37
       7.071502e-06 -4.0595687e-06 -1.0736762e-06 8.27701e-06
000090 c0 f2 56 36 9f 5f d6 b4 ce 3a bf 36 8b ff 49 b7
       3.2029784e-06 -3.993018e-07 5.6990893e-06 -1.2040032e-05
0000a0 b0 dc 49 b7 18 86 fc b4 d8 9a e8 35 60 9b 22 36
       -1.2031916e-05 -4.7036224e-07 1.7330412e-06 2.4230321e-06
0000b0 43 77 0e b6 cb 8b 78 37 82 16 16 35 79 40 89 36
       -2.1229068e-06 1.48145e-05 5.591211e-07 4.0904238e-06
0000c0 2e fa 8f 36 08 ca 6c 35 28 67 4a b4 78 c7 2c 37
       4.290857e-06 8.8210845e-07 -1.8850244e-07 1.0298441e-05
0000d0 87 f3 df 35 48 47 db b4 63 15 2b b6 0f 48 44 36
       1.668567e-06 -4.0843793e-07 -2.5493434e-06 2.924822e-06
0000e0 62 d8 39 36 9a 62 19 b6 ab 8e db 36 f7 97 21 36
       2.76931e-06 -2.285617e-06 6.5433173e-06 2.4079325e-06
0000f0 53 f8 ab 36 54 f7 ab 35 7a 34 95 36 03 84 05 36
       5.125106e-06 1.2812475e-06 4.446655e-06 1.9895385e-06
000100 ee 4c 46 b5 8b 98 86 36 06 c9 22 37 80 54 b1 b6
       -7.3872695e-07 4.0112695e-06 9.702757e-06 -5.284848e-06
000110 93 57 4f 36 ca b9 1d 37 e5 e9 41 b6 bc 5a d2 35
       3.0896379e-06 9.401187e-06 -2.8895386e-06 1.5672626e-06
000120 4d 9e 38 34 df d3 01 37 9e 39 9d 35 03 4c c2 36
       1.7193925e-07 7.738329e-06 1.171418e-06 5.7904995e-06
000130 1b 7d 00 37 11 d7 3b 36 8f a4 9f b6 fc e8 a3 b6
       7.658523e-06 2.7990357e-06 -4.7577264e-06 -4.8849015e-06
000140 3e c8 94 35 99 a8 96 36 ad 23 ae b5 6b 8e 71 37
       1.1085137e-06 4.4899757e-06 -1.2974393e-06 1.4397879e-05
000150 97 da ff b6 03 d3 9e 36 9d ba 1e 37 6b 31 05 37
       -7.6250394e-06 4.733332e-06 9.460983e-06 7.938924e-06
000160 26 9c e5 b6 16 6b 2d b6 d8 b9 5b b6 2a bf 31 b7
       -6.84291e-06 -2.584134e-06 -3.2741718e-06 -1.0594531e-05
000170 76 a3 00 36 b1 4c f3 36 3f b2 e2 b6 4e 64 65 b7
       1.9168633e-06 7.2508924e-06 -6.7560754e-06 -1.3672818e-05
000180 43 27 87 33 52 fe 45 35 df 3d 96 34 da b0 35 b7
       6.293569e-08 7.3758304e-07 2.7984694e-07 -1.0829617e-05
000190 9e 47 d2 b5 cf 55 07 35 52 6b 53 b6 5a 6b 53 35
       -1.5667063e-06 5.0416287e-07 -3.1503919e-06 7.875984e-07
0001a0 09 03 7d b6 a3 53 3a b7 d5 0e af 36 e2 29 37 37
       -3.7701705e-06 -1.1105937e-05 5.217133e-06 1.0917402e-05
0001b0 b9 ed b3 b6 a6 7b 84 35 a0 8e 18 36 26 88 2e b7
       -5.3622903e-06 9.870753e-07 2.2732784e-06 -1.0402908e-05
0001c0 0f 52 56 34 80 48 0c 37 63 90 93 b1 e1 ac 10 35
       1.9960156e-07 8.3615305e-06 -4.294678e-09 5.389575e-07
0001d0 42 cb d0 34 16 3e 94 b5 22 0d 2e b6 1e 39 88 b6
       3.889091e-07 -1.1044929e-06 -2.5935665e-06 -4.059765e-06
0001e0 9a 14 40 35 6a 8a b1 b6 da c6 c3 b6 7d 52 0a 37
       7.1555553e-07 -5.2911246e-06 -5.8346022e-06 8.244647e-06
0001f0 1c 3e 85 36 dd 90 49 b6 9d b4 93 b7 6b 56 47 37
       3.9709394e-06 -3.0035656e-06 -1.760787e-05 1.1881445e-05
000200 c2 81 f8 b6 bc ad 6b b7 c9 5a 9a b5 d9 37 0f 37
       -7.4060817e-06 -1.4047542e-05 -1.1500316e-06 8.536467e-06
000210 2b 71 1e 36 4e 1b cd 36 e2 a9 dc b6 d8 ec ca 36
       2.3609707e-06 6.112655e-06 -6.576288e-06 6.0476414e-06
000220 25 0c c7 35 89 1e 3d b5 04 02 c0 b6 65 a0 65 36
       1.483019e-06 -7.045242e-07 -5.7222805e-06 3.421702e-06
000230 00 13 5b 36 a2 8d 07 37 61 34 b7 36 4f 78 a0 35
       3.2644602e-06 8.0796035e-06 5.4599227e-06 1.1955943e-06
000240 76 e2 c2 36 20 f5 03 b7 2b dd 5b 35 3b 2b 02 36
       5.808014e-06 -7.865281e-06 8.19057e-07 1.9396673e-06
000250 e7 7a 89 b6 20 76 8b b6 58 ca e3 b5 d4 04 01 b6
       -4.097226e-06 -4.1562744e-06 -1.6971708e-06 -1.9225308e-06
000260 73 5e a2 b6 4c 2f f7 b6 d9 72 54 36 d5 56 af b6
       -4.8389716e-06 -7.3666797e-06 3.1657312e-06 -5.225515e-06
000270 d1 75 cb b6 62 38 87 36 5b dd 4d 36 63 2c d0 b5
       -6.063587e-06 4.0298773e-06 3.0676226e-06 -1.5510126e-06
000280 8f e3 84 b6 c6 a7 b1 b6 5b ec 38 37 22 70 ce b5
       -3.960398e-06 -5.2945425e-06 1.1022285e-05 -1.5380831e-06
000290 db 7f 0f 37 be 90 53 37 83 b3 e7 b5 a3 2a 8f b7
       8.553233e-06 1.26102805e-05 -1.7263086e-06 -1.7066783e-05
0002a0 de 98 fd b5 97 2c 1d b5 84 72 20 b7 d2 e7 1d 36
       -1.8894459e-06 -5.8551944e-07 -9.563406e-06 2.352976e-06
0002b0 e8 ee 85 b6 f0 ad 8a 35 65 33 81 32 5a e0 22 37
       -3.991521e-06 1.0332424e-06 1.5040948e-08 9.708188e-06
0002c0 41 5c f2 35 ff 77 f2 36 db 98 e0 b6 e2 1b 7e 36
       1.8057254e-06 7.2261314e-06 -6.693515e-06 3.786518e-06
0002d0 84 f6 46 b7 16 ff 02 37 52 64 08 b6 be 59 79 36
       -1.1859116e-05 7.807996e-06 -2.0323973e-06 3.7156128e-06
0002e0 60 e5 ac 34 53 c9 46 36 28 0b 08 37 1b f6 d8 b6
       3.220439e-07 2.9621485e-06 8.108829e-06 -6.465952e-06
0002f0 26 bf 6a b6 f9 2d 09 37 e3 2c 09 b7 c6 0f a0 b6
       -3.497998e-06 8.17654e-06 -8.176287e-06 -4.770208e-06
000300 80 27 43 37 53 98 3a b7 61 13 b2 35 fd 33 31 b7
       1.16321025e-05 -1.112193e-05 1.3267673e-06 -1.0562127e-05
000310 ff e2 9a b6 25 87 aa 36 32 bc 0f b6 85 ab 0b 36
       -4.6159835e-06 5.0821277e-06 -2.1418205e-06 2.0812452e-06
000320 61 e1 bf 35 cd ee 96 36 b0 fe 0a b6 3e 81 16 37
       1.4296203e-06 4.4981484e-06 -2.071185e-06 8.970788e-06
000330 4f 08 08 36 f6 66 df 36 2e 73 0f 36 9b 63 fd b6
       2.0270415e-06 6.657904e-06 2.1375704e-06 -7.551583e-06
000340 f6 5f 5c 36 2a 22 88 b6 d5 fc 9a 36 94 c6 a2 b6
       3.2838411e-06 -4.057093e-06 4.618991e-06 -4.8510938e-06
000350 17 8f 7e 35 f8 d9 32 b6 4e 00 a1 b6 8a 73 07 35
       9.4830597e-07 -2.6650941e-06 -4.7982094e-06 5.045955e-07
000360 16 2d d1 b6 d7 d6 89 36 98 f4 f4 36 25 04 dd 36
       -6.233934e-06 4.107929e-06 7.300241e-06 6.5867957e-06
000370 22 c1 c8 36 94 b5 94 b4 eb 41 01 b6 7a d7 0d 36
       5.982948e-06 -2.7699264e-07 -1.9260867e-06 2.1136061e-06
000380 9b c6 19 b5 bd 46 24 b5 be 1d a4 36 16 74 2b b7
       -5.728595e-07 -6.11977e-07 4.8910433e-06 -1.0219423e-05
000390 dd cb b7 b6 f7 40 02 37 96 5e 18 37 64 ac a8 37
       -5.477558e-06 7.76373e-06 9.0819285e-06 2.0107436e-05
0003a0 9d 1e a2 36 b0 0f f6 b6 e4 8d ae 35 6c 65 2a b6
       4.83154e-06 -7.3331976e-06 1.3005306e-06 -2.539101e-06
0003b0 f1 67 97 b6 0d 4b 92 b5 23 53 db 35 95 45 21 36
       -4.512251e-06 -1.089969e-06 1.6340967e-06 2.4031372e-06
0003c0 07 f7 5d b7 31 8d 4e b6 b6 85 a6 36 36 75 f6 b6
       -1.3230142e-05 -3.0778576e-06 4.9627515e-06 -7.3450165e-06
0003d0 7b 26 17 b7 ad a9 a2 36 a5 63 c6 36 d6 c6 1d 37
       -9.009261e-06 4.847729e-06 5.91246e-06 9.404224e-06
0003e0 ef 07 a7 b6 38 ea 57 b7 a2 89 04 b7 76 84 ae 35
       -4.9779114e-06 -1.2869532e-05 -7.899858e-06 1.3002561e-06
0003f0 ba 18 d1 36 e7 f4 3b b6 31 21 38 b6 a0 67 20 37
       6.231564e-06 -2.8007723e-06 -2.7437457e-06 9.56087e-06

linear_layer2.bias f4 [2016]
000000 0f a7 aa b7 ef bf 18 b7 1f a7 ca b8 7a 19 9c 36
       -2.0343372e-05 -9.104594e-06 -9.663239e-05 4.652128e-06
000010 eb 68 bf 35 1f f1 bb 37 1a 78 95 b6 59 f7 64 b8
       1.4261144e-06 2.2404418e-05 -4.4545277e-06 -5.4589796e-05
000020 9a 0a ef b7 55 a5 43 b7 6d 61 a9 b6 d1 af 4a b8
       -2.8495957e-05 -1.16614e-05 -5.0479343e-06 -4.8324295e-05
000030 f9 ca 07 b8 a7 39 eb 36 81 81 9a 37 e5 99 63 37
       -3.237554e-05 7.0102574e-06 1.8418536e-05 1.3566086e-05
000040 3d 23 7d b6 3a 78 d6 b6 4d c4 90 b7 04 f0 d2 b6
       -3.772045e-06 -6.391693e-06 -1.7257547e-05 -6.286429e-06
000050 dc 59 b0 36 cf 1c dc b6 af b1 86 b8 ec 3e e7 b7
       5.2556697e-06 -6.5598647e-06 -6.422714e-05 -2.7566646e-05
000060 00 d9 c2 b5 3a df c8 b7 de 8c 12 b7 6f b1 63 36
       -1.4517282e-06 -2.3945806e-05 -8.735076e-06 3.3928916e-06
000070 e3 2b c8 b7 16 3d 7d b6 34 39 35 b7 f1 35 84 b6
       -2.3862294e-05 -3.7735495e-06 -1.0801759e-05 -3.940186e-06
000080 d8 4d 67 36 34 ec 8c b7 bc 85 3e b7 9d 53 3e b7
       3.4466993e-06 -1.6799291e-05 -1.135602e-05 -1.134435e-05
000090 fc c6 be 35 02 65 7f 35 26 9d 06 37 d9 13 2f 37
       1.4214015e-06 9.514189e-07 8.023611e-06 1.0435434e-05
0000a0 c0 50 ca b6 57 94 e6 b6 37 98 9f 35 98 93 7c b6
       -6.0294697e-06 -6.871803e-06 1.1890723e-06 -3.7636837e-06
0000b0 fc e9 0f 37 4c 92 ed b6 a0 b6 24 37 96 70 48 b6
       8.577943e-06 -7.0801816e-06 9.817682e-06 -2.9867856e-06
0000c0 bc 4b 04 b7 39 ae 23 36 46 7c 95 b6 f1 89 e9 b6
       -7.885446e-06 2.4390304e-06 -4.4550134e-06 -6.9599996e-06
0000d0 bd c5 10 b6 ba 81 37 37 15 7c 9e 36 83 13 40 b7
       -2.157277e-06 1.0937854e-05 4.723212e-06 -1.1448635e-05
0000e0 db ad ad 35 92 40 74 37 8f 3b 99 b6 23 70 ac b6
       1.2940103e-06 1.4558567e-05 -4.566689e-06 -5.139054e-06
0000f0 12 d4 71 37 ea 97 be 36 73 6c 52 b6 aa 60 62 b7
       1.4414096e-05 5.6801264e-06 -3.1355564e-06 -1.3493156e-05
000100 71 63 25 36 26 85 fb 36 9f 53 37 36 18 6b 5f b7
       2.4644798e-06 7.4958834e-06 2.73178e-06 -1.33167705e-05
000110 a5 48 19 b7 59 71 8a b5 ac 2b da b7 5f 4f ff 36
       -9.1364245e-06 -1.031479e-06 -2.6007961e-05 7.608832e-06
000120 24 a1 1a b6 44 5f ef 35 bb b0 1c 35 d5 79 17 36
       -2.3041584e-06 1.7834614e-06 5.8371705e-07 2.257167e-06
000130 22 66 b2 b7 bc 9b 36 b5 2d e0 e9 b5 25 2e 83 b6
       -2.1266813e-05 -6.8026907e-07 -1.7425097e-06 -3.909476e-06
000140 81 d7 82 37 43 34 b5 b6 2b 72 29 b8 a1 e0 6e b5
       1.559756e-05 -5.4003044e-06 -4.0399067e-05 -8.898879e-07
000150 5f e8 bf b7 43 97 99 36 26 5b cb 36 4d 30 2b b7
       -2.287718e-05 4.5773645e-06 6.0604825e-06 -1.020364e-05
000160 02 91 ba 35 0c c8 fb b7 56 45 08 37 82 fa 31 37
       1.3900283e-06 -3.0014686e-05 8.122375e-06 1.0608348e-05
000170 a4 33 07 36 d7 93 e5 35 cd b6 04 37 91 cb c5 35
       2.0146626e-06 1.7104857e-06 7.910375e-06 1.4736889e-06
000180 d5 e1 77 36 15 49 4c 36 96 a2 42 b7 a5 5f c1 b4
       3.693732e-06 3.0440908e-06 -1.1601156e-05 -3.6018642e-07
000190 74 2c ed 37 0e c3 61 37 94 d7 8f 37 b0 d6 74 37
       2.8273302e-05 1.345646e-05 1.7147315e-05 1.4593519e-05
0001a0 04 f5 a4 36 15 38 a8 b5 52 09 b0 b6 6d 45 3a 37
       4.9161044e-06 -1.2533297e-06 -5.2462938e-06 1.1102628e-05
0001b0 c3 bd 9a b6 3f 04 92 36 7a 37 70 37 19 ee 90 b5
       -4.611649e-06 4.3516334e-06 1.4318031e-05 -1.0798132e-06
0001c0 61 05 d5 36 87 67 22 37 0b 62 b4 36 30 2b cd 35
       6.348521e-06 9.680057e-06 5.3758317e-06 1.528626e-06
0001d0 f6 e5 98 36 fe 00 b0 36 7f f5 25 b7 ae 4e 93 35
       4.556724e-06 5.2453242e-06 -9.891925e-06 1.0975252e-06
0001e0 bf 00 5f 37 98 84 8f b4 2e bf 0e 37 2b d3 0e 37
       1.32920095e-05 -2.67323e-07 8.508372e-06 8.513026e-06
0001f0 95 7a f7 b6 61 f3 66 b6 5f cb f2 b9 fa c6 1a 37
       -7.375444e-06 -3.4414336e-06 -0.0004630936 9.225443e-06
000200 d0 9b d4 b7 cd f6 48 b8 e9 97 ac b6 37 ac e5 b7
       -2.5344925e-05 -4.7913567e-05 -5.143684e-06 -2.7379121e-05
000210 04 7a a8 b6 8f 69 e8 36 35 23 1b b8 98 98 2c 37
       -5.0209946e-06 6.9264274e-06 -3.698767e-05 1.0287527e-05
000220 9f 6d 8e 36 fd 73 e2 35 79 ae 82 37 1a 63 a8 b8
       4.2446914e-06 1.6872069e-06 1.5578453e-05 -8.029323e-05
000230 fe 76 aa b8 1b 57 d6 b4 52 00 7d 36 92 c6 8c 35
       -8.128396e-05 -3.9923984e-07 3.7700124e-06 1.0488604e-06
000240 28 d7 1d 36 85 c0 f4 b6 2a 73 9b b8 fd d4 20 b8
       2.352006e-06 -7.294179e-06 -7.412427e-05 -3.8345333e-05
000250 4d 82 25 b8 d2 73 c4 b7 9d 8b 02 37 30 f7 62 b7
       -3.9460418e-05 -2.3418954e-05 7.78111e-06 -1.35282025e-05
000260 ab c6 80 b6 8b f1 7b 37 90 60 73 b6 11 cb a2 b6
       -3.8378253e-06 1.5017004e-05 -3.6266028e-06 -4.8516163e-06
000270 a0 10 e8 b6 1f 1f 08 37 cb 99 87 b6 d0 66 c1 b6
       -6.916074e-06 8.113478e-06 -4.0412174e-06 -5.763817e-06
000280 c3 a7 de b6 18 1f 68 37 b3 3a ad b4 f7 2d a4 b6
       -6.6356456e-06 1.3835517e-05 -3.226647e-07 -4.892932e-06
000290 30 72 9c b4 3f cd d5 b6 1d ed c9 35 e8 83 34 b6
       -2.9140347e-07 -6.3717885e-06 1.5044676e-06 -2.689887e-06
0002a0 8f 74 a5 b6 10 b1 a1 37 50 80 83 37 60 6c c6 36
       -4.9309524e-06 1.9275147e-05 1.5676167e-05 5.9134763e-06
0002b0 4f 3a 26 b7 d8 58 9b 36 ef 2e 09 37 a3 ce 30 b6
       -9.907947e-06 4.6297027e-06 8.176764e-06 -2.6346322e-06
0002c0 44 60 9a 36 9a ee 12 37 44 e8 65 b7 75 0b 7d b7
       4.6007644e-06 8.757832e-06 -1.3703542e-05 -1.5082643e-05
0002d0 90 72 48 37 50 a1 d7 b6 5f 19 01 37 e6 c1 4c b6
       1.1947603e-05 -6.4262786e-06 7.694906e-06 -3.0511233e-06
0002e0 49 e2 af 36 6e 15 8c b6 ab f4 7f b7 08 4a b2 b5
       5.2417495e-06 -4.17482e-06 -1.5256151e-05 -1.3283579e-06
0002f0 1b cd 86 36 ff 04 08 b7 8c b5 3e 36 2c 52 07 b8
       4.0173886e-06 -8.107395e-06 2.841788e-06 -3.2263037e-05
000300 18 99 b5 b8 4c 23 a5 36 d2 ed 47 b7 2c 8a 17 37
       -8.6592685e-05 4.9214923e-06 -1.1916696e-05 9.032472e-06
000310 49 cd 25 b8 76 a5 d9 36 1d d2 21 34 d5 22 17 b7
       -3.9530252e-05 6.486366e-06 1.5070732e-07 -9.008411e-06
000320 57 21 01 37 cd 85 ec b6 cc c4 e6 b6 4d 3b 99 b7
       7.696762e-06 -7.0489245e-06 -6.8774443e-06 -1.8266635e-05
000330 c3 50 92 36 78 8c 30 b7 36 71 31 b7 6d d4 b0 b7
       4.360541e-06 -1.0523123e-05 -1.0576381e-05 -2.1079753e-05
000340 23 cf 13 b8 44 f9 3c b5 b1 ec f5 36 ad a9 3e b8
       -3.5240442e-05 -7.0398187e-07 7.3291235e-06 -4.5457553e-05
000350 80 4c 22 b7 67 6e 92 37 e9 00 3d 37 d9 f2 39 b6
       -9.673764e-06 1.7455966e-05 1.126549e-05 -2.7708504e-06
000360 47 e7 33 37 59 b3 71 b7 51 5f 18 b7 3f 18 55 36
       1.072308e-05 -1.4406477e-05 -9.082099e-06 3.1753586e-06
000370 98 71 29 b6 f3 a8 a1 b6 33 f4 4d 35 e0 16 51 37
       -2.5249083e-06 -4.817842e-06 7.672381e-07 1.2462697e-05
000380 d5 d3 24 36 3f d8 b7 b7 86 8e 3e b6 8a 61 2c 36
       2.4561207e-06 -2.1915997e-05 -2.8395166e-06 2.5686772e-06
000390 9a de 8f 36 29 a2 a0 37 68 b5 10 b6 c7 76 f5 b6
       4.2876463e-06 1.9148998e-05 -2.1563264e-06 -7.3153965e-06
0003a0 a2 bd 12 b4 5b 88 df b6 7f 1c 52 37 bd 74 a9 b6
       -1.3666298e-07 -6.6617918e-06 1.252361e-05 -5.0501826e-06
0003b0 99 b2 b2 b6 9a 03 e1 36 d2 78 0c b7 b0 aa d9 35
       -5.325605e-06 6.705942e-06 -8.372781e-06 1.6217436e-06
0003c0 fd 6e ca b6 b9 b8 35 32 d5 1b c0 33 0a ed b1 36
       -6.03299e-06 1.0577588e-08 8.945759e-08 5.302606e-06
0003d0 30 57 2c 37 02 38 14 b6 50 13 45 b6 8c 1d 49 b7
       1.0272299e-05 -2.208632e-06 -2.936653e-06 -1.1987413e-05
0003e0 c3 24 52 b8 f2 9b 8a b5 fc 20 37 37 f3 7b 72 35
       -5.010214e-05 -1.0327187e-06 1.091533e-05 9.0332395e-07
0003f0 09 6f 51 37 3c 69 03 b8 0f ae 5c b6 d0 70 99 b7
       1.2483223e-05 -3.133084e-05 -3.288387e-06 -1.8291554e-05
