model/attention_net_u_artificial_Q_9_K_6_F_5_REG_L1_ACT_sigmoid_WD_00001_CV.model (torch_old, 52157 bytes, 6 tensors)

key_matrix f4 [9, 6]
3.202453e-07 7.153449e-07 -7.723127e-07 0.5115888 0.14624439 0.4491282 -0.33941227 9.481535e-07
-4.3620793e-07 1.1458758 1.5828773 -0.20735711 -0.97763175 -2.0477847e-07 1.2602711 2.1432915
0.50217605 2.5535587e-07 1.2142805 -2.9140398e-07 -1.1505574e-06 1.7085531 3.5718173e-07 1.4844944e-07
-1.6627199e-06 -1.1624808e-07 -0.3980614 0.8388023 -0.067629516 -5.7056315e-08 1.0033308 -1.5021008
-1.0067806e-06 0.79254085 9.9754374e-08 -0.13500626 -0.6026829 0.8717297 -0.5948624 -0.46784812
-0.16042335 0.12405783 -0.5906103 1.3308445e-06 0.029673217 3.0837114 0.34507933 0.35793415
1.8643246 -0.6351523 0.47817728 2.3917515 2.5926852e-07 -0.33829075
00000000: 2eee ab34 2106 4035 ed50 4fb5 7cf7 023f
00000010: 17c1 153e 22f4 e53e 72c7 adbe 9d84 7e35
00000020: f62f eab4 0fac 923f b99b ca3f 6c55 54be
00000030: 1346 7abf 14e1 5bb4 9050 a13f b02b 0940
00000040: 9c8e 003f d817 8934 8b6d 9b3f 4272 9cb4
00000050: da6c 9ab5 deb1 da3f afc2 bf34 7965 1f34
00000060: 9f2a dfb5 0fa4 f9b3 b4ce cbbe bfbb 563f
00000070: 5881 8abd 150e 75b3 256d 803f d744 c0bf
00000080: b820 87b5 f5e3 4a3f 8c38 d633 153f 0abe
00000090: 6d49 1abf ad29 5f3f e748 18bf ca89 efbe
000000a0: 0546 24be 0812 fe3d 3d32 17bf 789f b235
000000b0: 3f15 f33c 875b 4540 3dae b03e 2543 b73e
000000c0: 30a2 ee3f 5799 22bf a7d3 f43e 7512 1940
000000d0: 9831 8b34 7234 adbe

value_matrix f4 [6, 5]
0.63937485 0.25653446 -1.439181e-06 0.21821871 0.25300533 0.2760191 1.4431818e-06 -0.121011004
2.431988 0.3195961 0.50516367 -1.678506 1.0985661e-06 3.495327e-07 7.9401055e-08 -10.081185
-6.950726 -2.428706 -3.875449 4.043612 -0.50412834 -0.5211823 4.768864e-07 -9.951777e-07
0.3819008 -0.87153566 -5.586212e-07 -6.1035706e-07 0.04062228 2.5013466e-07
00000000: 12ae 233f 7c58 833e e229 c1b5 ba74 5f3e
00000010: ea89 813e 6052 8d3e 59b3 c135 9ed4 f7bd
00000020: b1a5 1b40 1aa2 a33e 6852 013f 49d9 d6bf
00000030: 7272 9335 69a7 bb34 3183 aa33 894c 21c1
00000040: 596c dec0 eb6f 1bc0 5b07 78c0 4565 8140
00000050: 8e0e 01bf 346c 05bf 6203 0035 0c92 85b5
00000060: 8088 c33e f61c 5fbf 28f4 15b5 6bd7 23b5
00000070: 8c63 263d 3f4a 8634

linear_layer1.weight f4 [9, 64]
-9.105456e-07 5.999994e-08 -1.6808212e-07 5.5939296e-07 1.5986664e-06 -7.604363e-08 8.459979e-07 -7.7928735e-07
-5.9661113e-07 8.175304e-07 -8.893688e-07 -1.2753607e-08 1.7865489e-06 2.3443698e-07 9.4763743e-07 -4.650246e-07
7.145686e-07 -3.0824413e-07 8.688035e-07 5.5671893e-07 -3.9662217e-07 2.3641127e-07 -1.100638e-06 -9.595515e-07
8.256201e-07 -9.920694e-07 1.6489988e-06 -1.0200692e-06 3.951779e-07 1.1361541e-06 3.2400953e-07 -2.2199413e-07
-5.197265e-07 -2.5907818e-07 6.124325e-07 5.666969e-07 -3.6685688e-07 4.2608335e-07 6.78426e-07 -6.3830106e-07
5.8354914e-07 2.1958753e-07 -3.1018095e-07 2.5959136e-07 -9.698088e-07 1.196714e-06 3.0591303e-07 -3.9026915e-08
-2.9674382e-07 -1.3890993e-07 6.6166115e-07 -1.1394212e-06 -2.0572736e-08 1.536095e-08 4.5442727e-07 8.377771e-07
-1.5472317e-06 -4.198552e-07 -7.182271e-07 -2.5604825e-07 -2.1960076e-07 -4.0906986e-07 -1.9167945e-07 -6.5965327e-07
1.6042625e-06 5.7238344e-07 8.150422e-08 -2.0358173e-07 7.3311455e-08 -1.2039273e-07 -4.3072525e-08 1.7559589e-06
6.5391195e-09 -1.1648482e-07 -9.0766486e-07 9.96429e-07 5.338702e-08 8.8556556e-07 -3.9931706e-08 3.2702538e-08
-8.365941e-07 -5.239802e-07 1.3710158e-07 -6.806283e-07 2.2559979e-08 -6.561362e-08 1.1797187e-06 4.78812e-07
1.0378579e-06 -3.25567e-07 8.2433866e-07 5.917968e-07 5.163453e-07 -4.0045325e-07 -5.400467e-07 2.8518633e-07
-1.2955375e-06 -3.0585252e-07 3.6397378e-07 9.435355e-07 2.2123038e-08 -4.912347e-07 1.5874155e-06 -6.3041426e-07
7.2433215e-07 -2.654726e-07 -1.9392381e-07 -2.111017e-06 4.565351e-07 6.8220956e-08 -2.3193675e-06 2.5968887e-07
-1.4783811e-06 7.344779e-07 7.70023e-07 -2.7607626e-07 6.804013e-07 6.1856565e-07 3.4192877e-07 5.898894e-07
9.0874335e-07 1.16263394e-07 4.732488e-07 6.156714e-07 -1.6091523e-07 5.3170913e-07 7.9638517e-07 -3.361507e-08
1.4130891e-06 9.255861e-07 2.701536e-07 8.175875e-07 -6.5600176e-07 -3.1036592e-08 7.680027e-07 6.82197e-07
1.3609812e-07 -8.795909e-08 -3.4177305e-07 1.5188614e-07 -8.1360685e-07 6.935169e-08 3.4237635e-06 1.4651855e-06
-6.9924386e-07 5.45229e-07 4.106293e-07 2.4182316e-07 7.344998e-07 4.040744e-08 1.2216666e-06 -2.9792025e-07
4.6396585e-07 4.945816e-07 1.3241336e-06 3.549698e-08 -9.383886e-08 7.4474895e-07 -5.4525924e-07 7.693519e-07
-1.7810298e-07 -9.29524e-07 6.6951765e-07 -5.3553936e-07 -7.031604e-07 -6.630977e-07 -4.2138797e-07 1.4466929e-06
-2.3866763e-08 2.3723378e-06 -1.1781422e-06 -3.25688e-07 -1.2425168e-06 -7.9599357e-07 -1.5918642e-06 1.7109478e-07
-1.5041363e-06 -6.8357075e-08 1.6533539e-06 -1.4959337e-06 1.4381349e-06 -9.553513e-07 -1.9958281e-06 -3.2715724e-07
5.288819e-07 -3.3129004e-07 -5.172993e-08 2.3512823e-07 -6.635705e-07 1.4983297e-07 -1.304024e-06 -4.374003e-07
3.0687954e-07 3.0904755e-07 8.434313e-08 1.7900422e-07 -8.3202826e-07 -4.1111082e-07 1.3393135e-06 4.854502e-07
-1.086553e-06 2.1175383e-07 -2.0873594e-07 1.1384379e-06 -5.3021e-07 -1.3951404e-07 -7.9968055e-07 4.1480675e-07
1.6061375e-07 -6.625205e-08 8.221579e-07 -2.6886752e-07 4.642743e-07 2.58976e-07 -3.5335134e-07 -6.063471e-07
-2.4713884e-07 6.101867e-07 5.9399537e-07 8.117711e-07 2.0510056e-07 4.890077e-07 9.455129e-07 -1.4492746e-06
2.2442934e-07 -8.6892715e-07 1.0438831e-06 -1.211732e-06 -2.289591e-06 1.5643786e-06 5.253764e-07 8.996391e-07
5.6432214e-07 -1.0793627e-07 -9.907925e-07 -1.1634407e-06 -5.341671e-07 1.500479e-08 -9.608674e-08 9.746713e-07
-5.5610354e-07 5.6001124e-07 -5.111169e-07 -4.21962e-07 -9.9721554e-08 -1.7662386e-07 7.9452934e-07 2.5018315e-07
-2.9004855e-07 1.0757369e-06 2.3793195e-06 7.397994e-07 -1.2236833e-06 -1.7901801e-06 6.475613e-07 -7.2528667e-07
00000000: 386c 74b5 51d9 8033 107a 34b4 3129 1635
00000010: c291 d635 6d4d a3b3 8818 6335 3830 51b5
00000020: ce26 20b5 4374 5b35 f5bc 6eb5 f51a 5bb2
00000030: 5ac9 ef35 8cb9 7b34 2661 7e35 7fa8 f9b4
00000040: c8d0 3f35 c07c a5b4 b937 6935 6f71 1535
00000050: 56ef d4b4 3cd8 7d34 a2b9 93b5 f0c9 80b5
00000060: 2ea0 5d35 3f27 85b5 2b53 dd35 50e9 88b5
00000070: d628 d434 f57d 9835 88f3 ad34 485d 6eb4
00000080: 5583 0bb5 6f17 8bb4 0a66 2435 1d1f 1835
00000090: 6df4 c4b4 73c0 e434 141d 3635 b757 2bb5
000000a0: 31a5 1c35 c3c7 6b34 f286 a6b4 f75d 8b34
000000b0: 602a 82b5 c89e a035 5e3c a434 8c9e 27b3
000000c0: 2950 9fb4 4527 15b4 029d 3135 37ee 98b5
000000d0: edb7 b0b2 16f3 8332 02f8 f334 9be3 6035
000000e0: 7aaa cfb5 7668 e1b4 31cc 40b5 0177 89b4
000000f0: 66cb 6bb4 229e dbb4 72d0 4db4 0713 31b5
00000100: 0a52 d735 e4a5 1935 6b07 af33 1f98 5ab4
00000110: 666f 9d33 4d45 01b4 befe 38b3 4aae eb35
00000120: b4ae e031 3526 fab3 41a6 73b5 0abd 8535
00000130: a64b 6533 9ab7 6d35 6081 2bb3 d274 0c33
00000140: 4f92 60b5 a5a7 0cb5 3236 1334 6cb4 36b5
00000150: ebc9 c132 78e7 8cb3 d356 9e35 b687 0035
00000160: 874c 8b35 96c9 aeb4 1f48 5d35 f7db 1e35
00000170: fb9a 0a35 e0fd d6b4 baf7 10b5 b61b 9934
00000180: 54e2 adb5 0d34 a4b4 2d68 c334 4447 7d35
00000190: 1309 be32 64dd 03b5 2e0f d535 bd39 29b5
000001a0: ba6f 4235 4786 8eb4 5f39 50b4 ffaa 0db6
000001b0: b519 f534 de80 9233 6ea6 1bb6 5e6b 8b34
000001c0: ca6c c6b5 f028 4535 94b3 4e35 a237 94b4
000001d0: d2a4 3635 820b 2635 5592 b734 e458 1e35
000001e0: 5ef0 7335 7aac f933 d212 fe34 9e44 2535
000001f0: 0bc8 2cb4 c6ba 0e35 2cc7 5535 2960 10b3
00000200: 5fa9 bd35 cb75 7835 a109 9134 2f78 5b35
00000210: 1918 30b5 184d 05b3 be28 4e35 3920 3735
00000220: 5e22 1234 05e4 bcb3 ee7c b7b4 2516 2334
00000230: a366 5ab5 7fee 9433 cfc3 6536 64a7 c435
00000240: acb3 3bb5 da5b 1235 7674 dc34 ecd3 8134
00000250: 712a 4535 738c 2d33 25f8 a335 d9f1 9fb4
00000260: fb16 f934 64c3 0435 e2b8 b135 5875 1833
00000270: 7584 c9b3 c2ea 4735 ee5d 12b5 7685 4e35
00000280: 933c 3fb4 6784 79b5 e7b8 3335 fcc1 0fb5
00000290: d1c0 3cb5 baff 31b5 1f3b e2b4 fd2b c235
000002a0: 9103 cdb2 7434 1f36 a820 9eb5 38da aeb4
000002b0: 8dc4 a6b5 43ac 55b5 0aa8 d5b5 2db6 3734
000002c0: bbe1 c9b5 b3cb 92b3 cfe8 dd35 e4c7 c8b5
000002d0: f005 c135 9f39 80b5 11f0 05b6 26a4 afb4
000002e0: 7df8 0d35 28dc b1b4 a92d 5eb3 8e77 7c34
000002f0: 3820 32b5 c6e1 2034 ec05 afb5 d7d3 eab4
00000300: 34c1 a434 2ceb a534 2020 b533 4e34 4034
00000310: 8c58 5fb5 a4b6 dcb4 76c2 b335 e24f 0235
00000320: add5 91b5 735e 6334 e620 60b4 6ecc 9835
00000330: c153 0eb5 54cd 15b4 a1a9 56b5 9bb2 de34
00000340: 2c75 2c34 7346 8eb3 43b2 5c35 df58 90b4
00000350: 6041 f934 6409 8b34 3db4 bdb4 dbc3 22b5
00000360: 81ae 84b4 b6cb 2335 0d73 1f35 7ce8 5935
00000370: 9d39 5c34 5a44 0335 27cf 7d35 b284 c2b5
00000380: abfa 7034 3840 69b5 8d1b 8c35 cba2 a2b5
00000390: e0a6 19b6 a4f7 d135 9707 0d35 ba7e 7135
000003a0: ec7b 1735 98ca e7b3 5ffb 84b5 8527 9cb5
000003b0: af63 0fb5 e2e3 8032 3e58 ceb3 73d1 8235
000003c0: 2547 15b5 ae53 1635 b033 09b5 048a e2b4
000003d0: 8126 d6b3 ffa5 3db4 a447 5535 e950 8634
000003e0: f8b7 9bb4 0a62 9035 66ac 1f36 a196 4635
000003f0: 703d a4b5 1f46 f0b5 13d4 2d35 52b1 42b5

linear_layer1.bias f4 [9]
1.1521657 0.043832164 4.856934e-07 3.6508977e-06 0.64113235 -8.8249135e-07 -0.23578003 4.567403e-06
1.5518157
00000000: 2a7a 933f 5b89 333d 9960 0235 f201 7536
00000010: 4021 243f 58e4 6cb5 5270 71be b141 9936
00000020: e6a1 c63f

linear_layer2.weight f4 [2016, 5]
0.07543992 -7.060178e-05 9.346033e-06 -3.1507683e-05 4.0778483e-05 0.050102226 0.0008496803 0.00018777803
0.00040503027 -0.00042318358 0.16196552 0.083580576 1.954037e-06 -1.1800131e-05 1.4376171e-05 0.033496715
0.014174784 1.7491893e-05 0.00011804848 -0.00011596609 0.11205624 0.021602163 5.7261336e-06 8.659675e-06
-7.888727e-06 -0.05017887 4.665744e-05 -6.650941e-06 8.071861e-06 -1.8861187e-05 -0.019926975 4.8113197e-05
1.1111473e-05 2.528563e-05 -3.2303284e-05 0.046605516 0.0002027636 2.0223171e-05 0.000104434475 -0.00010295539
0.11523103 0.10301803 0.00018155423 0.0006200917 -0.00068751443 0.10134844 3.3380915e-05 1.2215173e-05
6.579312e-07 5.1935144e-06 0.012056076 -1.5855265e-05 -9.932371e-07 -2.1560431e-06 3.9106385e-06 0.08492745
0.002689945 0.00053251546 0.0009913511 -0.0010356518 0.12864624 0.020068238 2.997506e-05 0.00015260708
-0.00016033354 0.13052863 -0.00013071086 -2.5841537e-06 -5.271476e-05 5.556725e-05 -0.0071369433 2.8022398e-06
5.678551e-06 6.3074203e-06 -6.0460197e-06 0.0627556 -3.484467e-05 2.7767912e-05 4.4046836e-05 -5.5633667e-05
0.058238775 0.00030600184 -8.668352e-06 8.680771e-05 -0.00010065014 -0.01603845 -0.0026456357 -0.00045826443
-0.0011448513 0.0012123401 0.17002757 0.020805016 -2.3422662e-09 5.5785654e-06 -8.108379e-06 0.010467713
1.6076607e-06 1.0967631e-06 8.209601e-10 -1.7133226e-06 0.08268595 2.4112965e-06 6.576669e-07 -1.173551e-06
4.3903225e-07 0.1755877 0.040238127 2.1188214e-06 9.730524e-06 -1.5224021e-05 0.17312275 0.035987135
-5.610162e-07 4.3095726e-05 -4.9143448e-05 0.04369856 0.00040776632 2.72422e-06 0.00014115534 -0.00015694214
0.08440051 -9.7569784e-05 4.1999523e-05 3.706574e-05 -3.556089e-05 0.10335029 0.00044275177 -1.413969e-06
2.5040526e-06 -1.1026044e-07 0.1431397 0.013627017 2.2852193e-05 0.00012613363 -0.00013719355 0.039036863
0.0001727724 2.8734701e-05 5.1780957e-05 -4.935267e-05 0.17372945 0.058391556 -0.00014168132 -0.00020593822
0.00020120533 0.074596636 0.009332041 -4.653839e-06 8.5081905e-07 -6.5475897e-06 0.14078379 0.04336519
-3.1723291e-06 -9.415625e-07 1.5549994e-06 -0.052889913 -0.005035285 -2.3975085e-06 4.929394e-06 -6.184019e-06
0.018413564 5.423073e-05 1.5072235e-06 1.796546e-05 -1.3908195e-05 4.777951e-06 1.1727428e-06 1.4468895e-06
-1.4800514e-06 -9.2419197e-07 -4.2827807e-05 -6.8064137e-06 4.535868e-07 -6.006344e-07 -3.8151998e-06 -0.05118824
2.8202671e-06 1.3263324e-06 1.7908971e-07 3.3667955e-06 -0.05322379 -0.000103142906 -2.107258e-05 -3.432565e-05
2.1504482e-05 0.13543876 0.03222158 5.828961e-07 1.7642698e-05 -2.0694064e-05 -0.044692792 -3.9474013e-05
2.0373107e-06 -1.0043979e-06 -3.1681045e-06 0.030806277 6.6589274e-07 4.0661366e-06 6.498186e-07 -5.328443e-06
2.4779882e-05 1.787794e-05 9.402306e-06 6.553654e-06 -1.0036939e-05 -0.00029793495 -3.1496559e-06 4.0725e-06
-2.7612444e-07 -2.598122e-06 -0.03567414 -3.121535e-05 1.990366e-06 3.2503422e-06 -2.1527521e-06 -0.009569803
-2.4602827e-05 -5.355402e-06 -4.240074e-06 3.2965968e-08 -0.027888918 -5.32531e-05 -4.6954705e-07 4.635463e-06
5.538303e-06 -0.10852544 -7.39004e-06 -1.162082e-06 1.4406097e-06 3.226838e-06 -0.036895912 -0.00013116463
-2.3663891e-07 -4.4775547e-06 -1.4918061e-07 -0.0272837 -1.2999143e-05 -1.5458079e-06 -4.6029154e-06 4.9757464e-06
-0.057256356 -6.573968e-07 2.789063e-06 2.6054413e-06 -1.3296067e-06 -0.005829401 -2.4573026e-05 -6.7155895e-08
-1.3552358e-05 9.622728e-06 -0.039654426 4.6048676e-06 4.6642614e-07 8.219804e-08 8.0189676e-07 -3.6290945e-07
00000000: 3f80 9a3d 0b10 94b8 e8cc 1c37 1e27 04b8
00000010: 9009 2b38 fe37 4d3d 14bd 5e3a 48e6 4439
00000020: 3e5a d439 bdde ddb9 4ada 253e 4b2c ab3d
00000030: 1a22 0336 2df9 45b7 2f31 7137 da33 093d
00000040: 5a3d 683c 8ebb 9237 cc90 f738 d232 f3b8
00000050: be7d e53d 05f7 b03c 1d23 c036 0549 1137
00000060: d359 04b7 5c88 4dbd 0bb2 4338 262b dfb6
00000070: 616c 0737 1738 9eb7 e53d a3bc 27cd 4938
00000080: 6a6b 3a37 7a1c d437 637d 07b8 6de5 3e3d
00000090: f09c 5439 eea4 a937 d503 db38 c1e9 d7b8
000000a0: 3ffe eb3d 1efb d23d 985f 3e39 a68d 223a
000000b0: 503a 34ba c58f cf3d 7c02 0c38 c5ef 4c37
000000c0: b09c 3035 f343 ae36 d986 453c ec00 85b7
000000d0: 5e4f 85b5 8ab0 10b6 2138 8336 71ee ad3d
000000e0: ca49 303b 8298 0b3a 39f0 813a b5be 87ba
000000f0: d7bb 033e 2566 a43c f472 fb37 2705 2039
00000100: 351f 28b9 4ca9 053e 6e0f 09b9 6c6b 2db6
00000110: 0b1a 5db8 e110 6938 05dd e9bb 1d0e 3c36
00000120: 628a be36 54a4 d336 eade cab6 0286 803d
00000130: 2e26 12b8 23ef e837 eebe 3838 3258 69b8
00000140: c88b 6e3d df6e a039 4a6e 11b7 890c b638
00000150: 2214 d3b8 1163 83bc 6762 2dbb 3643 f0b9
00000160: d60e 96ba 62e7 9e3a b51b 2e3e 486f aa3c
00000170: 95f5 20b1 832f bb36 3909 08b7 c580 2b3c
00000180: cdc6 d735 7e34 9335 eea9 6130 51f5 e5b5
00000190: 4057 a93d c2d1 2136 868a 3035 e882 9db5
000001a0: 22b4 eb34 43cd 333e bcd0 243d 1331 0e36
000001b0: 4840 2337 ac6a 7fb7 1747 313e 3f67 133d
000001c0: bd98 16b5 afc1 3438 601f 4eb8 43fd 323d
000001d0: 78c9 d539 bed1 3636 1903 1439 d690 24b9
000001e0: 2dda ac3d 619e ccb8 a528 3038 0977 1b38
000001f0: 3727 15b8 51a9 d33d 2321 e839 9bc7 bdb5
00000200: 4c0b 2836 51c8 ecb3 3793 123e da43 5f3c
00000210: b6b2 bf37 bd42 0439 9ddb 0fb9 1ee5 1f3d
00000220: 3d2a 3539 4d0b f137 612f 5938 0700 4fb8
00000230: 22e6 313e fc2b 6f3d 4a90 14b9 1ff1 57b9
00000240: a5fa 5239 1fc6 983d 6be5 183c 2c28 9cb6
00000250: d763 6435 5eb3 dbb6 a029 103e b39f 313d
00000260: 33e4 54b6 afbf 7cb5 5fb5 d035 18a3 58bd
00000270: 08ff a4bb e2e4 20b6 2c67 a536 5280 cfb6
00000280: 0bd8 963c ce75 6338 ce4b ca35 88b4 9637
00000290: 3e57 69b7 4952 a036 2367 9d35 bf32 c235
000002a0: 2ea6 c6b5 fd15 78b5 02a2 33b8 a662 e4b6
000002b0: 7f84 f334 483b 21b5 5104 80b6 c3aa 51bd
000002c0: d243 3d36 6f04 b235 ce4b 4034 1bf1 6136
000002d0: 3001 5abd 6d4e d8b8 05c5 b0b7 e3f8 0fb8
000002e0: 8664 b437 75b0 0a3e c7fa 033d 5178 1c35
000002f0: 68ff 9337 2a98 adb7 ca0f 37bd e690 25b8
00000300: bbb8 0836 d9ce 86b5 9f9b 54b6 725d fc3c
00000310: cdbf 3235 d96f 8836 326f 2e35 faca b2b6
00000320: 64de cf37 95f8 9537 99be 1d37 76e7 db36
00000330: 5364 28b7 2734 9cb9 ad5e 53b6 82a6 8836
00000340: 413e 94b4 655b 2eb6 0c1f 12bd 3aed 02b8
00000350: 3a92 0536 7420 5a36 0078 10b6 aaca 1cbc
00000360: 2b62 ceb7 8eb2 b3b6 f545 8eb6 7796 0d33
00000370: 4d77 e4bc 155c 5fb8 0e16 fcb4 538a 9b36
00000380: a9d5 b936 9642 debd f6f7 f7b6 d5f8 9bb5
00000390: f95a c135 a88c 5836 2b20 17bd 3d89 09b9
000003a0: cf16 7eb4 e73d 96b6 742e 20b4 1182 dfbc
000003b0: e516 5ab7 8e79 cfb5 be72 9ab6 56f5 a636
000003c0: a485 6abd f777 30b5 bd2b 3b36 24d9 2e36
000003d0: f074 b2b5 8f04 bfbb 2c22 ceb7 5837 90b3
000003e0: ef5e 63b7 4d71 2137 ae6c 22bd 8383 9a36
000003f0: 1f69 fa34 da84 b033 ed41 5735 e5d5 c2b4

linear_layer2.bias f4 [2016]
-0.035940167 -3.093962e-06 0.70628 5.3343547e-07 0.699158 -1.365724 -0.63137066 -0.24203375
0.13489582 -0.6135042 -0.77132255 -0.055248667 1.6639036e-07 0.52382606 -0.8016749 0.11472581
-1.1813288e-06 -0.85771835 1.0574766 -0.30593467 1.3179813e-06 1.2792344 3.454591e-06 -0.33181238
0.46302792 -3.1895377e-07 0.68498886 -3.6093584e-06 0.72711617 0.55125636 0.8489688 -0.48971605
0.3059356 7.9618235e-07 5.883786e-07 -0.18419808 -2.4205185e-06 2.0188935 -0.0012271927 0.35814026
0.17882246 -7.7680886e-07 3.3687806e-07 -6.294443e-07 0.080694094 -0.65216196 -1.4993412e-06 5.998777e-07
-0.4255564 0.06864896 2.892179e-07 0.5884782 1.5243396 0.38816568 1.0167843 -0.3803688
0.29068217 0.11894037 0.0057569966 8.923489e-07 -9.246142e-08 -3.785938e-07 0.18684745 0.20952044
-0.36112392 -5.9309116e-07 -0.025965532 0.045657128 -1.7167766 -0.024851583 -0.957225 3.4520968e-07
0.096846014 -2.9860604e-07 -1.3416609e-07 -0.15774447 1.2793933 -0.66433287 -0.7818025 1.146046e-06
0.4780404 0.12643269 1.0256083 -0.25530815 -2.9179514e-06 -8.791666e-07 0.9518531 6.148384e-07
-0.21837829 1.4462694 0.6287072 1.2199013 -8.261123e-06 -0.1291516 -0.41893914 0.45435873
2.0932527e-09 -0.22516905 0.38397908 -1.6704367e-06 -0.25284246 -1.1809549e-06 1.18999154e-07 0.17548998
0.23710233 0.32252783 0.60457355 5.096982e-07 -0.6986607 0.18281698 6.3638714e-07 -0.0020276795
-0.35467303 -8.032039e-07 0.10250197 0.8367692 -1.2817411 1.2752166 1.6051244 0.57323575
0.4084732 -2.0584872e-08 1.0653472 0.90972173 2.0052078 -0.070370786 -2.2371696e-05 -0.5729653
-5.74269e-05 0.50257725 -0.25700524 -5.208719e-05 -1.0710715 -1.610104e-06 -1.7588012e-06 6.6908063e-07
-0.15262294 0.29999506 -0.67672664 -0.8220163 0.03950339 1.2097211 3.0767723e-07 0.64262563
9.841351e-07 -0.3088052 -2.0153568 -0.57866436 4.0584255e-06 0.42488176 -0.19385494 -0.8814183
4.708123e-08 -0.18163608 -0.5821059 -0.3339194 1.111608e-07 -8.799362e-07 0.06691388 -0.19380622
2.1658849e-08 -1.2147692 1.0139887e-06 0.68946546 -0.5618156 2.1563928e-06 0.7378982 -0.32505503
-4.3564827e-07 -1.7281733 -3.0382682e-07 -0.14704205 -0.2537436 -0.022624703 -0.36224067 4.8497213e-07
-0.30229333 -5.3576474e-07 1.3561381 -4.0431743e-07 0.38842395 -8.1242365e-07 -1.4810198e-07 0.35529917
-0.0067099617 1.9244447e-07 1.5371177e-05 -0.7006051 0.061443385 -0.14926252 0.012653516 1.2476847
-1.1320914e-05 -1.0907332e-06 -0.956745 1.2339234e-05 0.034284193 -0.24617119 -0.5409026 0.8021572
-1.1192851 -1.3544413 -1.3217525 1.2388662e-06 3.50842e-06 1.5199583e-05 -0.37162438 -9.01225e-06
0.47421297 -2.2415541e-05 1.202425 -3.2481762e-06 -0.4087068 0.5615768 -1.1773688 0.174515
0.13316216 -0.36083135 -1.1656077 0.01703372 -0.5178604 0.67296296 9.867439e-07 -0.5777923
5.1221053e-07 0.7750678 -3.542212e-08 -0.5571777 3.3595083e-07 -2.1201613 -6.4743415e-07 -2.93839e-09
0.58568573 -0.40186805 1.9008242 0.34665218 7.0730175e-07 3.0431675e-06 -6.62083e-08 0.114484005
2.1954327 -1.1826589e-06 0.5419323 1.0745993 -1.8493918 -3.2818352e-07 -0.7017459 0.47082117
-1.085108e-05 -0.60421133 -0.39535594 0.039235823 0.83823764 0.02587788 -0.1040983 8.546197e-07
00000000: ff35 13bd dda1 4fb6 c4ce 343f 6831 0f35
00000010: 05fc 323f 0bd0 aebf 82a1 21bf b2d7 77be
00000020: 2122 0a3e 9c0e 1dbf 6575 45bf 6d4c 62bd
00000030: 09a9 3234 7719 063f 913a 4dbf 5ef5 ea3d
00000040: 268e 9eb5 6e93 5bbf 655b 873f 78a3 9cbe
00000050: 7ee5 b035 f4bd a33f 6cd5 6736 50e3 a9be
00000060: ff11 ed3e ac3c abb4 6e5b 2f3f 4e38 72b6
00000070: 4924 3a3f 231f 0d3f 0556 593f 10bc fabe
00000080: 97a3 9c3e 3cb9 5535 12f1 1d35 6c9e 3cbe
00000090: 3170 22b6 8d35 0140 c1d9 a0ba 295e b73e
000000a0: 3c1d 373e e685 50b5 2bdc b434 15f7 28b5
000000b0: f242 a53d 16f4 26bf f93c c9b5 4807 2135
000000c0: 87e2 d9be d397 8c3d ce45 9b34 82a6 163f
000000d0: 8f1d c33f a7bd c63e fd25 823f b3bf c2be
000000e0: 4bd4 943e 0297 f33d 30a5 bc3b c089 6f35
000000f0: 348f c6b3 8941 cbb4 f054 3f3e 878c 563e
00000100: 3ce5 b8be ea34 1fb5 abb5 d4bc f802 3b3d
00000110: 56bf dbbf 8c95 cbbc b30c 75bf 4255 b934
00000120: 3457 c63d 1a50 a0b4 4b0f 10b4 c487 21be
00000130: 29c3 a33f b811 2abf 3524 48bf d7d1 9935
00000140: b6c1 f43e 9277 013e 2247 833f c0b7 82be
00000150: 06d2 43b6 deff 6bb5 a5ac 733f 600b 2535
00000160: 8f9e 5fbe 5b1f b93f f4f2 203f ba25 9c3f
00000170: 4199 0ab7 5140 04be 317f d6be b5a1 e83e
00000180: e4d8 0f31 b792 66be e898 c43e c533 e0b5
00000190: 9174 81be 4d81 9eb5 7a8c ff33 a5b3 333e
000001a0: f4ca 723e 5e22 a53e 55c5 1a3f 32d2 0835
000001b0: 6ddb 32bf 6034 3b3e 31d4 2a35 d1e2 04bb
000001c0: b497 b5be c09b 57b5 8eec d13d 8236 563f
000001d0: 1810 a4bf 4c3a a33f b774 cd3f 94bf 123f
000001e0: 6623 d13e 9dd2 b0b2 4c5d 883f 86e3 683f
000001f0: 5355 0040 8f1e 90bd daaa bbb7 dbad 12bf
00000200: aadd 70b8 e7a8 003f 3196 83be 3278 5ab8
00000210: df18 89bf c11a d8b5 f30f ecb5 df9a 3335
00000220: 3049 1cbe f498 993e f53d 2dbf a96f 52bf
00000230: 4fce 213d 24d8 9a3f d62e a534 1d83 243f
00000240: a016 8435 b71b 9ebe 9bfb 00c0 5923 14bf
00000250: 9c2d 8836 1a8a d93e e981 46be a1a4 61bf
00000260: 5c36 4a33 cffe 39be e404 15bf 7cf7 aabe
00000270: 4cb7 ee33 c134 6cb5 250a 893d 2375 46be
00000280: 500c ba32 8f7d 9bbf 6318 8835 cf80 303f
00000290: 26d3 0fbf 8cb6 1036 e5e6 3c3f 9d6d a6be
000002a0: 0be3 e9b4 c834 ddbf a41d a3b4 3192 16be
000002b0: aeea 81be 7157 b9bc 9c77 b9be 082f 0235
000002c0: 31c6 9abe 79d1 0fb5 ef95 ad3f f710 d9b4
000002d0: 81df c63e 5415 5ab5 f605 1fb4 c6e9 b53e
000002e0: 3ddf dbbb bca2 4e34 5af1 8037 db5a 33bf
000002f0: 0fac 7b3d 46d8 18be b150 4f3c 22b4 9f3f
00000300: f5ee 3db7 4f65 92b5 3eed 74bf 9b04 4f37
00000310: 956d 0c3d 4d14 7cbe 9878 0abf 2d5a 4d3f
00000320: bc44 8fbf 555e adbf 302f a9bf 1e47 a635
00000330: 3272 6b36 b601 7f37 8d45 bebe 5233 17b7
00000340: 0bcc f23e 0209 bcb7 10e9 993f 3efb 59b6
00000350: 0542 d1be 7fc3 0f3f 05b4 96bf 0fb4 323e
00000360: a95b 083e e3be b8be a232 95bf 4d8a 8b3c
00000370: 8092 04bf 4d47 2c3f 4370 8435 32ea 13bf
00000380: d77e 0935 d86a 463f 0823 18b3 33a3 0ebf
00000390: bb5c b434 b9b0 07c0 56cb 2db5 b4ec 49b1
000003a0: 80ef 153f a6c1 cdbe 354e f33f 657c b13e
000003b0: 68dd 3d35 3839 4c36 662e 8eb3 9776 ea3d
000003c0: f881 0c40 dabb 9eb5 13bc 0a3f 788c 893f
000003d0: dfb8 ecbf 3331 b0b4 9fa5 33bf 790f f13e
000003e0: 090d 36b7 98ad 1abf 186c cabe beb5 203d
000003f0: be96 563f d9fd d33c 7d31 d5bd 0569 6535
