model/attention_net_u_artificial_Q_9_K_6_F_5_REG_L0_ACT_sigmoid_WD_00001_CV.model (torch_old, 52157 bytes, 6 tensors)

key_matrix f4 [9, 6]
00000000: fb66 d6bf 8459 52bf a400 553e 195d e5bf
00000010: 0496 99bf 2f52 20bf fd1b 0ebf 9a82 c7bf
00000020: 6305 e83f 9e6f 983f dc7a 9abf d41d 75be
00000030: edca 893e 3538 a03f 9db8 6f3f 4e62 cbbf
00000040: 8ed9 0fbe 5e6d 663f 4921 e8bf 0901 6d3f
00000050: 422e 88bf d6f1 593e 1ac5 343f a6ce 5dbd
00000060: ee54 5bbd 7050 f33d 76bb f03f 6107 f03f
00000070: 3356 19be fa14 353f 1336 bf3e bc8b b53f
00000080: 4ce7 1ebf d105 213d c8cd 92bf 0218 5e3e
00000090: 1563 98bd 06ff b0bf 59c8 e23f b194 b53f
000000a0: f862 85be d5a2 993e 18af 883f 391d 733d
000000b0: aa59 c03e 2f0d 0b3f f1b2 873e 2774 85bf
000000c0: 4e51 84bf 778b b6bc 4aaf 1640 dc21 893e
000000d0: b840 d63f 078f 5fbe
-1.6750177 -0.8216784 0.20801026 -1.7919036 -1.1998906 -0.626254 -0.55511457 -1.5586731
1.8126644 1.1909063 -1.2068744 -0.2393716 0.26912633 1.2517153 0.9364107 -1.5889375
-0.14047834 0.9001063 -1.8135158 0.92579705 -1.0639117 0.2128366 0.70613253 -0.054152153
-0.053547792 0.118805766 1.8807209 1.8752252 -0.14974289 0.7073513 0.37345943 1.4183269
-0.6207168 0.039312188 -1.146905 0.21688846 -0.074407734 -1.3827827 1.7717391 1.4186002
-0.2605207 0.30007043 1.0678434 0.05935404 0.37568408 0.5431699 0.2650371 -1.0426072
-1.0337312 -0.022283299 2.3544488 0.26783645 1.67385 -0.21831904

value_matrix f4 [6, 5]
00000000: 586f c63f 82ac 453f bbb6 c9bd 73ad aebf
00000010: c256 5a3f fda5 d83f 94dc a03f 29a8 8fbc
00000020: d8f8 95bf c40b fb3e 7916 b640 f9ce 6c3e
00000030: b199 f1bf b9f6 f6bf 5ad4 73c0 43a3 0440
00000040: 6848 a63e 79d1 89bf 9cf8 79bd bca5 68bf
00000050: 4852 bcbf 9f6a 2bbe ea46 c33f aad8 dabf
00000060: a2dd 0240 e000 843f a4cd 7bbf 54b4 023f
00000070: c6ba 11be 47e9 2bbf
1.550273 0.7721635 -0.09849306 -1.3646683 0.8528863 1.6925656 1.2567315 -0.01753624
-1.1716566 0.49032414 5.6902432 0.23125829 -1.8875028 -1.9294044 -3.809836 2.0724647
0.32477117 -1.0767051 -0.061028108 -0.9087789 -1.471261 -0.16739891 1.5256016 -1.7097371
2.0447774 1.0312767 -0.9836066 0.5105641 -0.14231405 -0.6715283

linear_layer1.weight f4 [9, 64]
00000000: eb79 003e 8beb 413d c5b4 673e 3494 583e
00000010: ba91 463e 2109 53bd 04ca 2a3c 0cf3 8a3e
00000020: 86fa a33e aebf b6bd cd3c 123e 3d01 cb3d
00000030: 22ce 2a3e 407a 56bd 1892 f13d e579 66bd
00000040: a298 953e 0495 933e 7785 a9bd 6203 9fbc
00000050: bb87 b33b 2f62 043e a156 de3d 2779 24be
00000060: 51f2 8f3e ec24 823e 7c48 5abe 57b1 243d
00000070: 6d1b 8d3e 6139 06bd b2da f63d f181 c03d
00000080: f429 66be dd03 4c3d d4fc 78bd 80a0 863e
00000090: 6612 6dbe b0ae 033e 501d bfbd 0e8e 133e
000000a0: 497b 033d a0c1 60be beba 893e 8b76 943e
000000b0: eeb2 1c3e 59f1 18be 1f84 a5bd a5dc 943d
000000c0: f72b a13d 46cc 5cbe 7cee 813e f45d 2f3e
000000d0: 3d6b 853e 67a0 44be 553d 993d 8bf7 82be
000000e0: 49ed 583d ef7d d53d fc7c 743e 0d25 a1bd
000000f0: f849 8c3e 0332 31be 1fa5 ccbd b7f0 643e
00000100: cbdd 323e 2545 663c 6e82 58be 0ddd 11be
00000110: 40a1 32be c5b3 ccbd bbaf 073e 54cf 2f3e
00000120: e839 04be 64fd 52bd 5fc3 04be 8a13 0b3e
00000130: 0590 03be 762c 9bbd 6c11 0a3e 3d4b e3bd
00000140: 487d 523e 2e49 f5bd 999a ae3c 337b e1bd
00000150: bb7e c33b 0425 843d cb56 873e 78d0 a33d
00000160: 9b1e dfbd f97d 463e da74 e83c 24a9 3cbd
00000170: 28fe 903e ae55 8f3e e6bf 993e 89d4 383e
00000180: 3797 863e 092d 463e ba9c 653e 383f 60be
00000190: 87c9 92bd 1cd2 2dbe 5cec a73d 72c8 8f3e
000001a0: d0a4 aabd 9505 6e3c 9a75 163e a12b 95bd
000001b0: c5f7 82be 1b62 abbd dadd 913e beab fdbd
000001c0: b495 4cbe dc22 b8bd ed59 653e 23f3 753e
000001d0: dd87 d2ba b702 50bd 45e7 383e c0f8 3a3e
000001e0: c327 59be ac8b e53d 3774 8b3e 5de8 8d3e
000001f0: fed7 ec3d c11f 0e3e 7fd6 1cbe 9739 843e
00000200: 5009 f5bd 01cc 05be 1209 773e ce10 6ebd
00000210: 3246 74bd 14df 6dbe 1d98 debd 4dcf 5abe
00000220: fd88 f13d 271f 1dbe d7b4 63be 60c5 4d3e
00000230: 10b3 3cbe 1be0 063d e875 3b3e 7b4d 26be
00000240: 66c2 333d 6941 883e 1e6a 6dbe 04c2 5a3e
00000250: 97a7 23be 4d12 863e a6eb 6cbe 5846 013e
00000260: 070f d4bd 44ef 963e 84a7 09be aa9d 66be
00000270: a524 5b3e 599a 5d3e 02a1 a13e 5770 9b3e
00000280: 2d3d e6bd f0b6 70be ef2e d73d 69c5 3b3e
00000290: 197b 32be dfc8 943c 4849 81be 4d8f 133e
000002a0: 0bda 2bbd a094 cf3d 3ecb ccbc aed1 8dbe
000002b0: cdc2 eb3c b4ac 933e 1772 10be e23d 343e
000002c0: 1ebf f9bd 47a7 1f3e 55b6 fcbd e35c d83c
000002d0: f725 863e 004e e9bd 9676 f73d 41bb 8d3e
000002e0: 167f 8b3e e0cf 2ebe 9080 84be 51f2 033c
000002f0: 4c51 823d f6ea 4d3d 1cbd 3fbe 5a29 2e3d
00000300: a089 8cbe a09a e4bd aea8 93be 4cf0 fdbd
00000310: cd14 cd3c 3a4a 06be e6c2 a83c a498 08be
00000320: 38a3 47be fafe 2f3e 7745 72be 1e90 f9bd
00000330: 5319 bfbc c72c 45be e8c0 473e fc2a a6be
00000340: d8a9 82bd 858f 9c3d 2a85 1f3e b6c3 53be
00000350: 5b24 14bb 587d 71bd 9c39 19be 906f 973d
00000360: ba4b 1c3e 3fab 4fbe 8182 5fbe a200 a0be
00000370: 0c12 1abe 7e97 0e3e 2fc7 763e 1692 403d
00000380: 79ed 3a3e 1954 ec3d 3123 88be 1782 a53d
00000390: 20eb 1dbc 13fe 423e 1b90 2cbe bdcb 58be
000003a0: 3a55 7e3e 735d f33d 3313 2bbe 5a03 8cbe
000003b0: 9a06 473d 9375 8abe fb7d 833c c652 fabd
000003c0: 0a03 3e3e 8de0 88bd 776d 5e3e 80b6 8cbe
000003d0: ae45 bd3d dcbf 8ebd 7635 693e 7d53 8a3e
000003e0: 17ef 5d3d 4f7b 92be af8a 603e c72e 163e
000003f0: 6e81 bf3c 7478 84be 764d 363e 1c8b 05be
0.12546508 0.047343772 0.22627552 0.21150285 0.19391528 -0.051522378 0.010424141 0.27138555
0.32027072 -0.08923279 0.14281006 0.099123456 0.16680196 -0.05236268 0.11795443 -0.05626859
0.29218012 0.28824627 -0.082774095 -0.019410793 0.005478827 0.12928079 0.10856367 -0.16061841
0.2811456 0.25418794 -0.21316713 0.040208187 0.27559987 -0.032769565 0.120534316 0.09399784
-0.22476941 0.04980837 -0.06078799 0.26294327 -0.2315155 0.12859607 -0.09331763 0.14409658
0.032099996 -0.21948862 0.26900285 0.2899669 0.15302631 -0.14935817 -0.08081841 0.07268647
0.07869714 -0.21562299 0.25377262 0.17125684 0.2605838 -0.19201814 0.07482401 -0.25579485
0.052960668 0.104244106 0.23875803 -0.07868395 0.27400184 -0.17304234 -0.09992432 0.2235745
0.1746742 0.014054571 -0.21143505 -0.1424448 -0.17444324 -0.09995226 0.1325063 0.17168933
-0.12912714 -0.051511183 -0.12965153 0.13581672 -0.12847908 -0.075768396 0.13483208 -0.11098335
0.20555604 -0.119768485 0.021313952 -0.110098265 0.005966035 0.06452373 0.26433405 0.07998747
-0.108945094 0.19383992 0.028376032 -0.046059743 0.28318906 0.27995056 0.3002922 0.18049826
0.26287243 0.19353117 0.22423068 -0.21899116 -0.071673445 -0.16974682 0.08199379 0.28082615
-0.08332217 0.014527698 0.14693299 -0.07283712 -0.25579658 -0.083683215 0.28489572 -0.12386273
-0.19978982 -0.08991024 0.22397585 0.2401853 -0.0016062219 -0.05078384 0.18056972 0.18258953
-0.21206574 0.11208281 0.27237102 0.27716342 0.11564635 0.138793 -0.15316199 0.25825188
-0.11964667 -0.13066103 0.24124554 -0.058121495 -0.059637256 -0.23229629 -0.10868857 -0.21368141
0.117937066 -0.15343915 -0.22236954 0.20094824 -0.18427682 0.032928567 0.18306696 -0.16240494
0.043886565 0.26612404 -0.23185012 0.21363074 -0.15981899 0.26185837 -0.23136768 0.1262449
-0.10354429 0.2947942 -0.13442808 -0.22521082 0.21400698 0.2164091 0.31568152 0.30359146
-0.11242137 -0.23507285 0.10506999 0.18337025 -0.1742977 0.018162189 -0.25251222 0.14410134
-0.04195599 0.1013577 -0.024999257 -0.27699035 0.028779412 0.288427 -0.14106022 0.17601731
-0.12194656 0.15591155 -0.123394646 0.02641148 0.2620084 -0.113918304 0.12083165 0.27681926
0.27245396 -0.17071486 -0.25879335 0.008053378 0.063631624 0.050272904 -0.18724483 0.042519905
-0.2744875 -0.11162305 -0.2883963 -0.123993486 0.025034333 -0.13114253 0.020600747 -0.13339478
-0.19495857 0.1718711 -0.23659311 -0.12185691 -0.023327505 -0.19255362 0.19507182 -0.3245467
-0.063800514 0.07644562 0.15578142 -0.20680127 -0.0022604677 -0.058957428 -0.14963382 0.07394326
0.15263262 -0.20280169 -0.21827127 -0.31250483 -0.15045947 0.13924977 0.2409942 0.04701432
0.18254651 0.11539478 -0.2658935 0.08081453 -0.009638578 0.19042234 -0.16851847 -0.2117147
0.24837199 0.118830584 -0.16706543 -0.27346307 0.04859028 -0.27042827 0.016051283 -0.12222819
0.18555847 -0.06683455 0.21721445 -0.27482986 0.09241806 -0.06970188 0.227743 0.27016822
0.054183092 -0.28609702 0.21927904 0.14666282 0.023377147 -0.25873148 0.17802987 -0.13041347

linear_layer1.bias f4 [9]
00000000: b936 f7bd a02e aa3f 43a7 6e3f e34f 97bf
00000010: 06ad b03f 9ac7 99be a7a3 c3be 0c17 bdbf
00000020: 2637 b23f
-0.120709844 1.3295479 0.9322397 -1.1821254 1.3802803 -0.30035096 -0.38210794 -1.4772658
1.392308

linear_layer2.weight f4 [2016, 5]
00000000: 6f0c 7cbe b6d8 d9bc 4b0b af3d 40cb ce3d
00000010: 71b0 2b3e 6243 813d 04c1 e1bc c1a6 4fbd
00000020: 5023 7f3c 3764 f0bd 626a 5bbe d13e 6fbd
00000030: 32f0 033e a61d b83d 736b 233e 5b5c b1bd
00000040: 8f9d 0b3c 60da 803d 825e 3e3c 0723 723c
00000050: e754 a93d 2e12 d53c dc7d 65bd 38d2 64bd
00000060: e69e 0dbd 14b9 d93d 86a5 72bc 7251 47bd
00000070: d665 3dbd e5c5 bcbb 6f96 a63d df9a 643c
00000080: 0b86 023d 8956 f7bc 8d90 5dbd bc4f 05be
00000090: ca50 973c 8ff3 a03a 1fd5 ccbb 4a70 093e
000000a0: 5b39 3cbe 4229 41bd 4097 353d 58a0 aa3d
000000b0: 5006 c93d 8c0a cdbc 0c5b b0b9 5769 8c3d
000000c0: 6c44 e2bc d4e2 c53d d0d9 3abe 7996 63bd
000000d0: 4572 c93d 426a 903d 4e87 c93d 06c9 9abe
000000e0: 6b43 87bd 4bf0 a53d 7b74 073e ad7f 333e
000000f0: 213d b8bd ae06 b43a 8536 2b3d 60ad a9bb
00000100: 18b7 333d dce5 2ebd 903c 4fbc 41a6 893d
00000110: 85ab 4e3d 6ab4 8a3a 59d9 4fbd 0e0b 2fbd
00000120: 6da3 70ba f2ad b33b 01a3 6c3d 51c4 3ebc
00000130: 7eac 43bc 5b20 aa3c 21a6 053d fbde 70bc
00000140: f6cd 2ebd b383 35bd 5757 f33c a2ed 713d
00000150: e1ba 3b3d cf85 3cbe b5c8 293d 4d5b b63c
00000160: d7a4 823d 2502 0a3e 033d 2abe c8a3 89bb
00000170: 38e8 cb3d bd7d 403d f07a cb3d 406b 0f3c
00000180: 3b44 b7bc 5267 a23b 004f 36bd 8ff5 483c
00000190: 9342 2cbe 23c0 63bd 92e6 ff3d e6d9 cc3d
000001a0: 0fab 163e e19e 8cbe 9741 fc39 a55b 7c3d
000001b0: 7674 033e 5be2 253e 877f 65be 16ab 63bd
000001c0: fc20 d33d 4589 803d 7d68 193e 125b 0c3e
000001d0: efe5 1b3c 47ec c93c bf70 25bd 02b9 2fbc
000001e0: ec45 40bd 8fc4 afbc 5235 e0bb 7b25 a9bc
000001f0: b0cd 6a3c e259 c9bd 4e6e 90bc 4220 1d3d
00000200: 82e6 993d 5e76 1c3d 8c76 993d dccf 2dbd
00000210: 690f 48bc 8d1a 603c d2ba 07bd c89c 4cbe
00000220: 4b7d 5ebd 61e7 323d ac37 7c3d fc02 f23d
00000230: 078a 8dbe 004f 283c dc9d fb3d 473e 733d
00000240: a467 523e 50b0 45bc 365a 1cbc 581b 02bd
00000250: 73cc 163d ea4e d3ba 8db6 9bbd 1d43 3d3d
00000260: 352c ab3d 0dd3 b53d 715f 003e b854 1dbe
00000270: 5a02 53bd 09d0 2f3d 8a0a a9bc bd75 2a3d
00000280: cd4f df3d 68a4 003c bd17 97bd f1b0 73bd
00000290: 0ceb 0dbd d15e 21be 31f4 283d 1e52 923c
000002a0: 2bfc 383d 969c 1b3e 0cf9 9abd 3202 bebc
000002b0: 016f 963d dbe4 a93d 9fce 5d3d 12db 3b3d
000002c0: f518 c33c 0c09 8d3c 5f68 3d3b 19a8 0cbd
000002d0: 5374 ab3c 390c 3e3d d659 9cbd d187 81bc
000002e0: f1e1 84bd b6a4 b4bc d3ca 3c3d bc06 7abb
000002f0: 5e7a 6bbb e191 2bbd f35e db3b 1c53 56bd
00000300: c858 213d e6b9 d03b bbbe 98bd f88d 683e
00000310: 1eb1 94bc 16f8 62bd 3f6d d4bd 3f59 24be
00000320: 99ff 803d 45fb 1f3d 31ce 67bd e9dd 63ba
00000330: db1f 48bc aa17 2f3c 892d 24bd 61fb 74bd
00000340: b589 71bd 4f22 babd a2ab 1a3d 53d2 d93c
00000350: 1cd6 69bd 54ce ecbc 5ace 053d e2d2 473e
00000360: 95cc 03bd 9c52 a0bd 82d9 03be 6432 e0bd
00000370: 88c9 3f3e 3545 063d 762b 1abd 99c2 37bc
00000380: 0117 8fbd bf28 e43d 4e72 733d 46c2 7ebd
00000390: d32a a0bd 9989 9abd 0148 053e 067c cd3c
000003a0: 8766 b9bc b7bd 88bd b3a5 a4bd ca9f 253b
000003b0: 0bbd 19ba 19af 04bb 631b 0e3c 1475 49bc
000003c0: cf2a 233d cb0e 263d 073c 253d 1eb2 63bd
000003d0: ea6e cf3c 412c a83c 9845 14bd 62c2 2abd
000003e0: c109 573d 5fca 643d 786d 063e d940 393d
000003f0: 5d27 5bbd b04c a0bd c96d 2bbc d326 e3bd
-0.24614118 -0.026592594 0.08547076 0.100973606 0.16766526 0.063116804 -0.027557857 -0.05069614
0.015572384 -0.117378645 -0.214273 -0.058409516 0.12884596 0.0899003 0.15958957 -0.086601935
0.008521452 0.06291652 0.011619212 0.014778859 0.08268147 0.026009645 -0.056028232 -0.055864543
-0.034575365 0.10631004 -0.014809972 -0.048661657 -0.046239696 -0.0057608956 0.08134162 0.01395294
0.031866115 -0.03019263 -0.054092932 -0.13018698 0.01847114 0.0012279617 -0.006250992 0.13421741
-0.18381254 -0.047158487 0.044333696 0.083313644 0.09815657 -0.025029443 -0.0003363717 0.068560295
-0.027620517 0.09662405 -0.18247151 -0.055563424 0.09836248 0.07051517 0.098402604 -0.30231494
-0.06604656 0.08102473 0.13228028 0.17529173 -0.089960344 0.0013734901 0.04180004 -0.0051781386
0.043875784 -0.04269968 -0.012648717 0.067211635 0.050456543 0.0010582332 -0.05074439 -0.042735152
-0.0009179626 0.0054833824 0.05777264 -0.011643485 -0.011942981 0.020767381 0.032629136 -0.0147016
-0.04267689 -0.04431505 0.029704733 0.059064515 0.04583252 -0.18410419 0.041451175 0.022260332
0.06379097 0.1347738 -0.16624837 -0.0042004324 0.099564016 0.046994913 0.09935558 0.008753598
-0.022371402 0.0049561644 -0.044508934 0.012265577 -0.16822271 -0.055603158 0.1249515 0.10002498
0.14713691 -0.27464965 0.00048114054 0.061610837 0.12837395 0.16199629 -0.22411929 -0.055583082
0.10309026 0.06276182 0.14981265 0.13706616 0.00951527 0.024648799 -0.040390726 -0.010725262
-0.046941683 -0.021456031 -0.006842294 -0.020647755 0.014331266 -0.09831597 -0.017630722 0.03836084
0.07514669 0.03819882 0.07493314 -0.04243456 -0.012210705 0.013678205 -0.03313715 -0.19981682
-0.054318707 0.04367769 0.06157653 0.118169755 -0.2764437 0.010272741 0.12285969 0.059385564
0.20547348 -0.012065962 -0.009542992 -0.03176436 0.03681607 -0.0016121541 -0.07603178 0.046206582
0.08358041 0.08878145 0.12536408 -0.15364349 -0.051515914 0.042923007 -0.020634908 0.04161619
0.10903893 0.0078516975 -0.073775746 -0.059494916 -0.034647986 -0.15758826 0.041248504 0.017861422
0.04516236 0.15196452 -0.07567033 -0.023194406 0.07345391 0.08295604 0.054152127 0.04586322
0.023815611 0.017216228 0.0028901321 -0.034339998 0.020929491 0.046398375 -0.07634322 -0.015811833
-0.064884074 -0.022051197 0.046091866 -0.0038150987 -0.003593109 -0.041887168 0.0066946684 -0.052325353
0.03939131 0.006369817 -0.07458254 0.22710407 -0.018150862 -0.055412374 -0.103723995 -0.1604967
0.062987514 0.03905799 -0.056593124 -0.000869243 -0.012214626 0.010686794 -0.04008249 -0.059810046
-0.05896922 -0.09088575 0.037761338 0.026589548 -0.057088956 -0.028906979 0.032667495 0.19514039
-0.032177527 -0.078282565 -0.12875941 -0.10947111 0.18729222 0.032780845 -0.037639104 -0.011215829
-0.069868095 0.11140584 0.05943518 -0.062196992 -0.07820668 -0.07545776 0.13015749 0.025083553
-0.022631897 -0.0667681 -0.08039417 0.0025272244 -0.00058646564 -0.0020245968 0.008673522 -0.01229598
0.039835747 0.04054145 0.04034045 -0.055589788 0.025321443 0.020528914 -0.036199182 -0.041689284
0.052499536 0.05585706 0.13127697 0.04522786 -0.053504337 -0.07827127 -0.010463187 -0.110913895

linear_layer2.bias f4 [2016]
00000000: 6bd0 c73f 94ac b1bf ed42 3b3f 419a 633e
00000010: d63a b5bf dd84 d1bf cc15 89bf 6a65 f53e
00000020: d74b abbd e70d 89bf f6f4 4d3f 8552 ed3f
00000030: cd2f 39bf 1a47 adbe 7564 36be 7086 dabe
00000040: 729e 8bbc 6c10 813f 8e52 483f bbc5 03bf
00000050: cae5 8b3f d8f9 de3f 3dc1 233e 8113 d3bf
00000060: e266 10be 00ed 19be ba6b b2bf b446 b03f
00000070: f343 9e3f 2e91 61be 8ff5 a83e b4b1 a33f
00000080: 1fa3 7fbf 5730 c43f a6a3 813f 10dc 9b3d
00000090: 4811 163e c616 863e 127c b73e 98a6 0fc0
000000a0: f90d ddbe f15e 01bf e04a 6f3e b844 d4bf
000000b0: 2549 72bf 0630 2abf 391a 38bf 7125 b73e
000000c0: 0903 aa3d 4c50 ce3e fd62 02bf f1c8 c13f
000000d0: 09b8 0f3e 2d09 67bc 4b6c 8b3d 9e85 33bf
000000e0: 35e9 1cbf 1cac 13bf d161 9abc 4c61 c93e
000000f0: 99b5 603f b178 91be 4508 42be 1cb2 37bf
00000100: 8b4f fabe c5c4 603f 8b9f 16bf 9e8f 463f
00000110: 4024 dc3e 388b c83e 1d23 d3bf b0a6 26be
00000120: d1c1 6dbf 0571 9fbd 2324 6f3f 2964 14bf
00000130: e692 193f 3afa 413f 7f34 1a40 85be 403e
00000140: 7f35 8cbf a5a4 91be b402 b33e 35d1 993f
00000150: 8218 e4bf 9ae3 283f 3453 79bf db4c 93bf
00000160: 24ef 993f 167b d93f 178c e0bf 17bd 5d3f
00000170: b352 353f a977 d8be c218 75bf a482 32bf
00000180: e5e5 52bf 0cfd 2bbf 5914 713f d477 06bf
00000190: 7813 a73e cea1 83be 6cfb e7bf c288 0c40
000001a0: 25de 7ebf 40ef 853f 17aa 6f3e f9f8 b73e
000001b0: aec2 c13f ad7d c5bf 9225 0f40 87c6 20bd
000001c0: a714 04bf 8ac0 c43e ddd1 dbbf a1b4 9dbe
000001d0: cb91 3bbf a213 2a3f 7e23 f03e a5c5 c5be
000001e0: a906 8a3e 3bdd c5bd 7253 663d 4b12 7a3f
000001f0: 4e58 b2bf 33e8 96bf 7bca 0b3f 18f1 143f
00000200: f5ea 2b3e 61a0 a0bf d24e 0fbf 809f a03f
00000210: 5c2d 5ebf ea2b c4bf c002 32bf 1904 f4bf
00000220: 6817 d03b 5bd4 32bf ae79 34be 7c1d 9fbf
00000230: 83bf e1bf a622 e83f e69c c63e bf00 9abf
00000240: 22b9 32bd 84f8 243e 7f6b babf 8f80 a9bf
00000250: bfd3 e03e 43b9 bbbe 2fd2 d8bf ed10 a5be
00000260: e3bb a43f 76a1 8dbf 7011 c93e c03a 193f
00000270: 7790 32bd 2328 843b 5ebe d73e 37d2 c63f
00000280: 8741 8d3f e953 b53e 8128 c53d 514e 123f
00000290: f14d dcbf bb7c 113f c632 b83f d556 48bf
000002a0: 6b81 383f 0232 533e 6a19 783f 14f8 febe
000002b0: 4215 84bd c27d c2bf 6abe e13f 71fd 853f
000002c0: 9fbc 0b40 d620 d23f f696 9abf b9a5 ae3f
000002d0: 3e3e c5be 2389 c63e 2242 61bf a703 813f
000002e0: c7fb 03c0 3537 563e 4c12 b4bf ac8e 86be
000002f0: 0a4e 45bf 772e b43e bdeb 29bf a32a 33bf
00000300: cce3 17c0 0bdc 393f 9905 89be 2df1 21bf
00000310: 99a8 f4be 99a5 b43d 7a69 463f 3c18 9d3e
00000320: 9dee a6bf 1e14 73bf ee3a 8c3e 7b28 8d3f
00000330: 457f eabf 5c8c d43f cf1e 073f 7e78 293f
00000340: 43f2 583e 0ce1 823f b7b5 8f3f 9891 303f
00000350: 8ead 983f 4520 9a3f 73b9 593f 3dc0 88bf
00000360: aa28 6ebf f288 23bf 825d 223f d9e3 94bd
00000370: a2b6 bbbe c419 2f3f 24e9 b33f c780 9a3f
00000380: f174 4a3f 7da2 463d 6da4 2f3e 1e2e 0cc0
00000390: 2f8c 173d 24aa cb3e 7da7 d73e 1a96 84bf
000003a0: 8d35 ae3d 005e bfbd a955 0640 4647 ca3f
000003b0: 4dbf 333f 8e27 86bf 9856 8cbe edc9 013d
000003c0: aa92 c43e 8e92 703f 298d 86bf decf 813f
000003d0: e33a 1bbf 0936 9a3d ac40 383f 354c 4f3e
000003e0: 04b1 d93e fe37 253f 76df 45bf 26dc 52be
000003f0: 7d5a dfbe a4d3 203f 9d91 b63f f16d 3dbf
1.5610479 -1.3880792 0.73148996 0.22226812 -1.415858 -1.6368672 -1.0709777 0.47928935
-0.08364075 -1.0707368 0.80451906 1.8540808 -0.72338563 -0.3384331 -0.17811759 -0.42680693
-0.017043326 1.0083137 0.7825097 -0.5147359 1.0929501 1.7419996 0.15991683 -1.6490327
-0.14101747 -0.15031815 -1.3939126 1.3771577 1.2364486 -0.22028038 0.32999846 1.2788606
-0.9985828 1.5327252 1.0128067 0.07610333 0.1465503 0.2618925 0.35836846 -2.244543
-0.43174723 -0.50535494 0.23368406 -1.6583471 -0.9464286 -0.6647953 -0.7191501 0.35770753
0.0830136 0.40295637 -0.50932294 1.5139447 0.14035048 -0.014101309 0.068077646 -0.7012576
-0.61293346 -0.57684493 -0.01884547 0.39332044 0.87777096 -0.28412393 -0.18948467 -0.7175615
-0.4888881 0.87800246 -0.58837193 0.7756289 0.42996407 0.39168715 -1.6495091 -0.16274524
-0.92873865 -0.07785229 0.93414515 -0.5796533 0.59989774 0.7577244 2.409454 0.18822677
-1.0953826 -0.28445926 0.34963 1.201697 -1.7819979 0.6597229 -0.9739258 -1.150783
1.2026105 1.6990688 -1.7542752 0.86616653 0.70829314 -0.42278793 -0.957409 -0.6973059
-0.8238204 -0.67182994 0.94171673 -0.52526593 0.3263204 -0.25709385 -1.8123603 2.195847
-0.99557716 1.0463638 0.23404728 0.3593214 1.5137537 -1.5428978 2.236668 -0.03925183
-0.5159401 0.38428146 -1.717342 -0.3080187 -0.7326934 0.6643621 0.46902078 -0.38627353
0.26958206 -0.09661337 0.056231923 0.9768416 -1.3933198 -1.1789612 0.54605836 0.5818038
0.16788848 -1.2548944 -0.55979645 1.2548676 -0.8678796 -1.5325902 -0.69535446 -1.906375
0.0063504465 -0.6985528 -0.17624542 -1.2430873 -1.763657 1.8135574 0.3879158 -1.2031478
-0.043633588 0.16110426 -1.4564055 -1.3242358 0.4391155 -0.3666478 -1.6939143 -0.32239476
1.2869838 -1.1064899 0.39271116 0.5985527 -0.043594804 0.004033105 0.42137426 1.5532902
1.1035622 0.3541558 0.09626866 0.5715075 -1.7211286 0.5683095 1.4390495 -0.78257495
0.72072476 0.20624545 0.9691378 -0.49798644 -0.06449367 -1.5194628 1.7636235 1.0467969
2.1833875 1.6416271 -1.207732 1.3644325 -0.3852405 0.38776502 -0.87991536 1.007924
-2.0622423 0.20919497 -1.4068084 -0.26280725 -0.77072203 0.351917 -0.66375333 -0.69986933
-2.3732786 0.72601384 -0.26762083 -0.6325863 -0.4778488 0.08820648 0.77504694 0.30682552
-1.3041569 -0.9495257 0.2738871 1.1027979 -1.832009 1.6605334 0.52781385 0.6619948
0.21186166 1.0224929 1.122733 0.6897216 1.1927965 1.2041098 0.850486 -1.0683666
-0.930308 -0.63880837 0.6342393 -0.07270021 -0.36662775 0.6839869 1.4055524 1.207055
0.7908469 0.048494805 0.17152567 -2.1903148 0.036998924 0.39778244 0.4211997 -1.0358307
0.08506308 -0.09344101 2.0989783 1.5803001 0.70213777 -1.0480821 -0.27409816 0.031686712
0.38393146 0.93973625 -1.0511829 1.0141561 -0.6063673 0.07529838 0.7197368 0.20243914
0.42517865 0.6453856 -0.772941 -0.20591792 -0.43623725 0.6282294 1.4263188 -0.7399588
