model/LI_Mofei_Data_200_LogF_True_epoch_200_attention_net_u_artificial_Q_9_K_6_F_5_REG_L0_ACT_sigmoid_WD_000001_CV.model (torch_old, 52157 bytes, 6 tensors)

key_matrix f4 [9, 6]
-0.18640895 -0.55122715 -0.019082436 1.3256103 -0.78577095 -0.8645861 -1.592136 0.12445002
-1.1362649 1.145554 -0.001752453 -0.9731202 -0.9599794 1.3823701 -0.30545786 -0.1339408
0.5629973 0.5171436 -0.57859194 0.20265375 -0.47857863 0.6930125 -0.34229964 -0.00818721
-0.01658822 -0.17912827 0.0023847339 2.3249333 -0.41047478 0.5476068 1.8511518 0.33872578
-1.4918046 -0.29923436 -0.88611686 -1.1381572 0.039922204 1.5111519 0.372115 0.055321425
-0.16815294 0.17337382 0.29279184 -1.2753901 0.20717493 0.30781698 0.56865776 0.7256477
-0.8320476 0.32275295 0.60908276 0.70197207 0.35797733 -1.1580973
00000000: fde1 3ebe 391d 0dbf c552 9cbc 99ad a93f
00000010: 4928 49bf 8455 5dbf 1dcb cbbf a7df fe3d
00000020: 2171 91bf 83a1 923f 91b2 e5ba 681e 79bf
00000030: 36c1 75bf 81f1 b03f f964 9cbe c727 09be
00000040: 9720 103f 8663 043f 9a1e 14bf 7784 4f3e
00000050: 4208 f5be 4469 313f e641 afbe a623 06bc
00000060: 05e4 87bc 676d 37be 3249 1c3b b5cb 1440
00000070: c029 d2be f62f 0c3f 8bf2 ec3f 776d ad3e
00000080: 74f3 bebf 3f35 99be 8ed8 62bf 23af 91bf
00000090: 7785 233d 6d6d c13f db85 be3e b898 623d
000000a0: 4930 2cbe e888 313e d0e8 953e fc3f a3bf
000000b0: aa25 543e 309a 9d3e 8e93 113f 0cc4 393f
000000c0: 1201 55bf e03f a53e d9ec 1b3f 71b4 333f
000000d0: ce48 b73e 883c 94bf

value_matrix f4 [6, 5]
0.1832983 0.051358413 0.9363593 0.07039172 -0.51282215 -1.5944239 2.6363292 0.35818583
0.7216031 1.2882481 -0.05789375 -1.0873325 0.56763715 -1.4294374 0.121062785 4.951838
3.2248998 -0.9809795 -0.42707023 2.80987 -0.6596717 -0.7264647 0.80084115 -1.7362804
0.8388925 -1.6472129 -0.6389066 0.2932192 -1.9388399 -0.5231283
00000000: 8db2 3b3e 335d 523d 3eb5 6f3f 8929 903d
00000010: 5048 03bf 1516 ccbf 9eb9 2840 2264 b73e
00000020: fbba 383f 50e5 a43f ff21 6dbd b62d 8bbf
00000030: ab50 113f cef7 b6bf c4ef f73d 7575 9e40
00000040: c264 4e40 7921 7bbf f3a8 dabe e9d4 3340
00000050: 3fe0 28bf 97f9 39bf ed03 4d3f 703e debf
00000060: a9c1 563f dfd7 d2bf 628f 23bf d420 963e
00000070: e82b f8bf bceb 05bf

linear_layer1.weight f4 [9, 64]
0.113161065 -0.1917807 0.08098815 -0.17451099 0.15058684 0.039580803 0.30268228 -0.22795151
0.026527492 0.16507386 0.28870255 0.11324934 -0.08963434 0.1723334 -0.09472595 0.29176298
-0.030772682 0.022155808 0.25223854 -0.2139767 0.15570852 -0.1661818 -0.20034626 -0.041961152
0.07963796 0.29466188 0.27431384 0.1259683 0.02150833 0.23715682 0.12478859 0.19186482
-0.1821024 0.09128666 -0.14014764 -0.16323146 -0.17585501 0.12619598 -0.13218841 -0.14439169
-0.12616256 -0.16288956 0.14814343 0.15363598 4.4351655e-05 0.12175826 0.14829868 -0.0726474
0.01782342 0.07686943 0.2635406 -0.24485928 0.26470113 0.2318099 0.14517833 0.08755077
0.11506821 0.26189077 0.2472961 0.20893136 0.080107674 -0.09973124 -0.0887929 0.100905776
0.29594043 0.0352417 -0.15271653 -0.1809999 0.14878279 -0.1838047 0.15327755 -0.09831666
-0.12720317 -0.2567513 -0.09115695 -0.19205275 0.25012565 -0.16899548 -0.03525194 0.17042348
-0.20016214 -0.12127982 0.14331202 -0.14480552 -0.2453974 -0.23935857 0.27876753 -0.13169222
-0.2533097 0.14598002 0.021063408 0.052267257 0.12976222 -0.084282905 -0.010966804 0.15530996
0.19556761 -0.14709017 -0.1304324 0.141581 -0.23467077 0.06176297 -0.037853234 0.17791949
-0.25486407 0.047106784 0.09690869 0.21132892 0.27031666 0.12634134 0.12835658 -0.04893686
0.13078287 0.24533688 0.16513513 0.21911938 -0.062305715 -0.11813367 -0.068259746 -0.024373828
-0.0567042 -0.16816658 0.04929829 0.07792719 -0.029939989 -0.19729364 -0.14585555 -0.22360915
-0.20619291 0.23670217 0.035913453 0.10295384 -0.2662389 0.271576 0.23272693 0.26451758
0.14580898 -0.0021341234 0.21589784 -0.18253049 -0.20002827 -0.27406812 0.12099439 -0.27264985
0.042211156 0.17822072 -0.1781185 0.15636337 0.17461585 -0.07288056 0.2508167 -0.13570367
0.14713407 -0.0055670603 0.21289502 -0.12925264 -0.18820429 -0.012657483 -0.10229163 0.04895954
-0.25301272 0.035257556 -0.17282721 -0.09497311 0.01382801 -0.043324385 -0.14182186 -0.11449097
-0.22798815 -0.24637294 0.16208136 0.1621483 0.11782756 0.13824275 0.26692417 0.21377464
0.15114562 0.25221664 0.20076166 0.22112234 0.040663872 0.1527107 -0.18522675 0.2537652
0.18675184 -0.12706275 -0.27096254 -0.10471512 -0.2885522 0.2347258 -0.044313613 0.035190858
-0.08483097 -0.00654681 -0.1727215 -0.10737385 0.17377886 0.13724408 0.22988011 0.1942961
-0.21551217 0.18103538 -0.25332037 -0.1183653 0.22123665 0.014247389 -0.04222517 0.19582216
0.24522626 -0.090330295 0.1460427 -0.23159008 -0.26729754 -0.09110599 -0.2163697 -0.051183462
-0.09261912 -0.07374623 0.26996812 0.15557536 -0.27496612 0.0895828 -0.03267005 0.14761956
0.051532753 0.28935918 0.16394927 -0.15508921 -0.018469535 0.13513678 0.1424057 -0.27686864
0.14695892 0.20754802 0.057212368 0.19070627 -0.11743631 0.22854696 0.15774256 -0.1680224
-0.0062523917 -0.15722728 0.2626975 0.121198766 -0.004682525 0.2199229 -0.1919961 -0.15495098
0.25378633 0.1416588 0.14880104 0.19938092 -0.0710593 0.15745518 -0.16449489 -0.06575679
00000000: fdc0 e73d 2962 44be 1ddd a53d 02b3 32be
00000010: 7033 1a3e 7b1f 223d 2cf9 9a3e 1f6c 69be
00000020: 2f50 d93c 1f09 293e d2d0 933e 45ef e73d
00000030: 3592 b7bd 2b78 303e aeff c1bd f561 953e
00000040: fe16 fcbc 1980 b53c 6925 813e b51c 5bbe
00000050: 0e72 1f3e 902b 2abe 9227 4dbe 75df 2bbd
00000060: 3a19 a33d ecdd 963e dd72 8c3e d6fd 003e
00000070: 3d32 b03c 3dd9 723e 2991 ff3d 3678 443e
00000080: 0d79 3abe 80f4 ba3d dd82 0fbe 2626 27be
00000090: 5613 34be 8539 013e 665c 07be 6adb 13be
000000a0: c230 01be 85cc 26be e9b2 173e c052 1d3e
000000b0: 3a06 3a38 655c f93d 9cdb 173e 29c8 94bd
000000c0: 6c02 923c b86d 9d3d cbee 863e 64bc 7abe
000000d0: e886 873e 935f 6d3e a1a9 143e d14d b33d
000000e0: e2a8 eb3d 8c16 863e 303b 7d3e 1af2 553e
000000f0: 7e0f a43d e43f ccbd 0dd9 b5bd b0a7 ce3d
00000100: 8185 973e 9a59 103d b961 1cbe 0a58 39be
00000110: 845a 183e 4d37 3cbe caf4 1c3e 3f5a c9bd
00000120: 8c41 02be e874 83be 7fb0 babd 7aa9 44be
00000130: 7810 803e 270d 2dbe 5764 10bd 7e83 2e3e
00000140: 4ef7 4cbe 8e61 f8bd 63c0 123e e647 14be
00000150: 7549 7bbe 6a1a 75be 9eba 8e3e 53da 06be
00000160: cfb1 81be c97b 153e 2b8d ac3c 3116 563d
00000170: 63e0 043e 849c acbd 1cae 33bc 9309 1f3e
00000180: e042 483e ce9e 16be 1290 05be 9cfa 103e
00000190: 894d 70be 2bfb 7c3d fe0b 1bbd 8730 363e
000001a0: 8b7d 82be 0bf3 403d 1078 c63d 9c66 583e
000001b0: f266 8a3e a05f 013e e86f 033e 0472 48bd
000001c0: f2eb 053e 9739 7b3e 2f19 293e d560 603e
000001d0: 4734 7fbd 11f0 f1bd c4cb 8bbd 9fab c7bc
000001e0: aa42 68bd dc33 2cbe 01ed 493d 4a98 9f3d
000001f0: b544 f5bc 5807 4abe 285b 15be ccf9 64be
00000200: 3c24 53be 0e62 723e fc19 133d 76d9 d23d
00000210: 7750 88be 020c 8b3e f84f 6e3e d96e 873e
00000220: f34e 153e a6dc 0bbb 5314 5d3e 46e9 3abe
00000230: 36d4 4cbe a852 8cbe e8cb f73d c398 8bbe
00000240: 9be5 2c3d 7e7f 363e b264 36be b81d 203e
00000250: 7fce 323e 6742 95bd 0c6b 803e e7f5 0abe
00000260: 50aa 163e e36b b6bb 2701 5a3e ce5a 04be
00000270: a0b8 40be 5561 4fbc 467e d1bd cc89 483d
00000280: e28a 81be 3a6a 103d 9ef9 30be 4381 c2bd
00000290: e18e 623c e974 31bd c039 11be 3e7a eabd
000002a0: ba75 69be 3049 7cbe a8f8 253e 340a 263e
000002b0: 934f f13d 828f 0d3e 49aa 883e bde7 5a3e
000002c0: ebc5 1a3e 8a22 813e 7794 4d3e e56d 623e
000002d0: 298f 263d 3260 1c3e 15ac 3dbe 83ed 813e
000002e0: e03b 3f3e bd1c 02be 9abb 8abe e174 d6bd
000002f0: 1dbd 93be f65b 703e 3182 35bd 4a24 103d
00000300: dcbb adbd 9f86 d6bb e8dd 30be d2e6 dbbd
00000310: 16f3 313e b689 0c3e b165 6b3e 8ff5 463e
00000320: 39af 5cbe 5761 393e 35b3 81be 8269 f2bd
00000330: dc8b 623e e16d 693c 4df4 2cbd 9b85 483e
00000340: 981c 7b3e 17ff b8bd 388c 153e f325 6dbe
00000350: 39db 88be c795 babd 0590 5dbe c0a5 51bd
00000360: 18af bdbd 4308 97bd 4339 8a3e 264f 1f3e
00000370: 5cc8 8cbe 3077 b73d 08d1 05bd 9529 173e
00000380: 0214 533d e326 943e 51e2 273e b5cf 1ebe
00000390: 6c4d 97bc 4c61 0a3e cdd2 113e bac1 8dbe
000003a0: 667c 163e 7887 543e 8457 6a3d 8148 433e
000003b0: 7382 f0bd 3708 6a3e 4487 213e 100e 2cbe
000003c0: dde0 ccbb 3000 21be 4980 863e 0f37 f83d
000003d0: de6f 99bb 7833 613e a09a 44be 78ab 1ebe
000003e0: 48f0 813e 010f 113e 4d5f 183e 832a 4c3e
000003f0: 8a87 91bd ee3b 213e 5971 28be 7fab 86bd

linear_layer1.bias f4 [9]
1.5066323 2.2031322 -1.9661809 1.4759912 1.8585577 -0.376374 -1.1206977 1.1996304
-1.290617
00000000: 54d9 c03f 1e00 0d40 d1ab fbbf 48ed bc3f
00000010: 38e5 ed3f 18b4 c0be 0673 8fbf 7d8d 993f
00000020: f032 a5bf

linear_layer2.weight f4 [2016, 5]
0.12567863 0.09885566 -0.037302926 0.040331762 0.067584656 0.039555803 0.08399218 -0.04646927
0.027445545 0.02593962 0.06691258 -0.028518697 -0.037983745 0.04232163 -0.031570517 0.13437086
0.10297001 -0.070567064 -0.0049914382 0.00094068726 -0.0011630919 -0.03362162 -0.001071076 -0.04259088
-0.03283146 0.06432042 0.06608604 -0.04692485 0.009390793 0.045531143 -0.005578803 -0.048578117
0.0013596968 0.04944265 0.026775328 -0.18633997 -0.13769782 0.0677825 0.044324026 -0.09119488
-0.2298683 -0.12095863 0.034802254 -0.008651789 -0.09162874 -0.053328462 -0.06328516 -0.013854647
-0.031304557 -0.032028206 -0.020674614 -0.0625845 0.03903064 0.050489265 0.015224057 0.13266723
0.06609534 -0.050867554 -0.018279258 0.032656964 -0.15870202 -0.09167919 -0.0051041534 -0.017817589
-0.11288543 -0.034641985 0.022152448 -0.021663949 0.030317146 -0.07567035 -0.11802409 -0.023108749
-0.0153111685 0.06272269 -0.014286237 -0.03042596 0.010382777 -0.03299063 -0.011009995 -0.04939948
-0.02628089 -0.030812128 -0.014505254 -0.0021441015 -0.052097503 -0.067206606 -0.057094246 0.03600079
0.016621128 -0.055259813 0.04428425 0.024247907 -0.041016195 0.01299749 0.08618572 -0.07134267
-0.009240006 -0.04276159 0.052176647 0.012617039 -0.08720773 -0.0611997 0.04624971 0.026905125
-0.09028129 -0.10408262 -0.124921344 0.042752907 0.033544384 -0.022549191 -0.23742428 -0.15416886
0.05388842 0.060272776 -0.15369484 -0.0239879 -0.010594721 0.026975166 0.04840722 -0.01216021
-0.026680686 0.0581608 0.043187294 -0.025801482 -0.01790969 0.0764029 0.05976178 -0.06449263
-0.013167936 0.106678575 -0.099467024 -0.0581448 0.044719763 0.054514866 -0.0694565 -0.08223543
-0.121847756 0.052274667 -0.011735194 -0.095815085 -0.06694534 0.0027056925 0.062385496 0.010268957
0.01946652 -0.014863338 0.01627457 -0.013500371 -0.00042355378 -0.07276642 0.10463971 0.0005896122
0.0074031847 0.022495221 0.08418287 0.013611803 -0.0045467224 0.017307265 -0.018102888 -0.037453678
0.0037657612 0.019064002 -0.01339551 -0.037460025 0.059755173 0.12223919 -0.0016145575 -0.009392776
-0.031229667 0.0067626676 0.02211751 -0.040753968 0.025072902 0.008943841 0.00028606132 -0.112221755
-0.088307865 0.0006610668 -0.02763832 -0.077788055 -0.12719232 -0.043156512 0.0018846608 -0.013705674
-0.07168073 0.13942689 0.043170147 0.022235848 -0.05619934 0.033299327 0.051317535 -0.020683352
-0.016361397 -0.016064618 0.023814358 0.14774425 0.10574051 -0.06625433 -0.003921682 0.06758548
0.18739994 0.14440584 -0.013291102 0.022674892 0.10667603 0.013769375 0.039823115 -0.0024969818
0.020501522 0.022189531 -0.20049378 -0.1554621 0.03232908 0.06148112 -0.10560673 0.14180693
0.11431883 0.030380089 -0.05203 0.10231329 -0.0028470098 0.0099293 -0.012845835 0.047398485
-0.015688393 -0.13110474 -0.07832129 0.08502447 0.03822585 -0.10858771 0.01033888 -0.02356845
0.004146345 -0.053923097 0.018852495 0.04815563 -0.03141617 -0.019423421 -0.036485985 -0.027489705
-0.06616308 0.011132605 -0.02057902 -0.048834376 0.011334962 0.036920868 0.0038765138 -0.016832437
-0.042611394 0.030472009 -0.12611695 -0.092965364 -0.016465975 0.061160274 -0.08112637 0.015155122
00000000: e6b1 003e d674 ca3d f4ca 18bd eb32 253d
00000010: d369 8a3d 4405 223d 1804 ac3d 9056 3ebd
00000020: 7bd5 e03c 537f d43c 7609 893d 0ba0 e9bc
00000030: d894 1bbd 7259 2d3d 1650 01bd 8498 093e
00000040: f1e1 d23d 7785 90bd 388f a3bb 7498 763a
00000050: e372 98ba d3b6 09bd 5963 8cba c673 2ebd
00000060: 487a 06bd 6dba 833d 1e58 873d 4634 40bd
00000070: d7db 193c dd7e 3a3d 64ce b6bb d9f9 46bd
00000080: db37 b23a 6084 4a3d ef57 db3c e8cf 3ebe
00000090: a800 0dbe 8dd1 8a3d 1c8d 353d 62c4 babd
000000a0: 9862 6bbe 29b9 f7bd cf8c 0e3d 3cc0 0dbc
000000b0: d9a7 bbbd f26e 5abd a69b 81bd 9afe 62bc
000000c0: 3539 00bd 0230 03bd cf5d a9bc 4d2c 80bd
000000d0: 98de 1f3d d5cd 4e3d 536e 793c ebd9 073e
000000e0: fe5c 873d 7f5a 50bd 62be 95bc 4fc3 053d
000000f0: c882 22be 4dc2 bbbd be40 a7bb 31f6 91bc
00000100: 7a30 e7bd c1e4 0dbd 0d79 b53c 9878 b1bc
00000110: aa5b f83c 0ef9 9abd 9db6 f1bd 8f4e bdbc
00000120: b2db 7abc c174 803d d210 6abc dd3f f9bc
00000130: 861c 2a3c 2f21 07bd 4463 34bc 1c57 4abd
00000140: 054b d7bc b769 fcbc 72a7 6dbc 0e84 0cbb
00000150: 3164 55bd 9ea3 89bd a8db 69bd 9075 133d
00000160: 0829 883c 1d58 62bd 6763 353d 8ca3 c63c
00000170: 9900 28bd 6df3 543c 2482 b03d 1b1c 92bd
00000180: 6563 17bc c726 2fbd 2eb7 553d b2b7 4e3c
00000190: f799 b2bd 89ac 7abd 5670 3d3d 2368 dc3c
000001a0: 66e5 b8bd 4529 d5bd c3d6 ffbd ac1d 2f3d
000001b0: d665 093d 15b9 b8bc 5a1f 73be 71de 1dbe
000001c0: 1bba 5c3d 96e0 763d 2e62 1dbe 4682 c4bc
000001d0: 7b95 2dbc 06fb dc3c a646 463d 9e3b 47bc
000001e0: 7491 dabc 053a 6e3d 29e5 303d a15d d3bc
000001f0: 58b7 92bc 2079 9c3d c5c8 743d b614 84bd
00000200: 54be 57bc 4c7a da3d 5eb5 cbbd 3e29 6ebd
00000210: 122c 373d fb4a 5f3d 363f 8ebd 0d6b a8bd
00000220: 518b f9bd f61d 563d f944 40bc b33a c4bd
00000230: a31a 89bd fd51 313b ef87 7f3d 213f 283c
00000240: 4078 9f3c 5c85 73bc 3f52 853c a930 5dbc
00000250: 6d10 deb9 9006 95bd 584d d63d 3490 1a3a
00000260: 6a96 f23b e647 b83c 1268 ac3d 0a04 5f3c
00000270: acfc 94bb f7c7 8d3c 824c 94bc 0769 19bd
00000280: fdca 763b 1c2c 9c3c d778 5bbc af6f 19bd
00000290: d7c1 743d 8a58 fa3d 8f9f d3ba 28e4 19bc
000002a0: 5cd5 ffbc 5e99 dd3b c82f b53c a2ed 26bd
000002b0: b065 cd3c 3089 123c 80fa 9539 85d4 e5bd
000002c0: c1da b4bd 714b 2d3a c269 e2bc 584f 9fbd
000002d0: b43e 02be e2c4 30bd b906 f73a c38d 60bc
000002e0: 59cd 92bd ecc5 0e3e 2ed3 303d f427 b63c
000002f0: 4731 66bd e064 083d 5632 523d 2270 a9bc
00000300: 5608 86bc f299 83bc 5416 c33c 454a 173e
00000310: 7b8e d83d 5ab0 87bd 7481 80bb 426a 8a3d
00000320: c5e5 3f3e 20df 133e ecc2 59bc b2c0 b93c
00000330: f678 da3d f298 613c 901d 233d 67a4 23bb
00000340: cff2 a73c d2c6 b53c 3e4e 4dbe 7531 1fbe
00000350: 7f6b 043d a0d3 7b3d 5748 d8bd d635 113e
00000360: fe1f ea3d aadf f83c 691d 55bd a189 d13d
00000370: e694 3abb 81ae 223c 5677 52bc ea24 423d
00000380: f284 80bc 5240 06be ea66 a0bd 4f21 ae3d
00000390: b592 1c3d 3c63 debd 6864 293c 9f12 c1bc
000003a0: 10de 873b 77de 5cbd 8c70 9a3c d63e 453d
000003b0: 3eae 00bd de1d 9fbc 5472 15bd 1732 e1bc
000003c0: 8280 87bd 8865 363c 5595 a8bc 8e06 48bd
000003d0: 47b6 393c 563a 173d 1c0d 7e3b 2ee4 89bc
000003e0: 4989 2ebd 6fa0 f93c cd24 01be a064 bebd
000003f0: a7e3 86bc 3283 7a3d 9525 a6bd 304d 783c

linear_layer2.bias f4 [2016]
-1.2353994 -0.8513756 -0.61526805 -1.1261508 -0.54485273 -0.88652736 -0.6502294 1.2883402
1.1585004 0.02473433 0.29484978 -1.707887 0.9065195 -0.44514626 0.7459713 -0.7811993
0.02168917 0.453487 -1.08907 0.09044221 0.3417318 0.02713672 1.4807676 -0.91234
-0.40946555 -1.6313165 -0.27631015 0.11033649 0.61229414 -0.3577822 -1.048306 0.013274051
-1.8299837 -0.96178055 1.3218045 1.5781442 1.5311986 -1.168356 -0.9472845 -1.6335758
-1.5718738 -0.35174188 2.2617488 -1.1402787 0.22460756 1.4830992 1.4245311 -0.28085536
0.17748728 -0.13819084 0.7683829 -0.051946934 -0.2662737 0.3954833 1.8684049 0.19451922
2.2325306 -0.3750954 -0.06367071 -0.72019315 0.27051196 -0.7393102 0.24106893 1.2260269
-0.91781896 -0.052093804 0.3969051 0.18368615 -0.5984609 -0.54834116 -0.7705516 -0.43069685
-0.39366445 -0.13167526 -0.8385382 0.96036637 1.140853 -0.07658205 -0.15556699 0.20425239
-1.7463523 -0.3426681 -0.16478738 0.39178768 1.1103356 -0.27567956 -0.2085892 -0.879997
0.4959312 -1.1996713 -0.20078586 0.89251333 -1.3256254 0.10432741 -0.25121713 -0.9615494
1.2049793 0.2996062 0.208572 0.45448726 -1.1204314 0.90994436 0.42661315 0.13753471
0.12177392 -1.0105702 0.73772055 -2.7553256 0.1259999 -0.25554302 0.8569991 -0.9683056
1.3135321 -0.8644022 -1.8052179 -1.9656161 -0.76372576 -0.40615907 0.73686546 -0.5709538
0.44555855 -0.79952323 0.527923 0.8859806 -0.016032316 -1.0354735 -0.6282281 0.1361152
0.36869654 0.438291 1.3443905 1.1869788 -0.97903234 0.42369685 0.17236014 0.19766162
0.5006731 1.0008324 1.3491464 0.77938676 -0.52260107 0.010283902 -0.30059355 -0.04054519
-0.69277775 -0.4777753 -1.1968952 -0.26546007 -1.5642694 0.13488483 0.7889765 0.60461676
-0.48869213 0.058819674 0.35797796 -0.19063477 1.8143001 -0.9837746 0.3610912 -2.6962821
1.4934888 -0.2756157 0.20949411 -2.33352 0.70972615 -0.21264 -0.6253059 -0.88302064
0.26827225 0.6256901 1.4060025 -0.73505 1.2137414 1.6006367 -2.2553625 1.0787615
-0.059270054 -0.9229567 -0.091832094 0.69833446 -0.8189877 -0.15446457 -2.5717604 -0.17463225
0.19312793 -0.10155327 1.4159709 -0.70584494 -0.5586471 -0.07046024 -0.37850666 -0.11929855
0.7951492 -0.74077684 0.49804503 0.018835077 3.0849566 -0.15669972 -0.39543685 0.74478203
1.4659126 2.0269923 -0.3398794 -0.13573521 -0.9454087 1.2258909 2.1073046 -1.1807104
-2.0986958 0.52876157 1.6358402 0.5172638 0.45219636 -0.9785949 0.28229952 1.170463
-0.7915656 0.8568157 -0.8834338 0.4474223 1.1298325 1.3873758 0.39555088 0.32292548
1.4132476 -0.07809862 -0.97463423 -1.2701981 1.8255419 0.90139663 -0.49923387 0.11560706
0.38544682 0.48838636 0.5569267 1.7086742 0.55310255 0.50846976 2.222835 0.58239704
-0.7541589 -1.1766748 -1.5638453 -0.43689546 0.49064973 0.72811615 -2.0264556 -0.84969074
0.4788742 1.3817188 1.0079604 -0.5939556 1.176688 -0.8791289 -0.5902714 -0.24925363
00000000: 9121 9ebf c0f3 59bf 3582 1dbf b625 90bf
00000010: 787b 0bbf 75f3 62bf 6f75 26bf 55e8 a43f
00000020: be49 943f a69f ca3c 8df6 963e 0b9c dabf
00000030: a911 683f 36ea e3be faf7 3e3f adfc 47bf
00000040: 7cad b13c 732f e83e a566 8bbf c439 b93d
00000050: 78f7 ae3e d44d de3c cb89 bd3f 1d8f 69bf
00000060: 78a5 d1be fbce d0bf 8678 8dbe 19f8 e13d
00000070: 4fbf 1c3f 3b2f b7be e42e 86bf 687b 593c
00000080: e83c eabf 4037 76bf e430 a93f a100 ca3f
00000090: 51fe c33f b08c 95bf 3d81 72bf 0319 d1bf
000000a0: 2933 c9bf 8317 b4be 7ec0 1040 a7f4 91bf
000000b0: 86ff 653e 32d6 bd3f 0957 b63f 46cc 8fbe
000000c0: 3abf 353e e681 0dbe beb4 443f 4fc6 54bd
000000d0: 0755 88be c97c ca3e e427 ef3f 0c30 473e
000000e0: c8e1 0e40 810c c0be ca65 82bd 945e 38bf
000000f0: 8b80 8a3e 6f43 3dbf c6da 763e 73ee 9c3f
00000100: 2ff6 6abf 5060 55bd 2537 cb3e 3918 3c3e
00000110: bc34 19bf 1660 0cbf df42 45bf 4c84 dcbe
00000120: 638e c9be e1d5 06be 71aa 56bf 92da 753f
00000130: 7907 923f 0dd7 9cbd f44c 1fbe 8a27 513e
00000140: 7988 dfbf 3172 afbe 06be 28be 6598 c83e
00000150: 7a1f 8e3f df25 8dbe 6898 55be 7c47 61bf
00000160: b2ea fd3e d48e 99bf cf9a 4dbe c17b 643f
00000170: 18ae a9bf 9ca9 d53d 889f 80be 1a28 76bf
00000180: c33c 9a3f fc65 993e e693 553e 8eb2 e83e
00000190: 4c6a 8fbf 1df2 683f 0a6d da3e e6d5 0c3e
000001a0: 9b64 f93d 5d5a 81bf 41db 3c3f 4157 30c0
000001b0: 1e06 013e 89d6 82be 4b64 5b3f e0e2 77bf
000001c0: d221 a83f 7649 5dbf 6111 e7bf 4f99 fbbf
000001d0: 8883 43bf 15f4 cfbe 37a3 3c3f 072a 12bf
000001e0: 4020 e43e 8ead 4cbf f625 073f a0cf 623f
000001f0: 3456 83bc 658a 84bf 8fd3 20bf c861 0b3e
00000200: cbc5 bc3e ae67 e03e fd14 ac3f ecee 973f
00000210: dda1 7abf cbee d83e 2d7f 303e cf67 4a3e
00000220: 1d2c 003f 471b 803f d4b0 ac3f e485 473f
00000230: 2fc9 05bf d07d 283c 66e7 99be b712 26bd
00000240: e259 31bf f79e f4be dd33 99bf 62ea 87be
00000250: fb39 c8bf 401f 0a3e 5dfa 493f 2ac8 1a3f
00000260: db35 fabe e6ec 703d e348 b73e c335 43be
00000270: fc3a e83f a7d8 7bbf f2e0 b83e e38f 2cc0
00000280: a42a bf3f 801d 8dbe a085 563e 6458 15c0
00000290: 9db0 353f 4dbe 59be 0c14 20bf a40d 62bf
000002a0: fb5a 893e 3a2d 203f e4f7 b33f 3d2c 3cbf
000002b0: e15b 9b3f aae1 cc3f dc57 10c0 db14 8a3f
000002c0: 28c5 72bd e446 6cbf 7712 bcbd 0cc6 323f
000002d0: 2ea9 51bf f62b 1ebe b997 24c0 ccd2 32be
000002e0: 54c3 453e 29fb cfbd 893e b53f 41b2 34bf
000002f0: 7f03 0fbf 754d 90bd a0cb c1be cc52 f4bd
00000300: e68e 4b3f 8da3 3dbf c2ff fe3e 054c 9a3c
00000310: ee6f 4540 e475 20be b376 cabe 09aa 3e3f
00000320: 06a3 bb3f 3eba 0140 ac04 aebe 2cfe 0abe
00000330: 4e06 72bf fee9 9c3f 14de 0640 8521 97bf
00000340: 0851 06c0 eb5c 073f 3663 d13f 676b 043f
00000350: 4886 e73e 3285 7abf 9089 903e bbd1 953f
00000360: 0ba4 4abf 4658 5b3f b828 62bf 8914 e53e
00000370: 5a9e 903f 8895 b13f a585 ca3e 7d56 a53e
00000380: 4ce5 b43f 2bf2 9fbd a181 79bf da95 a2bf
00000390: 5bab e93f eec1 663f 959b ffbe 65c3 ec3d
000003a0: 4959 c53e c70d fa3e c092 0e3f d6b5 da3f
000003b0: 2198 0d3f 132b 023f ee42 0e40 f917 153f
000003c0: 8f10 41bf 489d 96bf 152c c8bf c3b0 dfbe
000003d0: 7136 fb3e d265 3a3f 73b1 01c0 5585 59bf
000003e0: 002f f53e 29dc b03f d904 813f 790d 18bf
000003f0: b69d 963f 970e 61bf 071c 17bf 583c 7fbe
