model/LI_Mofei_Data_200_LogF_True_epoch_200_attention_net_u_artificial_Q_9_K_5_F_5_REG_L0_ACT_sigmoid_WD_000001_CV.model (torch_old, 52101 bytes, 6 tensors)

key_matrix f4 [9, 5]
000000 2c 26 4c bf 7a 1d af 3f bb 27 6b be 41 f7 f8 bc
       -0.79745746 1.368087 -0.22964375 -0.030391337
000010 15 8a c1 be b6 05 01 c0 f3 7d 41 3f 77 a9 7c 3f
       -0.3780066 -2.0159736 0.7558281 0.9869608
000020 67 ee c4 be 85 b6 0b 3f 8e 9d c9 be 73 1f b9 be
       -0.38463137 0.5457538 -0.39378017 -0.36156806
000030 65 f3 38 40 ed da 72 3e d8 29 c8 bf 59 06 1b 40
       2.8898556 0.23716326 -1.563777 2.4222624
000040 86 ae 25 bf b3 09 23 c0 11 37 0f 3f 88 7b 99 3e
       -0.64719427 -2.547467 0.559434 0.2997706
000050 fa cb 0d 40 ee 8e db bf 7f 33 cd 3f 9b 74 c9 bf
       2.2155747 -1.7152994 1.603134 -1.573871
000060 f7 ab 83 3f 37 57 d9 3e f7 fa 43 bd 6c c7 0c bf
       1.0286855 0.42449352 -0.04784676 -0.54991794
000070 e4 5f c6 3f ab 37 f7 bf f4 25 be 3e 09 41 4f bf
       1.5498013 -1.9313864 0.3713833 -0.8095861
000080 f9 17 9e 3f 78 86 c4 3f 23 95 21 3e 74 f2 46 3f
       1.2351066 1.5353537 0.15779547 0.77713704
000090 9c ba 80 be da a0 d0 bd b3 a0 12 bf d7 9d e6 be
       -0.25142372 -0.1018693 -0.5727646 -0.45042297
0000a0 d2 8e 21 bf b1 e1 7a bf 3f e4 97 3f c6 27 1f bf
       -0.6310855 -0.9800063 1.186653 -0.62170064
0000b0 a9 5d 3f be
       -0.18688072

value_matrix f4 [5, 5]
000000 b7 78 63 bf e6 73 fb bf ed 99 70 3f 5a b5 58 bf
       -0.8885607 -1.9644744 0.9398487 -0.8465172
000010 6c 44 12 be a7 30 2c be 3c 4b 7c be 0c f3 cf bf
       -0.14283913 -0.16815434 -0.24638075 -1.6246047
000020 11 e7 8d 3f 19 39 dd bd 14 f6 79 c0 36 58 7f c0
       1.1086141 -0.10801906 -3.9056444 -3.989759
000030 a9 5e 1a 40 92 44 64 bf 2e 70 20 bf 74 4a 61 3e
       2.4120276 -0.8916713 -0.6267117 0.22001058
000040 7f 5e aa bf 15 47 dc 3f 03 51 0c 3f b1 62 be be
       -1.3310088 1.7209193 0.54811114 -0.3718467
000050 53 74 05 bf 13 35 44 bf 1d 58 25 bf a9 76 6f 3e
       -0.5213062 -0.76643485 -0.64587575 0.23385109
000060 ae e6 56 3e
       0.20986435

linear_layer1.weight f4 [9, 64]
000000 a0 d4 4a 3d 7e df ae 3d 3a c6 6c be 58 8c 29 3e
       0.04951918 0.085387215 -0.23122492 0.16557443
000010 14 14 0e be d0 f2 92 bd 60 be 08 3d ac e5 e5 bc
       -0.13874847 -0.07175219 0.03338468 -0.028063618
000020 fd 44 dc 3c ef 14 69 3e 68 6c 6e be a4 8d 29 3e
       0.026888365 0.22761892 -0.23283541 0.16557938
000030 2f e5 66 3e 01 6c 8f 3d 20 09 0e 3d 90 19 41 bd
       0.22548364 0.07003022 0.03467667 -0.04714352
000040 14 c7 1e 3e 62 50 f0 3d c2 7e 3a 3e b0 e0 62 be
       0.1550563 0.11734082 0.18212417 -0.22156024
000050 7f 27 2c 3e c0 2c 4e be 7c 5b ad bd c1 f6 0b bc
       0.16811942 -0.20134258 -0.08464715 -0.008542717
000060 c3 35 76 3e 52 4e 8c bc ae e5 12 be a1 95 82 3d
       0.24043946 -0.01712719 -0.14345428 0.06376196
000070 b0 06 8d bd 6a c1 30 be dd 1c 05 3e 50 c5 83 3e
       -0.06886041 -0.17261282 0.12999292 0.25736475
000080 2a 0b 64 be 4b 1c 83 3e 60 e0 29 3e 70 9d 27 3d
       -0.22269884 0.25607523 0.16589499 0.04092163
000090 dd 41 08 be b9 2e 85 be 46 d1 82 bd 72 00 c7 bd
       -0.13306375 -0.2601221 -0.06387572 -0.09716882
0000a0 70 0b 04 bd 51 7c f9 3d b1 05 8a 3e f1 31 49 3e
       -0.03223747 0.121819146 0.26957467 0.19647957
0000b0 7a dc 32 3d d1 e0 c2 bd 7e 35 6c be 45 ee a7 bc
       0.043667294 -0.095155366 -0.2306728 -0.020499358
0000c0 14 e7 72 3d 20 be 9f bc ab d0 68 3b 03 0b e7 b8
       0.059302405 -0.019499838 0.0035524766 -0.000110169894
0000d0 0d 40 1a bd 19 b9 b2 bc 6c 1f 92 be 2c e8 aa 3c
       -0.03765874 -0.021816777 -0.28539598 0.020862661
0000e0 08 8b 6e bd c0 87 89 be 22 ed fe 3d 48 69 17 be
       -0.05823806 -0.26861382 0.12447573 -0.14786255
0000f0 a9 03 d6 3d aa 6a 92 be 63 08 27 be ce b3 90 be
       0.10449917 -0.28597003 -0.16311793 -0.2826218
000100 c2 d7 49 bd f3 c9 d4 3d 8c 4a b7 bd 3e 31 60 3d
       -0.04927803 0.10390081 -0.089497656 0.05473446
000110 45 00 7f 3e ad f1 07 3e 9f 5f 80 be 8e 88 95 3d
       0.24902447 0.13275786 -0.25072953 0.07301436
000120 0a 21 e9 3d 29 af 70 be 21 e8 85 be 11 34 44 be
       0.11383255 -0.23504318 -0.26153663 -0.19160487
000130 22 05 87 be c4 4e 40 be 09 ed 8a be 7f 67 2e be
       -0.26371104 -0.18780047 -0.27133968 -0.17031668
000140 e1 e0 86 be f8 b9 72 3e 88 d5 3e 3e 11 9e 3e 3e
       -0.26343444 0.23703754 0.18636143 0.18614985
000150 53 59 b2 bd 33 ca 35 be dc a7 80 be 09 5e 0a be
       -0.087084435 -0.17752914 -0.25128067 -0.13512434
000160 90 d6 84 be 05 76 81 bd 81 11 89 be c1 3e 07 3e
       -0.25944948 -0.063213386 -0.26771167 0.13207532
000170 df ba 10 be cb 8d c2 3d b8 5d 55 3e c5 b3 28 be
       -0.14133786 0.09499701 0.20836532 -0.16474827
000180 2f d8 5c 3e 38 f9 99 bd a6 85 45 be 3c 22 2b be
       0.21566842 -0.07518238 -0.19289264 -0.16712278
000190 86 e1 72 3e c0 1b 3d be 5c 2b 00 3e d2 4e 1d 3e
       0.23718843 -0.18467617 0.1251654 0.15362099
0001a0 4f 5e 6e bd e5 5b f1 3d 51 ce 9d bd 9a fc 76 3e
       -0.05819541 0.117851056 -0.07705367 0.24119797
0001b0 d1 7d a8 bd ed 03 87 3d 1a 89 45 3e 95 05 ec bd
       -0.082271226 0.06592546 0.19290581 -0.11524502
0001c0 28 de 91 bd 7e 75 49 3c 8b e0 6b 3e 42 05 89 3b
       -0.07122451 0.012296079 0.23034875 0.004181535
0001d0 a5 1e f6 bd 25 ad 2e bd ca 66 83 be ec c1 00 be
       -0.12017564 -0.042645592 -0.2566436 -0.12573975
0001e0 b5 6c d3 3d 01 26 00 3d a2 28 0c be 15 5a 07 3d
       0.103234686 0.031286243 -0.13687375 0.033044893
0001f0 88 c1 87 be fb 71 26 3e ab 65 5a be 70 1b 44 3e
       -0.2651484 0.16254418 -0.21327846 0.19151092
000200 48 7f d8 bd 3b 55 5a 3e 59 29 74 3e 2b e5 56 bd
       -0.10571152 0.21321575 0.23843898 -0.052464645
000210 c8 66 4a be 4a 2d 6a 3d 9e 46 16 3e 59 e3 d3 3d
       -0.1976577 0.057172097 0.14675376 0.103460975
000220 60 2c 3e 3e 8d 0c 8e 3e a5 9d 3a 3e 95 24 af 3d
       0.18571615 0.2774395 0.18224199 0.08551899
000230 f4 23 c6 bd ba ff 8c 3c 2f 83 82 3e 90 b0 2a be
       -0.09674826 0.017211784 0.2549071 -0.16668916
000240 8f 44 0f be 25 b2 b5 3d 3e 87 6b be 47 72 29 bd
       -0.13990997 0.08871869 -0.2300081 -0.04136875
000250 d3 9d d3 bd a0 d6 ff 3d 6b 5c 0c bd 2e cd d5 3d
       -0.10332837 0.12492108 -0.034267824 0.104395255
000260 bb 58 19 be 3a 83 5e 3d 3a 4e 2d be d3 b0 a3 3e
       -0.14975254 0.054324366 -0.16924372 0.31970844
000270 aa 86 c8 3d 91 1f 89 bd dd 87 ad 3d db 83 66 bd
       0.0979131 -0.06695474 0.084731795 -0.05627809
000280 8f be 5d bd 19 e1 dc 3d d2 88 27 be 95 0c e2 bd
       -0.05413681 0.107851215 -0.16360787 -0.11037556
000290 01 1f 70 3e 20 34 48 3e 43 8e 4f 3e b7 09 f2 bc
       0.23449327 0.19551134 0.20269112 -0.029545648
0002a0 e5 2a 06 bc af 5d 08 3d c5 8e eb bc 8a df 4a be
       -0.008188938 0.03329247 -0.028754601 -0.19811836
0002b0 1e 9e 8a 3e df 27 0e 3e d5 7c a6 bd ec 5d 65 bd
       0.2707376 0.13882397 -0.081292786 -0.055997774
0002c0 ed 30 96 3e 79 82 05 be ac 7a be bd 61 4c a0 3e
       0.29334202 -0.13038053 -0.093007416 0.31308272
0002d0 28 15 64 bd 97 ee 96 3d c9 f2 80 3e dc 2f e2 bd
       -0.05568424 0.07369726 0.2518523 -0.11044285
0002e0 97 70 53 be 77 01 68 3d e2 c0 fa bc 44 43 ad bc
       -0.20648418 0.056642022 -0.030609552 -0.021150239
0002f0 6c 45 86 3d eb a5 c0 3c 30 97 16 be 46 af 3b be
       0.0655621 0.023516616 -0.14706111 -0.1832858
000300 ff 30 83 be 55 f6 07 3e 75 7a 26 be 9a 9a 91 bd
       -0.2562332 0.13277562 -0.16257651 -0.07109566
000310 5b c4 28 3e c9 8b 29 be 20 8a 5c be 77 d8 4a be
       0.16481154 -0.1655723 -0.21537066 -0.19809137
000320 89 31 f9 3d 91 4d e2 bd 27 08 86 be 4a 7c 61 3e
       0.12167651 -0.11049951 -0.26178095 0.22020069
000330 cb a1 82 be 62 55 94 be 03 d1 34 bc 38 bc a7 bd
       -0.25514063 -0.28971392 -0.01103616 -0.08190197
000340 06 d6 33 3e f4 9b 8e bc ab d2 86 be d0 61 9c 3c
       0.17562112 -0.017408349 -0.26332602 0.01908961
000350 45 f9 a7 be fa 64 a9 be 25 9b 25 be 80 91 f5 bd
       -0.32807365 -0.33084852 -0.16172464 -0.119906425
000360 13 c7 28 be 42 77 8c be 79 a8 6c 3d 43 20 f2 3d
       -0.16482191 -0.27434736 0.057777856 0.1182256
000370 5b 89 9b bd e3 75 bb bc 95 51 d0 39 fc 8e 84 3a
       -0.07594558 -0.022883361 0.00039733635 0.0010113413
000380 3d 48 ac ba f0 6b 68 3d f6 a1 41 bd 02 74 86 be
       -0.0013144087 0.056743562 -0.0472736 -0.26260382
000390 45 8a 41 3e 25 0e 90 be 19 21 41 3e 8e 76 3d 3e
       0.18900402 -0.2813579 0.18860282 0.18502256
0003a0 5e 1d 6f be 24 6f a1 be 2f 74 13 be ad 75 46 be
       -0.23351046 -0.31530106 -0.1439979 -0.19380827
0003b0 c4 c8 19 3e dc 77 66 be 7f 91 4a 3e f9 9e 15 be
       0.15017992 -0.2250666 0.19782065 -0.14611425
0003c0 61 4c a1 3d a9 b1 80 be 87 23 df 3d c3 19 b6 bd
       0.07875896 -0.25135544 0.10895448 -0.088916324
0003d0 ce 4a 87 be 47 c4 86 be 8c d5 60 be 0f 65 bc bd
       -0.2642426 -0.26321623 -0.21956462 -0.09198963
0003e0 17 1d d3 3d 39 b0 c9 3b 7a 32 c3 ba 7c b5 27 3e
       0.10308283 0.0061550406 -0.0014892363 0.16377825
0003f0 23 6d 64 3d 88 6b d6 3c 17 8a df 3d 70 58 3b 3e
       0.055768143 0.026174322 0.109150104 0.18295455

linear_layer1.bias f4 [9]
000000 62 9b e5 be 94 e7 f0 3f 35 98 bc 3f ec 97 77 bf
       -0.4484511 1.8820672 1.473395 -0.9671619
000010 df 1c b9 3f b9 ad c8 bd aa 1b 24 3f 13 44 40 bf
       1.4461936 -0.0979876 0.6410471 -0.75103873
000020 b2 01 c9 3b
       0.0061342353

linear_layer2.weight f4 [2016, 5]
000000 6f 7c 80 be 42 b1 85 be 24 ea 1a 3e da 1b a4 bd
       -0.25094935 -0.261118 0.1512838 -0.08013125
000010 c8 74 3b bc c1 1b c3 3d 99 dd 34 3e 21 34 cd bd
       -0.011441417 0.09526778 0.17662658 -0.100197084
000020 d3 d9 db 3c b3 e0 91 bc cd 26 1d 3d 25 af b5 3c
       0.026837265 -0.01780734 0.03836708 0.022178242
000030 4c 99 f2 bc 39 54 86 3c 0d 1d b5 bb 55 f1 96 ba
       -0.029614113 0.016397582 -0.0055271448 -0.0011516014
000040 cd f1 3d 3d b3 fe a2 3c 19 8c 9b ba 17 d8 ea 3c
       0.046373177 0.01989684 -0.0011867314 0.028667493
000050 62 8a 1c 3d 7c 6d 7a 3d 1a 7c b4 bd d6 19 9f 3b
       0.03821791 0.06113957 -0.08812733 0.004855375
000060 32 78 1d 3d fe 41 3b 3e 2b f7 0c 3e 40 59 c8 bd
       0.038444705 0.18286893 0.13766162 -0.09782648
000070 47 6b 10 3c 0e ce 61 3c 7c 6d 19 3e d8 75 32 3e
       0.008814639 0.013782037 0.14983171 0.17427766
000080 cc 2d 2e be d7 f4 56 3d b0 d1 3f 3d 57 c4 c8 bb
       -0.17009658 0.05247959 0.046830833 -0.006126921
000090 5e f7 51 3d 92 64 44 3d eb 64 50 3d 61 c9 5a bd
       0.0512613 0.047947474 0.050877493 -0.053414706
0000a0 cf f7 c2 bc 1f 69 88 bd 01 ff 32 3c 17 69 21 bc
       -0.023799805 -0.06660675 0.0109250555 -0.0098517155
0000b0 31 10 d0 3a a2 6b cb bc a1 3f 35 bc 17 16 23 bc
       0.0015873966 -0.024831597 -0.011062534 -0.009953997
0000c0 b2 c0 37 bd 9e 6d 6c bd 30 e5 a2 3c 8c 00 a3 3d
       -0.044861503 -0.057721727 0.019884676 0.07959089
0000d0 79 77 9f bc 1c 1f ef 3c 2f 34 9c bc 2e a6 93 3b
       -0.019466149 0.029189639 -0.019067852 0.004505894
0000e0 ec 57 43 bd d3 1a 8d 3c e5 b4 2b 3a 16 10 08 3d
       -0.04769127 0.017224705 0.0006550088 0.033218466
0000f0 a4 a9 97 bc 95 06 d4 ba a9 20 3d 3d da b6 4c bd
       -0.018513508 -0.0016176278 0.046173725 -0.04997907
000100 4f 81 52 bd 17 ad 33 3d 5c b9 15 bd 25 7e 61 3c
       -0.05139285 0.043866243 -0.036553726 0.013762985
000110 e1 6e 17 bd 44 07 14 bd 6c 34 87 3e 25 c3 ba 3e
       -0.036970977 -0.03613974 0.26407182 0.36477008
000120 cf a1 83 be 97 92 6e 3d 41 c6 c4 3d 1f c5 e5 3d
       -0.25709388 0.058245268 0.096081264 0.112192385
000130 f9 8e b2 3d 90 43 98 bd 72 0c e3 bb fd 6a 39 3d
       0.08718676 -0.074347615 -0.006928974 0.045268048
000140 f7 5e e5 3d 87 05 1e 3e 42 66 8c bd 59 3d b7 3c
       0.11199754 0.15431796 -0.06855442 0.02236812
000150 b7 a8 88 bc 94 4c 21 3d c2 27 8a 3c c4 85 b7 bd
       -0.016682012 0.03937967 0.016864661 -0.08961061
000160 63 70 3c 3d 1b 04 62 3d aa f3 32 bd d2 04 96 bd
       0.046005618 0.055179697 -0.043689407 -0.07325138
000170 0a 3e 88 3d c9 5e 4d bd fb 39 0f bd e8 d1 03 bd
       0.06652458 -0.050139222 -0.034967404 -0.032182604
000180 fc e8 2a 3d 86 c0 08 bd b3 af 4b bd 8a 28 b7 bc
       0.041726097 -0.03338673 -0.049728107 -0.022358198
000190 e0 fa 61 bd 90 3c 15 be 10 41 06 3d 49 75 b5 bc
       -0.055170894 -0.14573884 0.032776892 -0.022150652
0001a0 c3 1e 11 bd ab 11 47 3e 6e 28 80 3e d6 30 ed bd
       -0.035429727 0.19440334 0.25030845 -0.1158158
0001b0 21 bf a2 3d 6e 8c 94 3d 94 1f 4a 3e 7a 1d 41 3e
       0.07946611 0.07253347 0.19738609 0.188589
0001c0 05 e8 89 bd e2 73 07 3d 2f ea 8b bc 32 27 05 bd
       -0.06733707 0.0330695 -0.01707944 -0.032508083
0001d0 3b 7b 24 3d 45 cc 0e bc ef dc f3 bc d1 f8 42 bd
       0.040156584 -0.008715694 -0.029768435 -0.04760057
0001e0 dc e6 34 be 52 75 32 be aa 64 12 3e 97 11 78 bc
       -0.17666191 -0.17427567 0.14296213 -0.0151409125
0001f0 d6 c3 6f bd 57 45 ad bd cd 43 49 bd d7 7b 02 3c
       -0.058536373 -0.08460491 -0.049136925 0.007964096
000200 3c 0a 97 3b 0c a4 26 3d cb 7c 56 3e cf 6e 2b 3e
       0.0046093743 0.04068379 0.20946042 0.16741489
000210 6a b2 eb bd d7 c0 8b 3d 81 d1 aa 3d 89 48 c6 3d
       -0.11508639 0.06823891 0.08340741 0.09681804
000220 37 32 26 3e c7 37 d3 bd 1a 26 e6 bc e3 27 25 3d
       0.16230093 -0.10313373 -0.02809434 0.040321242
000230 aa 8c 32 3c 9c 7c 01 bd a1 fe 4b bd fa be 1e 3d
       0.010897795 -0.031612977 -0.04980338 0.03875635
000240 d9 88 4d bd 9e ec 9f 3d 6d fa 6d 3d 0a f5 a4 bd
       -0.050179336 0.07808803 0.058100153 -0.0805455
000250 80 27 6a bc 1d 44 96 3c 2f 25 57 3b c0 d1 81 3c
       -0.014291644 0.018343026 0.003282856 0.015847087
000260 bb cd 64 bc 77 b9 1c bd 41 d6 27 3d aa d4 1c be
       -0.013965066 -0.03826281 0.040975813 -0.153155
000270 94 71 75 bd b4 02 cd 3d 07 2f e7 3c 5c 42 af bc
       -0.05992277 0.10010281 0.028220667 -0.021393947
000280 13 05 33 3d 08 bf 67 3d 9d 37 54 bd 4f d2 05 bd
       0.04370601 0.056578666 -0.05181085 -0.03267127
000290 6d 5a 01 ba 6c 9f 0e 3e 20 bd 29 3e 26 c5 f9 bd
       -0.0004934434 0.13928002 0.16576052 -0.12195806
0002a0 8f d0 20 3d 59 1e b5 bc fe 9f 16 3d b0 b9 15 3c
       0.039261397 -0.022109197 0.036773674 0.00913851
0002b0 10 d5 00 3c e8 19 39 bc a1 16 e1 bc 3f 9d 3c 3d
       0.007863298 -0.01129768 -0.02747661 0.0460484
0002c0 20 44 57 bd 95 e1 ae bc 3b 97 31 bd 58 a0 5e bd
       -0.052555203 -0.0213478 -0.043357115 -0.054352134
0002d0 cd 51 5f bd 99 53 9e bd ef de 6a 3d 23 7d 78 bd
       -0.05452137 -0.07730789 0.057341512 -0.060666215
0002e0 2a e5 2e 3d 41 dc d9 3c 54 d5 ac 3c c8 87 d0 bc
       0.042699017 0.026594283 0.021097817 -0.02545537
0002f0 d6 ba d0 3b 49 63 49 bc 82 b7 5c 3d 80 eb 50 3c
       0.006369929 -0.012291738 0.053885944 0.01275146
000300 80 52 f0 39 30 9b 6a bb 04 96 fe 3c b2 2b f9 bc
       0.00045837834 -0.0035798065 0.031077392 -0.030416343
000310 eb 0a 3f bd bd ee 6e bc 30 71 d3 bb 54 47 12 3d
       -0.04664127 -0.014583287 -0.006452702 0.035712555
000320 be df b4 bd bd 52 94 bd d4 d3 23 3d 65 a9 be 3b
       -0.08831738 -0.072423436 0.039996937 0.0058185332
000330 bf 28 a5 bc 84 ab 34 be ab 3e 36 be ed 70 db 3d
       -0.02016103 -0.17643553 -0.17797343 0.10714898
000340 41 e9 20 bc 24 7c 90 bc df a3 7c bc f8 6d 9e 3c
       -0.009821237 -0.01763732 -0.015419929 0.019339547
000350 91 21 6f 3d 62 b8 2c bd 4f 88 57 bd 17 b4 90 3d
       0.05838162 -0.04216803 -0.05262023 0.070655994
000360 3e 7d d3 3d c1 dd 0d bd da 92 a8 3a 2b 61 da 3c
       0.103266224 -0.03463531 0.0012861148 0.026657661
000370 ed 4a 5a 3d c2 c4 d9 3d 67 64 d1 bb 75 7c 7a 3d
       0.05329411 0.10633232 -0.0063901427 0.061153848
000380 e8 4f 14 3d 31 21 67 3d db 9e 13 3e b0 f6 d0 bd
       0.036209017 0.05642814 0.14416067 -0.10203302
000390 9b c0 34 3d 6e b2 ea bb 36 b8 91 bc 20 0f 13 3b
       0.044128995 -0.0071623838 -0.017788034 0.0022439435
0003a0 38 36 2d bc e8 47 96 3c 1d 3b 50 bd 58 3a 30 3c
       -0.010572009 0.018344834 -0.050837625 0.010756098
0003b0 2f 8c 26 bd ee 6f 46 3d a8 01 19 bd 08 a1 aa 3c
       -0.040661033 0.04844659 -0.037355095 0.020828739
0003c0 40 cb e3 bd 61 e9 1c be ef 4a de 3d 40 b7 3e bd
       -0.11122751 -0.15323402 0.10854136 -0.04656148
0003d0 3c 17 10 bd 4a f9 a8 bd 17 aa 0e bd d9 fb 82 3d
       -0.035178408 -0.08250673 -0.03483018 0.063956924
0003e0 5d be 2e 3d 21 6e 61 bd a8 63 21 be bf 24 eb bd
       0.042662013 -0.055036668 -0.15760672 -0.11481618
0003f0 f8 c5 83 3d 32 87 38 bd 6b 28 5b bd c4 2c c0 3c
       0.06434244 -0.045050807 -0.053505342 0.023458846

linear_layer2.bias f4 [2016]
000000 17 00 24 c0 68 ef bb 3f cf 91 51 3d 8e f6 57 3f
       -2.5625055 1.4682436 0.051164445 0.8436059
000010 22 8c 82 bd 39 a7 d0 3f 8d 45 63 3f b4 44 a6 be
       -0.063743845 1.6301032 0.88778 -0.3247429
000020 75 1a 78 bf 86 12 d0 bf 86 63 0d 3f d2 f9 65 bf
       -0.9691537 -1.6255653 0.55229986 -0.8983432
000030 32 ff 36 bf 02 7d 4e bf e2 59 46 40 95 2c 01 3f
       -0.7148315 -0.80659497 3.099236 0.5045865
000040 8a ce 70 3f 8f 45 84 3e b3 39 89 bf 70 43 6a be
       0.94065154 0.2583432 -1.0720733 -0.22877288
000050 40 a0 c0 bf 5b e0 94 3f 30 d2 9e 3f e7 4d 8e bf
       -1.5048904 1.1630968 1.2407894 -1.1117524
000060 bd 2c 0f c0 f4 2d a1 bf cf 28 1d 3f 07 a1 99 3e
       -2.2371056 -1.2592149 0.61390394 0.30005667
000070 16 60 07 3c 3a c7 51 3e d9 e1 72 be 23 11 8a bf
       0.008262655 0.20486155 -0.23718967 -1.078648
000080 70 38 12 bd 8f 90 c8 3f b2 62 8c 3f a5 b7 56 3e
       -0.035698354 1.5669116 1.096762 0.20968492
000090 a3 74 9f bf 2c 42 a5 3f a7 5d 79 bf d8 e3 08 bf
       -1.245747 1.2910819 -0.9740853 -0.5347266
0000a0 c5 fd 2b bf 5e 74 ec bf 44 94 69 be 83 3e a5 3f
       -0.67184097 -1.8473012 -0.22810465 1.2909702
0000b0 f9 f6 66 3f 8f bf 98 3f 82 be 2f bf a4 b9 40 bf
       0.902206 1.1933459 -0.68650067 -0.75283265
0000c0 e2 01 bb bf 73 f3 f4 be b7 db c8 bf 2a 63 c2 3f
       -1.460995 -0.47841987 -1.5692052 1.5186512
0000d0 77 04 0f 3f 3e ae 8e 3e 8d 86 d6 3e 48 63 eb be
       0.5586619 0.2786731 0.4189953 -0.45974183
0000e0 c7 11 32 be 98 27 9d 3e 42 5c 60 bf 96 3d 07 3f
       -0.17389594 0.3069427 -0.87640774 0.5282835
0000f0 4b ef c3 3f 11 47 8d bc 9c 13 4d 3e 80 48 9b 3e
       1.5307401 -0.017245801 0.20027012 0.3032875
000100 4e a6 07 bf 26 28 98 bf 19 2c a7 3f 86 9c d3 be
       -0.52988136 -1.1887252 1.3060333 -0.41330355
000110 d6 68 fc 3f f0 5f 08 bf 7b 57 1a c0 e1 b3 8e bf
       1.9719493 -0.5327139 -2.4115894 -1.1148645
000120 dd 7e b8 bd a9 fa 6e bf 2c 99 36 bf ff a4 5a 3d
       -0.09008572 -0.9335123 -0.7132747 0.05338001
000130 67 dd 0c 3f 10 89 47 bd 1f ab 09 c0 fc 46 93 bf
       0.55025333 -0.048714697 -2.1510694 -1.1506038
000140 67 e8 9c bf 15 0a 02 3e fc db bc bf bc 0b 8c bc
       -1.2258424 0.12699158 -1.4754634 -0.01709544
000150 f6 7b 93 bf 55 f0 2a 3f 45 d0 87 bf 8c 68 99 3f
       -1.1522205 0.6677297 -1.0610434 1.198503
000160 0e 3a ee bf 0c 54 83 3c 75 f4 8a bf 74 58 a5 bf
       -1.8611467 0.016031288 -1.0855852 -1.2917619
000170 26 6c 06 bf df 8b 26 be bf 56 0e 40 b2 61 1e 3e
       -0.5250877 -0.16264294 2.2240446 0.15466955
000180 42 df 8b bf 6b 69 f6 be 50 de 97 3f 6c 97 dd 3d
       -1.0927508 -0.48127303 1.1864719 0.10819897
000190 54 02 f0 bf 17 4f 60 3e 5f ec 94 bf 5d 0c 5c bd
       -1.875071 0.2190517 -1.1634635 -0.053722728
0001a0 79 78 18 3c 41 3b 03 c0 f8 ef 0a 3c 4d de 3c bf
       0.009306067 -2.0504916 0.008480065 -0.73776704
0001b0 65 eb b1 3e a9 a5 62 bd 27 3f 28 3f 41 26 12 40
       0.34749904 -0.055333767 0.6572136 2.2835848
0001c0 1a 49 9f bf 06 35 94 3f 97 43 4a bf 7a 2e c8 be
       -1.2444184 1.1578681 -0.79009384 -0.3909796
0001d0 17 e3 08 3f 82 8d 84 3e bd 85 88 bf da 76 92 3e
       0.5347151 0.25889212 -1.0665814 0.28606302
0001e0 c3 85 f0 3f 28 7f 37 be 92 cf dc bf 3c c1 19 bf
       1.8790821 -0.179196 -1.7250845 -0.6006048
0001f0 1c ee 09 c0 a8 a0 36 be 61 fe 50 3f 22 27 6b bf
       -2.155158 -0.17834723 0.8163815 -0.91856587
000200 57 3d b0 3f 1e 56 a8 be 15 85 41 3f ed 86 87 bf
       1.376872 -0.32878202 0.7559369 -1.0588051
000210 cd ca f6 3e d4 d0 85 3f 12 c4 f7 bf fd bb a0 be
       0.482016 1.0454354 -1.9356711 -0.31393424
000220 f6 22 fc be d0 67 e7 bd bf 50 cb be cd 37 3e 3f
       -0.49245423 -0.112990975 -0.39710042 0.74303895
000230 74 02 f4 be a0 d6 56 bf f4 6f 9a bd b9 83 2c bd
       -0.47658122 -0.8392124 -0.075408846 -0.042117808
000240 02 31 f8 3f e2 ab 04 40 41 40 0c c0 1f 9b 93 3f
       1.9389956 2.072991 -2.1914217 1.1531714
000250 6c 88 ba bf 36 51 ab bd 14 7a 1a 3e 16 2a 88 3f
       -1.4572883 -0.08365099 0.15085632 1.0637844
000260 93 78 a6 3e c5 c0 92 bf 69 24 06 40 16 70 6f 3e
       0.32513866 -1.1465079 2.0959723 0.23382601
000270 ea 7a 02 3e 55 71 1b c0 8c 65 22 bf 83 58 a8 3d
       0.127422 -2.4287922 -0.634362 0.08220007
000280 1f 7f 1e 3f a1 3c e0 3d 82 cf 8a bf 35 94 31 40
       0.6191272 0.10949064 -1.0844576 2.7746708
000290 c2 f4 41 bf 61 ea e2 be 81 7c be 3d 72 18 85 3f
       -0.75764096 -0.44319442 0.09301091 1.0398085
0002a0 d9 19 13 40 b0 96 45 bf f1 45 a7 bf 33 6b e4 3f
       2.2984526 -0.77183056 -1.306822 1.7845215
0002b0 57 15 61 3e 21 af ad 3e 62 5d 36 bf a3 b0 3c 3f
       0.21980797 0.33922675 -0.7123624 0.73707026
0002c0 ae 9d a3 bd d2 13 1e 3f 68 29 27 bf 69 38 e8 be
       -0.079890594 0.61748993 -0.65297556 -0.45355538
0002d0 44 0f cd 3e 32 be a0 3f bf 3e 2d 3f 64 52 f4 3e
       0.4005071 1.2558043 0.6767387 0.4771911
0002e0 35 10 8c 3e 9f 08 9d 3f 31 b8 25 bd 90 9a 1a 3f
       0.27356115 1.2268256 -0.04045886 0.60392094
0002f0 02 92 e1 3f 6e 6e 44 be 5e df 8e bd 00 d9 9f 3e
       1.7622683 -0.1918275 -0.06976198 0.31220245
000300 52 f7 2f 3f 88 8b 5a 3e d8 c0 ee 3e 02 f3 e5 be
       0.68736756 0.2134229 0.46631503 -0.44911963
000310 d1 3c 05 bf df 02 1a 3f 37 fd b6 3f b9 f0 eb 3e
       -0.52045923 0.6016063 1.4296025 0.46082094
000320 0e 17 86 be 02 30 26 bf 43 9c f4 be 84 77 9b bf
       -0.26189464 -0.64917004 -0.47775468 -1.2145848
000330 fd a1 6a bf f7 3b 05 3f a0 56 10 3f 8a b3 cd be
       -0.91653425 0.52044624 0.5638218 -0.4017604
000340 7a 4a 0b bf 3a bb 0a 40 84 9d a2 3f 89 3a 89 3f
       -0.5441052 2.1676774 1.270432 1.0720989
000350 b6 0e 31 bf 78 f3 49 bf 57 98 80 3e 1e 24 d2 be
       -0.6916307 -0.7888713 0.25116226 -0.4104318
000360 f8 4d 43 3e d2 fd 82 3e 7f 2e 00 be 26 85 09 bf
       0.19072711 0.25584275 -0.12517737 -0.53718793
000370 7f ed be 3f ec 84 63 bd f5 19 27 3f bd 6c 57 3e
       1.4916228 -0.055546686 0.6527398 0.21037574
000380 e0 af 05 3f 0e 05 43 3f dc b3 37 bf 9e b0 c1 bf
       0.5222149 0.7617959 -0.7175882 -1.5132024
000390 6e dc ae 3f 1f 25 75 bf 04 c7 8f 3f d8 31 31 3f
       1.366102 -0.9575977 1.123261 0.6921668
0003a0 ba a2 4e bf cb a1 9f 3f da 16 cc be e1 ac e1 3e
       -0.8071705 1.247125 -0.39861184 0.4407721
0003b0 5c ae 87 3f ff 73 14 bf f5 47 e3 3f c2 94 80 3f
       1.0600085 -0.57989496 1.7756335 1.0045397
0003c0 b9 9e 83 3e cd 8b 99 be bd 99 c3 bf f9 5e ed 3d
       0.25707033 -0.29989472 -1.5281292 0.1159038
0003d0 1d 40 89 be be 14 a9 bf dd a3 90 bf 54 92 c6 bf
       -0.26806727 -1.3209455 -1.1300007 -1.5513406
0003e0 6d 45 bd bd 8f 0c 86 3f f4 d4 32 be c5 67 e5 3d
       -0.092417575 1.0472583 -0.17464048 0.11201433
0003f0 4b 9e 41 3f da 1e cf 3e c7 cf 4c 3f 42 eb 3d bf
       0.7563216 0.40453225 0.80004543 -0.741871
