model/LI_Mofei_Data_200_R_1_NL_00_LogF_True_epoch_10000_attention_net_u_artificial_Q_9_K_3_F_5_REG_L0_ACT_sigmoid_WD_000001_CV.model (torch_old, 51989 bytes, 6 tensors)

key_matrix f4 [9, 3]
000000 6b 15 86 be 11 69 49 bf d2 45 42 bf c2 d3 f8 3f
       -0.26188216 -0.78675944 -0.7588779 1.9439623
000010 46 88 c1 bf 8b c8 b1 3d 8f 38 11 3f c8 4e ba bf
       -1.5119712 0.08680829 0.56726927 -1.4555292
000020 80 86 30 3f 83 b8 b8 3d 69 95 5e bf 40 03 16 bf
       0.6895523 0.09019568 -0.8694673 -0.5859871
000030 b0 7c 63 3f 38 b3 cb 3f 88 28 04 c0 08 69 91 3e
       0.88862133 1.5914068 -2.0649738 0.28400445
000040 60 c4 ab bf 60 bc f6 bc a1 f0 1f 3f 6d 2d 70 3f
       -1.3419304 -0.030119121 0.62476546 0.93819314
000050 10 1f 57 bf 4e 2e 60 bd 47 eb c6 bf ba f4 a9 bf
       -0.8403177 -0.05473166 -1.5540551 -1.327781
000060 2a 5a ed 3e 7e 51 4a 3f 70 25 42 bf
       0.46357852 0.790306 -0.75838375

value_matrix f4 [3, 5]
000000 da 95 be 3f 55 55 ba 3e 82 d0 cd bb 8d 3a cf c0
       1.4889481 0.36393228 -0.0062809596 -6.4758973
000010 8c 2e c4 3f 0e 6a c1 3d 8c 12 01 bf 80 26 03 c0
       1.5326705 0.094440565 -0.50418925 -2.0492249
000020 1f 75 78 3f d4 70 e4 3e 81 b5 31 be 98 ad b4 bf
       0.9705371 0.4461733 -0.17354394 -1.4115477
000030 ba db 17 bf 14 f1 8e 3f 9d 8d 0b 40
       -0.5931965 1.1167321 2.1805184

linear_layer1.weight f4 [9, 64]
000000 46 3b 44 be 20 b4 8e bc b2 b8 8d 3e 93 88 ef 3c
       -0.19163236 -0.017419875 0.27679974 0.029239928
000010 43 ff 86 bd ae 3a 0f be ae c1 20 be 37 33 1c be
       -0.06591656 -0.13987228 -0.15698883 -0.15253912
000020 fe 76 c5 bd b0 89 93 3e 1d 09 5e be aa 46 91 3d
       -0.096418366 0.28815985 -0.21683164 0.07093556
000030 21 41 bf 3d b4 ce e5 bd cc 51 58 3d 5e b8 48 3d
       0.09338594 -0.11221066 0.052812383 0.04900395
000040 5b c4 2b 3e 9b 63 78 3e db 23 d2 3d 47 c0 74 be
       0.16774122 0.24256746 0.10260745 -0.23901473
000050 23 f8 f4 bd 12 9c 2d be 12 71 9b bd 76 df a9 3d
       -0.11961391 -0.16954067 -0.07589926 0.08294575
000060 88 6e 7f 3e 8d df 80 be 98 b0 fd bd 49 56 18 be
       0.24944508 -0.25170556 -0.12387198 -0.14876665
000070 af 04 5a 3e d9 2b e8 3b c7 c4 cf 3d 9f ce 7d be
       0.21290849 0.007085305 0.10144954 -0.24785851
000080 a5 58 02 3d 66 00 68 3e bc f3 42 be 4c da 31 bb
       0.03182282 0.22656402 -0.1903829 -0.0027138172
000090 b1 82 75 be 64 91 ed 3c d3 4d 19 3e c2 5f 76 bc
       -0.23975636 0.028999992 0.14971094 -0.015037479
0000a0 c4 96 60 be 96 7a 42 be 95 58 40 3e e4 ce 6a 3d
       -0.21932513 -0.18992075 0.18783791 0.057326213
0000b0 d1 85 3e be ed 7f 60 be 6f 1d 6f be 39 20 76 3e
       -0.18605734 -0.219238 -0.23351072 0.2403573
0000c0 de f5 25 be c3 b1 c3 3d c1 fe 74 be 93 fe 09 3e
       -0.16207072 0.0955539 -0.23925306 0.13476019
0000d0 17 08 31 3e 9d 57 95 bd d8 1a 6e be d2 e3 23 be
       0.17288242 -0.072921015 -0.23252428 -0.16004875
0000e0 aa 19 49 be c1 80 86 be fc 4c 8d 3e f2 27 bc 3d
       -0.19638696 -0.26270106 0.27597797 0.091873065
0000f0 0e 6b 72 3e b3 7a d2 bd 85 c7 1b 3e f6 16 0e be
       0.2367365 -0.10277309 0.1521283 -0.13875946
000100 27 8f e3 3d 99 a1 80 be 35 be 35 3e ca 1d a9 bd
       0.111112885 -0.2512329 0.1774834 -0.08257635
000110 25 f0 b4 bc b3 1f 22 3e f1 d7 10 3e 26 a4 65 3d
       -0.022087166 0.15832405 0.14144875 0.056064747
000120 1c ff 8a 3e 98 21 75 3e 2e 64 88 3e 64 66 cd bb
       0.27147758 0.23938596 0.2663893 -0.0062683094
000130 5a 57 0c be 00 93 ca 3d d7 2e bb 3d 80 9c 87 3e
       -0.13705197 0.09891319 0.09139793 0.26486588
000140 a2 3d 36 bd 73 22 42 bc c6 e8 71 be 06 40 85 3c
       -0.04449237 -0.011849034 -0.23623952 0.01626588
000150 b4 3d a5 3d 9b 7f 6e 3d 56 25 51 be 16 63 89 3e
       0.080684096 0.058227163 -0.20424399 0.2683341
000160 25 0d b2 bd 6a aa d0 3c 3c 3a 1f 3d d8 3a 64 3e
       -0.08693913 0.025471885 0.038873896 0.22288072
000170 fa 5a 58 be 4c e2 f3 bd d5 92 53 3d ec 7f 9f 3e
       -0.21128455 -0.11908397 0.0516537 0.31152284
000180 31 a8 12 3e 5d 4b 8a 3e fc 58 29 3c 43 70 5e be
       0.14321972 0.27010623 0.010336157 -0.21722512
000190 76 88 34 be 37 3e ec 3d 4a bc 6f 3e 82 b3 33 3e
       -0.1763018 0.11535304 0.2341167 0.17548946
0001a0 68 f9 6c 3e a7 fe 04 be 72 43 12 be b0 36 a3 3d
       0.23142016 -0.12987767 -0.14283541 0.07969415
0001b0 52 ed d5 bd 39 40 d1 bc 2d 03 27 3e 88 cc 54 3e
       -0.10445656 -0.025543319 0.16309805 0.20781147
0001c0 bf 51 95 3e 51 e5 fb 3c 75 2f a8 3d 2f 4d fb bc
       0.2916393 0.030748995 0.08212177 -0.030676452
0001d0 bb f8 5d 3e c0 18 9f bd 3f 37 8c 3d b1 e8 8a bd
       0.21676914 -0.077683926 0.06846475 -0.067826636
0001e0 bd 21 90 3b e1 ba f0 bc 91 c6 00 be 8b 72 cd bd
       0.004398553 -0.029385986 -0.12575747 -0.10031613
0001f0 75 39 5f be 2a 97 86 be e8 31 63 3e 0e 83 b7 bd
       -0.21799262 -0.26287204 0.22187006 -0.089605436
000200 e8 d9 8f 3c c0 22 a8 bd b8 44 25 bd 84 23 0f be
       0.01755996 -0.08209753 -0.04034874 -0.13978392
000210 ca 5c 64 3b f8 69 8f 3d ec 3e 0f 3e 06 50 dc bd
       0.0034845346 0.07002634 0.13988847 -0.10757451
000220 ea 82 38 be 77 90 c2 bc 1c b0 a0 3d 60 95 4b 3e
       -0.1801869 -0.023750527 0.0784609 0.19881201
000230 9d 55 a6 3d d1 b5 78 3d 25 39 2a 3d a2 e0 83 3e
       0.08121798 0.06072027 0.041558404 0.2575732
000240 64 59 65 bd 69 28 7f bc 3f 8b 5c be ea 0d 3e be
       -0.055993453 -0.015573599 -0.21537493 -0.18559995
000250 15 15 79 bd 81 f8 af 3b b6 a4 c6 bd be 33 7e 3e
       -0.06081112 0.0053702 -0.09699385 0.24824426
000260 a3 97 ff 3d 55 78 8f 3e e5 45 ee 3d de de 3a be
       0.12480094 0.28021494 0.11634425 -0.1824908
000270 ad 27 f8 3d 6c 0b ce 3d b5 5b 69 3e a1 b5 88 3e
       0.121169426 0.10060772 0.2278889 0.26701072
000280 58 0b 28 3e be f7 e0 3d ed 5a 3e be 6e 4a 56 3e
       0.16410577 0.10984753 -0.18589373 0.2092683
000290 44 09 92 3e d6 ad 04 3e 18 00 fd 3d 94 81 6d be
       0.28522694 0.12956938 0.123535335 -0.23193961
0002a0 e8 fd 16 3e ef e8 ee bc f4 93 5c 3d 69 10 2f 3e
       0.14745295 -0.029163806 0.053852037 0.17096104
0002b0 95 db 79 bd 82 03 43 be f2 fc 55 be fe db 1a 3e
       -0.061000425 -0.19044307 -0.20897272 0.15122983
0002c0 65 89 00 3e 59 85 8b 3e df 36 36 bc 30 59 3a be
       0.12552412 0.27250174 -0.011121481 -0.18198085
0002d0 74 47 3d be fb 12 18 bb 66 d1 f0 3d 5a f1 cf bd
       -0.18484288 -0.0023204673 0.117586896 -0.10153456
0002e0 a5 2c 31 3c 12 37 90 bb 3b bc 04 be c4 47 52 3e
       0.010813867 -0.004401096 -0.12962429 0.20535189
0002f0 7a 10 65 bd eb e8 44 3e 63 57 6b be a9 ec 6c be
       -0.055923916 0.19229476 -0.22982554 -0.23137154
000300 5e fc fa 3d 55 7f b4 bd ca ea 51 be 1c a1 76 3e
       0.122551665 -0.08813349 -0.20499721 0.24084896
000310 c5 82 61 be 2f 79 52 bd a6 f9 30 bd 29 72 74 3e
       -0.22022541 -0.0513851 -0.043206833 0.23871674
000320 84 ad 80 be ca 93 27 3e 4e 2b a8 bd 4a f4 1b 3e
       -0.25132382 0.16364971 -0.08211385 0.15229908
000330 ff 60 67 3e b2 97 6a 3e bd ba 8a be a9 f8 20 3d
       0.22595595 0.2290943 -0.27095595 0.03929964
000340 6b 68 63 3d ec c0 be bd cf 2a 53 3e 7c c0 0f be
       0.055519503 -0.09314141 0.20621799 -0.1403827
000350 cd 58 5b 3e 8f 20 62 be 6f 3d 80 3e dc d3 09 3e
       0.21420594 -0.22082733 0.2504687 0.13459724
000360 a2 e3 56 3e 2b 79 0a be 72 75 b1 bd 98 92 29 bd
       0.20985273 -0.13522784 -0.08664979 -0.04139957
000370 02 7d 1e 3e 77 13 80 3e 5d 75 93 bd 22 dd 3d 3e
       0.15477374 0.2501485 -0.0720012 0.18541387
000380 99 9f 1d be 81 3c a8 3d a2 6c 84 3e f8 62 f4 3d
       -0.15392913 0.08214665 0.2586413 0.11932939
000390 1a de 02 3e 6e a3 d9 bd 38 d8 41 be 3d b1 df bd
       0.12780038 -0.10626875 -0.18930137 -0.109224774
0003a0 47 9b 8d bd ce b9 33 be b9 1d 3e 3d 6f 28 6d 3e
       -0.069143824 -0.17551348 0.046415064 0.23159955
0003b0 a5 a3 80 bd 37 d8 8e bc d3 cf 47 3e 2e d5 63 be
       -0.06281213 -0.017437084 0.19512872 -0.2224929
0003c0 bd 4b 2e 3e 69 a8 5d be bf de bb bd 67 20 9f bd
       0.1702108 -0.21646275 -0.09173345 -0.07769852
0003d0 29 e2 0e 3e c3 5f cc 3d 31 b7 af bd d6 55 58 3e
       0.13953461 0.099792026 -0.08579863 0.21126494
0003e0 34 dc 51 be 39 5a 6d be a2 da cb 3d 0e 15 89 3e
       -0.20494157 -0.23178948 0.0995381 0.26773876
0003f0 ab 04 96 bc 83 b1 d1 bd 2a 4d 80 bd 49 cd 2c 3e
       -0.018312773 -0.10238936 -0.06264718 0.16875185

linear_layer1.bias f4 [9]
000000 08 a0 8e be 3b 2b 99 3f a4 e7 a1 3f 70 cb 05 be
       -0.2785647 1.1966318 1.2648816 -0.13065886
000010 21 aa 78 3f 54 a5 49 bd 12 a7 0c 40 b2 81 eb 3d
       0.97134596 -0.049229935 2.1976972 0.11499347
000020 8f 62 a5 3f
       1.2920703

linear_layer2.weight f4 [2016, 5]
000000 d9 7e 30 3d f4 36 88 bc dc d1 f2 bc 2a c9 cb 3c
       0.04308972 -0.016627766 -0.029641084 0.024876196
000010 c2 fd c5 3b 1e b1 c8 3c 5f 8e ac 3c 6f 58 33 bd
       0.006042213 0.024498519 0.021063982 -0.04378551
000020 a0 2d 19 bd dd e2 4f 3d a7 a5 8a bd 9d 82 fb bc
       -0.037397027 0.050753463 -0.06769877 -0.03070193
000030 33 dd 48 3d 40 d5 79 3e e4 5d 80 bc 4f 19 cf 3c
       0.049039077 0.24397755 -0.01566977 0.025280623
000040 d7 cb 1c 3d 05 e1 b4 3c 77 57 06 3c 1b c4 e9 3c
       0.038280334 0.022079954 0.008199564 0.028535893
000050 db f7 9a bc 3a ec da b9 9c 34 01 bd bf 0a 37 3e
       -0.018917015 -0.00041756203 -0.031544313 0.17875193
000060 f6 54 d7 bd 27 d2 92 bc 83 fb cf bb 54 d8 2f 3d
       -0.10514252 -0.017922474 -0.006347121 0.042930916
000070 7b a9 8f 3e b9 d5 f0 bc 8c 14 5f 3b f6 11 0c bd
       0.2805899 -0.029398786 0.0034039347 -0.034196816
000080 22 88 5e 3d 1c cc 22 bc 67 ef 35 bb 33 48 87 bb
       0.054329045 -0.009936359 -0.0027761103 -0.00412848
000090 76 ec 58 bd 3d 1f 21 3d b4 43 97 3e b0 74 ca bc
       -0.05295988 0.03933643 0.2954384 -0.024713844
0000a0 89 cb 81 bd f7 36 9d 3c f2 c8 03 3d 6d e5 15 3e
       -0.063376494 0.019191248 0.03217406 0.146383
0000b0 1e b8 3f 3b 0a b1 44 bc 17 7c 06 3d 78 0e 28 3d
       0.002925403 -0.0120051 0.032833185 0.041029423
0000c0 6b a1 bf 3d a2 bb 9d bc 48 20 92 3d 51 71 1f 3c
       0.0935696 -0.01925451 0.071350634 0.009731607
0000d0 39 12 92 3c a0 e0 cb bd 3a db 8d 3d dd c7 57 3d
       0.017830955 -0.09954953 0.0692658 0.05268084
0000e0 e5 e8 16 3d cc 4b 3d 3b 2c ec d2 bd 89 91 60 bc
       0.0368432 0.002888429 -0.102989525 -0.013706573
0000f0 fd dd 33 3c 22 c7 d9 bc 48 cd 07 3d 7d ce b4 3d
       0.010978219 -0.026584212 0.033154756 0.08828447
000100 9f 29 87 bd 12 25 92 bd 05 a0 13 bc dc 0e 41 3d
       -0.065997355 -0.07135977 -0.00901032 0.04713331
000110 1f 05 eb 3d 6a 87 35 bc 69 47 57 bd 44 b7 29 3d
       0.11475586 -0.0110796485 -0.052558336 0.04143454
000120 18 a9 30 bc 11 9b 94 bb 32 a6 22 3d 4e 5a a5 bd
       -0.010782503 -0.004535087 0.039709277 -0.08073865
000130 28 b9 90 bc d2 86 53 bb d0 a6 dd 3d 5f 09 a4 bd
       -0.017666414 -0.0032276404 0.108228326 -0.080096
000140 07 2d 0a bc 7f 50 73 bb fb eb d7 3c 73 11 8b 3d
       -0.008433587 -0.0037126837 0.026357641 0.067904375
000150 99 5d 26 3d 81 4b 01 bd 7b 38 cc 3b b8 4d f8 3c
       0.040616605 -0.031566147 0.006232319 0.030310497
000160 64 e4 81 3e d8 a1 be bd 65 08 1d 3d 50 37 90 3b
       0.2536956 -0.09308213 0.038338084 0.004401125
000170 80 b9 cf bb a4 02 bf 3d d5 2a 67 bd ae d2 f2 bc
       -0.006339252 0.093266755 -0.056437332 -0.029641476
000180 3c 36 4b 3d f8 1a 7b 3b 3d 79 88 3d 45 d7 14 bd
       0.04961227 0.0038315635 0.06663749 -0.03633811
000190 33 51 28 bd 18 f8 2b 3d de 55 16 bb 98 a6 57 3e
       -0.041093063 0.041984648 -0.0022939364 0.21059644
0001a0 03 00 3c bd c4 d5 90 bc d2 46 ca 3c 64 33 64 3b
       -0.04589845 -0.017680056 0.024691973 0.003482067
0001b0 26 06 5c 3e 4c b5 85 bd 8c e7 59 bc 5d 2f 4b bd
       0.2148672 -0.0652872 -0.013299834 -0.049605716
0001c0 cf 4b 10 3d c1 48 0a 3e a3 f1 dc 3c c5 12 da bd
       0.035228547 0.13504316 0.02697069 -0.10648111
0001d0 fe 34 89 bd af 40 46 3d ff 3d 7a 3e 65 d5 65 bc
       -0.066995606 0.04840153 0.24437712 -0.014027928
0001e0 e4 bf 37 3d 2c ce 43 3d e3 a2 0b 3d e5 5a f1 bc
       0.044860736 0.047804043 0.034090888 -0.029462287
0001f0 d5 38 0e bd c4 b3 8e bc f5 aa 2b 3d 4a c0 5f 3c
       -0.034722168 -0.017419703 0.041911084 0.013656685
000200 15 07 14 3e 5a 10 9b bb bc 90 61 bd 29 42 e3 bc
       0.14455827 -0.004732174 -0.05506967 -0.027741509
000210 b5 b5 33 3b 9f 00 0a 3e 6b 05 7e bd 73 40 b0 bb
       0.0027421538 0.134768 -0.062016886 -0.0053787767
000220 b5 e3 18 bd 64 16 97 b9 83 b9 c7 3d 18 e4 f8 3c
       -0.037326533 -0.00028817647 0.097521804 0.030382201
000230 a5 8c 2c bd 3a 5e 8e bc 6e b8 06 bd 42 15 5e 3d
       -0.042126317 -0.017378915 -0.03289073 0.05421949
000240 bd 98 28 bd 24 68 79 bd 7b 5a d1 bc 4d 16 ad bc
       -0.041161288 -0.060890332 -0.02555584 -0.021128798
000250 5e 80 a2 3e ac e6 2c bd 18 72 bb bb 2b 0a 3b bd
       0.3173856 -0.042212173 -0.005720388 -0.045663994
000260 b4 78 4a bd a3 6b 96 bc b0 d9 40 3d c8 e2 d0 bc
       -0.049431518 -0.018361872 0.047082603 -0.025498763
000270 8e 5e 3f bd a9 14 0a 3c be 6a 2a 3c a4 ea d9 3c
       -0.046721034 0.008427777 0.010401426 0.026601143
000280 a7 7e 28 3c 35 82 15 3d b3 89 52 bd 76 fe bf bd
       0.0102841025 0.03650113 -0.05140085 -0.093747064
000290 f9 19 58 3d e9 c7 41 bd 03 e1 88 3c c0 77 d1 3c
       0.052759144 -0.04730979 0.016708856 0.025569797
0002a0 3e 3e 16 3e 06 f9 fb bc 44 f9 e3 bc 4c c8 64 bc
       0.14672181 -0.030758392 -0.02782882 -0.01396377
0002b0 70 e5 86 bb 88 fe 67 3c d4 fb 54 bd b0 a3 3c 3d
       -0.0041167066 0.014159806 -0.051997975 0.046054542
0002c0 54 6b 8e bc 0c d1 8d 3b ef 13 23 be 8a cb 60 3d
       -0.017385162 0.004327899 -0.15925573 0.05488161
0002d0 12 64 3b 3c be 79 32 3d d6 be 46 bd 2b 6f 06 be
       0.011437433 0.043573134 -0.04852184 -0.13128345
0002e0 b0 bd c6 3b 89 92 96 3d 38 be 4e bc 85 d8 84 bc
       0.006065093 0.07352168 -0.012618594 -0.016216526
0002f0 bf d1 31 be e0 cc 07 3d 9a a0 12 bd 8a 5a 1c 3d
       -0.17365168 0.03315437 -0.035797693 0.038172282
000300 50 0a 88 3b 50 5d 50 bb 61 35 29 bd e9 b3 06 3d
       0.00415162 -0.00317939 -0.04131067 0.03288642
000310 43 51 64 bd 7a 72 1e 3d 6d 8e dc 3c 84 b7 3f bd
       -0.05574156 0.038683392 0.026923383 -0.046805874
000320 f5 18 08 bd 97 ba 87 3c 8b 73 8c 3c 19 ef 2b bd
       -0.033226926 0.016568465 0.017144939 -0.04197607
000330 4a 59 9d bb 3b 09 7e 3d 1d 0a 10 bd 7f b8 c7 bc
       -0.004801904 0.06202052 -0.035165895 -0.024379967
000340 01 95 df bd 0a 0a 69 3d 42 5b 33 3d 32 6e 07 3d
       -0.10917092 0.05689434 0.043788202 0.033064075
000350 59 0f 1c bd fe 3a 54 3c fd 6c 56 3d 97 f5 67 3a
       -0.038100574 0.012953518 0.052350033 0.00088485464
000360 08 e4 c9 3c b4 b6 39 bd 3e 25 4f bc 86 ce c1 bc
       0.024644867 -0.045340255 -0.012643157 -0.023658048
000370 1f 98 b5 3d b7 09 bd bc 86 1c db 3c 8b 36 3f be
       0.088669054 -0.023075921 0.026747 -0.1867315
000380 30 b2 84 3c 02 59 1a bd 06 56 2d 3d d9 f1 6b bc
       0.016198248 -0.03768254 0.042318366 -0.014400923
000390 00 cc 85 3b 0f 33 11 bd 16 80 86 bc 10 18 d7 3b
       0.0040831566 -0.035449084 -0.016418498 0.006564148
0003a0 5a 2e 30 3d a6 d8 54 bd ba a2 b5 bc a8 5a 39 3d
       0.043012954 -0.051964425 -0.02217232 0.045252472
0003b0 a0 78 16 bd c6 9e 2f 3d e0 d8 32 bd 4a 6d 4f bd
       -0.03673613 0.042876028 -0.04366386 -0.050641336
0003c0 31 8e 6a bc 85 5c ce bc 62 71 00 3d e3 58 00 3e
       -0.014316128 -0.025190601 0.03135813 0.12533908
0003d0 9c 9b 12 bd 3a 8a 81 bd 78 dc 02 3b d7 fa 1d bd
       -0.035792932 -0.06325193 0.0019967835 -0.038569298
0003e0 29 60 08 3e 4c 21 17 bd 9c 51 94 bd 1b 7b 23 bd
       0.13317932 -0.03689699 -0.07242128 -0.039912324
0003f0 b8 b7 06 bd fe bf bd 3d f9 ed 55 bc 0e 1b 59 3d
       -0.03289005 0.09265135 -0.013057225 0.053004317

linear_layer2.bias f4 [2016]
000000 b1 38 46 bd 9d 5b 11 bf 36 aa b6 3f f3 fa c9 3e
       -0.04839391 -0.56780416 1.4270694 0.39449272
000010 2c 4c 22 3f b6 ab d6 3f 5b ae 54 bf 5a 31 ca 3f
       0.6339748 1.6771152 -0.83078545 1.5796311
000020 06 10 e1 3e 19 0f 89 be ea fe 95 bf e0 45 bb bf
       0.43957537 -0.2676933 -1.1718419 -1.4630699
000030 7b 11 59 3e be de ee 3d 23 8d 0c 3d 0d 0f 46 bd
       0.21198075 0.116635785 0.034314286 -0.048354197
000040 a4 86 2b 3d 04 83 c8 3f d7 d0 5e 3e d5 fe 37 3e
       0.04187645 1.5664983 0.21759354 0.17968304
000050 c2 91 62 3f ed 03 ef 3e 03 17 bc bb 16 50 2b 3f
       0.8850366 0.46682683 -0.005740048 0.66919076
000060 bf 5e 22 bf bc 9b 70 3e 9b ed 00 be dd 22 de be
       -0.6342582 0.23496908 -0.1259064 -0.43385974
000070 70 46 cd 3e 78 70 ab 3f 42 0c fa be b9 37 4f 3d
       0.40092802 1.3393698 -0.48837477 0.05059025
000080 69 0b f5 bf 33 4a 52 3f bb df 3b bf e0 c2 68 bf
       -1.9144107 0.8214447 -0.7338826 -0.90922356
000090 fc 61 64 bf ac c3 30 bf 16 76 82 3f 31 e8 90 3d
       -0.8921201 -0.6904857 1.0192287 0.07075537
0000a0 be 52 02 be e8 6c 74 bf 16 a1 5f bc cc 2b 6f 3e
       -0.12726876 -0.9547868 -0.013649246 0.23356551
0000b0 51 00 96 bf 70 98 93 3c e0 b9 00 bf fc db 92 bf
       -1.1718847 0.018017024 -0.5028362 -1.1473384
0000c0 b3 0e 57 3f 45 aa 9f 3f 5c ca c8 3e b0 82 81 3e
       0.84006804 1.2473837 0.39216888 0.2529502
0000d0 2d 44 c2 bf 15 82 c3 3f 8c 6c aa bf a7 b2 43 bf
       -1.5177056 1.5274073 -1.3314376 -0.76444477
0000e0 5f 5e d2 3f 03 e8 9c 3e 19 3e c6 3e 06 91 ea be
       1.643505 0.3064576 0.38719252 -0.4581377
0000f0 f8 4b 33 3f db 2a 33 bf 2a 02 37 bf 90 f5 16 be
       0.70037794 -0.6998727 -0.7148768 -0.14742112
000100 19 f2 a5 be 19 56 72 be 3d 31 f8 be 95 60 a1 bf
       -0.32411268 -0.23665656 -0.48475066 -1.26076
000110 d7 d4 98 3d e6 07 f0 3e 25 cf bd bf 0f 15 0a 3f
       0.07462471 0.46881026 -1.482884 0.5393838
000120 43 11 99 bd 48 b1 85 be 22 f1 ad 3f 1b 4b 6e be
       -0.074739955 -0.26111817 1.3589213 -0.23270838
000130 fe 19 b5 be c5 c5 90 3e 3a 6f d6 be 5b ac 62 3e
       -0.35371393 0.28275886 -0.41881734 0.22136061
000140 74 59 09 3f 7b e1 16 be 89 d3 35 3f 10 3f 94 3f
       0.5365212 -0.14734451 0.710259 1.1581745
000150 a5 e4 58 be f2 f7 b5 be 0f d1 a5 3f 38 45 05 3f
       -0.21180971 -0.3554073 1.2954425 0.52058744
000160 46 3e 5b bf 53 2e 67 bf a9 46 49 bf 23 a3 27 3f
       -0.85641897 -0.9030506 -0.78623444 0.654833
000170 dc c3 4a bf 5d 33 8b 3e 63 c9 29 bf 6c 82 72 bf
       -0.7920511 0.27187625 -0.66322917 -0.9473026
000180 64 f0 34 3e f0 dd 2e 3f 7b 04 23 3f f9 65 7b 3f
       0.17669827 0.683074 0.6367871 0.9820247
000190 48 9b a4 3e c9 f2 84 3e 34 2a f3 bd 4c 63 2e bf
       0.3214972 0.2596648 -0.11873284 -0.68120265
0001a0 00 e3 01 bf 06 77 89 bf 3c fc 9f bb bd 8e 3c 3f
       -0.50737 -1.0739448 -0.0048823636 0.736553
0001b0 a2 66 fb 3f ce b2 36 bf 43 05 00 c0 31 40 b6 be
       1.9640696 -0.71366584 -2.0003211 -0.3559585
0001c0 a9 3e 8a 3f b6 e2 c5 bd e7 8f 9a bf 2e 36 30 3f
       1.0800372 -0.09662382 -1.2075166 0.6883267
0001d0 be f9 08 bf 08 79 9f bf bd 15 86 be 13 72 b2 3f
       -0.53506076 -1.2458811 -0.2618846 1.3941063
0001e0 63 00 38 bf d0 e2 f0 3d da 95 4b be 13 18 b9 be
       -0.7187559 0.11762011 -0.19881383 -0.3615118
0001f0 00 72 ab bf 22 27 3e 3f b2 29 a7 3f 95 ef 00 3f
       -1.3394165 0.7427846 1.3059599 0.50365573
000200 65 19 9d bd 7b 38 71 bf 57 91 9d 3f fc 0d 23 3f
       -0.07670859 -0.9422681 1.2309979 0.63693213
000210 35 3d 41 bf 97 04 08 be 5d f2 32 40 7a d0 42 bf
       -0.7548402 -0.13283001 2.7960427 -0.7609936
000220 8f a0 6d 3f 90 c8 8a bf 76 fa f4 be 9e c0 d3 be
       0.9282312 -1.0842457 -0.47847337 -0.41357893
000230 ab 78 e7 be 98 b2 7c bd c2 c3 70 bf c2 07 cc 3e
       -0.4520925 -0.061693758 -0.940487 0.3984967
000240 8b 73 9f bf eb ea 40 3f 44 bd 29 3a 08 41 fd be
       -1.2457136 0.75358456 0.0006475041 -0.49463677
000250 cc e5 f8 bf 0c e6 c2 3f 3f b0 ef 3f 67 65 23 bf
       -1.9445128 1.5226455 1.8725661 -0.638266
000260 25 39 62 3d be 5e 42 3f 51 19 05 bf c1 26 97 be
       0.05523028 0.75925815 -0.51991755 -0.29521754
000270 55 fe d5 be 21 17 cf be 65 ad bd be f3 a3 6b 3e
       -0.41795602 -0.40447333 -0.37046352 0.2301176
000280 4f 55 ac 3e 7c 87 3a 3e 72 bf 19 be 33 7c 7e bf
       0.33658835 0.18215746 -0.15014437 -0.9940826
000290 36 75 27 bf 96 da b2 3e 38 d9 61 3e f6 0a 62 3f
       -0.65413225 0.34932393 0.22055519 0.88297975
0002a0 98 fd 8a bf 21 26 6e 3f 05 86 32 bf ce c0 6f 3f
       -1.0858641 0.9302693 -0.6973575 0.9365357
0002b0 1d c6 a7 3f 7a 3c 16 3e 17 51 26 3f 07 79 d2 bc
       1.3107334 0.14671507 0.64967483 -0.025692476
0002c0 36 ff 2b 3f 04 02 9d 3c c9 49 02 40 22 81 c4 3f
       0.67186296 0.019166 2.0357535 1.5351908
0002d0 fe e3 cd 3f de 6a f7 3f 11 22 9f be be 2d cf bf
       1.6085203 1.9329488 -0.31080678 -1.6185834
0002e0 8c 40 38 3e c9 79 1d 3f 9b 31 c9 bc 28 61 1a 3e
       0.17993373 0.61513954 -0.024559787 0.15076125
0002f0 f9 ea e4 3f 7b 05 75 ba 14 12 33 3e f3 b7 8d 3f
       1.7884208 -0.0009346825 0.17487365 1.1071762
000300 cf 1b cc 3e 65 ef 8d 3f 2d b5 01 40 c2 13 e4 3e
       0.39864966 1.1088682 2.026683 0.44546324
000310 11 b3 08 bf c5 db 40 3e 3f 7f c2 be bc 81 e8 3e
       -0.53398234 0.18833835 -0.37987706 0.4541148
000320 8a 9b 09 bf 76 92 d6 bd 6b af 78 bf e1 21 17 be
       -0.5375296 -0.10477154 -0.97142667 -0.14759018
000330 47 0e 0b bf 93 f7 65 bd a5 ce 54 be 3b fd 73 bf
       -0.5431866 -0.05614431 -0.20781954 -0.95308274
000340 0e e0 6b 3f f8 a2 ae bf 8a 59 c0 be 89 83 37 3f
       0.92138755 -1.3643484 -0.37568313 0.7168508
000350 5b a9 7c 3f 59 01 35 3f fb f0 d9 3f d9 c6 a0 bf
       0.98695916 0.7070518 1.7026666 -1.2560683
000360 f3 07 ee 3f d7 be ef 3e 9a e6 ce bf 02 98 de be
       1.8596176 0.46825287 -1.6164124 -0.43475348
000370 e9 1b 95 3f c6 88 0d 3f dd 0a 40 bf 9e 56 06 3f
       1.1649143 0.55286825 -0.75016576 0.5247592
000380 be 32 8b 3e c2 79 20 be b0 8f 58 3e fb ed 40 3f
       0.2718715 -0.15671447 0.21148562 0.7536313
000390 ff 38 df 3e fe 38 c0 bf 69 18 0e 3e f8 26 6b 3e
       0.43598172 -1.5017393 0.13876499 0.22964084
0003a0 a5 73 39 bf 7d 0e 2e 3e 76 ca 77 bf e4 b5 a9 be
       -0.72442085 0.16997714 -0.96793306 -0.33146584
0003b0 64 a3 ac 3f 7a e6 32 3f 43 f8 49 bf 5c 71 77 bf
       1.3487363 0.6988293 -0.7889444 -0.9665735
0003c0 b9 7f a4 be 08 a7 8e 3f c3 b3 55 bf 24 c7 ac bf
       -0.32128695 1.1144724 -0.8347742 -1.3498273
0003d0 1e f7 c4 3e f0 00 21 bd ef e6 cb bd 96 ed b9 bf
       0.38469785 -0.039307535 -0.099561565 -1.452563
0003e0 4a 79 16 3f ca ee 4e 3e 87 29 16 be ab ae 64 be
       0.5877882 0.20208278 -0.14664279 -0.22332256
0003f0 46 ba 43 bf 61 04 89 3e 9d 8b 90 3f 03 86 47 3f
       -0.76456106 0.26761153 1.1292607 0.7793886
